js_park/best_AF_ND_non.pth (torch, 456015 bytes, 5 tensors)

weight f4 [168, 336]
0	0x3c44da47	0.012014932
1	0x3c7f4a36	0.015581658
2	0xbca32019	-0.019912766
3	0x3d442e30	0.04789561
4	0xbd43e43d	-0.047825087
5	0xbbac16c2	-0.0052517364
6	0x3d18457a	0.037175633
7	0xbbf96ddd	-0.0076119737
8	0xbd57d5dc	-0.052694187
9	0x3cf858dd	0.03031581
10	0xbc8f7e7d	-0.017516369
11	0x3ce15830	0.027507871
12	0xbcc06cea	-0.023489434
13	0x3d09ace6	0.033612154
14	0xbd1b0e62	-0.037855513
15	0xbd0bf3be	-0.034167998
16	0xbc4eb4bb	-0.012616332
17	0x3c4fa964	0.012674663
18	0x3c13fcf1	0.009032474
19	0x3cc1712e	0.023613539
20	0x3c2b09ed	0.010439378
21	0xbd2e283a	-0.04251883
22	0xb93ba374	-0.00017894601
23	0x3d139c84	0.036037937
24	0xbc897989	-0.016781585
25	0x3d23ca41	0.039987806
26	0xbd0a0d3b	-0.033704024
27	0x3a8024f1	0.0009776634
28	0xbd4ea9b6	-0.050454818
29	0x3ce8afd5	0.028404156
30	0x3c0dd6c5	0.008657162
31	0x3c7cac87	0.015421993
32	0xbd005ce1	-0.031338576
33	0x3c2005cb	0.009767006
34	0xbb1f3ae8	-0.0024296585
35	0x3cc79b82	0.024366144
36	0x3d491f25	0.049101967
37	0xbcf6a082	-0.030105833
38	0xbd2fbab0	-0.04290265
39	0x3d20d933	0.039269637
40	0xbd6bec86	-0.057598613
41	0xbc80641e	-0.01567274
42	0x3d2ffa79	0.04296348
43	0xbbca2ac1	-0.0061696474
44	0xbd277915	-0.040886957
45	0x3cef7920	0.029232562
46	0x3c9cfba5	0.019162962
47	0xbd63f876	-0.055656873
48	0xbcf81afb	-0.030286303
49	0xbca62611	-0.020281823
50	0x3c91147a	0.01770996
51	0xbcfe59d8	-0.0310487
52	0xbc601987	-0.013677961
53	0xbbbf399a	-0.005835724
54	0x3d3cff1c	0.04614173
55	0xbcbf1bdc	-0.023328714
56	0xbb8587ed	-0.0040750415
57	0xbd1222e0	-0.03567779
58	0xbcc3c60b	-0.023898145
59	0xbca388bd	-0.019962663
60	0xbd5cce4d	-0.05390768
61	0xbcf7295c	-0.030171089
62	0xb7cf50e1	-2.4713985e-05
63	0x3d28a6f0	0.04117483
64	0xbd390c94	-0.04517801
65	0xbce122fe	-0.027482506
66	0x3cc64808	0.024204269
67	0x3d11af5d	0.03556763
68	0x3cd081b5	0.025452474
69	0x3c7582f9	0.01498484
70	0xbd5fdcd9	-0.054653976
71	0xbc99eca0	-0.01878959
72	0xbc861989	-0.016369598
73	0xbd1be1a5	-0.03805699
74	0x3b463025	0.0030241099
75	0x3d3a09ea	0.04541961
76	0x3c4e6896	0.012598177
77	0x3b0037e7	0.001956457
78	0xbd30a592	-0.04312665
79	0x3cfc622f	0.030808536
80	0x3c85ec19	0.016347932
81	0xbc28a2d8	-0.010292731
82	0x3d25d6e9	0.040488157
83	0x3a5a8de5	0.0008337184
84	0x3a944fb5	0.0011315258
85	0xbc5c05f8	-0.013429157
86	0x3bc2ecf1	0.005948656
87	0xbcf70fe8	-0.030158952
88	0x3cd42c3b	0.025899997
89	0x3b05fd0b	0.0020445015
90	0xbcacb28e	-0.021081235
91	0x3c297c07	0.010344512
92	0x3cecb5c5	0.028895268
93	0x3c1a19a5	0.009405528
94	0xba8fd0d2	-0.0010972267
95	0xbd26a738	-0.040686816
96	0x3d2cd02c	0.042190716
97	0xbcf4fea1	-0.029906573
98	0xbd567755	-0.052359898
99	0xbbdd722c	-0.006757995
100	0xbc7344f9	-0.014847987
101	0x3d194c92	0.03742654
102	0x3d137c2f	0.036007103
103	0x3cd0e52b	0.0254999
104	0x3cbe20cd	0.023209
105	0x3b935bdc	0.0044970345
106	0x3bc4061c	0.0059821736
107	0xbcd7f51e	-0.026361998
108	0x3cf8d4dd	0.030374939
109	0xbca1f1b6	-0.019768577
110	0xbd09c18b	-0.033631843
111	0xbd6fd7a5	-0.058555264
112	0x3cd13de6	0.02554221
113	0x3b6be9e8	0.0035997573
114	0x3cf508b2	0.029911373
115	0xbca3f943	-0.020016318
116	0xbd469d6a	-0.048489965
117	0x3d0a5a07	0.033777263
118	0x3cb0f9fd	0.021603579
119	0xbd271bc1	-0.040797953
120	0xbd403fbf	-0.046935793
121	0xbd094d7f	-0.03352117
122	0x3d391ee7	0.045195486
123	0xbbc6f94a	-0.006072198
124	0xbd2e9583	-0.042623054
125	0x3cd477eb	0.025936088
126	0xbc93a496	-0.018022817
127	0xbcb41d4f	-0.021986632
128	0x3c01f370	0.007931575
129	0x3bb6a0ab	0.0055733523
130	0xbd05266e	-0.032507353
131	0xbcf0dc18	-0.029401824
132	0xbc96025a	-0.018311668
133	0xbb878a98	-0.0041363947
134	0xbd508a1e	-0.05091297
135	0x3cba4dab	0.022742113
136	0xbd378369	-0.044803057
137	0xbd444df1	-0.047925893
138	0xbcd82728	-0.026385859
139	0xbd1d7d41	-0.03844953
140	0x3c929f65	0.01789827
141	0x3bc8fab1	0.0061334004
142	0x3cd6cb36	0.026219945
143	0xbbc139f9	-0.0058968035
144	0xbc989cf4	-0.018629529
145	0xbb763d94	-0.0037573325
146	0x3c50fd70	0.012755737
147	0xbbfe3085	-0.007757249
148	0xbd0c5a82	-0.034266002
149	0x3ced5bd3	0.02897445
150	0xbd1bda58	-0.038050026
151	0x3b7810ec	0.0037851883
152	0xbad6c856	-0.0016386609
153	0x3d335722	0.04378427
154	0x3c29123d	0.01031929
155	0x3bef83db	0.0073094196
156	0xbd0400ab	-0.0322272
157	0xbd5abb84	-0.053401485
158	0xbc7fb9c2	-0.015608253
159	0x3bbb1851	0.005709686
160	0x3ce3fdd7	0.027831001
161	0xbd57f65f	-0.052725192
162	0x3d1f6387	0.038913276
163	0xbcdcfe54	-0.026976742
164	0xbd07e0f8	-0.03317353
165	0x3d2abb57	0.041682567
166	0x3b826776	0.0039796187
167	0xbca1bb75	-0.019742707
168	0xbd2051cd	-0.03914051
169	0x3ce02343	0.027360564
170	0x3c0a07b0	0.008424684
171	0x3a20125e	0.00061062525
172	0xbccb3d9d	-0.024809653
173	0xbcd28262	-0.025696937
174	0x3c814392	0.01577929
175	0x3d1b5165	0.03791942
176	0x3d483dc6	0.048887037
177	0x3d2a1235	0.04152127
178	0xbc146e81	-0.009059549
179	0x3cf93ca6	0.030424427
180	0xbc59ff6f	-0.013305529
181	0xbcf5a15e	-0.029984172
182	0xbcff9b06	-0.03120185
183	0xbd1f6a05	-0.038919467
184	0x3c9c1704	0.019053943
185	0x3c364282	0.011124255
186	0x3c707200	0.014675617
187	0xbd0ba582	-0.034093387
188	0xbd25d899	-0.040489767
189	0x3c7cdc65	0.0154334055
190	0x3cd1598a	0.02555539
191	0xbd45e5ec	-0.048314974
192	0xbd13b826	-0.03606429
193	0x3caf2d16	0.021383803
194	0x3d08008a	0.03320364
195	0x3cf6092b	0.030033669
196	0x3d11a0b8	0.035553664
197	0xbd299348	-0.041400224
198	0x3ccd3d4c	0.025053643
199	0x3c84ba21	0.016202034
200	0xbcd474c4	-0.025934584
201	0xbcd2419b	-0.025666049
202	0x3bd1e590	0.00640554
203	0xbd6f4e6e	-0.058424406
204	0x3c472977	0.012155882
205	0x3bd4aeda	0.0064905705
206	0x3d2a46a5	0.041571278
207	0xbd6489b9	-0.055795405
208	0x3d3c8ae3	0.04603089
209	0x3d47f51b	0.048817735
210	0xbb3938f6	-0.002826271
211	0x3c31f341	0.010861219
212	0xbbf09e00	-0.007343054
213	0x3c592979	0.013254517
214	0xbc85866e	-0.016299453
215	0x3cf03144	0.029320367
216	0x3c25ced0	0.010120109
217	0x3d12dfea	0.035858072
218	0xbc449e41	-0.012000621
219	0xbc9ada73	-0.018902993
220	0xbd502a0b	-0.050821345
221	0x3d323b62	0.043513663
222	0xbd0da3d2	-0.03458006
223	0xbd09d7d5	-0.0336531
224	0xbd4a43e9	-0.04938117
225	0x3ca8fd21	0.020628514
226	0xbd382a34	-0.044962123
227	0xbcd33696	-0.025782865
228	0xbc0b8b14	-0.0085170455
229	0x3d423ede	0.047423236
230	0xbc2e73aa	-0.010647694
231	0xbd540460	-0.051761985
232	0x3c7f9a31	0.015600727
233	0xbd1f8174	-0.038941815
234	0x3c18a529	0.009316721
235	0xbbc65e12	-0.0060536945
236	0x3cf4d157	0.029884977
237	0x3d105496	0.035236917
238	0x3d2c25d8	0.042028278
239	0x3ba2cdbf	0.0049683745
240	0x3d026f9b	0.031844717
241	0xbd2cc7bb	-0.042182665
242	0xbd25f265	-0.04051437
243	0xbc856a0b	-0.016285917
244	0x3d172ca7	0.03690782
245	0xbcb7cd5a	-0.022436786
246	0xbcfcc12d	-0.030853832
247	0xbb6738e2	-0.0035281708
248	0x3b4c4308	0.0031167883
249	0x3d0d5d86	0.03451302
250	0xbd50b0ae	-0.050949745
251	0x3cd47cb5	0.025938371
252	0x3d32a912	0.04361827
253	0x3adc0a36	0.0016787711
254	0xbc7f4a3c	-0.015581664
255	0xbcce16b0	-0.025157303

bias f4 [168]
0	0x3d97b223	0.07407024
1	0x3ddc0def	0.10744845
2	0x3d5ef59a	0.054433443
3	0x3ceca2fe	0.028886314
4	0x3d5de943	0.054177534
5	0x3d78fc62	0.060787566
6	0x3d8db819	0.069198795
7	0x3dac6c4c	0.084190935
8	0x3d9a02c0	0.07520056
9	0x3dc1d47b	0.094643556
10	0x3db42961	0.08796955
11	0x3d75acad	0.05997913
12	0x3de395f5	0.111125864
13	0x3d360f9c	0.04444848
14	0x3dad361f	0.084575884
15	0x3da3a30b	0.07990082
16	0x3d6666ec	0.056250498
17	0x3ae4774f	0.0017430576
18	0x3d821f56	0.06353633
19	0x3ded9e85	0.11602501
20	0x3d7f940f	0.06239706
21	0x3d85ea50	0.06538832
22	0x3d93791f	0.072008364
23	0x3d87f862	0.06639172
24	0x3ddb69fb	0.107135735
25	0x3de0f216	0.10983674
26	0x3d62c5db	0.05536447
27	0x3dbf3ff3	0.09338369
28	0x3db4a7f2	0.088210955
29	0x3dc9f3e8	0.098609746
30	0x3d95e13f	0.07318353
31	0x3dca940a	0.098915175
32	0x3d99e578	0.07514471
33	0x3d6c211b	0.05764876
34	0x3dc82ee3	0.09774568
35	0x3d0f272b	0.034949463
36	0x3d50c3c2	0.05096794
37	0x3dd0d04c	0.101959795
38	0x3d6ee87b	0.05832718
39	0x3cad75af	0.02117428
40	0x3d13e211	0.036104266
41	0x3d8a2c7f	0.06746768
42	0x3da5283a	0.08064313
43	0x3da732e4	0.081640035
44	0x3ddb401e	0.10705589
45	0x3daa5c51	0.08318389
46	0x3da95eae	0.08270012
47	0x3d33852e	0.043828182
48	0x3d850241	0.064945705
49	0x3d8850d4	0.06656042
50	0x3dc3b644	0.09556249
51	0x3dcda5fa	0.10041423
52	0x3d084eac	0.033278152
53	0x3d612dd8	0.05497536
54	0x3d63688a	0.055519618
55	0x3d664390	0.056216776
56	0x3d4a4413	0.049381327
57	0x3d028044	0.031860605
58	0x3db8c404	0.09021762
59	0x3dbb98e7	0.09160023
60	0x3db5f905	0.08885387
61	0x3db33d0c	0.08751878
62	0x3d608f4d	0.054824162
63	0x3dbbea89	0.091755934
64	0x3d2cf647	0.042227056
65	0x3cff2648	0.031146184
66	0x3d558ad5	0.052134354
67	0x3dded20b	0.10879906
68	0x3d7bc38d	0.06146579
69	0x3dc3948b	0.09549817
70	0x3d4fda64	0.050745383
71	0x3d80151b	0.062540255
72	0x3dac736b	0.08420452
73	0x3db1a43a	0.08673902
74	0x3d8b6c4a	0.06807764
75	0x3d40b318	0.047045797
76	0x3dcda6b5	0.100415625
77	0x3d7715eb	0.060323637
78	0x3dd46fa1	0.10372854
79	0x3d776bf6	0.060405694
80	0x3dab7399	0.08371658
81	0x3d8d1d97	0.068904094
82	0x3c749262	0.0149274785
83	0x3d8b205a	0.0679328
84	0x3d2b9f48	0.04189995
85	0x3d9333e9	0.071876355
86	0x3d49fc88	0.0493131
87	0x3d402ec3	0.046919595
88	0x3dc9b8c4	0.09849694
89	0x3dfbd8af	0.122971885
90	0x3def03ed	0.11670671
91	0x3d6809b3	0.056649875
92	0x3d9766f8	0.073926866
93	0x3d135348	0.035968095
94	0x3d3841a5	0.04498448
95	0x3daab157	0.08334606
96	0x3d1123c0	0.035434484
97	0x3de9f6f7	0.11424058
98	0x3dbc1332	0.09183349
99	0x3d9ab129	0.07553322
100	0x3d6f8a63	0.058481585
101	0x3d8682c2	0.06567909
102	0x3d305957	0.04305395
103	0x3dd98a9c	0.10622141
104	0x3d3314e7	0.043721106
105	0x3d904702	0.07044794
106	0x3d86d728	0.065840065
107	0x3daa07dd	0.08302281
108	0x3db13444	0.08652547
109	0x3d9e3dd7	0.07726639
110	0x3d7e2b35	0.062052924
111	0x3dc9e0a7	0.09857302
112	0x3d1d459b	0.03839646
113	0x3d9de086	0.0770884
114	0x3d6f78d6	0.058464848
115	0x3c8fc6c3	0.017550832
116	0x3d7cd587	0.061727073
117	0x3d8693ae	0.065711364
118	0x3d25531b	0.04036246
119	0x3da22245	0.07916693
120	0x3da65005	0.08120731
121	0x3d97de6b	0.0741547
122	0x3db499cd	0.08818398
123	0x3db8bc22	0.090202585
124	0x3d3ffcda	0.046871997
125	0x3caedcf1	0.021345587
126	0x3da55a16	0.08073823
127	0x3d9fc98f	0.07802116
128	0x3dabe6bf	0.08393621
129	0x3dae2b26	0.08504324
130	0x3d8ef5cb	0.06980475
131	0x3d50ff69	0.051024828
132	0x3c8f3a84	0.017483957
133	0x3da556e2	0.08073212
134	0x3d44932f	0.047991928
135	0x3d59e9fe	0.053201668
136	0x3dc16fab	0.09445127
137	0x3d8e434d	0.0694643
138	0x3cffff7f	0.03124976
139	0x3cee33bd	0.029077405
140	0x3d97a810	0.07405102
141	0x3d7f5100	0.062333107
142	0x3d8a7714	0.067609936
143	0x3d5b2101	0.05349827
144	0x3daaff84	0.08349517
145	0x3da9c6b0	0.0828985
146	0x3db2b146	0.087252185
147	0x3dd52866	0.10408096
148	0x3dbfff0b	0.093748175
149	0x3d990594	0.07471767
150	0x3da092f0	0.07840526
151	0x3d0db3af	0.034595188
152	0x3d965155	0.073397316
153	0x3dbdd03e	0.09268235
154	0x3cb3ce54	0.02194897
155	0x3d8bc88b	0.0682536
156	0x3db8abd6	0.0901715
157	0x3d7f50c4	0.062332883
158	0x3d756af1	0.05991644
159	0x3deaa8a9	0.114579506
160	0x3dcff1f8	0.10153574
161	0x3d2d5370	0.0423159
162	0x3dd013a4	0.10159996
163	0x3d388a52	0.045053788
164	0x3cd4b78a	0.025966424
165	0x3d14c2d2	0.036318608
166	0x3d4d1ab2	0.050074287
167	0x3dc1010e	0.09424029

weight f4 [168, 336]
0	0xbc8adad0	-0.016950041
1	0xbc01aa33	-0.007914114
2	0xbcad57c7	-0.02116002
3	0x3d015f4c	0.031585023
4	0xbcdee797	-0.02721004
5	0xbd03cc4b	-0.03217725
6	0xbbb934fb	-0.0056520677
7	0xbcadbecf	-0.021209149
8	0xbc9066c7	-0.017627133
9	0xbcf97d7b	-0.030455342
10	0xb8f6323b	-0.0001173955
11	0xbba62bf9	-0.00507116
12	0xbc596c00	-0.013270378
13	0xbd32f7bf	-0.0436933
14	0xbd44cd81	-0.048047546
15	0xbd16bbe6	-0.036800288
16	0xbd48e031	-0.04904193
17	0xbcf96598	-0.030443951
18	0xbd0212bb	-0.031756144
19	0xbda64798	-0.08119124
20	0xbd600e32	-0.054701038
21	0xbd1ce9c9	-0.038308892
22	0xbd0de5cb	-0.034642976
23	0xbdc71abb	-0.09721895
24	0xbc1f3b8f	-0.00971879
25	0xbbd945da	-0.0066306414
26	0x3c21a1bf	0.009865223
27	0xbd376bf5	-0.04478069
28	0x3c504614	0.01271202
29	0xbd2332d3	-0.03984339
30	0xbb7f6968	-0.003897274
31	0x3c9452c7	0.018105878
32	0x3d271510	0.04079157
33	0x3d30f083	0.04319812
34	0x3bf36f37	0.0074290293
35	0xbce6cc57	-0.028173609
36	0x3d9e3ea0	0.077267885
37	0x3d397257	0.04527506
38	0xbb6c6e86	-0.003607662
39	0xbc9b9ef1	-0.018996688
40	0x3bc1134a	0.005892192
41	0xb97905c0	-0.00023748633
42	0x3ccd9e3c	0.025099866
43	0x3d5c63ba	0.053806044
44	0xb9d04fb6	-0.0003973224
45	0x3c87c549	0.016573565
46	0xbc99f40f	-0.018793134
47	0x3cb256dd	0.021769935
48	0xbb6df812	-0.0036311192
49	0x3d8b2203	0.067935966
50	0x3c0c842b	0.008576433
51	0x3da9d848	0.082932055
52	0x3d35ebda	0.04441438
53	0x3d2aa3cc	0.041660115
54	0x3d81469c	0.06312296
55	0x3d7f999f	0.062402364
56	0x3d35377e	0.044242375
57	0x3d827185	0.063693084
58	0x3d8dc40f	0.06922161
59	0x3d620345	0.0551789
60	0x3dd2b81f	0.102890246
61	0x3d58f6e8	0.052969843
62	0x3d79fe2e	0.06103342
63	0x3d2eddbb	0.042691927
64	0x3c9752a6	0.018472027
65	0xbc158bf0	-0.009127602
66	0x3cb6afae	0.022300567
67	0x3c63e8e8	0.01391051
68	0x3c964478	0.018343195
69	0xbae3e6ec	-0.0017387546
70	0x3d839327	0.064245515
71	0x3d685faa	0.056731857
72	0x3d66f325	0.056384224
73	0xbbad40c9	-0.005287264
74	0x3caa56b4	0.020793296
75	0x3c65b8b2	0.014021086
76	0x3d38893f	0.045052763
77	0xbc704748	-0.014665432
78	0xbb1266d2	-0.0022339118
79	0xbbb65cfb	-0.0055652834
80	0xbd9fc82e	-0.07801853
81	0x3c316123	0.010826382
82	0x3cfcf3a1	0.03087789
83	0x3d01feb9	0.031737063
84	0x3c649d62	0.013953539
85	0xb9a0a25c	-0.00030638545
86	0x3cdaa783	0.026691204
87	0xbd43b667	-0.047781374
88	0xbcc05e5a	-0.02348249
89	0xbd80abdc	-0.062827796
90	0xbd77c014	-0.060485914
91	0xbd919e68	-0.07110292
92	0xbd88ce0f	-0.066799276
93	0xbd38510b	-0.044999164
94	0xbb7ff95e	-0.0039058547
95	0xbd03febe	-0.032225363
96	0xbd2ec610	-0.042669356
97	0xbb2817ea	-0.002564902
98	0x3bc18af3	0.0059064566
99	0xbc08b791	-0.008344547
100	0xbd6a6257	-0.05722269
101	0xbd470469	-0.04858819
102	0xbd0cc3ce	-0.03436642
103	0xbd6e27d7	-0.058143463
104	0xbd7ecae5	-0.062205214
105	0x3c0979a7	0.008390821
106	0xbd1ff86a	-0.039055265
107	0xbd44db46	-0.048060678
108	0x3c658dea	0.014010886
109	0x3bad2645	0.005284103
110	0x3d11a207	0.035554912
111	0xbcafc83e	-0.021457788
112	0x3c39b74d	0.011335206
113	0x3d2aa284	0.041658893
114	0x3be71cfa	0.007053015
115	0xbcde6c74	-0.027151324
116	0xbd51800f	-0.051147517
117	0xbbac46c0	-0.0052574575
118	0x3d467af2	0.048457094
119	0xbc23a14c	-0.009987187
120	0x3d53f0e2	0.051743396
121	0x3d89b1f6	0.067233965
122	0x3d95a4ed	0.07306848
123	0x3d33bd75	0.043881852
124	0x3cd97c10	0.026548415
125	0x3c87f5a0	0.016596615
126	0x3cab8f33	0.020942306
127	0x3c9c7f5e	0.019103702
128	0x3d6a76ac	0.05724208
129	0x3d81406d	0.06311116
130	0x3da64b7a	0.08119865
131	0x3ca55ef3	0.020186877
132	0x3d144b37	0.036204543
133	0x3cf1f792	0.029536996
134	0x3d230794	0.03980215
135	0xbcaee7ab	-0.021350702
136	0x3d58346e	0.052784376
137	0x3cbf0108	0.023315921
138	0x3d413720	0.047171712
139	0xbcb78bf9	-0.022405611
140	0xbd20027b	-0.039064866
141	0x3c18488c	0.00929464
142	0xbcece0b9	-0.02891575
143	0xbd723022	-0.059127934
144	0xbc6fbf2d	-0.014632982
145	0xbc239b0c	-0.0099856965
146	0xbbef566b	-0.007304003
147	0x3b50f585	0.0031884622
148	0xbd73dc98	-0.059536546
149	0xbc15aa35	-0.009134819
150	0xbd817ac8	-0.06322247
151	0xbd245fe3	-0.040130507
152	0x3b948224	0.0045321155
153	0xbc847fc2	-0.0161742
154	0xbd777cb2	-0.060421653
155	0x3cde8793	0.027164256
156	0xbc861d81	-0.01637149
157	0xbd8f7c3d	-0.070061184
158	0xbd1699d1	-0.036767785
159	0x3d134e2e	0.03596323
160	0x3c7f6a2e	0.01558928
161	0x3d59e589	0.053197417
162	0x3cc05190	0.023476392
163	0xbd562770	-0.052283704
164	0xbd6f8200	-0.058473587
165	0xbd4a5bba	-0.049403884
166	0x3c02506b	0.007953743
167	0x3b4c2ed7	0.0031155848
168	0x3c754d01	0.014971972
169	0xbd2acf5c	-0.04170166
170	0x3d0209c9	0.031747613
171	0xbc657fd3	-0.014007526
172	0xbd214fe0	-0.039382815
173	0x3b28f41e	0.002578027
174	0x3c008a5e	0.007845489
175	0xbda99c8a	-0.082818106
176	0xbc2565fb	-0.010095115
177	0xbbf0ff69	-0.007354666
178	0xbcfa1db4	-0.030531742
179	0xbd623d6f	-0.05523437
180	0xbc416804	-0.011804584
181	0xbcaa5048	-0.020790234
182	0x3c8a06b0	0.016848892
183	0x3d149b7d	0.036281098
184	0xbc366a7c	-0.011133786
185	0xbc174492	-0.009232657
186	0xbc91a628	-0.017779425
187	0xbab1cff1	-0.0013566
188	0xbd12669a	-0.03574238
189	0xbbd6c986	-0.006554785
190	0xbd49d517	-0.049275484
191	0x3b4661ff	0.0030270813
192	0x3c1abbd1	0.009444193
193	0x3caa2b22	0.02077252
194	0x3d005607	0.031332042
195	0x3d654b27	0.055979874
196	0x3cde7672	0.027156089
197	0x3bdd263d	0.006748943
198	0x3cb4c9b4	0.022068836
199	0x3cd0cb33	0.025487518
200	0x3cc28792	0.023746286
201	0x3d92a303	0.07159998
202	0x3dbdc815	0.09266678
203	0x3d574aba	0.0525615
204	0x3d9be5b6	0.07612173
205	0x3deeca35	0.11659662
206	0x3de99be1	0.11406685
207	0x3dfb49ce	0.122699365
208	0x3d70f161	0.058823947
209	0x3d2ff753	0.042960476
210	0x3dcae48b	0.09906872
211	0x3d5a57e8	0.05330649
212	0x3d686d73	0.056745004
213	0x3c4606b9	0.012086564
214	0x3c0835f3	0.008313644
215	0x3d8d114b	0.06888064
216	0x3c8e2fa5	0.017356703
217	0x3d5ef665	0.0544342
218	0x3cba95a1	0.022776427
219	0x3cd8a3cd	0.026445294
220	0x3d22a96a	0.039712347
221	0x3c8b22a7	0.016984297
222	0x3d83ddb4	0.06438771
223	0x3d6e73e6	0.058215998
224	0x3d442763	0.047889125
225	0xbb6f3137	-0.003649784
226	0x3c9c62bf	0.019090055
227	0x3c8ed156	0.017433804
228	0x3c25d34c	0.010121178
229	0x3ba3d9c1	0.0050003235
230	0xbcadc6dc	-0.021212988
231	0x3bd32c2c	0.0064444747
232	0xbcfc6d1b	-0.030813744
233	0x3d4e5150	0.050370514
234	0x3ce2f588	0.027704969
235	0xbd5819b7	-0.0527589
236	0xbdcdb9f0	-0.100452304
237	0xbd0b64a5	-0.03403153
238	0xbde35326	-0.11099844
239	0xbd8ba667	-0.06818848
240	0xbdc6fa65	-0.09715728
241	0xbd57dd7d	-0.052701462
242	0xbd247d11	-0.040158335
243	0xbce5b9c8	-0.028042689
244	0xbd0983b4	-0.033572868
245	0xbd35271e	-0.04422676
246	0xbd78eabd	-0.06077074
247	0xbdbeb001	-0.09310914
248	0xbde57b85	-0.112052
249	0xbdaf5145	-0.08560423
250	0xbddc2097	-0.107484035
251	0xbdaeb977	-0.08531468
252	0xbd6c8194	-0.057740763
253	0xbde6c9e8	-0.11268979
254	0xbd13ea74	-0.036112264
255	0xbd9ef509	-0.077615805

bias f4 [168]
0	0x3d461d04	0.048367515
1	0x3cccd721	0.025004925
2	0x3d6a5ee9	0.05721942
3	0x3dd5618e	0.10418998
4	0x3dab560c	0.083660215
5	0x3d49584a	0.049156465
6	0x3d7eaf8f	0.062179144
7	0x3d538324	0.051638737
8	0x3d8c0931	0.068376906
9	0x3d1470b9	0.036240313
10	0x3d637b76	0.055537663
11	0x3da9b70f	0.08286869
12	0x3ca6e2ba	0.020371784
13	0x3dc05a9e	0.09392284
14	0x3d535984	0.05159904
15	0x3d9b8f15	0.0759565
16	0x3dce02be	0.10059117
17	0x3dce83be	0.100837216
18	0x3db40d45	0.087915935
19	0x3d0f079d	0.03491937
20	0x3db0f673	0.086407565
21	0x3dc22b5e	0.09480928
22	0x3d994b2e	0.074850425
23	0x3d2b0baf	0.04175919
24	0x3d22536e	0.039630346
25	0x3d0b6ddb	0.034040313
26	0x3d693353	0.056933712
27	0x3d715ed9	0.058928344
28	0x3d808d99	0.062770076
29	0x3d48c2ee	0.049014024
30	0x3d9a241e	0.0752642
31	0x3da63ffa	0.08117671
32	0x3d464231	0.04840297
33	0x3dbc1e7f	0.09185504
34	0x3d8fd123	0.070223115
35	0x3db2b7d3	0.08726468
36	0x3daaa6f2	0.083326235
37	0x3d353ece	0.04424935
38	0x3d84af44	0.06478742
39	0x3deec98a	0.11659534
40	0x3dc20f62	0.0947559
41	0x3db924db	0.09040233
42	0x3d4bafc4	0.04972817
43	0x3da00488	0.07813364
44	0x3d559f0e	0.05215364
45	0x3cde1e22	0.027113978
46	0x3d7e9ddf	0.062162276
47	0x3dda6cec	0.106653064
48	0x3d94fc1a	0.07274647
49	0x3d46d63d	0.048544157
50	0x3d9e3ac2	0.07726051
51	0x3cf2ccb1	0.02963862
52	0x3dade9bc	0.08491847
53	0x3dd082bb	0.10181185
54	0x3da732f9	0.08164019
55	0x3d43dfc2	0.047820814
56	0x3da1c95b	0.07899734
57	0x3df3a407	0.1189652
58	0x3d9e37f0	0.07725513
59	0x3d2e4bf0	0.04255289
60	0x3da379d1	0.07982219
61	0x3d6b6982	0.057473667
62	0x3dc611d8	0.09671372
63	0x3d558faf	0.05213898
64	0x3d8d50d2	0.06900181
65	0x3df44591	0.11927331
66	0x3d8c3ca3	0.06847503
67	0x3d073f67	0.03301945
68	0x3dcb78f3	0.099351786
69	0x3d5b2d06	0.053509735
70	0x3debdc3d	0.115166165
71	0x3d910e29	0.07082779
72	0x3d98add6	0.074550316
73	0x3d98c0b0	0.07458627
74	0x3d8c221d	0.06842444
75	0x3dab503b	0.08364912
76	0x3d38a447	0.045078542
77	0x3dd112c7	0.102086596
78	0x3d0e4125	0.034730095
79	0x3d91ede4	0.07125452
80	0x3d7322bb	0.059359293
81	0x3d803ae5	0.06261233
82	0x3dc98e5f	0.09841608
83	0x3daff83c	0.08592269
84	0x3d55a5b2	0.052159972
85	0x3da28bb5	0.07936803
86	0x3d91515e	0.07095598
87	0x3ddcd897	0.10783499
88	0x3d85cd03	0.065332435
89	0x3d11b553	0.035573315
90	0x3c73d960	0.014883369
91	0x3da43fb7	0.08019965
92	0x3d47efa0	0.04881251
93	0x3dce7398	0.100806415
94	0x3dc5a0ed	0.09649835
95	0x3d920bcf	0.071311586
96	0x3dec1d42	0.11529018
97	0x3ce72f32	0.028220747
98	0x3d2830db	0.041062217
99	0x3d82088a	0.06349285
100	0x3daebcc6	0.085320994
101	0x3d444fc6	0.04792764
102	0x3ddb35ac	0.107035965
103	0x3d5a6d9e	0.053327195
104	0x3de81fa6	0.113341615
105	0x3da6d7f4	0.081466585
106	0x3d8863b3	0.06659641
107	0x3db1f661	0.08689571
108	0x3d41d8ae	0.047325782
109	0x3d61be61	0.0551132
110	0x3da9d8df	0.08293318
111	0x3d81a980	0.06331158
112	0x3dd2ac20	0.102867365
113	0x3d3ce5a0	0.046117425
114	0x3dd88542	0.10572292
115	0x3de3d63e	0.11124848
116	0x3d8e14ba	0.06937547
117	0x3d7b821b	0.061403375
118	0x3df0db44	0.117605716
119	0x3daeba84	0.08531669
120	0x3d4ba041	0.049713377
121	0x3daa48c7	0.083146624
122	0x3d126445	0.035740156
123	0x3d396930	0.04526633
124	0x3d25c554	0.04047139
125	0x3dd1d8d7	0.10246437
126	0x3dbb8cfa	0.091577485
127	0x3dc4e1bb	0.09613367
128	0x3d3c7c10	0.046016753
129	0x3cec74e9	0.02886434
130	0x3d846943	0.064653896
131	0x3da2b991	0.0794555
132	0x3dc5caf5	0.096578516
133	0x3db8e922	0.090288416
134	0x3dd5b2fc	0.10434529
135	0x3d9d9dee	0.07696138
136	0x3d8f5f78	0.07000631
137	0x3d41eda8	0.047345787
138	0x3d80fc54	0.06298128
139	0x3db25f8c	0.0870963
140	0x3da73868	0.081650555
141	0x3da75226	0.081699654
142	0x3d8f56ee	0.069990024
143	0x3d9c2128	0.076235116
144	0x3d163387	0.036670234
145	0x3d04eebc	0.032454237
146	0x3d228015	0.03967293
147	0x3d409cc6	0.04702451
148	0x3d414c29	0.047191773
149	0x3d74f0bb	0.05979989
150	0x3d956bfc	0.07295987
151	0x3d9bc7f4	0.076064974
152	0x3d8d069f	0.068860285
153	0x3da30a50	0.07960951
154	0x3dc653f1	0.09683979
155	0x3d8a9a91	0.067677625
156	0x3d861498	0.06546897
157	0x3d536256	0.051607452
158	0x3d39c989	0.045358215
159	0x3ce5ab2f	0.028035728
160	0x3ce8e606	0.028429996
161	0x3db4164e	0.08793317
162	0x3d431be9	0.04763404
163	0x3e00ba08	0.12570965
164	0x3dccd4cf	0.100015275
165	0x3dd150b3	0.1022047
166	0x3d626328	0.055270344
167	0x3d9f2af0	0.077718616

weight f4 [1, 27]
0	0x3db175e0	0.08665061
1	0xbc132d44	-0.00898296
2	0x3c2e86c2	0.010652246
3	0x3bbb427b	0.005714712
4	0xbbab508a	-0.005228107
5	0x3b0e6ce7	0.0021732391
6	0xbbd12747	-0.006382856
7	0x3db98a64	0.09059599
8	0x3e8aa30e	0.27077526
9	0x3dade27e	0.084904656
10	0x3d39a0e2	0.045319445
11	0x3e164a7b	0.1467685
12	0x3e829744	0.25506032
13	0x3e32bc6c	0.1745469
14	0x3e7c6188	0.2464658
15	0x3e2c4a4c	0.16825217
16	0x3e3401f3	0.17578869
17	0x3d493446	0.049122117
18	0x3d8c69c8	0.06856114
19	0x3dc53a85	0.09630302
20	0x3e8403d0	0.2578416
21	0xbbcb4c62	-0.006204174
22	0xbc82d958	-0.015972778
23	0x3d08d72b	0.033408325
24	0x3dd96bb9	0.106162496
25	0x3d9a32c7	0.07529216
26	0xbc922e7d	-0.017844433
