js_park/best_AF.pth (torch, 17559 bytes, 5 tensors)

weight f4 [30, 60]
-0.08860026 0.09239318 0.035550646 -0.06763832 -0.056325275 -0.095256224 0.020009112 0.08712034
0.080355875 0.040729724 -0.057709552 -0.001734541 -0.013061548 -0.06728674 -0.013728656 0.041611485
0.10578376 0.020427272 0.10295204 0.023264233 0.06484669 -0.13969988 -0.12795676 -0.0891291
0.10803204 0.09626313 -0.06040096 -0.059415292 -0.088722974 0.06275768 -0.042686027 0.07483709
0.026927687 -0.055271227 0.019214552 -0.03955141 -0.036944557 0.06097969 0.068447344 0.093612775
-0.036960285 0.013401882 -0.048492704 0.019148456 0.10562808 0.062596686 0.040223625 0.0042164633
-0.0565211 0.00077190704 -0.11861329 0.021033041 0.041099038 -0.07436734 -0.007664433 -0.07436576
-0.047355156 0.07889978 0.06626186 -0.08492216 -0.080666825 -0.07533231 0.044332534 0.09451592
-0.10273192 -0.07927031 -0.0063878614 0.12142697 -0.08302815 -0.044742715 -0.05432265 -0.046525113
0.059871275 0.036619976 0.07159591 -0.06493973 0.07522412 0.055050153 -0.06345976 0.11971607
-0.11127044 0.023320261 -0.022048932 0.013123674 -0.043442383 0.13105318 0.07559433 -0.11053601
0.05030059 -0.056658663 0.05154617 -0.11116806 -0.030329607 0.04074221 -0.05483041 0.117883004
-0.002297718 -0.06166732 0.085287124 -0.01649436 -0.0376554 0.012334578 0.10776616 -0.098281294
-0.11165735 0.013178316 0.10054786 0.10576921 -0.05448724 0.020917106 0.06781687 0.03423908
0.02691881 -0.045999903 0.02868747 0.07254075 -0.07914081 -0.041599568 -0.0785329 0.07098018
-0.046120815 -0.09597209 -0.064430855 0.02977443 -0.08327638 -0.0037637919 0.13335304 0.072470866
-0.07327132 -0.08220394 -0.11329284 0.11854532 0.022025675 0.1164375 0.117886916 0.049834307
0.04441905 0.0034001237 -0.095433086 0.10752155 0.08628186 0.058213405 0.009269757 -0.016765062
-0.018105948 0.0878421 0.09864883 -0.11516414 0.04941011 0.035076577 0.0466559 0.015643124
0.041689415 0.03345783 -0.028725475 0.06733591 0.06779864 -0.0142954 0.061629545 0.061793555
-0.075288266 -0.04602297 -0.012218946 0.095273204 -0.08522709 -0.043923743 0.03559966 -0.09808777
-0.039371893 -0.08233875 0.051379863 -0.0028108403 -0.034951165 0.11704231 0.10027439 0.09758315
0.010240629 0.067961715 0.010617988 -0.0304939 -0.020088783 0.05092277 -0.057663646 -0.022044646
0.0036335767 0.012515402 0.09869825 -0.091571175 0.045971964 -0.10128993 -0.10098758 0.021475986
-0.041235723 0.011449959 0.01857323 0.0062729595 0.026515923 -0.052206077 0.10714199 0.009976046
0.075932324 -0.013859508 0.057786662 -0.117784284 0.02460671 -0.099119745 -0.12244509 -0.11581272
-0.096195094 -0.030353606 0.064354725 0.12440327 -0.031590965 -0.04525561 0.024714235 0.05877019
0.034329552 0.1016748 0.06466063 -0.06265558 -0.046187814 0.008377715 -0.008336826 -0.047905132
-0.1167236 0.053690344 -0.03319978 0.02727179 0.05573709 -0.007913462 0.048052825 -0.13338915
0.09142998 0.11612766 0.11029668 0.07700983 -0.045901213 0.11317443 -0.10978701 0.057226438
0.12350113 -0.07657709 0.002775251 0.086736895 -0.021101175 0.045223378 -0.047349114 -0.045431282
0.12252463 0.007384197 -0.049654324 0.009504121 -0.028352328 -0.03436494 -0.12024703 -0.0022196698
00000000: 0e74 b5bd a338 bd3d 8e9d 113d f685 8abd
00000010: 55b5 66bd b215 c3bd 26ea a33c 266c b23d
00000020: 9f91 a43d 36d4 263d da60 6cbd 8a59 e3ba
00000030: 1a00 56bc a1cd 89bd 28ee 60bc ce70 2a3d
00000040: 28a5 d83d 1857 a73c 85d8 d23d a294 be3c
00000050: 57ce 843d 7c0d 0fbe 1907 03be 5189 b6bd
00000060: e73f dd3d 9b25 c53d ff66 77bd 735d 73bd
00000070: 64b4 b5bd 1987 803d 8bd7 2ebd 3044 993d
00000080: 7497 dc3c 1564 62bd d667 9d3c a900 22bd
00000090: 2d53 17bd d7c5 793d 1f2e 8c3d 0eb8 bf3d
000000a0: ab63 17bd 9193 5b3c 49a0 46bd 39dd 9c3c
000000b0: 8953 d83d b132 803d 87c1 243d 422a 8a3b
000000c0: ab82 67bd ce59 4a3a 86eb f2bd 7c4d ac3c
000000d0: 7757 283d e74d 98bd ed25 fbbb 134d 98bd
000000e0: 7bf7 41bd 3596 a13d 4cb4 873d abeb adbd
000000f0: a634 a5bd d347 9abd 0896 353d 9091 c13d
00000100: 1d65 d2bd 7958 a2bd 4451 d1bb b4ae f83d
00000110: aa0a aabd 2344 37bd 6d81 5ebd 1e91 3ebd
00000120: 953b 753d d4fe 153d e0a0 923d 1fff 84bd
00000130: 1a0f 9a3d 457c 613d 31f7 81bd b32d f53d
00000140: c2e1 e3bd 220a bf3c f69f b4bc ae04 573c
00000150: a4f0 31bd ce32 063e 33d1 9a3d b460 e2bd
00000160: fe07 4e3d ea12 68bd 1422 533d 14ac e3bd
00000170: cc75 f8bc 4ee1 263d da95 60bd a56c f13d
00000180: 5095 16bb df96 7cbd 04ab ae3d 2e1f 87bc
00000190: 8c3c 1abd f816 4a3c 81b4 dc3d b447 c9bd
000001a0: 9cac e4bd dde9 573c 09ec cd3d 879d d83d
000001b0: 032e 5fbd 5a5a ab3c 92e3 8a3d 473e 0c3d
000001c0: d684 dc3c 656a 3cbd fc01 eb3c 3f90 943d
000001d0: 9414 a2bd 4f64 2abd dbd5 a0bd 0e5e 913d
000001e0: 2ee9 3cbd 048d c4bd 53f4 83bd 81e9 f33c
000001f0: cf8c aabd f3a9 76bb b38d 083e 9b6b 943d
00000200: 460f 96bd 8a5a a8bd 1406 e8bd e4c7 f23d
00000210: 306f b43c c976 ee3d b26e f13d 0f1f 4c3d
00000220: c0f0 353d 9cd4 5e3b 6c72 c3bd 4234 dc3d
00000230: 8bb4 b03d 2e71 6e3d 2ee0 173c e256 89bc
00000240: ed52 94bc 8fe6 b33d 6608 ca3d 2ddb ebbd
00000250: 4162 4a3d 75ac 0f3d 421a 3f3d 0226 803c
00000260: 85c2 2a3d 140b 093d b051 ebbc 69e7 893d
00000270: 03da 8a3d 4137 6abc 436f 7c3d 3d1b 7d3d
00000280: bc30 9abd 9582 3cbd f931 48bc 991e c33d
00000290: 8a8b aebd 62e9 33bd f3d0 113d 3ee2 c8bd
000002a0: 6c44 21bd 38a1 a8bd b173 523d 1336 38bb
000002b0: f428 0fbd e1b3 ef3d a95c cd3d add9 c73d
000002c0: 50c8 273c 832f 8b3d 12f7 2d3c 58ce f9bc
000002d0: 3b91 a4bc 6594 503d b730 6cbd f996 b4bc
000002e0: 4d21 6e3b 670d 4d3c 4f22 ca3d ab89 bbbd
000002f0: 194d 3c3d 1871 cfbd 94d2 cebd 68ee af3c
00000300: cae6 28bd 9c98 3b3c e326 983c 668d cd3b
00000310: ec37 d93c 0ad6 55bd 426d db3d 9272 233c
00000320: 6882 9b3d fd12 63bc b5b1 6c3d e338 f1bd
00000330: 0394 c93c 4bff cabd 7ec4 fabd 382f edbd
00000340: ef01 c5bd 20a8 f8bc 69cc 833d 24c7 fe3d
00000350: 8765 01bd f25d 39bd 8275 ca3c 03b9 703d
00000360: 259d 0c3d e13a d03d cb6c 843d 9251 80bd
00000370: 6f2f 3dbd af42 093c 2f97 08bc 2c38 44bd
00000380: c80c efbd 68ea 5b3d 7efc 07bd 1769 df3c
00000390: 934c 643d 77a7 01bc 0ad3 443d 2a97 08be
000003a0: a43f bb3d 57d4 ed3d 3ae3 e13d 54b7 9d3d
000003b0: e902 3cbd ffc7 e73d 03d8 e0bd 4566 6a3d
000003c0: 29ee fc3d 73d4 9cbd fce0 353b 1da3 b13d
000003d0: 5fdc acbc 263c 393d 25f1 41bd 2716 3abd
000003e0: 31ee fa3d 22f7 f13b 5562 4bbd 2cb7 1b3c
000003f0: 2443 e8bc 40c2 0cbd 1344 f6bd e177 11bb

bias f4 [30]
0.20965002 0.07983866 0.050943907 0.18615644 0.036152974 -0.0012172817 0.043414216 0.099792935
0.020085143 0.08033012 0.13567854 0.23722343 0.21898471 0.12256985 0.05880003 0.14230108
0.1483733 0.13061447 0.20414104 0.22914284 0.084146425 0.15143569 0.16088232 0.17939453
0.09781289 0.13458502 0.13896121 0.18300144 0.14254484 0.2211798
00000000: 7fae 563e 7482 a33d 8faa 503d cb9f 3e3e
00000010: 2415 143d 328d 9fba 1bd3 313d 3d60 cc3d
00000020: 9989 a43c 1e84 a43d 51ef 0a3e b3ea 723e
00000030: 873d 603e e705 fb3d 4dd8 703d 60b7 113e
00000040: 2cef 173e cdbf 053e 590a 513e 6ca4 6a3e
00000050: f654 ac3d f511 1b3e 56be 243e 33b3 373e
00000060: 2052 c83d a8d0 093e d94b 0e3e bb64 3b3e
00000070: 46f7 113e f57c 623e

weight f4 [30, 60]
0.17055142 0.028502472 0.17471097 -0.036230367 0.041473843 0.05822206 0.12020191 -0.10176795
-0.018705375 0.081457585 0.07143265 -0.08192469 -0.11665832 -0.11462207 -0.08856074 -0.019925121
-0.027185183 0.06730941 -0.010154349 0.060162026 0.018435694 -0.03396064 0.06462929 0.089028426
0.047386114 -0.022421649 -0.030242337 -0.07545013 -0.0684469 0.01395727 -0.03570346 -0.023307262
0.07534543 -0.047793083 -0.025391966 -0.007819369 -0.15194306 0.048388857 -0.11916745 0.017314445
-0.015382396 -0.039144337 -0.022230038 0.073043525 0.088919014 -0.010959853 0.053242113 -0.015572009
0.10485089 0.047260527 -0.039888762 0.09977474 0.010894222 0.07622256 0.052038673 -0.049581792
-0.048367478 0.0683731 -0.03401281 -0.06565277 0.05516827 0.18694608 -0.022787375 0.008019944
-0.007987014 0.114057824 0.046070468 0.049954828 0.035208147 -0.13812867 -0.073010236 0.03510532
-0.04126633 0.062026653 -0.04672635 -0.15264851 -0.06685976 0.06558269 -0.04256403 -0.07869135
-0.07434165 0.10821137 -0.05019219 -0.0519412 -0.02973232 0.061032474 0.03641596 -0.08157268
-0.04038351 0.13842456 0.055469356 0.09403682 -0.10827342 -0.16122392 -0.16747275 -0.098997176
-0.103041574 0.023407083 -0.079397455 0.014612468 -0.1308713 0.064970635 -0.08989591 0.13015081
-0.06148529 0.07711629 0.047516115 0.13242105 0.0014965497 -0.04307385 -0.07166961 0.046572145
0.079479575 0.13571924 -0.1179944 0.07299387 0.02414455 -0.078806 -0.009277757 -0.11743568
0.07400897 0.13258557 0.1454876 -0.010923289 -0.056415636 0.13738012 -0.09317539 -0.07442267
-0.038025234 -0.11193386 -0.13783632 -0.071304865 0.02328482 0.030949047 -0.048231523 -0.10956715
0.057793222 -0.04749962 -0.026514253 0.060512103 -0.08484089 0.03654497 0.11216751 -0.014515388
-0.07246369 -0.062850736 0.1191456 0.12950663 -0.028858125 0.09718656 0.057855286 0.057383105
0.05074604 0.08993013 0.06307404 -0.07373299 -0.104378805 -0.108994916 0.015954584 0.0060615134
-0.009337993 -0.0051268074 -0.07243535 0.064172335 -0.085108496 -0.0061904653 -0.0530822 0.019606935
0.15775894 0.094361894 0.053910576 0.034987062 0.046089884 -0.061268087 0.024182042 0.12029839
0.101616114 -0.14099924 0.082154654 -0.036912058 -0.09282783 0.07039418 0.0753914 -0.008394159
0.037891153 0.12762494 -0.09948008 -0.026408713 0.053236555 -0.13448595 -0.121738955 0.08714731
-0.13630255 -0.0826638 0.057189677 -0.14420778 -0.075869896 -0.119431145 -0.04851082 -0.11667529
-0.10971577 0.01971643 -0.004336542 -0.08714924 0.11799742 0.054961067 -0.074089475 -0.03181376
0.07704334 -0.043158505 0.08844938 0.026364315 -0.047928814 0.06748792 -0.054762784 0.01684468
0.07145007 0.076370835 -0.13377294 0.06782575 -0.04279528 -0.12355059 0.094193794 0.052365042
-0.12006031 -0.058810025 0.087744616 0.12395769 0.010141429 0.07055362 0.047859136 0.058169927
-0.05916304 0.05934973 0.060217913 -0.071173094 -0.0063521964 -0.08920685 -0.070158154 -0.1181315
-0.029527027 0.061542504 0.018641386 0.11414 0.09234383 0.044579968 0.06062941 0.0913606
0.10168731 0.12739009 0.050005402 -0.04191141 -0.01885475 -0.10746178 -0.0006789149 0.004885078
00000000: 08a5 2e3e 047e e93c 6fe7 323e 4b66 14bd
00000010: 7ae0 293d 417a 6e3d 6b2c f63d b76b d0bd
00000020: 043c 99bc 3cd3 a63d 484b 923d 22c8 a7bd
00000030: 8fea eebd fabe eabd 555f b5bd 023a a3bc
00000040: 76b3 debc 84d9 893d 6d5e 26bc 756c 763d
00000050: 7406 973c 501a 0bbd 5c5c 843d 8954 b63d
00000060: f117 423d 9bad b7bc c7be f7bc 9985 9abd
00000070: e32d 8cbd 09ad 643c cb3d 12bd dfee bebc
00000080: b44e 9a3d aec2 43bd d002 d0bc d01c 00bc
00000090: f696 1bbe 6533 463d 100e f4bd 06d7 8d3c
000000a0: 7206 7cbc d055 20bd c51b b6bc d897 953d
000000b0: 2c1b b63d f590 33bc 6714 5a3d bd21 7fbc
000000c0: 10bc d63d 4194 413d 6662 23bd b356 cc3d
000000d0: ae7d 323c 931a 9c3d 8126 553d 4716 4bbd
000000e0: fa1c 46bd 3207 8c3d 0451 0bbd f674 86bd
000000f0: 20f8 613d cb6e 3f3e 97ac babc 1566 033c
00000100: f7db 02bc 2697 e93d 63b4 3c3d 6f9d 4c3d
00000110: 6b36 103d 9a71 0dbe 6486 95bd 99ca 0f3d
00000120: e206 29bd a90f 7e3d 2164 3fbd e44f 1cbe
00000130: c5ed 88bd 3850 863d 9f57 2ebd ee28 a1bd
00000140: 6f40 98bd ec9d dd3d 5396 4dbd 4cc0 54bd
00000150: 3291 f3bc 30fd 793d e728 153d 940f a7bd
00000160: 2e69 25bd 2bbf 0d3e d633 633d 6096 c03d
00000170: 74be ddbd e217 25be fa7d 2bbe 08bf cabd
00000180: 7607 d3bd 36c0 bf3c 229b a2bd 2269 6f3c
00000190: 2003 06be 530f 853d 591b b8bd 4146 053e
000001a0: 00d8 7bbd 25ef 9d3d 42a0 423d 6299 073e
000001b0: e027 c43a 356e 30bd 84c7 92bd 6fc2 3e3d
000001c0: 30c6 a23d fcf9 0a3e 0ca7 f1bd cf7d 953d
000001d0: cbca c53c 0a65 a1bd bc01 18bc 1e82 f0bd
000001e0: 0492 973d 83c4 073e b4fa 143e 98f7 32bc
000001f0: 1514 67bd 60ad 0c3e bdd2 bebd ea6a 98bd
00000200: 59c0 1bbd 943d e5bd f724 0dbe 4908 92bd
00000210: cfbf be3c db88 fd3c 6b8e 45bd be64 e0bd
00000220: 96b8 6c3d f68e 42bd 6b34 d9bc 8adb 773d
00000230: 0fc1 adbd 2eb0 153d 14b8 e53d f3d1 6dbc
00000240: d867 94bd e3b7 80bd 9c02 f43d 639d 043e
00000250: e067 ecbc bf09 c73d aaf9 6c3d 8c0a 6b3d
00000260: 14db 4f3d 4a2d b83d f62c 813d 5201 97bd
00000270: 8ec4 d5bd ba38 dfbd 30b3 823c a99f c63b
00000280: 62fe 18bc c7fe a7bb fc58 94bd c96c 833d
00000290: 5d4d aebd 63d9 cabb b96c 59bd b99e a03c
000002a0: 8f8b 213e cf40 c13d 56d1 5c3d 984e 0f3d
000002b0: bfc8 3c3d 3ff4 7abd 6b19 c63c 015f f63d
000002c0: 1c1c d03d 1b62 10be b340 a83d 1931 17bd
000002d0: 841c bebd d32a 903d ce66 9a3d a887 09bc
000002e0: c133 1b3d 1db0 023e 36bc cbbd 1657 d8bc
000002f0: 930e 5a3d afb6 09be 4652 f9bd 4a7a b23d
00000300: e592 0bbe a34b a9bd b93f 6a3d 34ab 13be
00000310: ad61 9bbd 5198 f4bd 48b3 46bd 74f3 eebd
00000320: a9b2 e0bd 5a84 a13c 8d19 8ebb 4d7b b2bd
00000330: a2a8 f13d db1e 613d 39bc 97bd 254f 02bd
00000340: e6c8 9d3d f9c6 30bd f324 b53d faf9 d73c
00000350: 0151 44bd 1b37 8a3d f14e 60bd dbfd 893c
00000360: 6a54 923d 5068 9c3d c6fb 08be 3ae8 8a3d
00000370: 1b4a 2fbd 1708 fdbd ade8 c03d ba7c 563d
00000380: 2ee2 f5bd c8e2 70bd 73b3 b33d 88dd fd3d
00000390: 3c28 263c 6b7e 903d f107 443d 9743 6e3d
000003a0: f254 72bd b418 733d 0fa7 763d 33c3 91bd
000003b0: 1626 d0bb 15b2 b6bd 14af 8fbd eeee f1bd
000003c0: aae2 f1bc fe13 7c3d d2b5 983c 3bc2 e93d
000003d0: c31e bd3d 7c99 363d 8b56 783d 441b bb3d
000003e0: 7041 d03d 8c72 023e 77d2 4c3d 4cab 2bbd
000003f0: 4775 9abc ec14 dcbd 35f9 31ba 0113 a03b

bias f4 [30]
0.028953286 0.1585774 0.091944166 0.061275054 0.20090272 0.2385389 0.15550388 0.14625199
0.22373684 0.16897078 0.11493657 0.004666648 0.025845645 0.13056083 0.10214138 0.1050619
0.098955624 0.10811686 0.030011138 0.012289206 0.16009004 0.082158715 0.081673265 0.06189901
0.0914065 0.10693817 0.067975216 0.064290375 0.09766328 0.022207044
00000000: 712f ed3c 1d62 223e 394d bc3d 8dfb 7a3d
00000010: 71b9 4d3e 8b43 743e 693c 1f3e 15c3 153e
00000020: 451b 653e ad06 2d3e dd63 eb3d aeea 983b
00000030: 3fba d33c bdb1 053e 802f d13d b22a d73d
00000040: 3fa9 ca3d 5f6c dd3d ebd9 f53c aa58 493c
00000050: a5ee 233e d442 a83d 5044 a73d d189 7d3d
00000060: 5533 bb3d 6602 db3d 9736 8b3d acaa 833d
00000070: b003 c83d 8ceb b53c

weight f4 [1, 27]
0.12181431 -0.033227324 0.14977969 -0.044770766 -0.017529693 0.17303492 0.28166744 0.09501575
0.117763884 0.050116204 -0.030569091 0.052987456 0.021535823 0.15273522 0.1994618 0.26866353
-0.023696605 0.03747836 0.022685738 0.10149638 0.2525293 0.052313022 -0.04117828 0.16897067
0.085259795 -0.019352397 0.029732391
00000000: c879 f93d 6019 08bd d95f 193e 8d61 37bd
00000010: 6e9a 8fbc 1130 313e b736 903e 9e97 c23d
00000020: 312e f13d a646 4d3d 086c fabc 6009 593d
00000030: e56b b03c 9f66 1c3e b73f 4c3e 448e 893e
00000040: 621f c2bc e982 193d 71d7 b93c 56dd cf3d
00000050: 854b 813e 2e46 563d 8eaa 28bd a606 2d3e
00000060: b09c ae3d eb88 9ebc 5891 f33c
