js_park/best_seq2.pth (torch, 169051 bytes, 13 tensors)

weight_ih_l0 f4 [256, 1]
-0.10189737 0.2266426 -0.2104017 -0.011790704 0.017920488 -0.06092806 -0.041904967 -0.14453764
-0.028846856 -0.02857325 0.08631944 0.59208107 -0.09962196 0.0012983769 -0.046793558 0.08160019
-0.1256624 0.06088883 -0.025999246 -0.24915801 0.20285265 -0.27899253 -0.11232559 -0.10511722
-0.060015593 -0.22991356 0.077641696 0.06636366 -0.4041547 -0.19199345 -0.012591011 -0.14479648
0.10726446 -0.1140708 0.051800985 -0.17345141 0.37020612 0.026433274 -0.038828883 -0.08855549
-0.19635433 0.050640434 0.01549334 0.41944784 -0.08101702 -0.06303116 -0.104193635 -0.27550548
0.117549285 0.049749468 -0.3644581 0.009141821 -0.1390549 -0.025183937 -0.46555093 -0.08906728
-0.079522684 0.1508595 0.40116578 0.08278445 0.27597076 -0.14477165 -0.11646668 0.08007273
-0.042796746 0.2883385 -0.20182666 0.011922128 0.03523632 0.12781742 -0.097382404 0.08618154
0.08794138 0.032862484 -0.004030552 0.712548 -0.030866766 -0.02342696 0.0015602872 0.13994707
0.018968726 0.03564351 0.19206148 -0.2946345 0.20913394 -0.08288756 0.12027788 -0.13396063
0.09204743 -0.30927423 -0.11412261 -0.059395898 -0.4540169 -0.12891914 0.13322915 -0.015643653
0.14301099 -0.123616576 0.00022776093 -0.14220126 0.48137206 0.10410101 0.045211367 0.04440445
-0.23280524 0.15216553 0.06375868 0.4014866 -0.10871858 0.10171088 0.026432153 -0.18058608
0.0442988 -0.12570018 -0.10618172 -0.10746652 -0.058548756 0.10400328 -0.29237372 0.14108373
0.10020743 0.438127 0.41548282 0.1971984 0.44316617 -0.116553284 -0.12556055 0.014478888
-0.09610703 0.02443169 -0.1590315 0.026721375 -0.24730492 0.0036080144 0.14620349 0.22189647
-0.09969929 -0.07287936 0.044170186 -0.718118 -0.034723505 -0.053113174 -0.31770587 -0.18578362
0.041253448 -0.5098549 0.2480881 0.0438784 0.30009344 -0.30430332 0.07455256 0.12656951
-0.34713465 0.18110274 0.06929375 -0.4172867 0.015465358 -0.53162056 0.42399243 -0.0403572
-0.62778324 0.15344861 0.24049756 -0.0014556414 0.6478795 0.12953253 0.007767431 -0.15956868
0.13666983 0.23809366 -0.06306116 0.4934477 -0.0057640756 -0.0012641676 -0.2291183 -0.03521516
0.15499578 -0.2117712 -0.1087767 -0.24980168 0.012484743 0.23922427 0.051091217 -0.04718224
0.35995117 0.40889394 0.5123693 0.47075233 -0.4064115 0.3171728 0.13279127 0.16805875
-0.054674797 -0.577449 -0.063054025 0.06355023 -0.10341144 -0.41169533 0.044035897 -0.033497512
0.120872654 -0.097377665 -0.05140812 0.58153546 0.0037845685 -0.1381649 -0.056435093 0.014028786
-0.018535899 0.08339861 -0.17041472 -0.36171752 -0.19765833 -0.05796144 -0.12415884 -0.24514958
-0.086382136 -0.15673713 -0.07037649 0.2027771 0.287755 -0.2324085 0.126198 -0.022070283
-0.14370498 -0.09604088 -0.1166516 -0.17947729 0.2526062 -0.21085185 -0.022375595 0.06787751
-0.08792596 -0.039360087 -0.05354051 0.17907803 -0.14645505 -0.018905599 -0.18994012 -0.29331267
-0.10185352 -0.23534204 -0.103881694 0.082773685 -0.2943347 -0.04995007 -0.3813393 -0.1154766
-0.054627236 0.08301753 0.3397574 0.032772787 -0.13602869 -0.010159047 -0.06018285 -0.2338966
00000000: 91af d0bd ff14 683e 8b73 57be cc2d 41bc
00000010: fdcd 923c b48f 79bd 8ba4 2bbd ad01 14be
00000020: 3e50 ecbc 7312 eabc 3fc8 b03d a092 173f
00000030: 9906 ccbd 4d2e aa3a 9aaa 3fbd 001e a73d
00000040: a5ad 00be 9166 793d 5ffc d4bc 4723 7fbe
00000050: 9bb8 4f3e 1cd8 8ebe f50a e6bd b247 d7bd
00000060: e9d2 75bd 766e 6bbe 9c02 9f3d ace9 873d
00000070: 5ded cebe ee99 44be 874a 4ebc 8745 14be
00000080: 78ad db3d f49d e9bd 452d 543d 3f9d 31be
00000090: a88b bd3e 988a d83c 090b 1fbd 955c b5bd
000000a0: 1c11 49be 586c 4f3d c7d7 7d3c dec1 d63e
000000b0: 40ec a5bd 7b16 81bd 7963 d5bd 0e0f 8dbe
000000c0: aebd f03d 19c6 4b3d 419a babe 94c7 153c
000000d0: 6864 0ebe 8b4e cebc b15c eebe e868 b6bd
000000e0: cadc a2bd ea7a 1a3e 9a65 cd3e e58a a93d
000000f0: 0a4c 8d3e 053f 14be 1586 eebd 2cfd a33d
00000100: a44b 2fbd 1ba1 933e a6ab 4ebe 0755 433c
00000110: f653 103d 92e2 023e 6d70 c7bd f27f b03d
00000120: 9c1a b43d d09a 063d b912 84bb 8c69 363f
00000130: 4ddc fcbc e5e9 bfbc 8d82 cc3a 494e 0f3e
00000140: 4d64 9b3c eefe 113d c4ab 443e 55da 96be
00000150: 3527 563e f4c0 a9bd 4054 f63d fa2c 09be
00000160: 5d83 bc3d 3159 9ebe 1db9 e9bd 1d49 73bd
00000170: e774 e8be 6103 04be 396d 083e 1e27 80bc
00000180: 7971 123e b02a fdbd 1cd3 6e39 359d 11be
00000190: 6676 f63e e932 d53d 8e2f 393d 71e1 353d
000001a0: 7f64 6ebe 48d1 1b3e e993 823d a78f cd3e
000001b0: d9a7 debd cb4d d03d 3e88 d83c 8feb 38be
000001c0: a972 353d 8cb7 00be cd75 d9bd 6817 dcbd
000001d0: d2d0 6fbd acff d43d 02b2 95be 4178 103e
000001e0: 8e39 cd3d 2f52 e03e 2aba d43e 61ee 493e
000001f0: ade6 e23e 7db3 eebd f292 00be dc38 6d3c
00000200: c3d3 c4bd f824 c83c 27d9 22be c9e6 da3c
00000210: 803d 7dbe 7074 6c3b 5eb6 153e d438 633e
00000220: 242f ccbd c641 95bd cceb 343d 95d6 37bf
00000230: 3c3a 0ebd 338d 59bd 58aa a2be 103e 3ebe
00000240: 60f9 283d da85 02bf cf0a 7e3e d6b9 333d
00000250: d9a5 993e a5cd 9bbe 03af 983d 709b 013e
00000260: a2bb b1be ff72 393e e2e9 8d3d 9aa6 d5be
00000270: 6a62 7d3c 4918 08bf 8915 d93e 974d 25bd
00000280: 67b6 20bf a221 1d3e fe44 763e 38cb beba
00000290: 6edb 253f 2da4 043e ef85 fe3b f965 23be
000002a0: 2df3 0b3e d3ce 733e 3626 81bd 2da5 fc3e
000002b0: 92e0 bcbb 6db2 a5ba fd9d 6abe c63d 10bd
000002c0: 37b7 1e3e 8dda 58be 52c6 debd 03cc 7fbe
000002d0: cf8c 4c3c 35f7 743e 0645 513d 2a42 41bd
000002e0: 854b b83e 8c5a d13e a22a 033f 7306 f13e
000002f0: 2b15 d0be 7964 a23e 6ffa 073e 9817 2c3e
00000300: aef2 5fbd b3d3 13bf 7822 81bd 9f26 823d
00000310: 61c9 d3bd bbc9 d2be fc5e 343d b034 09bd
00000320: 158c f73d f16d c7bd 5291 52bd 82df 143f
00000330: 8606 783b 197b 0dbe 7c28 67bd fed8 653c
00000340: 99d8 97bc e4cc aa3d 3281 2ebe 0a33 b9be
00000350: f266 4abe fa68 6dbd fd46 febd 7e08 7bbe
00000360: 1ee9 b0bd b37f 20be 8d21 90bd cda4 4f3e
00000370: a054 933e 7efc 6dbe 0c3a 013e bdcc b4bc
00000380: 6627 13be 15b1 c4bd 09e7 eebd e5c8 37be
00000390: 9a55 813e 8ce9 57be 064d b7bc 5d03 8b3d
000003a0: 8712 b4bd 0b38 21bd 4b4d 5bbd 3b60 373e
000003b0: 50f8 15be eadf 9abc aa7f 42be 142d 96be
000003c0: 9498 d0bd 81fd 70be edbf d4bd 4085 a93d
000003d0: 0ab3 96be 7298 4cbd e83e c3be ff7e ecbd
000003e0: cfc0 5fbd 1805 aa3d aff4 ad3e c23c 063d
000003f0: 1b4b 0bbe 2272 26bc 4b82 76bd 9782 6fbe

weight_hh_l0 f4 [256, 64]
-0.054271877 -0.20753264 -0.036919687 0.15311532 -0.09171763 -0.045491405 -0.037699282 -0.055402767
-0.006271367 0.030768551 0.018663133 0.055503286 -0.056414973 -0.03096316 -0.09447708 0.06174212
-0.00507975 -0.19539346 -0.09816608 -0.13957971 -0.08710665 -0.070204675 -0.053737506 -0.020599768
-0.021270381 -0.09628197 -0.09752294 -0.08937646 -0.06401986 -0.06943607 0.028228734 -0.054213554
-0.04880517 -0.087918505 0.056030154 -0.065685794 0.020723864 0.06641546 -0.1822641 0.07604765
-0.1394022 -0.012925923 0.04608724 0.018273838 0.13420933 -0.019991964 -0.036728814 -0.011235332
0.13092458 0.119940564 0.118804 0.082430914 -0.05746199 0.042042177 -0.124147676 0.13184236
0.06816002 0.10306153 0.039589006 -0.06333789 0.17335793 -0.01597323 -0.17906685 0.022569686
-0.6709961 0.49718952 -0.3725786 -0.6617503 -0.30183417 0.6466021 0.2731301 0.16462146
-0.68125564 0.59516233 -1.069969 -0.71456534 0.61822313 -0.44148728 -0.21929672 0.26861817
0.57030743 0.0733215 0.6733886 -0.23237234 0.6660341 0.09088908 0.022566104 -0.0380924
-0.14765385 -0.38217607 -0.6387191 0.03600906 -0.2643216 -0.24505308 -0.028579706 0.4504858
0.09924887 0.29562265 -0.12305739 0.4740168 0.49205977 -0.524007 0.6629122 -0.041004144
0.05140414 -0.01922176 0.17902212 0.33229682 0.42890808 -0.34651 0.22032176 0.40309706
0.5315405 0.36555287 -0.4114836 -0.20523825 -0.41911554 0.23065041 0.8249997 -0.23820901
-0.33318645 0.20740734 0.32951927 0.54083526 -0.7275812 0.3659097 0.807013 0.090417266
-0.19174455 -0.12458979 -0.055959623 0.16122624 0.011543206 -0.0527806 0.4704507 0.03704758
0.15772232 0.036930896 0.03989699 -0.10624591 -0.07273471 -0.078367434 -0.08647106 -0.11550383
0.04317947 -0.21883391 0.11256194 -0.050509807 -0.09248967 -0.106003545 -0.0048716124 -0.16022211
-0.027427893 -0.051515628 0.11609163 -0.18678446 -0.14116782 0.03445625 0.3630137 -0.14770544
-0.13705663 0.11489035 -0.064548686 0.03131721 0.1731438 0.21829489 -0.18692611 0.041449923
-0.13553153 0.07985891 0.17117672 0.28396216 -0.06047852 0.019598484 -0.1925253 0.16864316
0.1500222 0.1399789 -0.03430145 0.092877105 0.04721552 -0.09181975 0.07545207 0.18403699
0.19611791 -0.053130038 0.17283171 0.15643857 -0.19084138 0.32685447 0.07047487 -0.33728176
-0.1381766 -0.0932291 -0.30160722 0.041980743 0.026720362 -0.17211907 -0.013801149 -0.06521743
-0.04097355 0.0363164 -0.20493028 -0.17832658 -0.05650635 -0.11634117 0.1125237 0.033504575
0.077479325 -0.02317493 0.12380512 -0.26120123 -0.03685991 -0.09760505 -0.1507235 0.096219115
-0.06216499 -0.21421885 0.07672144 -0.07006309 -0.07110627 0.13670419 -0.011138948 0.050306562
0.11374458 -0.02068929 -0.1085694 0.013943685 0.15895805 -0.11672977 -0.08078329 0.1230122
-0.01515047 -0.06368508 0.101657294 0.20558141 0.15529065 0.074083745 0.062288143 0.13446228
-0.024217697 -0.046796918 0.06295969 0.028901717 0.032950014 0.09880446 0.0026040757 -0.08495267
-0.17677468 -0.045280017 0.038523734 0.03594964 -0.039056383 -0.03465788 0.027027657 -0.1282649
00000000: 304c 5ebd 7083 54be 1939 17bd 43ca 1c3e
00000010: 74d6 bbbd 3255 3abd 906a 1abd 03ee 62bd
00000020: 0a80 cdbb 540e fc3c 6de3 983c 6a57 633d
00000030: 6313 67bd 74a6 fdbc 337d c1bd 4ee5 7c3d
00000040: 0874 a6bb 3915 48be 4c0b c9bd fced 0ebe
00000050: f964 b2bd 78c7 8fbd dc1b 5cbd d8c0 a8bc
00000060: 393f aebc 7b2f c5bd 1bba c7bd 010b b7bd
00000070: d81c 83bd 8034 8ebd f23f e73c 080f 5ebd
00000080: eee7 47bd 9e0e b4bd e07f 653d 4686 86bd
00000090: 18c5 a93c d404 883d 71a3 3abe dfbe 9b3d
000000a0: 73bf 0ebe 40c7 53bc f9c5 3c3d 04b3 953c
000000b0: 2c6e 093e 30c6 a3bc f470 16bd 6614 38bc
000000c0: 1811 063e 66a3 f53d 834f f33d 8ad1 a83d
000000d0: 435d 6bbd 6b34 2c3d 2341 febd af01 073e
000000e0: 7b97 8b3d ec11 d33d 1528 223d 4cb7 81bd
000000f0: be84 313e 4bda 82bc 4d5d 37be 10e4 b83c
00000100: 67c6 2bbf a08f fe3e 9fc2 bebe 7868 29bf
00000110: 028a 9abe b787 253f b5d7 8b3e 8792 283e
00000120: c566 2ebf 8f5c 183f bff4 88bf c1ed 36bf
00000130: df43 1e3f 9f0a e2be 528f 60be 5288 893e
00000140: abff 113f 9529 963d 3263 2c3f 04f3 6dbe
00000150: 3681 2a3f 0e24 ba3d 8ddc b83c c706 1cbd
00000160: 9232 17be 95ac c3be 1883 23bf 3c7e 133d
00000170: 2955 87be 32ef 7abe fd1f eabc 13a6 e63e
00000180: fe42 cb3d da5b 973e 8305 fcbd 54b2 f23e
00000190: 42ef fb3e 5325 06bf 9db4 293f f6f3 27bd
000001a0: 268d 523d f476 9dbc 9351 373e cf22 aa3e
000001b0: d799 db3e c269 b1be 079c 613e bd62 ce3e
000001c0: 0a13 083f bf29 bb3e faad d2be fa29 52be
000001d0: 5096 d6be 9f2f 6c3e 2e33 533f 10ed 73be
000001e0: 6a97 aabe 9762 543e c0b6 a83e 2e74 0a3f
000001f0: c342 3abf 8458 bb3e 6798 4e3f b02c b93d
00000200: af58 44be ef28 ffbd eb35 65bd 7e18 253e
00000210: b71f 3d3c 7830 58bd eade f03e 34bf 173d
00000220: f681 213e da44 173d 076b 233d 7597 d9bd
00000230: f0f5 94bd 1b7f a0bd bd17 b1bd 468d ecbd
00000240: f5dc 303d ff15 60be e086 e63d 5fe3 4ebd
00000250: 396b bdbd 6318 d9bd 0ca2 9fbb 4411 24be
00000260: 76b0 e0bc 0d02 53bd 73c1 ed3d 6d44 3fbe
00000270: 4c8e 10be ff21 0d3d efdc b93e 1840 17be
00000280: 9358 0cbe a24b eb3d 1a32 84bd 7a46 003d
00000290: 9c4c 313e b288 5f3e 8f69 3fbe 65c7 293d
000002a0: c7c8 0abe 118d a33d f348 2f3e 7d63 913e
000002b0: 53b8 77bd 008d a03c 5a25 45be cbb0 2c3e
000002c0: 6b9f 193e a156 0f3e ad7f 0cbd 5a36 be3d
000002d0: 1065 413d fe0b bcbd 9d86 9a3d 3174 3c3e
000002e0: 22d3 483e e29e 59bd ccfa 303e 6f31 203e
000002f0: ec6b 43be 7859 a73e 2155 903d 32b0 acbe
00000300: 2b7e 0dbe e6ee bebd 436c 9abe 00f4 2b3d
00000310: a9e4 da3c fb3f 30be 371e 62bc b790 85bd
00000320: e2d3 27bd 81c0 143d 3ed9 51be 3e9b 36be
00000330: 3473 67bd 4844 eebd d372 e63d 183c 093d
00000340: 7bad 9e3d 5ad9 bdbc 8a8d fd3d 2bbc 85be
00000350: 6bfa 16bd 28e5 c7bd 4357 1abe 870e c53d
00000360: b7a0 7ebd 305c 5bbe 2120 9d3d 3d7d 8fbd
00000370: 2aa0 91bd 2ffc 0b3e 2280 36bc 410e 4e3d
00000380: ebf2 e83d 967c a9bc a259 debd 0e74 643c
00000390: e6c5 223e 0510 efbd b671 a5bd d2ed fb3d
000003a0: ad39 78bc 536d 82bd b331 d03d ef83 523e
000003b0: 8304 1f3e 38b9 973d da21 7f3d 7bb0 093e
000003c0: 3164 c6bc 20ae 3fbd 03f1 803d 4bc3 ec3c
000003d0: 98f6 063d fe59 ca3d 24a9 2a3b aafb adbd
000003e0: 6c04 35be 8a77 39bd 10cb 1d3d ee3f 133d
000003f0: 96f9 1fbd 6cf5 0dbd 1b69 dd3c e057 03be

bias_ih_l0 f4 [256]
0.00085380895 0.121973656 -0.19676124 -0.08657957 -0.06603501 -0.111740425 0.012994776 -0.015107081
-0.12723319 -0.17946759 -0.17114305 -0.017102506 -0.074514054 0.022103108 0.060555547 -0.024623357
-0.12458199 -0.02491757 -0.30036926 -0.16248788 -0.10601363 -0.29583701 -0.118773006 -0.17286006
-0.040031496 -0.36829698 -0.16717209 -0.013906089 -0.35504618 -0.1900861 -0.12767942 -0.18889976
0.08560739 -0.18827966 0.07838952 -0.044307627 -0.092116155 -0.092879474 -0.1702819 -0.03728941
-0.20633857 0.008567799 -0.19056372 -0.089072004 -0.17529626 -0.029054282 -0.15702082 -0.23997246
0.0530226 -0.037559964 -0.32514572 -0.1951087 -0.25475806 -0.020633454 -0.42201585 -0.15511106
-0.08508337 0.10732672 -0.18019424 -0.063565806 -0.1791189 -0.07411121 -0.17157178 0.18004331
0.0045847367 0.16657263 -0.32141033 -0.1314101 -0.13657449 -0.085377716 0.06490633 -0.1621073
0.0069581787 -0.008794006 0.08873821 0.016548058 0.07545396 -0.0021863384 0.06701349 0.10218461
-0.040833347 -0.23106937 -0.06829251 -0.20691511 -0.077534415 -0.055035677 0.02600794 -0.093037665
-0.18568505 -0.3378648 -0.03969181 -0.18339108 -0.31927115 -0.107647695 -0.15303798 0.10056492
-0.057953183 -0.25827163 -0.10233644 -0.17286532 0.08615909 -0.03215566 -0.0051409462 -0.049024783
-0.12323788 -0.13437355 0.038920697 0.17556144 0.05499329 -0.090661265 -0.040886313 -0.18417028
-0.049501825 -0.13566354 -0.1742146 -0.11525446 -0.023626868 -0.19996811 -0.1857745 -0.09705427
-0.0042727357 0.23407266 -0.06204974 -0.12687005 -0.0968502 -0.18953161 -0.10101308 0.045750577
0.09322455 0.053602204 0.10476658 0.004035828 0.110861406 0.01578231 -0.05923485 -0.03496568
0.014350951 -0.065712504 0.11534113 0.0115223015 0.009349594 0.06394316 0.06933084 0.035928585
0.045573518 0.18578053 -0.03687889 0.08470683 -0.05848643 -0.00862048 0.15615393 0.003066528
0.10290849 0.01993364 -0.059957635 0.085772105 -0.0099779125 0.0038464996 0.012290116 -0.058024444
0.03472348 -0.14040846 0.025940828 -0.04600009 -0.12172115 -0.05327858 -0.04893802 -0.055812772
-0.07484174 0.051336557 0.00027610722 -0.04907325 0.009050602 0.010640801 -0.10494047 -0.087513156
-0.026756298 0.0012871107 -0.061320696 0.03692194 0.028672526 0.004960345 -0.070349485 -0.026847523
0.13374592 0.19122832 -0.022317436 -0.076139025 0.11940972 -0.078137875 0.061360005 0.13436021
-0.12350083 -0.24190268 -0.12072772 -0.11380294 0.00871804 -0.20970823 -0.11718996 0.018393636
-0.122989 0.015157549 -0.07040406 0.060491472 -0.015429384 0.0054837423 -0.081791274 -0.012175148
-0.008784273 -0.027578127 -0.2884344 -0.41655603 -0.33045384 -0.106146 -0.19176832 -0.07356392
-0.14746478 -0.33819395 -0.07682837 -0.2262774 0.08346413 -0.14537933 -0.12367625 -0.22947596
-0.20534107 -0.18905252 -0.10909662 -0.10761502 -0.044320025 -0.4411688 -0.14704478 -0.12126073
-0.037760496 -0.23423631 -0.09051766 -0.06755845 -0.11874173 -0.10853099 -0.20240118 -0.3406599
0.0019013741 -0.029437589 -0.28896368 -0.26383606 -0.20367496 -0.12082685 -0.019507878 -0.046146374
-0.18019044 -0.10545287 -0.07898703 -0.17118394 -0.065990984 -0.026961029 -0.1571186 -0.01697099
00000000: 26d2 5f3a 53cd f93d c77b 49be a150 b1bd
00000010: 5d3d 87bd 2ad8 e4bd 0ae8 543c b183 77bc
00000020: 6b49 02be 5ac6 37be 2040 2fbe 8e1a 8cbc
00000030: d39a 98bd 9411 b53c 1809 783d ecb6 c9bc
00000040: d824 ffbd ef1f ccbc 00ca 99be 3963 26be
00000050: ad1d d9bd f377 97be 433f f3bd 3a02 31be
00000060: 11f8 23bd 6c91 bcbe 292f 2bbe 5dd6 63bc
00000070: 9dc8 b5be eea5 42be 65be 02be f06e 41be
00000080: ed52 af3d 62cc 40be af8a a03d ea7b 35bd
00000090: 65a7 bcbd 9837 bebd 615e 2ebe c8bc 18bd
000000a0: 6b4a 53be f45f 0c3c 2323 43be 626b b6bd
000000b0: dd80 33be 3f03 eebc 11ca 20be 57bb 75be
000000c0: 3a2e 593d 7ad8 19bd 8079 a6be 93ca 47be
000000d0: a66f 82be 7d07 a9bc 7612 d8be 6fd5 1ebe
000000e0: 3140 aebd 1dce db3d d784 38be ca2e 82bd
000000f0: f26a 37be 9ec7 97bd 83b0 2fbe 465d 383e
00000100: 8f3b 963b 0492 2a3e e58f a4be 5f90 06be
00000110: 2fda 0bbe 83da aebd 9ced 843d 75ff 25be
00000120: 6f01 e43b bc14 10bc 61bc b53d cb8f 873c
00000130: 9b87 9a3d ac48 0fbb 5e3e 893d 2a46 d13d
00000140: de40 27bd 739d 6cbe f2dc 8bbd 8ee1 53be
00000150: 5dca 9ebd 176d 61bd 9a0e d53c 888a bebd
00000160: 3924 3ebe 9dfc acbe e193 22bd dfca 3bbe
00000170: 8277 a3be 6576 dcbd fdb5 1cbe fbf4 cd3d
00000180: 5160 6dbd 2e3c 84be c495 d1bd 9b03 31be
00000190: 2d74 b03d a7b5 03bd 6275 a8bb 36ce 48bd
000001a0: 2464 fcbd 3899 09be 4f6b 1f3d 61c6 333e
000001b0: a540 613d 9dac b9bd 6878 27bd 2297 3cbe
000001c0: 6dc2 4abd 62eb 0abe 5065 32be 880a ecbd
000001d0: 228d c1bc 71c4 4cbe ac3b 3ebe 64c4 c6bd
000001e0: 4e02 8cbb beb0 6f3e de27 7ebd 39ea 01be
000001f0: 6659 c6bd 9314 42be f2df cebd f564 3b3d
00000200: 83ec be3d fc8d 5b3d dc8f d63d fb3e 843b
00000210: 4e0b e33d e749 813c 3ea0 72bd 2c38 0fbd
00000220: 4020 6b3c 4794 86bd f837 ec3d 09c8 3c3c
00000230: 0a2f 193c a2f4 823d 54fd 8d3d da29 133d
00000240: 4cab 3a3d 403d 3e3e 520e 17bd c67a ad3d
00000250: 788f 6fbd ea3c 0dbc d1e6 1f3e cdf7 483b
00000260: b0c1 d23d df4b a33c 2396 75bd 49a9 af3d
00000270: 667a 23bc 8e15 7c3b 7c5c 493c 0aab 6dbd
00000280: 353a 0e3d 3cc7 0fbe dc81 d43c 976a 3cbd
00000290: f048 f9bd a43a 5abd 3c73 48bd ef9b 64bd
000002a0: a046 99bd 4846 523d 7cc2 9039 0801 49bd
000002b0: fa48 143c c156 2e3c 07eb d6bd 193a b3bd
000002c0: 0630 dbbc 45b4 a83a 692b 7bbd 763b 173d
000002d0: a5e2 ea3c 648a a23b 6413 90bd 56ef dbbc
000002e0: b1f4 083e 5bd1 433e 0ed3 b6bc c7ee 9bbd
000002f0: 158d f43d c006 a0bd a154 7b3d b995 093e
00000300: 01ee fcbd 56b5 77be 1840 f7bd 8411 e9bd
00000310: 1cd6 0e3c c1bd 56be 4a01 f0bd 40ae 963c
00000320: a8e1 fbbd 5e57 783c 0130 90bd e8c5 773d
00000330: 87cb 7cbc f7b0 b33b 2f82 a7bd 467a 47bc
00000340: e9eb 0fbc 86eb e1bc acad 93be d546 d5be
00000350: 3f31 a9be 1363 d9bd ea5e 44be aea8 96bd
00000360: 0201 17be c227 adbe 3158 9dbd 43b5 67be
00000370: 3eef aa3d 52de 14be f949 fdbd bffb 6abe
00000380: ee44 52be fc96 41be 0c6e dfbd 4365 dcbd
00000390: ea88 35bd e1e0 e1be e892 16be 8c57 f8bd
000003a0: c0aa 1abd a5db 6fbe 5361 b9bd 165c 8abd
000003b0: dd2e f3bd 7f45 debd 4142 4fbe f96a aebe
000003c0: 8737 f93a 1927 f1bc 0cf3 93be 8515 87be
000003d0: 2b90 50be 1174 f7bd fcce 9fbc fb03 3dbd
000003e0: d883 38be adf7 d7bd f4c3 a1bd d84a 2fbe
000003f0: 4826 87bd 60dd dcbc b3e3 20be bf06 8bbc

bias_hh_l0 f4 [256]
-0.08497895 0.20083603 -0.25693145 -0.15697561 0.002446605 -0.2249111 -0.09955734 -0.10546066
-0.17948157 -0.13751064 -0.15268596 0.12081565 0.040412296 -0.049526446 0.0057614255 0.055120114
-0.016508875 0.038592655 -0.24259517 -0.36296427 -0.026929269 -0.22606325 0.07328154 -0.03533838
-0.13710251 -0.2572426 -0.13408914 -0.15681033 -0.42674243 -0.059115283 0.022939911 0.033954732
0.00015141326 -0.16098157 0.033337414 -0.10462301 -0.20047146 -0.17292191 -0.26700744 -0.04193869
-0.22511712 -0.14202726 -0.030521983 -0.07543672 0.041949097 -0.11527918 0.044464607 -0.25464007
0.08328057 -0.07049791 -0.1077458 -0.16938488 -0.19681777 -0.085865654 -0.22356136 -0.12768783
-0.03918597 0.004436111 -0.1033784 -0.060563467 -0.27259067 -0.20037961 -0.36708036 0.05286718
0.09732091 0.221072 -0.16297717 0.025492953 -0.11303131 -0.013219804 -0.006429232 -0.14636084
-0.032628223 0.012698644 -0.0017823973 0.10659394 -0.098910525 -0.0080315275 -0.012895465 0.06824949
-0.04491918 -0.22046545 -0.038897976 -0.32580486 -0.08898459 -0.096516244 -0.07650097 -0.18591923
-0.16675586 -0.13141738 0.005888964 -0.25459677 -0.32564 0.011389647 0.04338462 -0.087151
0.008753262 -0.051944256 0.086943746 -0.11464993 -0.14702198 0.044038568 -0.076249495 -0.052713502
-0.107640505 -0.11955636 0.061001293 -0.04812455 -0.10177175 -0.06993746 -0.042885855 -0.17653139
0.09920711 0.045953467 -0.19609898 -0.14476782 -0.0750379 -0.048361294 -0.05292164 -0.012871353
-0.045974366 0.32886475 -0.11509544 0.00016802829 -0.08295063 -0.049926806 -0.13737907 -0.01614737
-0.0022186646 0.24272186 0.025918616 0.0076770787 -0.09476368 0.05480648 -0.08228304 0.008556475
0.05623793 -0.07679501 -0.0092516 0.17461886 -0.052589227 -0.039526887 -0.08208904 0.10654825
-0.06786937 0.005429308 -0.053539086 -0.09797171 0.006118626 -0.005913462 0.028683405 -0.025155835
-0.10238887 -0.054658104 0.06472083 0.11163879 0.024029197 0.03479155 -0.08566106 -0.002029105
-0.012168024 0.053706687 -0.01078478 -0.01807724 -0.0068607996 0.09351161 -0.03044318 -0.04929576
0.03638667 0.122766815 0.056778423 -0.047768816 -0.03100443 0.0045013786 0.017899046 -0.10295383
-0.016530307 -0.010493954 -0.015368422 -0.07999823 0.0833609 0.04820128 0.036956314 -0.117617354
-0.080003604 0.053488158 -0.025422905 -0.09340589 -0.027389357 -0.087577835 -0.09998789 0.028601294
-0.071240366 -0.26488733 -0.1352587 0.012680177 0.035642147 -0.3359348 -0.13926068 -0.15420938
-0.0022693991 -0.121534094 -0.0057155434 0.05220009 -0.021411788 -0.13531183 -0.013958283 -0.074365854
-0.21466367 -0.08726079 -0.29752693 -0.43252268 -0.26878023 -0.25293657 -0.14637555 -0.14918013
-0.1318231 -0.12774971 -0.175424 -0.20623884 0.004342042 -0.22852 -0.09597434 -0.20239793
-0.1799356 -0.15689349 -0.14277495 -0.09779267 -0.023601223 -0.38898885 -0.30150425 -0.106838964
-0.108257316 -0.014106531 -0.21791305 0.007598022 -0.06661345 -0.2138861 -0.14044143 -0.49517345
-0.20376843 -0.17461102 -0.2278481 -0.11860862 -0.11976627 -0.06985301 -0.13754763 -0.04189489
-0.15379192 -0.27380827 0.030010808 -0.1839844 0.08117303 -0.10408795 -0.31822634 -0.005156057
00000000: 7209 aebd f6a7 4d3e 858c 83be 37be 20be
00000010: 3857 203b 184f 66be b8e4 cbbd c2fb d7bd
00000020: 04ca 37be 97cf 0cbe b559 1cbe 326e f73d
00000030: 5d87 253d 3edc 4abd 57ca bc3b a1c5 613d
00000040: 9f3d 87bc 5513 1e3d de6a 78be 74d6 b9be
00000050: c59a dcbc 207d 67be a214 963d fabe 10bd
00000060: 9a64 0cbe 4db5 83be aa4e 09be e392 20be
00000070: fc7d dabe de22 72bd 7bec bb3c 1e14 0b3d
00000080: b0c4 1e39 5ad8 24be d08c 083d 9744 d6bd
00000090: 6448 4dbe 7112 31be 33b5 88be e7c7 2bbd
000000a0: 1a85 66be 986f 11be 3d09 fabc 917e 9abd
000000b0: d1d2 2b3d 7e17 ecbd 8520 363d 2f60 82be
000000c0: 018f aa3d 3561 90bd d4a9 dcbd 3b73 2dbe
000000d0: 998a 49be 55da afbd 45ed 64be 99c0 02be
000000e0: 7881 20bd cc5c 913b 0eb8 d3bd 6611 78bd
000000f0: 0191 8bbe 5030 4dbe f5f1 bbbe 428b 583d
00000100: 2f50 c73d b360 623e 7de3 26be 99d6 d03c
00000110: f67c e7bd e097 58bc 4fac d2bb 9edf 15be
00000120: 2ca5 05bd f90d 503c 549f e9ba ec4d da3d
00000130: 9a91 cabd ab96 03bc 8047 53bc 63c6 8b3d
00000140: 2dfd 37bd b2c1 61be 7c53 1fbd e5cf a6be
00000150: 8d3d b6bd 4faa c5bd 8aac 9cbd 9c61 3ebe
00000160: 0cc2 2abe 4792 06be 36f8 c03b 825a 82be
00000170: 49ba a6be a49b 3a3c 12b4 313d 397c b2bd
00000180: d869 0f3c 80c3 54bd 900f b23d 95cd eabd
00000190: ee8c 16be c961 343d b228 9cbd 1dea 57bd
000001a0: a072 dcbd f7d9 f4bd 7edc 793d 401e 45bd
000001b0: b56d d0bd 5f3b 8fbd 14a9 2fbd a5c4 34be
000001c0: 192d cb3d b439 3c3d 2cce 48be 043e 14be
000001d0: 78ad 99bd 7e16 46bd 5dc4 58bd 5ee2 52bc
000001e0: 9e4f 3cbd f660 a83e 28b7 ebbd c030 3039
000001f0: 05e2 a9bd 0d80 4cbd 19ad 0cbe 7d47 84bc
00000200: 0467 11bb 148c 783e 4753 d43c 0190 fb3b
00000210: 7613 c2bd c27c 603d 0384 a8bd 7530 0c3c
00000220: be59 663d b446 9dbd 0694 17bc 49cf 323e
00000230: cd67 57bd f2e6 21bd 4c1e a8bd f835 da3d
00000240: 19ff 8abd 56e8 b13b cd4b 5bbd 64a5 c8bd
00000250: c17e c83b b7c5 c1bb 76f9 ea3c 9c13 cebc
00000260: 42b1 d1bd 2de1 5fbd 5b8c 843d e1a2 e43d
00000270: e1d8 c43c 9681 0e3d 116f afbd bcfa 04bb
00000280: 645c 47bc 8bfb 5b3d a5b2 30bc b816 94bc
00000290: 8fd0 e0bb 0483 bf3d fa63 f9bc 5aea 49bd
000002a0: 300a 153d 2b6d fb3d 7e90 683d 3ca9 43bd
000002b0: 01fd fdbc 4d80 933b 05a1 923c 75d9 d2bd
000002c0: 916a 87bc d5ee 2bbc d5cb 7bbc 1dd6 a3bd
000002d0: 1fb9 aa3d b56e 453d 815f 173d 5ee1 f0bd
000002e0: eed8 a3bd 6616 5b3d b243 d0bc 964b bfbd
000002f0: a55f e0bc 025c b3bd 73c6 ccbd 434d ea3c
00000300: 78e6 91bd 509f 87be 4281 0abe 84c0 4f3c
00000310: 80fd 113d a5ff abbe 5a9a 0ebe 10e9 1dbe
00000320: 33ba 14bb dee6 f8bd 7449 bbbb c3cf 553d
00000330: c667 afbc 2f8f 0abe 48b1 64bc 204d 98bd
00000340: cbd0 5bbe c9b5 b2bd 7355 98be 9d73 ddbe
00000350: 909d 89be e780 81be 79e3 15be adc2 18be
00000360: a2fc 06be d2d0 02be 59a2 33be 4630 53be
00000370: b047 8e3b 2601 6abe 328e c4bd 6741 4fbe
00000380: 0a41 38be b0a8 20be 9933 12be 8647 c8bd
00000390: 5a57 c1bc 8c29 c7be c45e 9abe 63ce dabd
000003a0: 03b6 ddbd 141f 67bc 9924 5fbe d4f8 f83b
000003b0: a26c 88bd f504 5bbe e1cf 0fbe 6087 fdbe
000003c0: aca8 50be 3bcd 32be 0351 69be 13e9 f2bd
000003d0: 0548 f5bd 180f 8fbd 49d9 0cbe fa99 2bbd
000003e0: a17b 1dbe 9930 8cbe 3ad9 f53c 6866 3cbe
000003f0: 0c3e a63d 102c d5bd 90ee a2be 24f4 a8bb

hidden f4 [1, 25, 64]
0.025285156 0.37995228 0.04750013 -0.014330953 0.0026644717 0.046425004 -0.018320825 -0.0006547156
-0.12961008 -0.039147973 0.0484882 0.098247275 0.0013442591 0.043830417 0.018135427 -0.011046926
-0.01895461 0.017273625 -0.005006621 0.009271601 -0.03420824 0.04277553 0.04647599 -0.02562976
0.009770085 0.012761977 0.003244711 0.052882735 0.0110379085 0.033293996 -0.011933625 0.014456684
0.11687415 -0.042906575 0.017665442 -0.024331667 -0.03452451 -0.008516881 0.007089845 0.005205378
0.06355569 0.018939527 -0.016499152 -0.07502953 -0.023911515 0.036543984 0.00622891 -0.062229384
-0.079474 -0.031345032 0.0105942525 0.007619017 0.021925574 -0.0023009798 -0.008717059 -0.011094206
-0.0074750576 -0.26156545 -0.022820788 -0.026538428 -0.0030556119 -0.052453503 0.0040502944 0.008765546
0.030900583 0.35934865 0.04616091 0.0012318293 -0.0019191602 0.020983031 -0.015829861 -0.0017975627
-0.067200005 -0.048140068 0.057739425 0.10926763 -0.011593653 0.05005175 0.0026799778 -0.027303213
-0.019772954 0.0012816858 -0.008245667 0.010622629 -0.03367064 0.027248463 0.06364584 -0.019781671
0.00011256532 0.0139825735 0.0024362064 0.038143508 0.0130676655 0.018152637 0.011344269 0.0025166066
0.068691984 -0.04119597 0.031153323 -0.021032995 -0.020727484 0.0028280483 0.0016931881 -0.0051575694
0.046340585 0.035802 -0.017344842 -0.07202886 -0.02497939 0.034979135 -0.0183818 -0.06860516
-0.08565414 -0.03168913 0.012377059 0.008248923 0.035675116 0.0044546267 -0.015071788 -0.014034086
0.014247879 -0.19031252 -0.0018626199 -0.021169676 0.02416297 -0.039218407 -0.0073880195 0.0028107394
0.033191293 0.31624162 0.04494475 0.012290229 -0.0028010188 0.006410269 -0.015769754 -0.0043241214
-0.02639419 -0.05023548 0.06029623 0.10550837 -0.019001799 0.04957238 -0.008108533 -0.032819863
-0.018951429 -0.007940068 -0.01006254 0.01005638 -0.029866071 0.014480398 0.074409425 -0.012570943
-0.008396164 0.013304151 0.002106621 0.026713438 0.015251101 0.00547429 0.026191315 -0.0073856357
0.025265003 -0.03684355 0.03863948 -0.017076004 -0.008197828 0.009926428 -0.00023614336 -0.013217306
0.031083949 0.04729553 -0.014475236 -0.061964333 -0.021634018 0.02933535 -0.03541175 -0.06832977
-0.08190808 -0.031182166 0.012614958 0.007732578 0.039945338 0.00887506 -0.017929489 -0.016082868
0.029011 -0.09434014 0.014906278 -0.017955039 0.036197 -0.027267037 -0.014300853 0.009751643
0.033579446 0.23682033 0.043074887 0.0197741 -0.0012774593 -0.0011709217 -0.019475391 -0.0066631325
-0.00076876796 -0.0500375 0.059171725 0.09483505 -0.02295148 0.0434422 -0.014696177 -0.025787784
-0.017397497 -0.009628597 -0.011744473 0.008063109 -0.02444879 0.0042568655 0.08085366 -0.00561888
-0.015451683 0.011100899 0.0025733446 0.019829147 0.017466167 -0.0046178405 0.033639655 -0.016120877
-0.009199277 -0.031968128 0.04130971 -0.014120338 0.000942517 0.013658365 -0.0011551693 -0.020109486
0.018346708 0.05552645 -0.008485523 -0.046224747 -0.016463144 0.0213684 -0.04565901 -0.062972404
-0.0695903 -0.029475754 0.010518789 0.0054994966 0.038688045 0.011478924 -0.018901441 -0.0188818
0.039074067 0.011170152 0.025828972 -0.017811347 0.041292336 -0.019093942 -0.018307384 0.02628276
00000000: d122 cf3c 1b89 c23e 7f8f 423d 60cc 6abc
00000010: 6b9e 2e3b 2528 3e3d 8e15 96bc 38a1 2bba
00000020: 81b8 04be a059 20bd 909b 463d de35 c93d
00000030: da31 b03a 8687 333d bf90 943c 2afe 34bc
00000040: b346 9bbc 6b81 8d3c 950e a4bb eae7 173c
00000050: f11d 0cbd 6535 2f3d 9c5d 3e3d 81f5 d1bc
00000060: b512 203c 9c17 513c 38a5 543b 919b 583d
00000070: 58d8 343c 495f 083d 4085 43bc badb 6c3c
00000080: b75b ef3d cebe 2fbd 1eb7 903c 3453 c7bc
00000090: 9369 0dbd 638a 0bbc ee51 e83b e091 aa3b
000000a0: 7c29 823d 1127 9b3c 3b29 87bc 15a9 99bd
000000b0: 15e2 c3bc 25af 153d e21b cc3b 3de4 7ebd
000000c0: 44c3 a2bd a663 00bd 8493 2d3c f2a8 f93b
000000d0: 439d b33c 09cc 16bb ffd1 0ebc 79c4 35bc
000000e0: 54f1 f4bb e8eb 85be a9f2 babc 1e67 d9bc
000000f0: a940 48bb 7cd9 56bd 55b8 843b 5d9d 0f3c
00000100: 3823 fd3c 8cfc b73e 3913 3d3d 5575 a13a
00000110: 558c fbba 9be4 ab3c a0ad 81bc 329c ebba
00000120: 28a0 89bd 852e 45bd 2d80 6c3d b5c7 df3d
00000130: 4ef3 3dbc 1003 4d3d 91a2 2f3b fdaa dfbc
00000140: e4fa a1bc 3dfe a73a d618 07bc 890a 2e3c
00000150: 3aea 09bd 2b38 df3c c058 823d 2c0d a2bc
00000160: 0c11 ec38 2a17 653c c3a8 1f3b 5e3c 1c3d
00000170: c319 563c d7b4 943c 50dd 393c a7ed 243b
00000180: 62ae 8c3d 1bbd 28bd 4135 ff3c 634d acbc
00000190: afcc a9bc c756 393b f7ed dd3a d400 a9bb
000001a0: a0cf 3d3d 1ea5 123d c516 8ebc de83 93bd
000001b0: 94a1 ccbc 4846 0f3d 6e95 96bc dd80 8cbd
000001c0: 706b afbd 76cc 01bd 26c9 4a3c 7e26 073c
000001d0: 1220 123d 1ef8 913b a9ef 76bc 39ef 65bc
000001e0: f06f 693c 49e1 42be 2723 f4ba 076c adbc
000001f0: 6cf1 c53c 7ba3 20bd 3317 f2bb 6234 383b
00000200: 98f3 073d 6cea a13e fc17 383d f55c 493c
00000210: 4c91 37bb 3c0d d23b 922f 81bc 5cb1 8dbb
00000220: a138 d8bc b8c3 4dbd 2ef9 763d c614 d83d
00000230: a9a9 9bbc 680c 4b3d a7d9 04bc 1f6e 06bd
00000240: 0740 9bbc 0f17 02bc 5add 24bc 84c3 243c
00000250: b1a9 f4bc 313f 6d3c f863 983d 5bf6 4dbc
00000260: 1090 09bc a7f9 593c 3c0f 0a3b 24d6 da3c
00000270: c1df 793c ac61 b33b 2b8f d63c 3403 f2bb
00000280: 8df8 ce3c 43e9 16bd 6e44 1e3d fae2 8bbc
00000290: 2f50 06bc 75a2 223c 409d 77b9 668d 58bc
000002a0: c4a3 fe3c f5b8 413d 8a29 6dbc 50ce 7dbd
000002b0: d339 b1bc b050 f03c e90b 11bd 7af0 8bbd
000002c0: 6cbf a7bd be71 ffbc f8ae 4e3c 9161 fd3b
000002d0: b99d 233d b368 113c dde0 92bc 38c0 83bc
000002e0: 7aa8 ed3c 6735 c1bd 7639 743c 7216 93bc
000002f0: 4e43 143d 1f5f dfbc 204e 6abc 5bc5 1f3c
00000300: 9a8a 093d 0781 723e 4b6f 303d 4bfd a13c
00000310: 6c70 a7ba 9d79 99ba db8a 9fbc 6856 dabb
00000320: 2587 49ba 1ff4 4cbd 0d5e 723d e138 c23d
00000330: be04 bcbc 73f0 313d 3cc8 70bc e740 d3bc
00000340: 3285 8ebc 43c1 1dbc e46b 40bc 211b 043c
00000350: d448 c8bc 2d7d 8b3b 9b96 a53d 951e b8bb
00000360: 0e29 7dbc 8ce0 353c 8fa5 283b bc70 a23c
00000370: 3515 8f3c 4151 97bb bcc9 093d ee0f 84bc
00000380: 90b8 16bc 03f1 02bd 5f34 293d fd58 67bc
00000390: 3f13 773a 56c7 5f3c 0d69 97ba a6bc a4bc
000003a0: d64b 963c b46f 633d dd06 0bbc 2956 3dbd
000003b0: b7dd 86bc c80c af3c f104 3bbd adf7 80bd
000003c0: 5c85 8ebd 2377 f1bc 0057 2c3c 1f35 b43b
000003d0: 5b77 1e3d 1912 3c3c 32d7 9abc 01ae 9abc
000003e0: 210c 203d 0303 373c 4897 d33c 1ae9 91bc
000003f0: 2722 293d e66a 9cbc 5ef9 95bc f14e d73c

hidden f4 [1, 25, 64]
0.06656943 3.7706037 0.15268761 -0.030782707 0.0056289905 0.16008675 -0.041417114 -0.001462914
-0.33626202 -0.08764099 0.11826016 0.18064895 0.0029817559 0.115001455 0.04104034 -0.023776785
-0.05010036 0.037344746 -0.016162058 0.035825633 -0.113667406 0.12446781 0.1282199 -0.064646944
0.023456704 0.035205346 0.008095534 0.15373671 0.02066154 0.07902612 -0.027985739 0.045314863
0.2772565 -0.12186907 0.043139804 -0.07020869 -0.086461455 -0.037496947 0.02260175 0.011845542
0.15353855 0.04356072 -0.042465195 -0.18463066 -0.057541505 0.09144788 0.016154155 -0.3349924
-0.23818022 -0.0899315 0.040815707 0.022220911 0.061834894 -0.005377443 -0.022269698 -0.02247733
-0.020845179 -0.62800854 -0.04797577 -0.07382175 -0.006244693 -0.122372404 0.011157229 0.0197749
0.0798431 2.4653852 0.14495842 0.0026793135 -0.004034217 0.07331572 -0.03533338 -0.0039895354
-0.1694676 -0.11143567 0.13964051 0.19715235 -0.0252293 0.12614065 0.005952971 -0.0558883
-0.050002642 0.0027805017 -0.027298821 0.04026093 -0.1085697 0.07623073 0.17482331 -0.049350988
0.00026458874 0.038441677 0.005964679 0.10781817 0.023868816 0.044309787 0.02683223 0.0075247614
0.15984498 -0.114654295 0.07626427 -0.057986155 -0.050080743 0.011552701 0.0051340447 -0.011778645
0.1129238 0.083942525 -0.0445648 -0.17166889 -0.059232228 0.08680347 -0.04720775 -0.34573564
-0.2449547 -0.08585915 0.04308132 0.022338336 0.09689835 0.010351811 -0.038026847 -0.02932707
0.03925027 -0.4451109 -0.0039139222 -0.05990654 0.051434763 -0.09015253 -0.02139269 0.0062025595
0.084173076 1.4989376 0.13473657 0.026998123 -0.0058518294 0.02262118 -0.035136342 -0.009577336
-0.0648474 -0.11803826 0.1437906 0.18784401 -0.04084415 0.12087808 -0.01782487 -0.06584019
-0.046534434 -0.017225614 -0.033660162 0.037818898 -0.094454125 0.03925577 0.20370692 -0.031219922
-0.019729579 0.03656222 0.0051026023 0.0738213 0.027343126 0.0137430625 0.06193422 -0.021414917
0.05889985 -0.100657806 0.095325015 -0.045252874 -0.019084375 0.038843043 -0.0006881915 -0.030472817
0.075965434 0.11310932 -0.03703723 -0.14225186 -0.051068254 0.0732463 -0.0909196 -0.32446855
-0.22356418 -0.08096411 0.040493228 0.019923203 0.10631618 0.020545183 -0.044701025 -0.034618687
0.07884251 -0.21817034 0.031364847 -0.050756283 0.07910837 -0.061825722 -0.042691883 0.021281019
0.08298744 0.8683513 0.12203604 0.043741196 -0.0026479643 -0.0041018063 -0.043550193 -0.014766949
-0.0018327367 -0.1176037 0.1381495 0.16820322 -0.048764974 0.102321304 -0.032067604 -0.05140829
-0.041731708 -0.020954354 -0.039070524 0.030079067 -0.075910024 0.011188274 0.2191513 -0.013849277
-0.03659328 0.030496348 0.0061813435 0.053779602 0.031037342 -0.011876363 0.07914838 -0.045523822
-0.021800179 -0.0854415 0.10252172 -0.035871636 0.002115637 0.051783405 -0.003247298 -0.046834625
0.04453077 0.13497107 -0.021551384 -0.102163024 -0.03870442 0.053854764 -0.117341116 -0.27880257
-0.18010992 -0.07351692 0.031325456 0.013679655 0.10111311 0.026456863 -0.046265937 -0.04168549
0.10434083 0.026476696 0.05450569 -0.04966104 0.091373876 -0.042762794 -0.055535324 0.05685389
00000000: 8e55 883d 9251 7140 245a 1c3e 042c fcbc
00000010: 6573 b83b c8ed 233e fea4 29bd 40bf bfba
00000020: 892a acbe 1f7d b3bd 6232 f23d 0afc 383e
00000030: 9069 433b e285 eb3d ea19 283d 88c7 c2bc
00000040: 0936 4dbd cef6 183d 4b66 84bc e6bd 123d
00000050: 75ca e8bd fbe8 fe3d 144c 033e 9e65 84bd
00000060: 4628 c03c 7b33 103d 21a3 043c 286d 1d3e
00000070: 6442 a93c 72d8 a13d 5942 e5bc 149c 393d
00000080: 90f4 8d3e 7e96 f9bd 5db3 303d 93c9 8fbd
00000090: b412 b1bd 6696 19bd 4e27 b93c ce13 423c
000000a0: 3639 1d3e ba6c 323d fcef 2dbd d20f 3dbe
000000b0: a4b0 6bbd 0749 bb3d b855 843c 2084 abbe
000000c0: 84e5 73be 022e b8bd 5f2e 273d a108 b63c
000000d0: 9646 7d3d 4335 b0bb f16e b6bc 6122 b8bc
000000e0: 82c3 aabc 2bc5 20bf 3e82 44bd dc2f 97bd
000000f0: 48a0 ccbb 629e fabd cfcc 363c f9fe a13c
00000100: c784 a33d dfc8 1d40 fb6f 143e 6c97 2f3b
00000110: 7731 84bb 8d26 963d bcb9 10bd a6ba 82bb
00000120: ea88 2dbe 6238 e4bd ecfd 0e3e 4ee2 493e
00000130: adad cebc 042b 013e 2411 c33b 21eb 64bd
00000140: 92cf 4cbd 1439 363b c7a1 dfbc a5e8 243d
00000150: ca59 debd db1e 9c3d e204 333e 4324 4abd
00000160: 80b8 8a39 0575 1d3d 5b73 c33b c6cf dc3d
00000170: 8988 c33c 2e7e 353d 44cf db3c 4692 f63b
00000180: 67ae 233e dfcf eabd 7130 9c3d e482 6dbd
00000190: 7721 4dbd 8a47 3d3c 7d3b a83b 38fb 40bc
000001a0: 9844 e73d 0fea ab3d 9489 36bd f8c9 2fbe
000001b0: 7e9d 72bd 05c6 b13d ea5c 41bd 4304 b1be
000001c0: 68d5 7abe ecd6 afbd 0a76 303d e3fe b63c
000001d0: a472 c63d a49a 293c 0ac2 1bbd 533f f0bc
000001e0: e4c4 203d 93e5 e3be 5c40 80bb 8f60 75bd
000001f0: 42ad 523d e4a1 b8bd b93f afbc d73e cb3b
00000200: ef62 ac3d 30dd bf3f 62f8 093e 2b2b dd3c
00000210: b4c0 bfbb 0e50 b93c 20eb 0fbd 42ea 1cbc
00000220: b7ce 84bd 0bbe f1bd d83d 133e 2e5a 403e
00000230: 324c 27bd ed8e f73d 7605 92bc 39d7 86bd
00000240: e49a 3ebd bb1c 8dbc 3ddf 09bd fde7 1a3d
00000250: 2a71 c1bd a9ca 203d 8c98 503e ecc0 ffbc
00000260: ed9f a1bc 44c2 153d bb33 a73b 9f2f 973d
00000270: b1fe df3c 952a 613c bdae 7d3d 566e afbc
00000280: f840 713d ae25 cebd c339 c33d 145b 39bd
00000290: d656 9cbc e219 1f3d c067 34ba 21a2 f9bc
000002a0: c493 9b3d dca5 e73d 5ab4 17bd 79aa 11be
000002b0: f22c 51bd 2802 963d 0e34 babd be20 a6be
000002c0: 02ee 64be 83d0 a5bd 3adc 253d fc35 a33c
000002d0: 4cbc d93d 5f4e a83c 6c18 37bd 53cc 0dbd
000002e0: 2f78 a13d 0c68 5fbe 6d78 003d d2e5 4fbd
000002f0: 9203 a23d f83c 7dbd afdd 2ebd 8855 ae3c
00000300: 52f5 a93d 454c 5e3f 08ee f93d f829 333d
00000310: 7889 2dbb 7268 86bb b061 32bd 13f1 71bc
00000320: 7038 f0ba 35da f0bd 1077 0d3e 773d 2c3e
00000330: c8bd 47bd d58d d13d 5259 03bd 8091 52bd
00000340: deee 2abd 77a8 abbc 6a08 20bd 6068 f63c
00000350: b776 9bbd 064f 373c 3369 603e 14e8 62bc
00000360: d6e2 15bd 7ad3 f93c de8c ca3b 0048 5c3d
00000370: 0642 fe3c 1495 42bc 8c18 a23d 3077 3abd
00000380: 4a96 b2bc f4fb aebd e8f6 d13d 23ee 12bd
00000390: 80a6 0a3b d61a 543d 9fd0 54bb aad5 3fbd
000003a0: e665 363d db35 0a3e 878c b0bc d93a d1bd
000003b0: 8788 1ebd d096 5c3d 8a50 f0bd 36bf 8ebe
000003c0: bc6e 38be 0a90 96bd 1f4f 003d a220 603c
000003d0: 6414 cf3d 10bc d83c 5a81 3dbd 68be 2abd
000003e0: a5b0 d53d a8e5 d83c 5c41 5f3d 6069 4bbd
000003f0: 3a22 bb3d 0a28 2fbd 0279 63bd a0df 683d

weight_ih_l0 f4 [256, 1]
-0.1352107 -0.14305419 0.0950629 -0.11097706 -0.071119785 -0.024460746 0.13885933 -0.109096654
0.78522104 -0.07699979 -0.031829655 0.08280323 -0.05100017 -0.084676154 -0.060843106 0.15203285
-0.0910551 -0.120928355 0.007611946 -0.12927327 0.36633942 0.07364008 -0.034824222 -0.043037955
-0.0787456 0.43404344 -0.056995537 -0.18799819 0.66532665 -0.004099594 0.111664176 -0.13869226
-0.018290715 0.3306235 -0.032321766 0.1832342 0.07775819 0.01179581 -0.02748925 -0.023428045
0.19848792 0.080390476 -0.10016399 0.26718065 -0.22392413 0.25239542 0.1294404 0.29994074
-0.38264167 0.30161488 0.25961334 0.060340643 -0.22216102 0.047440074 -0.05419515 0.19800785
0.061853748 0.26019067 0.0663381 -0.09879938 0.023974173 -0.029304616 -0.054710943 -0.053278156
-0.006838567 0.17937048 0.009529809 -0.005389637 -0.07621814 0.0012137734 -0.0058134706 -0.017093092
0.616901 -0.15430477 0.06008464 0.19979578 -0.093272105 0.018942384 0.08579691 -0.03940819
0.046521448 0.05113986 0.13329686 -0.17438386 0.2705953 0.089591704 0.075699784 -0.07055947
0.09721238 0.2363371 -0.13158883 -0.15834485 0.4069247 0.14319023 0.121862 0.064763
0.132528 0.28232592 0.1448462 -0.049920313 0.1370932 0.019568643 -0.08440313 0.09759772
-0.17034535 -0.0036275953 -0.05654336 0.21693933 0.005478549 0.17391619 0.08641815 0.16451083
-0.089625336 0.35315418 0.20405114 -0.116201855 -0.0032719462 -0.0661223 0.068268545 0.10993713
0.03472391 0.13990466 0.050066087 0.08992744 0.11957396 -0.10302246 -0.21872729 0.08741775
-0.073694505 -0.09957897 0.00038720644 0.08609509 -0.17603955 0.012869401 0.012999312 -0.102010734
-0.9485433 0.015994394 -0.07257302 -0.2506249 -0.15377714 0.17818438 -0.32266462 -0.26285884
-0.04918784 -0.008067263 0.16071478 0.020149283 0.41127795 -0.07068468 0.27014875 -0.21518323
-0.28777593 0.5256685 -0.11621311 0.2681671 0.80988 -0.41891012 0.20564155 -0.11623024
-0.19032897 -0.5865336 0.12338685 -0.34065038 0.19460122 0.082106456 0.3196705 0.057607714
0.49886635 0.07267919 0.06979167 0.60530597 -0.07701192 -0.07040235 -0.368119 -0.44722667
0.14265974 -0.2413731 0.38380256 0.01656139 0.18786892 0.2785584 -0.02883976 -0.30329087
0.24081087 0.35114598 0.006888057 0.12013418 -0.1834628 0.09555676 0.06439464 0.035289466
-0.0050238483 -0.060083263 -0.013932709 0.019123526 -0.08873877 0.08664132 0.27210975 0.07478379
0.56161046 0.06881191 -0.006940494 -0.028607596 0.04626524 0.031175634 -0.020313982 -0.019898754
0.041796133 -0.13335118 -0.035022013 -0.1824894 0.19328502 -0.06591696 -0.065170005 -0.10724173
0.011419398 0.46157262 -0.21255511 -0.2002396 0.5721814 -0.055106517 -0.048060156 0.071538955
-0.08073018 0.38133824 -0.06981996 0.07166385 -0.03551365 -0.11652904 0.093192175 0.008462227
0.076955006 0.06546259 -0.16475561 0.4342364 -0.13403237 0.10262457 0.21873109 0.36932582
-0.114641204 0.33332708 0.3735836 0.04017869 -0.19638042 0.051317036 -0.038834248 0.13742061
-0.07512239 0.0886103 0.07046745 0.11077368 0.09208779 -0.07538228 -0.27988416 0.07621873
00000000: ac74 0abe cc7c 12be 56b0 c23d f147 e3bd
00000010: 40a7 91bd e761 c8bc 2431 0e3e 116e dfbd
00000020: 3f04 493f 11b2 9dbd d05f 02bd bd94 a93d
00000030: 8ee5 50bd b16a adbd 9f36 79bd 80ae 1b3e
00000040: 197b babd 49a9 f7bd a26d f93b 3660 04be
00000050: d790 bb3e 9cd0 963d d8a3 0ebd 9148 30bd
00000060: 6045 a1bd f13a de3e 2774 69bd 9982 40be
00000070: d952 2a3f e355 86bb 30b0 e43d 5805 0ebe
00000080: 69d6 95bc 7c47 a93e d463 04bd bfa1 3b3e
00000090: b03f 9f3d 3743 413c 2331 e1bc 2cec bfbc
000000a0: 6b40 4b3e c3a3 a43d c722 cdbd e7cb 883e
000000b0: 5e4c 65be f939 813e 068c 043e d591 993e
000000c0: 9ce9 c3be 446d 9a3e 0aec 843e c027 773d
000000d0: 2e7e 63be 8650 423d bcfb 5dbd 92c2 4a3e
000000e0: 5b5a 7d3d b637 853e 45dc 873d 5457 cabd
000000f0: 7c65 c43c 3c10 f0bc 9518 60bd 323a 5abd
00000100: 0f16 e0bb e5ac 373e ea22 1c3c 8d9b b0bb
00000110: 4218 9cbd 7a17 9f3a ed7e bebb d006 8cbc
00000120: 39ed 1d3f 1202 1ebe 501b 763d 4497 4c3e
00000130: 7205 bfbd 0f2d 9b3c 4ab6 af3d 7b6a 21bd
00000140: 468d 3e3d 0878 513d f97e 083e af91 32be
00000150: 788b 8a3e db7b b73d 7d08 9b3d 7c81 90bd
00000160: 4917 c73d 5a02 723e 39bf 06be 2725 22be
00000170: 6f58 d03e 76a0 123e c992 f93d 77a2 843d
00000180: 6cb5 073e 068d 903e 9052 143e 3e79 4cbd
00000190: 2962 0c3e 6b4e a03c 8cdb acbd 50e1 c73d
000001a0: 036f 2ebe f3bc 6dbb 039a 67bd 5825 5e3e
000001b0: 6685 b33b 1617 323e 00fc b03d 8775 283e
000001c0: 7d8d b7bd a0d0 b43e c8f2 503e 3dfb edbd
000001d0: 266e 56bb 216b 87bd 61d0 8b3d b826 e13d
000001e0: a93a 0e3d 2b43 0f3e 1912 4d3d e12b b83d
000001f0: 31e3 f43d 71fd d2bd 0cfa 5fbe 1408 b33d
00000200: 25ed 96bd 0ff0 cbbd f801 cb39 9f52 b03d
00000210: b643 34be 2eda 523c 11fb 543c 01eb d0bd
00000220: bcd3 72bf ad06 833c 2aa1 94bd e851 80be
00000230: c177 1dbe f775 363e 4c34 a5be 6f95 86be
00000240: 3079 49bd 8e2c 04bc 6a92 243e 1c10 a53c
00000250: 0693 d23e 21c3 90bd f050 8a3e fe58 5cbe
00000260: 5e57 93be 3692 063f 2401 eebd 334d 893e
00000270: 4c54 4f3f 637b d6be b393 523e 1f0a eebd
00000280: 99e5 42be 1127 16bf 3fb2 fc3d ba69 aebe
00000290: 8b45 473e 6e27 a83d daab a33e 11f6 6b3d
000002a0: 696b ff3e d4d8 943d efee 8e3d 55f5 1a3f
000002b0: 6db8 9dbd 1b2f 90bd 187a bcbe e5fa e4be
000002c0: 6515 123e 832a 77be c581 c43e c1ab 873c
000002d0: b660 403e 359f 8e3e 5c41 ecbc f148 9bbe
000002e0: 2097 763e 68c9 b33e 36b5 e13b e908 f63d
000002f0: acdd 3bbe 43b3 c33d 56e1 833d b08b 103d
00000300: 189f a4bb de19 76bd 0446 64bc f1a8 9c3c
00000310: acbc b5bd 0171 b13d f851 8b3e 3e28 993d
00000320: b4c5 0f3f 42ed 8c3d 156d e3bb 7a5a eabc
00000330: 9f80 3d3d 0b64 ff3c 8269 a6bc b602 a3bc
00000340: 6c32 2b3d 368d 08be 3e73 0fbd 80de 3abe
00000350: 82ec 453e 79ff 86bd da77 85bd 8da1 dbbd
00000360: 6d18 3b3c 3f53 ec3e 0ca8 59be 9c0b 4dbe
00000370: 7b7a 123f 5fb7 61bd bada 44bd 0483 923d
00000380: dd55 a5bd c43e c33e c4fd 8ebd 7fc4 923d
00000390: c376 11bd c7a6 eebd 8adb be3d 27a5 0a3c
000003a0: 969a 9d3d 4011 863d b2b5 28be 3c54 de3e
000003b0: c83f 09be d52c d23d 0bfb 5f3e 4618 bd3e
000003c0: 02c9 eabd d9a9 aa3e 5a46 bf3e 6992 243d
000003d0: f317 49be d031 523d a910 1fbd fdb7 0c3e
000003e0: c5d9 99bd 5179 b53d 3d51 903d 50dd e23d
000003f0: 8698 bc3d 0662 9abd fa4c 8fbe 9118 9c3d

weight_hh_l0 f4 [256, 64]
0.043123096 -0.20640942 0.058369868 -0.024815422 0.038323607 -0.08417499 0.042099014 -0.0023443806
-0.0018005503 0.11697454 0.03995851 0.04128048 0.13460718 0.04412551 -0.0469952 -0.036999032
-0.047991663 -0.028618593 -0.00849145 -0.05413171 -0.021397537 -0.07234886 -0.1271487 0.084688686
-0.007631766 -0.09726359 -0.016243735 0.06828892 -0.13644256 -0.049503416 -0.00024627175 -0.05966124
0.13660778 0.04127178 -0.07883127 -0.080478124 -0.16480532 -0.078979515 -0.0120821465 0.030751266
-0.09986719 -0.08104641 -0.09110006 -0.079703055 -0.056938045 -0.06630383 0.0012223395 0.06856345
0.0569308 0.023544379 -0.14898042 0.00074509956 -0.10864498 0.061877646 -0.1633951 -0.010425083
-0.018024521 -0.06637565 -0.049150396 -0.14122246 -0.06545457 -0.08356094 -0.11776038 -0.12765959
-0.1329456 -0.08425768 -0.0926533 -0.080344036 0.2181045 -0.09560215 -0.16364327 -0.11397264
-0.12650804 -0.024845524 -0.31706157 0.08802863 0.24593723 0.046398237 0.2382672 0.18168086
-0.083855525 0.05061174 -0.27200034 0.035774443 0.084017314 -0.07386889 -0.33141586 0.061324965
0.22772431 0.21645501 0.09979873 -0.13825949 -0.22436856 0.28076887 -0.32726732 0.113257416
0.17733783 0.5051994 -0.23291598 0.15471987 -0.38583806 -0.19273691 -0.1643148 0.19096373
-0.013869528 -0.4495371 0.1082525 0.08653827 0.14280462 -0.09597123 0.3439547 -0.29198295
-0.041788723 -0.14514235 -0.22216767 -0.21317561 0.069817126 -0.2064531 -0.17334133 0.041450992
-0.4119692 -0.081957385 -0.23364714 -0.2192165 0.21677417 0.08618562 -0.118215896 0.20345137
0.1547108 -0.00017524615 -0.066560216 -0.043050256 -0.061495047 0.12166703 -0.20911418 0.06158279
0.121434346 0.075465865 -0.113581836 0.017868485 -0.07959395 0.0006121839 0.11315101 -0.07346307
-0.008363358 0.038732383 0.08920695 0.01664394 0.02843194 -0.013851986 0.09073072 -0.07790082
-0.06608508 -0.014810618 -0.12494553 0.09638353 0.15459912 -0.08905969 0.013154553 -0.06116274
-0.042025395 0.028029239 0.030559232 -0.1301188 -0.08606985 0.03731072 -0.063094124 -0.1206745
0.13814676 0.11582579 0.06003687 -0.22347823 -0.062832825 0.18223856 0.065481655 0.10470193
0.0764862 0.017913563 -0.12821889 0.008484467 0.17341588 0.037430003 0.08062361 0.04881662
0.064897336 -0.04217083 0.07921852 -0.051662344 0.05352401 -0.24524502 0.16262037 0.07772707
-0.07568442 -0.19945419 -0.025389047 0.112785004 0.1704334 0.0040611573 -0.20522131 -0.07132555
0.14350566 0.029951647 -0.09115411 0.12903371 0.18074767 0.011563065 0.06296824 0.18263324
0.025358682 -0.074882396 -0.16863999 0.027181432 -0.11389696 -0.043423943 -0.1205589 0.16236213
-0.06413906 -0.1549021 0.0020060462 -0.05992053 0.06751631 0.15697235 -0.01194524 0.12996574
0.08248282 0.020882098 -0.07802907 -0.017139897 -0.10416184 -0.17968737 -0.11325809 0.10488946
-0.06477835 -0.1688303 0.028297957 -0.23779768 0.11881968 0.20636985 -0.037159245 0.014709445
-0.002180774 0.21587561 -0.237963 -0.04278556 0.18484727 0.026711205 0.016960956 0.13426514
-0.08951845 -0.14873323 -0.026324635 -0.15518677 0.15455864 0.06701029 -0.015797457 -0.08754289
00000000: d8a1 303d fe5c 53be 3e15 6f3d b649 cbbc
00000010: 37f9 1c3d f063 acbd 0470 2c3d 2ea4 19bb
00000020: 7100 ecba 5990 ef3d 89ab 233d b815 293d
00000030: 77d6 093e f3bc 343d 0a7e 40bd 4c8c 17bd
00000040: e892 44bd 8a71 eabc b91f 0bbc 36b9 5dbd
00000050: e349 afbc a42b 94bd 4533 02be 4371 ad3d
00000060: e513 fabb 2232 c7bd 9511 85bc 10db 8b3d
00000070: 99b7 0bbe 18c4 4abd 091e 81b9 585f 74bd
00000080: e9e2 0b3e 990c 293d 4a72 a1bd b7d1 a4bd
00000090: bac2 28be 03c0 a1bd 32f4 45bc 14ea fb3c
000000a0: 2b87 ccbd a9fb a5bd ab92 babd 5b3b a3bd
000000b0: de37 69bd 4dca 87bd e836 a03a fe6a 8c3d
000000c0: 4530 693d 24e0 c03c 538e 18be c952 433a
000000d0: 4281 debd 6a73 7d3d 0c51 27be f8cd 2abc
000000e0: 29a8 93bc f5ef 87bd ed51 49bd 9f9c 10be
000000f0: 0c0d 86bd 0022 abbd 5b2c f1bd 32b9 02be
00000100: e422 08be 4a8f acbd 03c1 bdbd 6a8b a4bd
00000110: c956 5f3e 0fcb c3bd 1a92 27be 7d6a e9bd
00000120: 538b 01be d788 cbbc e555 a2be 5b48 b43d
00000130: f8d6 7b3e 140c 3e3d 51fc 733e 8c0a 3a3e
00000140: 72bc abbd 424e 4f3d a143 8bbe 3988 123d
00000150: 4511 ac3d 9348 97bd 57af a9be e32f 7b3d
00000160: 9030 693e 62a6 5d3e 4763 cc3d e593 0dbe
00000170: dfc0 65be f0c0 8f3e 958f a7be 81f3 e73d
00000180: 0c98 353e bf54 013f 8781 6ebe e36e 1e3e
00000190: 918c c5be d35c 45be 2442 28be ff8b 433e
000001a0: 043d 63bc ba29 e6be 7db3 dd3d fa3a b13d
000001b0: 603b 123e 908c c4bd d51a b03e ca7e 95be
000001c0: a72a 2bbd 32a0 14be ec7f 63be b54a 5abe
000001d0: 48fc 8e3d 7168 53be 6480 31be 84c8 293d
000001e0: a1ed d2be 46d9 a7bd 3241 6fbe 4a7a 60be
000001f0: 0cfa 5d3e 1682 b03d 2d1b f2bd 8e55 503e
00000200: 826c 1e3e 48c2 37b9 b950 88bd 7755 30bd
00000210: 3be2 7bbd 902c f93d 0722 56be 3c3e 7c3d
00000220: 92b2 f83d d98d 9a3d 989d e8bd ee60 923c
00000230: 2702 a3bd f77a 203a b7bb e73d ce73 96bd
00000240: 7706 09bc d9a5 1e3d 22b2 b63d df58 883c
00000250: 1aea e83c 71f3 62bc 07d1 b93d 778a 9fbd
00000260: 9d57 87bd 3ca8 72bc 71e3 ffbd ba64 c53d
00000270: 3b4f 1e3e ed64 b6bd 3286 573c c885 7abd
00000280: d222 2cbd 939d e53c 5b57 fa3c dd3d 05be
00000290: 6445 b0bd 20d3 183d 7e37 81bd 3124 f7bd
000002a0: 5876 0d3e 1236 ed3d 39e9 753d 7ad7 64be
000002b0: 7fae 80bd bf9c 3a3e 3f1b 863d f76d d63d
000002c0: cca4 9c3d 77bf 923c d04b 03be 6f02 0b3c
000002d0: ef93 313e 3450 193d fe1d a53d f0f3 473d
000002e0: e5e8 843d 52bb 2cbd 523d a23d e59b 53bd
000002f0: fe3b 5b3d 8321 7bbe f485 263e 5f2f 9f3d
00000300: 6f00 9bbd b83d 4cbe b1fc cfbc d3fb e63d
00000310: 1886 2e3e 7513 853b 8925 52be 2113 92bd
00000320: 26f3 123e 285d f53c 02af babd 6a21 043e
00000330: eb15 393e 0373 3d3c 7ef5 803d 3504 3b3e
00000340: 03bd cf3c f15b 99bd f6af 2cbe 98ab de3c
00000350: cf42 e9bd 4edd 31bd 96e7 f6bd 4242 263e
00000360: 575b 83bd a89e 1ebe df77 033b 3b6f 75bd
00000370: fe45 8a3d 5cbd 203e f8b5 43bc bd15 053e
00000380: c1ec a83d ef10 ab3c b4cd 9fbd f868 8cbc
00000390: ce52 d5bd f7ff 37be dcf3 e7bd 49d0 d63d
000003a0: 83aa 84bd dae1 2cbe 1ed1 e73c 3c81 73be
000003b0: bb57 f33d 9e52 533e 4b34 18bd e2ff 703c
000003c0: 51eb 0ebb 7f0e 5d3e 93ac 73be e93f 2fbd
000003d0: 9a48 3d3e 75d1 da3c b4f1 8a3c cd7c 093e
000003e0: 7355 b7bd 864d 18be c3a6 d7bc 48e9 1ebe
000003f0: 9f44 1e3e b13c 893d ab69 81bc b049 b3bd
