js_park/best_AF_ND_non.pth (torch, 460067 bytes, 11 tensors)

weight f4 [168, 336]
00000000: 1857 1d3d 4af7 2b3d 2cb5 83bc 25c3 3f3d
00000010: a4de 79bc 81b1 fc3b 1396 f4bc 7b74 eb3c
00000020: a87a 373d fe70 31bd acb7 343d 1a86 e23b
00000030: 6496 173d cc19 863b 6380 bc3c e02b 34bc
00000040: 6bc3 1e3d 383c 9c3b 73a5 ebbc 0ec9 2d3c
00000050: 27f3 e8bc 23f2 1ebc 1d9a d0bc 8cac 063d
00000060: 30f7 3dbd 6d37 e9bc 4469 99bc f0fa 13bd
00000070: a667 ee3a 635c 6abd ed1f 3c3d 6485 4bbd
00000080: 9fc7 1e3d 7269 bb3b 23af acbc ab8d f83c
00000090: b0f2 a73b 3caf 263d 03b5 283b 2dc3 a8bc
000000a0: 7867 383c 1a1f 95bc c51a a03c 0d7d 393d
000000b0: a741 e63c e881 dfbc d6cf e53c bbfa ce3b
000000c0: 98b2 c63c 2158 16bd 4c5c 6bbd 4d04 c9bc
000000d0: 6f95 39bd 2727 293d b998 483c 16a9 9c3c
000000e0: edb4 613c c31e 91bb be9e 203d d806 2dbd
000000f0: 8abb 43b8 54c7 26bd b192 5a3c 8f6b b6bc
00000100: c0db 583c 0143 73bc df10 2b3d deb6 12bd
00000110: 288c 13bd e28f 13bd 4eb2 3a3d a9b1 703c
00000120: 00b9 483d 46b6 46bd 57f0 6bbd 761f 3dbd
00000130: 0c9e 24bd 3668 983c 6f69 833c b65c 2b3d
00000140: f3b6 01bd 11a6 26bd c080 d03c 623d d1bc
00000150: f1a7 f23c 19a2 86bc 3013 e33c c2e7 3bbd
00000160: f21b febc 2456 573c 74c4 033c f88c 8ebc
00000170: 1fc7 ed3c 7899 093d d959 30bd 099a 05bd
00000180: 024f 3e3d cc63 b3bc 6d01 bbbc 2a7c 66bd
00000190: d037 0ebd 8753 263c 46df 2ebc 8e69 30bd
000001a0: 1c41 0fbb d5d0 26bd 90bb 4bbd 802d 09bd
000001b0: 96ad 51bd 5b5f 1cbd 714b 513d 9b34 e13b
000001c0: ce4a 5b3c d76e 5ebd 4bc3 20bd bfbb b0bc
000001d0: e6bd a73b e694 52bd 4f72 dcbc 3bb3 13bd
000001e0: e39b 54bb 3812 c2bc 21d0 eabb d544 25bd
000001f0: ca36 27bd e12e 10bd 7295 b4bc 252a 3ebd
00000200: 6c93 2d3d 407b 68bc da80 323d de8d 5f3c
00000210: d7ef 4abd deef 0c3d 2958 96bc cca9 c6bc
00000220: be25 47bd a0ce 6bbd 5124 493c 59cc 79bc
00000230: 99bb 923c 9f01 45bd d04a 183d 5fa0 31bd
00000240: adb1 50bc 3765 043c f8a0 cb3c ade2 263d
00000250: f310 3e3d 8da7 3ebd 161d 2b3c 8120 dbbc
00000260: 84b8 17bc 6bb0 34bd 9a1c 3e3d 1e6a 31bd
00000270: 2010 d43c ae4c 823c b0f9 6c3c 6d2b 06bd
00000280: dcc1 3d3d ea04 0f3c bc53 763b fa44 52bd
00000290: faea a03c 6377 3bbc 156c e7bc b999 323d
000002a0: fff5 113c 08f6 08bd 8ad5 fcbc ffc9 bfbb
000002b0: acf2 de3c b0ce 8cbc 6dd0 0cbd 32af b3bc
000002c0: 3644 34bd 2dba 843c 15a4 1f3d 65af 5fbd
000002d0: c158 1a3c 1841 cc3c c7b0 d93b 8ec6 b9bc
000002e0: c4a0 ce3c b233 d03c 256f 8c3c eb73 52bc
000002f0: f10d 91bc e6a8 283b a763 53bc 3bf3 9fbc
00000300: 3370 013d ffa1 323d a924 0ebc 04d2 7dbc
00000310: c7e7 22bb ef6a d6bb 17f2 203c e070 443c
00000320: 737d 58bd da0b c0bc 3199 2e3d e6e5 923c
00000330: c5d7 c5bb 3d5b 14bd 915d 16bd 4dd6 55bd
00000340: 0111 adbc 02f8 763c e7bc 003d 13d0 b23c
00000350: 9f4d 53bd a22d 14bd 3b55 44bc 2d53 4a3d
00000360: c1c9 933b c078 8fbc f120 9d3c 2404 c6bc
00000370: 0a8c 1ebd 032f 153d 4215 e7bc 8bff 6abc
00000380: dc44 6cbd 968f 073d ef4a 1b3d 3ed7 863c
00000390: 90d6 29bd 4894 6abd 008a 43bd 8f8f 183d
000003a0: ae64 ba3c 70f0 2d3d 8fe3 cd3c 29af 293c
000003b0: 4bb6 82bb f41a 38bd 7ca2 4dbd 4536 5fbd
000003c0: 3f82 9a3c b0e0 f7bc 4ed4 6cbc 65d7 0ebd
000003d0: 5edf 5bbc 9087 2bbd 8644 20bd e16b 6f3c
000003e0: 8667 a1bc b651 f73c f6ef abbc 1f31 32bd
000003f0: f7be 56bc 8623 f5bc e034 a5bc b5f4 62bd
0.038413137 0.04198388 -0.0160776 0.046816964 -0.015250836 0.00771159 -0.029856717 0.028742066
0.04479471 -0.04332065 0.044120476 0.006912959 0.037008658 0.0040924307 0.023010438 -0.010996789
0.038760584 0.004767921 -0.028765416 0.010607017 -0.028436257 -0.009701285 -0.025464112 0.032879397
-0.046378314 -0.028468812 -0.018726952 -0.036127985 0.0018188849 -0.057217013 0.045928884 -0.049687758
0.038764592 0.005719357 -0.021079605 0.03034099 0.005125366 0.04069446 0.0025742657 -0.02060088
0.011255138 -0.018203307 0.019544015 0.045285273 0.028107477 -0.027283624 0.028053205 0.0063165105
0.024255082 -0.03670514 -0.057461068 -0.024538184 -0.045308527 0.041297104 0.012243443 0.019123595
0.013776046 -0.004428716 0.03921389 -0.042242855 -4.6666282e-05 -0.040717438 0.013340638 -0.022268085
0.013235986 -0.014847518 0.041764136 -0.035818927 -0.036022335 -0.03602589 0.0455802 0.014690795
0.049004555 -0.048513673 -0.057602253 -0.04617258 -0.040189788 0.01860438 0.016041486 0.041836463
-0.031668615 -0.040685717 0.025452018 -0.025541965 0.029621096 -0.016434716 0.02771911 -0.04587532
-0.031019185 0.013143096 0.008042444 -0.017401204 0.029025612 0.033593625 -0.043054435 -0.032617602
0.046462066 -0.021898173 -0.022827828 -0.056270756 -0.034721196 0.01015175 -0.01067335 -0.043069415
-0.0021858877 -0.0407265 -0.04973942 -0.033490658 -0.051190935 -0.038176876 0.051097337 0.006872726
0.013384534 -0.054304924 -0.039248746 -0.0215739 0.005119073 -0.051411532 -0.026909975 -0.0360596
-0.0032441549 -0.023690328 -0.007165924 -0.040348846 -0.040823735 -0.035200957 -0.022043917 -0.04642691
0.04237692 -0.014189541 0.043579914 0.013644664 -0.049545135 0.034408443 -0.018352585 -0.024250887
-0.048619978 -0.0575701 0.012276725 -0.015246474 0.01791172 -0.04809725 0.03718072 -0.043365832
-0.012737674 0.008080772 0.02485703 0.04074352 0.046402883 -0.046546508 0.010443946 -0.026748898
-0.009260301 -0.044113558 0.046413995 -0.04331409 0.025886595 0.015905704 0.014463827 -0.032756258
0.046327457 0.008729199 0.003758653 -0.051335312 0.019643296 -0.011442038 -0.02824978 0.043603633
0.008908748 -0.03343776 -0.030863542 -0.005852937 0.027215324 -0.0171884 -0.034378458 -0.021934126
-0.044010364 0.016202057 0.03897484 -0.05461063 0.009420575 0.024933383 0.006643388 -0.022677686
0.025223143 0.025415275 0.017142842 -0.01284502 -0.017706843 0.0025735437 -0.012902177 -0.019525161
0.031601142 0.043611523 -0.008675733 -0.015491966 -0.0024857388 -0.006543509 0.009823344 0.011989802
-0.052854013 -0.023443151 0.042626563 0.01793189 -0.0060376846 -0.036219824 -0.036710326 -0.052206326
-0.021126272 0.015073778 0.03143015 0.021827733 -0.051587697 -0.03617633 -0.011983211 0.04939573
0.004510135 -0.017513633 0.019180747 -0.024171896 -0.03870777 0.036421787 -0.028208379 -0.014343153
-0.057682857 0.03309592 0.03791326 0.016460057 -0.04146439 -0.05727032 -0.04773903 0.037246283
0.022753086 0.042465627 0.025132922 0.010356703 -0.003989016 -0.04494758 -0.050203785 -0.054495115
0.018860934 -0.030258507 -0.014454914 -0.034873385 -0.013419954 -0.04187733 -0.03912785 0.014613123
-0.019702684 0.03019033 -0.020988446 -0.043503877 -0.013107053 -0.029924165 -0.020166814 -0.055409152

bias f4 [168]
00000000: 4c7a e1bc 0f7b 803d d931 9e3e 4c73 073e
00000010: 501a a23e 0aa7 9f3e 4575 483e 7b39 8c3e
00000020: 6fa1 293e 1092 a93e 8b12 2a3d 0a08 963e
00000030: e398 6d3e 2b0f ffbb 21e3 adbc 2608 93bd
00000040: a067 0f3e 023d 953e ae5e dc3d 543d 8fbe
00000050: 82b8 8f3e 3ef9 843e 2b94 6a3e 645d e23c
00000060: 1999 a4bd bddb 023e 81ac 273e b0f7 c8bc
00000070: fc50 b23e 34e7 a03e 9281 a93b 7504 733e
00000080: e267 953e da40 473e f7ac 883e ed68 953e
00000090: e744 813e 1400 833e e821 b13e 6c48 2d3e
000000a0: f13a 873e 0e1a b3bd 50c4 633e fa8d 993d
000000b0: 69bc 813e cf5f b03e 7f79 7d3c ee0e 51be
000000c0: fee5 163e d6d4 553e cc42 383e 367a 5d3e
000000d0: 7072 983e fd6c 7a3e c5ab 3c3e e0f2 7cbd
000000e0: f9eb 313e 4f44 20bc fbbe 4e3e 4b2d 8d3e
000000f0: 58ae 903e 5176 863e 51b4 adbe 1ffd c0bc
00000100: 116b 60be 7f99 2fbc a610 3bbe 7398 4e3e
00000110: f374 433e fd02 cebd 7933 92bc cc1c 1fbe
00000120: c51d b13d e04c 11be 880c 183e e244 1c3e
00000130: 2253 e4bd e68f 473e 7fca 353e e3be 443e
00000140: 48d4 dcbe b43c 3d3e df41 283e 3e65 723d
00000150: 184e a53d bb14 78be 40c9 a43d f1f7 723e
00000160: c745 273e 32a8 443e 065c 473d c8e0 463e
00000170: ec1a 1f3e 59f3 073e 51c2 0a3e 3940 f3bc
00000180: b075 bdbe dc73 c73d 75f6 6e3c aa53 803c
00000190: 8ed5 113e cade f83d bb4c 39be 307c 983d
000001a0: ac99 ec3d 2ac3 2bbe 8b60 d8bd d604 9b3d
000001b0: 19f3 c53d 9e29 93be 4823 1d3d cb4a 0cbd
000001c0: 349c fa3b fb09 27be 3ecc 7a3c f727 b03c
000001d0: 86ab 5c3d e6e8 793d dde7 973d e1fc 5fbe
000001e0: 5831 31be e9fd 913c 33ce d2be d141 9bbe
000001f0: 7314 ebbe 9c92 103d 3f7c 19bd db9f 493d
00000200: 1d58 d938 4848 debe bfe6 ecbe 376a c3be
00000210: c931 2a3d 4420 32be 0e65 8dbe a443 0d3d
00000220: 7a4d f3be b551 c03c ec5a c03b 7345 7abe
00000230: 4858 e6be 313b b7be 4deb 71be 5990 ddbd
00000240: 3368 9bbe 5c27 55be 335f 42be db6d 3dbe
00000250: 086d 0bbd 704c ac3c b792 233d 1c72 73bd
00000260: 09a0 aebe 0202 e0be b106 cdbd 162f 2abe
00000270: 08d6 f5be 7936 81be 0a59 f73c 36fe 4f3d
00000280: bde3 f2be 45a0 753c 4fb8 18bc e696 3bbd
00000290: ea93 75be facb ddbe 448e 33bd e20d d9be
-0.027524136 0.062734716 0.30897406 0.13227576 0.316607 0.31182128 0.19575985 0.27387604
0.16565488 0.3311925 0.04152159 0.29303008 0.23202853 -0.0077837906 -0.021226468 -0.071792886
0.14004374 0.29148108 0.10760246 -0.27976477 0.28070456 0.25971407 0.22908084 0.027632423
-0.080370136 0.12779136 0.16374399 -0.02453217 0.3482741 0.31426394 0.0051729167 0.23732169
0.2918082 0.19458333 0.26694462 0.29181615 0.2524788 0.25585997 0.3459618 0.16922158
0.26412156 -0.08745204 0.22242856 0.07497783 0.25339058 0.34448096 0.015470861 -0.20415851
0.14736173 0.20881972 0.17994231 0.21628651 0.2977481 0.24455638 0.184249 -0.06175506
0.17375173 -0.009781911 0.20190041 0.27573618 0.28258014 0.26262143 -0.33926633 -0.023558198
-0.21915843 -0.010717749 -0.1826807 0.20175342 0.19087581 -0.10059164 -0.01784681 -0.15538329
0.08648256 -0.14189482 0.1484853 0.15260652 -0.11148669 0.19488487 0.17753027 0.19213443
-0.43130708 0.18480188 0.16431378 0.059178583 0.08071536 -0.24226658 0.08046198 0.23727395
0.16335212 0.19204786 0.048671745 0.19421685 0.15537614 0.13276424 0.13550688 -0.02969371
-0.3700385 0.09738895 0.014585127 0.015664894 0.14241621 0.12151869 -0.18095677 0.07445562
0.11552748 -0.16773668 -0.10565289 0.07569282 0.09665508 -0.2874269 0.038363725 -0.034251016
0.0076480154 -0.16312401 0.015307484 0.021503432 0.053874515 0.061013125 0.07417271 -0.2187381
-0.1730398 0.01782127 -0.41172943 -0.3032365 -0.4591404 0.035296068 -0.037472006 0.049224716
0.00010363779 -0.4341452 -0.46269795 -0.38166973 0.041551385 -0.17395121 -0.2761616 0.034488335
-0.47520047 0.023476461 0.0058702137 -0.24440555 -0.44989228 -0.35787347 -0.23624916 -0.10818548
-0.30352935 -0.20815796 -0.18981628 -0.18498938 -0.034039527 0.021032542 0.03993484 -0.059434995
-0.34106472 -0.43751532 -0.10011042 -0.16619524 -0.48014855 -0.25236872 0.030193824 0.050779544
-0.47439376 0.0149918245 -0.009321286 -0.045798205 -0.23982206 -0.43319684 -0.043836847 -0.42393404

weight f4 [168, 336]
00000000: 09a6 94bd 229c 3ebe 1716 af3d 1a4a 8e3e
00000010: 2f65 923e 32c6 713e 6b34 01be c7ba 5ebe
00000020: 6938 7bbd 203d 4b3e 0eee 593e 9e8b 05bf
00000030: 9644 1cbe e810 5abe 7c9b 68bd edbf aabd
00000040: 137f c2bd db46 bbbd 1b92 5f3e c588 1a3e
00000050: dec3 0dbd e1c8 7fbe 89b8 cdbd dd28 913e
00000060: 0adc 333f 91a3 4a3f 9d25 903f f513 8d3f
00000070: 2832 623f fd21 fc3e 6cbc 103f a9c0 2a3f
00000080: b7e4 d43e 03f9 6b3e a843 773d fcf4 2ebd
00000090: 8f6d c2be a955 1dbf a1ef dabe e068 88be
000000a0: 54db 92be f796 bdbd 8e22 2bbe b780 eebe
000000b0: 802b 54bf 825b 8dbf fd65 fbbe e118 203d
000000c0: af77 6b3e e84d 433e 18aa d93c d087 593e
000000d0: 1c8d 373e 7bb2 af3d e85a 533e c1ad 8d3e
000000e0: f104 853d e184 033e d66c 8b3d e848 bebc
000000f0: 7ba3 6ebe 0a15 05be 40eb 7abe 7d87 1abf
00000100: fa65 a3be 4eb1 92be 9411 41be 399d 9dbe
00000110: d1c7 10bf bca0 25bf d6cb 7fbe 0aa6 173e
00000120: 449a 5d3e d4e5 9d3e 4538 a93e d889 0f3f
00000130: 04a2 d03e 924a 3b3e e521 2a3e ade7 df3e
00000140: 13d7 e8bd e6ca 18bc 57cb ae3d 9631 bbbe
00000150: fc41 18be e6a3 96be 4e6d 16be c4f0 4c3d
00000160: fc39 90bd 77c1 abbd 9bef 9bbe 865e ebbe
00000170: 4a2c 18bf c8d4 ccbe 2a16 8abd eb8d 1d3f
00000180: 6a4c 8c3f 3e1d 993f 5598 4a3e a8b9 3e3e
00000190: 78e9 f93d 3530 9e3d c85b 14bd d30e 40be
000001a0: 45cc f6be c2f8 bfbe 4da3 c4be f09b 00bf
000001b0: 5628 cabe 7665 d4bd e049 5cbd 497b 26be
000001c0: afbe 90be 8f80 bcbe 5cdf 6abf 02c5 ffbe
000001d0: f48e 18bf e709 0bbf 2025 a83d 201a 003f
000001e0: 2370 353f 69b2 d03e 288d 9a3e ca2b ec3e
000001f0: 206c b33e f905 143e 9009 063e 45d0 0c3e
00000200: c467 64ba 08fd 11be 6836 c7be aff3 ecbe
00000210: 73bf a3be 2bae cabe 9a14 6abe ac2e 29be
00000220: 34db c9bd b9a8 82be d400 bbbd eb5f b1bc
00000230: f901 48be b23b 7bbe bfb1 23be 31b0 4b3e
00000240: 86f6 243f dde1 093f 49b0 d23e 9060 1e3f
00000250: 11a6 7b3e 54a3 f4bd 3954 25be 4638 07bd
00000260: 4717 38be 2b44 12bf 5b55 6abf 3130 943e
00000270: 9de0 62bf b4c9 91bf 30ea edbe 9907 1e3f
00000280: bd4b 413f 059a 8c3e 0af7 a43e 9cec bdbd
00000290: b5ad 72bf 2055 53bf 9676 0fbf b9b9 78bd
000002a0: 7e89 983e 2f3c f53e edf0 183f 1332 e03e
000002b0: 3e91 673e 5859 09bd 5af8 35be fc59 b8be
000002c0: 29b8 b8be e6de 7fbe e3d3 b6be 8b92 a8be
000002d0: b295 20bf 301d 03bf 0a9a 3d3d b41a e23d
000002e0: 5781 9b3e dfd6 033e 48a6 4a3e c640 5d3e
000002f0: 9ebb adbd 5596 23bd d920 e93d eafb 153e
00000300: 025c 903f 64b0 183f 3f26 e13e 55ad e43e
00000310: ee3c 903e 82f1 eb3d 61cb 963d 45f7 c4bc
00000320: a673 bcbd b2f0 31be 6933 2bbe 2ae0 ccbe
00000330: a345 50be 7ffd ffbd 9aa5 98be fd16 abbd
00000340: 4cbf 953d 5e04 9bbd dc0c 5a3d c995 4cbe
00000350: 76cd 1cbf 8fd1 3cbf ea68 15bf 725b ac3e
00000360: 7f50 0d3e cb4b 883e dca0 c13e 4aec 4c3f
00000370: 54aa 833f 21a8 883e 50ae 953e bfdc 153e
00000380: 672a 793e dff8 303e 3b51 4ebe 7ea6 19bd
00000390: 5a7e c7be 7d97 edbd 87b3 7ebd 26a8 f7bd
000003a0: b3f2 1cbe ef78 60bd 41fb 053f ee3f 95bf
000003b0: 9bde 35bf 8e9e 31bf 9b3a e6be d8a7 3dbd
000003c0: 08a0 223d ea0a ce3d 355a e83d b99c 853e
000003d0: 1d61 af3d 4dca f83b f3ab 863d 9353 10be
000003e0: 6d35 57be 36c5 e2be 74b8 4cbf 0a43 59bf
000003f0: 712f 31bf 6d8f 24bf e0f3 24be b523 b1bc
-0.07258231 -0.18614247 0.08549135 0.2779091 0.28592822 0.23610762 -0.12617652 -0.21750937
-0.061333094 0.19847536 0.21282217 -0.52166164 -0.15260538 -0.21295512 -0.056788906 -0.08337388
-0.09496894 -0.09144374 0.21833079 0.15091236 -0.03461062 -0.24978973 -0.10044963 0.2835149
0.7025763 0.7915583 1.1261479 1.1021715 0.8835778 0.4924468 0.5653751 0.66700226
0.41580746 0.23044209 0.060367256 -0.042714104 -0.37974212 -0.6145883 -0.42760947 -0.26642513
-0.2868296 -0.0925731 -0.167124 -0.46582577 -0.82878876 -1.1043551 -0.49101248 0.039086226
0.22994874 0.19072688 0.026570365 0.21243215 0.17924923 0.08578964 0.20640147 0.27671626
0.06495083 0.12843658 0.06807868 -0.023228124 -0.2330455 -0.12996307 -0.24503803 -0.6036299
-0.3191374 -0.28650898 -0.18854362 -0.30784014 -0.56554896 -0.64698386 -0.24980101 0.14809433
0.21640879 0.30839407 0.33050743 0.5606971 0.40748608 0.18290165 0.16614492 0.43731442
-0.11369147 -0.0093257185 0.08534878 -0.3656127 -0.14868921 -0.2942192 -0.14690134 0.0500343
-0.0704231 -0.0838651 -0.30456242 -0.45970553 -0.5944258 -0.4000609 -0.06742509 0.61544675
1.096082 1.1962049 0.19784673 0.1862551 0.12202734 0.077240385 -0.036220342 -0.18755655
-0.4820272 -0.37494475 -0.3840584 -0.5023794 -0.394839 -0.10370915 -0.05378139 -0.16257967
-0.2827048 -0.36816832 -0.9174707 -0.49954993 -0.5959313 -0.54311985 0.08210206 0.50039864
0.7087423 0.40761116 0.3018582 0.46127158 0.3504343 0.14455403 0.13089585 0.13751324
-0.0008712972 -0.1425668 -0.38908696 -0.46279666 -0.31982002 -0.39586005 -0.22859421 -0.1652171
-0.09856263 -0.2551935 -0.09131017 -0.021652183 -0.19532003 -0.2453449 -0.15985774 0.1989143
0.64438665 0.53860265 0.4115012 0.6186609 0.24575068 -0.11945215 -0.1614541 -0.03301265
-0.1797763 -0.57135266 -0.9153649 0.28943017 -0.8862398 -1.138968 -0.46467733 0.61730343
0.7550619 0.27461258 0.32219726 -0.09273645 -0.94796306 -0.82551765 -0.5604032 -0.060723994
0.29792398 0.4789748 0.59742624 0.43788204 0.22613999 -0.03353247 -0.1777052 -0.36006153
-0.36078003 -0.24987373 -0.35708532 -0.32924303 -0.62728417 -0.5121641 0.04628948 0.110402495
0.30372116 0.12874936 0.19789994 0.2160674 -0.08483051 -0.03993829 0.11383218 0.14646879
1.1278079 0.5964415 0.43974492 0.44663492 0.28171486 0.11520673 0.0736301 -0.024043689
-0.09201746 -0.17376974 -0.1671883 -0.40014774 -0.20339064 -0.124995224 -0.29813844 -0.08353994
0.073118776 -0.07569192 0.05323492 -0.19979014 -0.6125101 -0.7375726 -0.5836321 0.33663517
0.13800238 0.26620325 0.37818038 0.8004805 1.0286355 0.26690772 0.29234552 0.14634989
0.24332581 0.17282437 -0.20148174 -0.037512295 -0.38963586 -0.1160116 -0.06218293 -0.12092619
-0.15326957 -0.05480283 0.5233651 -1.1660135 -0.71042794 -0.6938256 -0.44966587 -0.046302646
0.0397034 0.100606754 0.113453306 0.26096132 0.08563445 0.0075924755 0.065757655 -0.14094381
-0.21016474 -0.44291085 -0.79968953 -0.8486792 -0.69213015 -0.6428135 -0.16108656 -0.021623472

bias f4 [168]
00000000: 05d6 6ebd 7606 3f3d 32ff 7d3e 0f53 9c3d
00000010: 5a2c 853e 407e 943e 2115 783e 4f96 af3e
00000020: 5f96 023e b496 9b3e 622f 003e d62b 833e
00000030: 86be 803e 976e 403d c41b 7abc 7e6f ffbd
00000040: 33c7 533e da62 803e 2b88 133e 3bcf 61be
00000050: a50b ad3e 7b33 a83e de1a 933e 660e 453d
00000060: b870 0bbe 851f 133e eff5 1a3e adbc 993d
00000070: 2b5e 833e 91b8 823e 4989 0e3d 8107 3f3e
00000080: 963c a73e dc8c 633e abdf 3b3e 6478 8a3e
00000090: a344 3a3e 60cb ad3e 66a2 8b3e 17ca f63d
000000a0: 2f67 a13e 5e05 e3bd d247 763e 2030 963d
000000b0: 5b68 913e 406d 723e 8ecd 853d da9d 26be
000000c0: 87b2 703e 460a 943e 2627 6c3e 9c6d 5d3e
000000d0: 1c57 4a3e 26e8 873e 95e4 5b3e d372 03bd
000000e0: 2339 183e 5fe5 953c 1f00 583e b779 6d3e
000000f0: 452e 563e 7b05 873e a51b afbe 3d9d e33c
00000100: f55b 81be 56dd c73c 425d 3fbe 3110 1d3e
00000110: 919c 1c3e 7692 9fbd 7971 b9bc 2a4f e5bd
00000120: e83c f53d 284b 17be aa1e 403e 3097 de3d
00000130: a070 e3bd e8b4 cb3d fba3 273e 17f3 253e
00000140: 563d e7be de4a 403e 8cb4 593e 7160 f13c
00000150: bbf2 d83d 5dfc 6dbe 84f2 ee3d ae82 383e
00000160: 45d2 2d3e a0cd 443e 9de3 a93d fe97 e43d
00000170: 8c2d 4e3e f948 573e ac97 5b3e 2cd9 6ebd
00000180: e852 aebe 269e b33d f965 01bc c35a 11bd
00000190: 1ea3 be3d 9cb9 c03d c60e fabd 6afa 633d
000001a0: a48c c93d 847c efbd 572a d6bd cdb5 e7bc
000001b0: 55b3 be3d 72b1 a1be da08 a33d 71d9 e6bc
000001c0: 98d3 a63c a935 17be 05a4 20bd 949d 3dbc
000001d0: 3755 b43c a112 273d 0cef 6a3d 038d 16be
000001e0: 54b9 1bbe fa60 853d 0c64 c7be 471a 56be
000001f0: db90 eabe 393d 9c3d b3a9 6abd 7907 913d
00000200: 44f3 4cbd 7a16 c5be e56b f2be cf0e dbbe
00000210: eb98 1d3b 402f 5cbe 15ba 9fbe 004c 233d
00000220: 36b5 efbe 5709 17bd 0208 833d 4f83 6abe
00000230: 98c5 e9be d199 cbbe 10d6 8fbe 7720 edbd
00000240: 3b7f b8be 157f 50be abd7 16be 2c58 e9bd
00000250: bfbe febc 6216 88b9 3dce 2e3d fd8d 0abe
00000260: 819e 8fbe 7c96 febe 5d74 e1bd 5d5b b9bd
00000270: 0ea1 debe 8eaf 4dbe 26ec 2a3d ffc1 a93c
00000280: 2741 e9be 3a64 8f3c 6b1f 9a3c 67fb f83b
00000290: cbe5 98be fcd1 bfbe 1ef4 38bd fbfb e6be
-0.058309574 0.04663702 0.2480438 0.0763303 0.260104 0.2900257 0.2422681 0.34294364
0.12752675 0.30388415 0.12518075 0.25619382 0.25145358 0.046980467 -0.015265409 -0.12472437
0.20681457 0.25075418 0.14407413 -0.22051708 0.33797947 0.32851776 0.28731436 0.048109435
-0.13617218 0.14367492 0.15132879 0.0750669 0.25657782 0.25531438 0.034798894 0.18655206
0.3266341 0.22221702 0.18347041 0.27044976 0.18190245 0.33944225 0.27272338 0.12050264
0.31524035 -0.11085008 0.24050835 0.07333398 0.2839993 0.23674488 0.06533347 -0.16271153
0.23505603 0.28914088 0.23061809 0.21623844 0.19759792 0.26544303 0.21473916 -0.032091927
0.14865546 0.01829785 0.21093796 0.23190962 0.20916088 0.2637137 -0.3420078 0.027784938
-0.2526547 0.024397533 -0.18687919 0.15338208 0.152941 -0.07791607 -0.022637116 -0.1119674
0.119745076 -0.14774764 0.18761697 0.108686805 -0.11105466 0.099466145 0.16371147 0.16206013
-0.45163983 0.1877856 0.2126028 0.029464932 0.10593172 -0.232408 0.1166735 0.180186
0.16974743 0.19219065 0.08295367 0.11161803 0.20134562 0.2102393 0.21444577 -0.05831258
-0.34047627 0.08770399 -0.007897847 -0.035486948 0.09308456 0.09410402 -0.12209849 0.055658735
0.09841278 -0.11693671 -0.104572944 -0.028284932 0.093115486 -0.31580693 0.07960673 -0.028179856
0.020364568 -0.14766563 -0.03921892 -0.011573214 0.02201329 0.04078925 0.05735688 -0.14702229
-0.15207416 0.065126374 -0.38943517 -0.20908462 -0.4581364 0.07628865 -0.057290744 0.070815034
-0.050036684 -0.3849371 -0.47347942 -0.42784736 0.0024047445 -0.215024 -0.31196657 0.0398674
-0.4681794 -0.03687414 0.06398012 -0.22901653 -0.45658565 -0.3976579 -0.28093004 -0.11578458
-0.3603457 -0.20360978 -0.14730708 -0.113937706 -0.031096814 -0.00025956618 0.042677153 -0.13530727
-0.28050616 -0.49724185 -0.11008523 -0.09050629 -0.4348225 -0.200865 0.041729115 0.020722387
-0.4555752 0.017503846 0.01881381 0.007598329 -0.29862818 -0.37464893 -0.045154683 -0.4511412

weight f4 [14, 27]
00000000: b4ab 2fbc 5380 203e ad54 0bbe 3cd5 ab3d
00000010: f0d0 e33c 2d06 c73d e74d 0c3e dc2b 373c
00000020: e338 e4bd 134e 67bd 4c9e abbd 9212 083e
00000030: 6ae7 a9bd 99b1 8abd 8f49 abbc f899 febd
00000040: bdf6 f6bd 1132 353d b8f7 413e e9fc 393e
00000050: 4eba d6bd 86b1 8bbd fb57 f4bc 455a fb3d
00000060: 8a99 c33d f3bf 083e 066f 383c 86a0 bb3d
00000070: f460 a6bc d580 963f 2bd2 d73f 4ff6 51bd
00000080: 0382 8dbd 18bb f3bd 659a 45be c299 21c0
00000090: 7284 23c0 d8e4 27c0 de42 1cc0 628a 2bc0
000000a0: 8a8d 20c0 f63a 20c0 d8f8 1bc0 9c3b 25c0
000000b0: 2a15 20c0 de95 20c0 b1a5 32c0 2d24 dbbf
000000c0: ed14 a8bf a07b 56c0 9681 75bf 7894 a73e
000000d0: 0c87 79bf df78 97bf 0f85 4c3e c62f bc3d
000000e0: 8116 0ebf 52ed d7be 773e a4bd 12c1 febd
000000f0: b357 e1bd 315a 843d 4178 c1bd 41d0 a9be
00000100: d239 81bd e31b adbd 5f04 c9bd da15 47be
00000110: f0f4 4bbe 538d 95bd da26 04be b830 71be
00000120: 75d2 9dbd 2bc0 423f 8b52 533d d7c2 bc3e
00000130: 246f 7e3f c6ef 823e f2db d03d ff27 1f3f
00000140: 2451 7e3e 6f9d 13be 6a4a 66bd dbc6 013d
00000150: 0465 de3c 6a05 0ebe 5294 443d 1fcc 023e
00000160: 4bc4 dfbc 8077 debd 3e13 363e 4f28 ea3d
00000170: 9d38 3a3b 0f3a 90bc 06f1 0d3e 2791 b63d
00000180: 55c3 76bd 9b4e a33d 12d5 433e eb7c 22be
00000190: 3973 e6bd 39b3 30be a254 9d3d 66e3 1f3e
000001a0: e14a 4ebd 3a3e 32be b545 e2bd c2d1 a4bd
000001b0: e590 4e3d 7e38 36bd 1510 5fbf cf2b 8cbf
000001c0: 8c10 463e 1b1a a6bd 6a45 2e3e 7194 4bbd
000001d0: 4122 3540 fbc9 2640 dc98 3040 8ace 2940
000001e0: 6201 3340 3bd4 2e40 e6ac 2840 4bff 2640
000001f0: e7c7 2d40 468e 2940 cd83 2d40 8798 2140
00000200: f328 df3f 7e2a 3e3f 226d 0e40 9cd3 823f
00000210: 2fbb 21be ffb5 553f fa63 3c3f 368a 2d3e
00000220: 41da 9c3d 0b8f 6b3d b057 663c ea91 ee3d
00000230: 151e da3d 3cde 99bd 985d b13d 82bc 1fbe
00000240: d39f 0e3d 4bef 563d 9f19 683c 018f 833c
00000250: d860 45be 4765 d73c a9b7 48be 229b 7e3c
00000260: 87b4 ccbd ee58 d73b 646c 3abe c481 393e
00000270: d7aa 863d bc25 3cbe d42b fbbd 5559 3bbd
00000280: bd6f c53d abfc 87b9 c372 03bc 22a1 66be
00000290: 7472 b9bf c0ca 00c0 17b1 893e 7e85 44be
000002a0: 0d23 1d3e 290c 1dbc ea52 6840 79db 5e40
000002b0: e519 6340 ac5e 6240 0434 5640 9856 5740
000002c0: e9bd 6c40 c8fe 6640 421c 5c40 f2be 6140
000002d0: c660 6140 377d 4740 b8ef 0e40 88fe f63f
000002e0: 372e 7940 5171 743f c689 e6be aa96 793f
000002f0: d993 cc3f e2e8 0bbe cef5 cb3b 77b7 4b3f
00000300: 5127 9c3f 1f88 e43d 3b12 0dbe d382 e53d
00000310: 45cf 463c aacd 1bc0 34f8 11c0 5673 14c0
00000320: 66e2 10c0 7905 12c0 22ff 14c0 de11 1ac0
00000330: 7444 1ec0 5db3 12c0 9295 12c0 3cf7 0ec0
00000340: 6528 30c0 af4e a7bf 74d0 5dbf 7d05 0fc0
00000350: 2e77 26bf 9509 113e 8da6 70bf eef4 34bf
00000360: ac88 1cbe ffc6 76bd c989 adbd ee2d 0c3e
00000370: 7897 f63d 2d9f 7c3c 5878 21bd a676 00be
00000380: 227d c73d 7a55 263e 806c 19ba a1de 36bd
00000390: 4941 4abd d2e1 cdbd 5287 163e 744f 523e
000003a0: daaf b53d 5e87 a63d 3edc 7cbb 9d77 a43e
000003b0: 1d98 0cbd 173b 473e da79 e93d 4e13 dbbd
000003c0: 213b 1b3e 9a67 8ebd 396e 043e 7798 25be
000003d0: 44b1 99bd 6262 2b3e 2cbe e4bd 534b c43b
000003e0: 6f44 393e 2c5d 9e3d 6b62 9e3d abac 823b
000003f0: b65e 4e3c a2be 33be a373 dcbd 8d48 ba3d
-0.01072209 0.15673952 -0.1360652 0.083902806 0.02780959 0.09717975 0.13701592 0.0111798905
-0.11143663 -0.05647094 -0.08379802 0.13288334 -0.08296092 -0.06772155 -0.020909099 -0.12431711
-0.1205878 0.0442372 0.18942153 0.18162884 -0.104847535 -0.06820969 -0.029827109 0.12273077
0.095507696 0.13354473 0.011256939 0.09161477 -0.020309903 1.1758066 1.6861013 -0.05126029
-0.069095634 -0.1190092 -0.19297178 -2.5250096 -2.5549588 -2.6233425 -2.4415812 -2.6803212
-2.5086389 -2.5035987 -2.4370632 -2.5817633 -2.5012918 -2.5091472 -2.791363 -1.7120415
-1.3131386 -3.3512955 -0.9590086 0.3273046 -0.9747169 -1.1833762 0.19972633 0.091887996
-0.5550309 -0.4217325 -0.08019727 -0.12439169 -0.110030554 0.06462515 -0.09446765 -0.33166698
-0.063098565 -0.084525846 -0.09815287 -0.1944193 -0.19917655 -0.07302346 -0.12905446 -0.23553741
-0.07706157 0.76074475 0.05159239 0.368674 0.9938834 0.25573558 0.10198201 0.62170404
0.2483564 -0.14415525 -0.05622331 0.031683784 0.027147777 -0.13869253 0.04799301 0.12773179
-0.02731528 -0.108626366 0.17780778 0.114334695 0.0028415092 -0.01760581 0.13861474 0.08914404
-0.060244877 0.07973977 0.19124249 -0.15867965 -0.11252446 -0.17255868 0.07682158 0.1561409
-0.05036438 -0.1740655 -0.11048452 -0.08047821 0.05043115 -0.04448747 -0.87133914 -1.0950869
0.1934225 -0.08110448 0.17018667 -0.04970211 2.8302157 2.606078 2.7593298 2.6532311
2.7969594 2.7317035 2.635553 2.6093318 2.715326 2.6493087 2.7111695 2.5249345
1.7434372 0.7428359 2.225411 1.0220828 -0.15794061 0.8348083 0.7359005 0.16947255
0.07658816 0.057509463 0.014058992 0.11648925 0.10650269 -0.07513091 0.0866043 -0.15599254
0.03482039 0.0524743 0.014166265 0.0160594 -0.19275224 0.02629341 -0.19601311 0.015539916
-0.0999537 0.0065718805 -0.1820541 0.18115908 0.06575554 -0.1837377 -0.12264219 -0.04573949
0.09640453 -0.0002593746 -0.008022967 -0.22522405 -1.4488053 -2.0123749 0.2689292 -0.19191548
0.15345402 -0.009585419 3.6300607 3.4821455 3.5484555 3.5370283 3.3469248 3.3646603
3.6990912 3.6093006 3.4392247 3.5272794 3.5215316 3.1170175 2.2333813 1.9296427
3.8934457 0.9548541 -0.45026988 0.9749552 1.598262 -0.13663056 0.0062243706 0.7957682
1.2199498 0.111587755 -0.13776486 0.11206593 0.012134378 -2.4344277 -2.280774 -2.3195395
-2.2638183 -2.281584 -2.328072 -2.4073405 -2.472928 -2.2921975 -2.290379 -2.23384
-2.7524655 -1.3070887 -0.866462 -2.23471 -0.65025604 0.14163812 -0.94004136 -0.70686233
-0.15286511 -0.06024837 -0.08473546 0.13689396 0.12040609 0.01541881 -0.03942141 -0.12545261
0.09740664 0.16243544 -0.00058526546 -0.04464591 -0.049378667 -0.100528374 0.14700058 0.20538121
0.08871432 0.08131288 -0.0038583423 0.32122508 -0.034324754 0.19456135 0.114001945 -0.106970415
0.15159275 -0.06953354 0.12932672 -0.16171442 -0.07504514 0.16736749 -0.11169085 0.0059904247
0.18092512 0.07732615 0.077336155 0.003987869 0.012595823 -0.1755319 -0.107642435 0.09095869

bias f4 [14]
00000000: 0666 8ebc 5cc2 223e 65c0 1cbd 50b0 033b
00000010: daf1 e23c ae8b f4bd 5a49 87be 7da0 75bd
00000020: b7e5 dcbd 4cbe c53d 23b6 02be 6acf 2b3e
00000030: ee3a 9bbd e025 463e
-0.017382633 0.15894455 -0.03826942 0.0020094104 0.027703214 -0.11940704 -0.2642315 -0.059967507
-0.10786002 0.09655437 -0.12764792 0.16778341 -0.07579599 0.19350386

weight f4 [7, 14]
00000000: 3633 2cbe d7c6 4cbe ca40 5a3e 745e 093e
00000010: d861 613e a0dd 18bd c930 29bd b7a7 72bc
00000020: 2fc0 a03d 26b4 babd 8072 18be fd66 3abe
00000030: d026 d4bc f069 d6bd 5a5d bd3d 23dd 3d3e
00000040: 99d9 50bd a92f 2dbe 138e 02be 576d 3c3e
00000050: b6d6 4ebe 6de8 bc3d 26a7 60bd 4833 2b3e
00000060: f65c 26be b4f3 103d 6f79 243e 1ab0 38be
00000070: 19aa 64bd 9dbb 7b3b 37d8 243b cb79 a03c
00000080: 9535 9abd 83a3 363e 197b 363e de41 0dbe
00000090: 3a68 d73d 7783 733e 30d1 42be 10f6 72be
000000a0: 9431 893d beed 3c3d f20b d83d 4a4d cdbd
000000b0: 2dfe ebbc 86f6 8ebd e8c2 0ebe 6f65 7abe
000000c0: a12e 69be c32d c23d ed92 e2bd ad30 383e
000000d0: c66c d83c 7dff 96bc d063 553d 0c7f 88bd
000000e0: 7fb1 76be 1139 ba3d 0c99 de3d 6c4a fdbd
000000f0: 5112 4abe ad57 e9bc df65 a2be a46a bb3d
00000100: bbcf f03c c226 6fbe 1b54 983c 9fda 4b3e
00000110: b38b b23c a2cb 0bbd 0112 0ebe d31c 0cbe
00000120: 88ff 0cbe 8400 133d 813d f3bd 8008 6cbe
00000130: 8e3c 2a3e 84a0 923c 5a19 1bbd 876e 263e
00000140: 48a2 4ebd 41a7 ef3d 1261 0dbc 0040 48be
00000150: 0767 d13b d63c 4c3e e6a2 ec3b b39c bdbd
00000160: c381 d4bd b39f 2c3d 6ce0 67bc 6012 23be
00000170: 6852 603d 2825 02be d709 bcbd 9449 363e
00000180: 90d9 61be 701a 6abc
-0.1681641 -0.19997726 0.21313778 0.13414937 0.2200998 -0.037320733 -0.04130629 -0.014810494
0.07849156 -0.09116392 -0.14887428 -0.1820335 -0.025897413 -0.10469425 0.09246321 0.18541388
-0.050988767 -0.16912712 -0.1274951 0.18401085 -0.20199093 0.09224019 -0.054846905 0.16718781
-0.162464 0.035388663 0.16061948 -0.18035927 -0.05582628 0.0038411387 0.0025153288 0.019589325
-0.07529751 0.17835812 0.17820396 -0.13794658 0.105179265 0.23780619 -0.19025111 -0.23726678
0.066989094 0.046125166 0.105491534 -0.10024507 -0.028807724 -0.06980614 -0.13941538 -0.24452756
-0.22771694 0.094813846 -0.1106318 0.17987318 0.026419055 -0.018432373 0.05209714 -0.06664857
-0.24091147 0.09092916 0.10869035 -0.123677105 -0.1973355 -0.02848419 -0.31718346 0.091511995
0.029395929 -0.23354629 0.018594792 0.19907616 0.02179513 -0.034129746 -0.13874055 -0.1368287
-0.13769352 0.035889164 -0.11876965 -0.23050117 0.16624662 0.017898805 -0.037865974 0.162531
-0.050447732 0.11701823 -0.0086291 -0.19555664 0.0063904556 0.19945082 0.0072215674 -0.09258404
-0.103763126 0.04214449 -0.014152627 -0.15924978 0.05476609 -0.12709486 -0.09181564 0.17801505
-0.2205565 -0.01428853

bias f4 [7]
00000000: cec0 86bd 0ad7 983d 6b99 18be 264e 1fbe
00000010: b58d 4f3e ebbb 3bbe db4d 1b3e
-0.06579743 0.074628904 -0.14902274 -0.15557155 0.202689 -0.18333404 0.15166418

weight f4 [3, 7]
00000000: a2ef 74be c5b5 6d3e 103c 12be ff80 32be
00000010: b21f b1be ee6b 9a3e 3e53 2cbe a304 b9be
00000020: 60c8 febd e5d0 15be caec 1fbd f753 5dbe
00000030: 7630 a43e efcd 5dbe d217 873e 884f 26be
00000040: e7ef 373e cc1f 88be 157f 383b 3b53 5b3e
00000050: 7d9f 4dbd
-0.23919538 0.23213871 -0.14280725 -0.1743202 -0.34594494 0.3016047 -0.1682863 -0.3613635
-0.12440562 -0.14630468 -0.03904418 -0.21614061 0.32068223 -0.21660589 0.2638536 -0.16241276
0.17962609 -0.2658676 0.0028151919 0.21418469 -0.050200928

bias f4 [3]
00000000: 1576 b03b 966a c03e 08fe cdbe
0.00538517 0.3758132 -0.40232873

weight f4 [1, 3]
00000000: 5829 07bf d2a7 ee3e da81 99be
-0.5279746 0.46612412 -0.2998188
