js_park/best_AF_N.pth (torch, 455975 bytes, 5 tensors)

weight f4 [168, 336]
00000000: 5d22 1c3d 6def d33c 8f20 233d 1d18 43bc
00000010: a196 2a3d e556 89bc 34e5 41b9 2297 a23c
00000020: 6cf4 81bd 4000 8e3a 7142 8bbd 1627 a6bc
00000030: 8254 6c3c 1a02 9ebd 1018 1cbc 5705 15bd
00000040: d735 aabd d96d 6bbd 7431 51bd 99a0 fdbc
00000050: 6617 4ebd e6e8 9dbd 6661 7fbd 492e 83bd
00000060: 33fd 6cbd de52 913c e556 a73c 0294 963c
00000070: cff0 1dbd 9a71 69bd 09b3 e93c ddfb 92bd
00000080: bc3a 003b 936f ff3a f269 dc3c 93ca 54bd
00000090: c9a4 323d 4b16 ca3c 479e 593c e419 773c
000000a0: 7aae 133d 299c 543d 3435 073d dede f0bc
000000b0: f6dc 123d 1ca7 b4bc f714 663d 0ce2 9f3c
000000c0: 149a 0e3d 2971 513d 335d 01bd 7c5c 3b3d
000000d0: fd0e 5abc 9d45 f13c 4510 0f3d 5ed4 a9bc
000000e0: 17eb 60bc 20e3 633d 8f3b 313d 2f06 5a3d
000000f0: 78bb 21bd b028 a23c 5fcf 9cbb 28b8 5dbd
00000100: 4a32 cfbc bc12 223d d479 15bc 822b 85bd
00000110: 4a2e 643c ddfd 31bc cd29 20bd 5387 40bd
00000120: a01a f43a 1103 933c 39d8 09bc 8a33 2abd
00000130: 1786 8abd 331d 22bd b337 713c 4264 41bd
00000140: ae77 e7bc 18ea 1fbd f473 8fbb 7e48 d73b
00000150: f445 6c3a ae47 873c fda3 c1bc bf63 5fbd
00000160: 5701 f43b 5b1f acbc f3f6 26bc 3d88 c23c
00000170: 5428 c2bc 86cf 70bd 6063 92bd 5a0f 49ba
00000180: a673 84bd 4d24 10bd b98e bfbb 00ba c2bc
00000190: fc38 153c 6485 3bba bdc5 053d ce9c 8f3c
000001a0: ac1f b13b 8d4d 023c b80f 81bd 87a0 733c
000001b0: 6963 0ebc 57b5 bb3c 60b2 53bd 8dff 1bbd
000001c0: 9f5c 11bd 510d ddbb 549b 09bd 4291 b63b
000001d0: 3c5f 013d 37c2 f4bc f4ad 133d 023b 00bd
000001e0: 1175 163d 8cfb d83c 3f88 5d3c 6e27 46bc
000001f0: 9ee4 f9bc 5cd3 f4bc 078d 04bd 04fd f83b
00000200: d12b 8f3d 246b 6f3d aede 153d 01f3 35bc
00000210: 0acb 1a3d 506c e23b c5dc 183d 8f0a 21bd
00000220: fb2f 0d3d b5cf cf3c 6b4e 58bc d756 37bd
00000230: 277f 12bc fa44 0b3d 5726 60bd 7d4c a33c
00000240: faec 83bd bd56 47bd 9921 903c fd0b 4abd
00000250: 9280 69bd aa3f b7bc 4f78 103d 70e5 75bd
00000260: 5aa8 103d 010f 7a3c a444 073d 136c 77bd
00000270: a009 57bd 4aca 79bc d1c7 0f3c a83b 013d
00000280: 43c0 78bd 0e37 f4bc 4f9a a3bc c180 ce3c
00000290: dfbd 33bd ad2e 2e3d 3260 09bc 5d67 0cbb
000002a0: 4fa2 b3bc 8847 1fbd 6b60 6cbd d475 9abc
000002b0: f288 4c3c b5b9 123d bfce d8bb d5a5 283d
000002c0: e8bd d73c 1ed8 2e3d d3f0 c1bc 7e00 12bc
000002d0: 91dd 223d 88b5 7bbd 2841 2cbc eae0 7ebc
000002e0: 8798 15bd 6f9a b83c 2116 92bb be2e a23c
000002f0: 10c9 c13c 7f22 5bbc c6df 023c d86f ecbc
00000300: 5789 dd3c ea7f 293d 8da5 5ebc 7917 fd3a
00000310: 7d61 263c 6345 5cbc 85cc dd3c ab72 59bd
00000320: b4af 533d 9cce 383d 434c 763c 9618 013d
00000330: ec26 03bd 2166 b2bb 02e7 03bb a660 4dbc
00000340: 38a0 14bd aca7 453d ae84 693d d368 1e3d
00000350: 9f3d 873c dbe9 8d3d a434 603d 9940 603d
00000360: e8fd 3f3d 154c 783d 9ee2 3e3d 6791 893d
00000370: d32f 80bc 5293 f23c e9ba 1abd 5483 2c3d
00000380: a12d 7b3d 09cf e8bb 49f2 7d3d d8e2 20bd
00000390: 6ddd cc3c a048 1b3d 4ae0 f43c 843b 043c
000003a0: 62aa cabc fa93 033d 0167 85bc 30ff a4bc
000003b0: 9dc0 a03c 3c43 7bbd 6ce5 123d 789a 3e3c
000003c0: d4a1 5d3c 69d5 b03c d858 31bd 2fbd c73c
000003d0: 9b76 17bb fe1a 133d 50c7 c3bb 656f 71bb
000003e0: 324c 24bd 931d 65bd 4d8b 37bd 1de5 363b
000003f0: 9876 f03c d466 203d 1c58 d0bc d26a 65bd
0.03811871 0.025871003 0.039825972 -0.0119076045 0.041647557 -0.016765067 -0.00018491299 0.019847456
-0.06345448 0.0010833815 -0.06799782 -0.02028231 0.014424445 -0.077152446 -0.009527221 -0.036382046
-0.083110504 -0.057477806 -0.051072553 -0.030960368 -0.050315283 -0.077104375 -0.062348746 -0.064053126
-0.057858657 0.01773971 0.020427177 0.018381122 -0.03855973 -0.056993105 0.028527753 -0.07176945
0.0019566258 0.0019488208 0.026905987 -0.051951002 0.043614183 0.024668833 0.013282365 0.015081856
0.036055066 0.05190674 0.033009723 -0.029403146 0.035855256 -0.02205234 0.056172337 0.019516967
0.03481491 0.05113331 -0.031583022 0.045742497 -0.013309238 0.02945214 0.034927625 -0.020731147
-0.013727925 0.055636525 0.04326969 0.053228553 -0.039485425 0.019794792 -0.0047854627 -0.054130703
-0.025292534 0.039568648 -0.009123284 -0.06502439 0.013927052 -0.010863748 -0.039102364 -0.047004055
0.0018623658 0.017945798 -0.008413368 -0.041553058 -0.06763857 -0.039578628 0.014722752 -0.047214754
-0.02825531 -0.03904161 -0.0043778364 0.006569921 0.00090131094 0.016513672 -0.023637766 -0.054538485
0.007446449 -0.021011045 -0.010190713 0.023746604 -0.02370087 -0.05879166 -0.071478605 -0.0007669829
-0.06467371 -0.03519087 -0.0058458713 -0.023770332 0.009107824 -0.00071533606 0.03265928 0.017530825
0.005405387 0.00795306 -0.06301826 0.014869816 -0.008690693 0.022913618 -0.051683784 -0.03808551
-0.03548872 -0.006745972 -0.033595398 0.0055715153 0.031584963 -0.029877765 0.036054567 -0.031306274
0.036732737 0.026487134 0.013521253 -0.012094362 -0.030504521 -0.02988594 -0.032361057 0.007598521
0.06990779 0.058451787 0.036589317 -0.0111053 0.03779129 0.0069098845 0.037319917 -0.03931671
0.034469586 0.025367597 -0.01320229 -0.04476055 -0.008941448 0.034001328 -0.054724064 0.019933933
-0.06441684 -0.048666704 0.017594146 -0.04932784 -0.05700738 -0.022369225 0.035270985 -0.06003326
0.035316803 0.015262366 0.033024445 -0.060405802 -0.052499413 -0.015245983 0.008775667 0.031551033
-0.06073023 -0.029811408 -0.019971041 0.025207879 -0.043882247 0.042524982 -0.008384751 -0.0021423914
-0.02192798 -0.038886577 -0.05770914 -0.018855013 0.012483822 0.035821635 -0.006616443 0.041173775
0.026335672 0.042686574 -0.023674404 -0.00891125 0.039762083 -0.06145242 -0.010513581 -0.015556553
-0.036522415 0.022534577 -0.0044582044 0.019797679 0.023655444 -0.013374924 0.007987922 -0.028861925
0.027043028 0.041381754 -0.013589275 0.0019309364 0.010155079 -0.013444277 0.027075062 -0.05308787
0.051681235 0.045118913 0.015032831 0.031517588 -0.03201954 -0.0054443036 -0.0020126705 -0.01253525
-0.03628561 0.048255607 0.0570113 0.038674187 0.016508875 0.0692937 0.054737702 0.054749105
0.046873003 0.060619432 0.046602838 0.067171864 -0.015647804 0.029611263 -0.037775908 0.04211743
0.061322812 -0.0071047586 0.06199864 -0.039278835 0.025007928 0.037911057 0.029892106 0.00807083
-0.024739448 0.032123543 -0.016284468 -0.020141214 0.019623095 -0.061343417 0.035863325 0.011633508
0.013527352 0.021586137 -0.04329762 0.024382202 -0.0023111466 0.035914414 -0.0059746876 -0.0036840078
-0.040111728 -0.055936407 -0.044810582 0.0027907558 0.029353425 0.039160565 -0.025432639 -0.056010075

bias f4 [168]
00000000: 381a 63bd 4df4 e3bd f240 d7bd 54dc 65bd
00000010: 486b b7bd a65d d0bd 2605 52bd a982 b3bd
00000020: 1b6c cbbd 840e 76bd bd4c dbbd 7832 e3bd
00000030: 7cff 88bd 569b 6ebd 4eec f9bd 0fc2 cdbd
00000040: 118e cfbd ea0c cbbd 385c e6bd 0bd3 0dbe
00000050: e678 c5bd e93d cebd 161c d5bd 8042 89bd
00000060: c812 cebd fcf1 52bd 4321 b7bd a739 82bd
00000070: 06b2 b7bd 2900 c3bd d4b2 38bd ee70 d7bd
00000080: 500f 9fbd 2916 02be 4952 afbd c853 08be
00000090: f3c5 dbbd a38e c8bd 420f 81bd 6586 cabd
000000a0: 122e aabd 03b4 9dbd 40d4 b0bd 47fa f2bd
000000b0: ba91 cfbd 2ff9 eabd 3238 62bd b9b0 e4bd
000000c0: 1f3b 93bd 44d5 d6bd bab7 d3bd 5467 d3bd
000000d0: 8e08 c9bd 1070 90bd 3699 a8bd f575 94bd
000000e0: cae4 d8bd 817f 67bd e35b ddbd 3c3d d1bd
000000f0: 98c9 04be b229 b6bd d860 a3bd ea6e 01be
00000100: 3b40 04be 725c 96bd 6b83 ecbd ba6e b3bd
00000110: 4170 c3bd a50b d4bd 7ffd dbbd 8896 cabd
00000120: f27a 87bd feb0 aebd d9d3 c5bd d4e6 4cbd
00000130: 48a0 9ebd 3e02 ecbd 0b96 bfbd 0844 dcbd
00000140: d34d ffbd c696 4dbd 7f8e c1bd 23b3 d9bd
00000150: 3922 f9bd 8b4d c2bd e946 f9bd 0005 debd
00000160: a756 10be d5b5 ecbd b8e4 8dbd 2622 fcbd
00000170: 0576 edbd d60d 9abd 0522 d5bd d820 b4bd
00000180: f2ce 4cbd 96c2 94bd f766 b3bd 8b1d 6cbd
00000190: b67f a1bd 3f05 d3bd e71e 8bbd a92b b4bd
000001a0: 7a01 c2bd 8c10 52bd 338d 7dbd 5004 d0bd
000001b0: b842 aebd 17a0 c7bd b19a e4bd 5806 e4bd
000001c0: fdeb 03be 7e9f aebd 7419 d8bd a9ab 59bd
000001d0: 6bee c1bd 31c8 b9bd 96d2 fcbd 1ae5 93bd
000001e0: 52f3 eebd 8a48 acbd 645f dbbd 0c8b a5bd
000001f0: 9190 e7bd 21e9 b7bd faed c3bd e2a2 e2bd
00000200: 5b12 cbbd 66c6 c6bd bf46 a7bd 5dc4 8ebd
00000210: 8dd5 f0bd 4421 b6bd bb88 d5bd f7b9 b1bd
00000220: 6a15 b6bd 967a c1bd fc6b e6bd 8feb b8bd
00000230: 9138 56bd 02cf 53bd bfec b3bd 7ef4 b5bd
00000240: 3b2f 7ebd 5401 d5bd abcd babd 6338 68bd
00000250: 65cc c0bd bc2c 89bd f559 a6bd 2852 43bd
00000260: b074 f9bd dac3 96bd 4c15 babd 924e a4bd
00000270: f9bb 9dbd d081 d0bd 3f0e cfbd 874d c7bd
00000280: 0125 98bd 9c33 91bd 9fca 89bd 5023 dbbd
00000290: f1d2 48bd a5c3 d7bd a82b 68bd 1303 d4bd
-0.055444926 -0.11130581 -0.10510434 -0.056118324 -0.08956009 -0.10174112 -0.05127444 -0.08765156
-0.09932729 -0.060072437 -0.10707996 -0.110936105 -0.06689355 -0.05825361 -0.12203275 -0.10046779
-0.10134519 -0.099145725 -0.11248058 -0.13850038 -0.096422 -0.10070402 -0.104057476 -0.06702137
-0.10062176 -0.051500306 -0.08941891 -0.063586526 -0.08969502 -0.09521515 -0.04509242 -0.105195865
-0.077665925 -0.12703766 -0.085606165 -0.1331321 -0.10731115 -0.09792831 -0.06301738 -0.09888915
-0.083095685 -0.0770035 -0.086342335 -0.11864143 -0.10135217 -0.11473309 -0.055229373 -0.1116652
-0.07189011 -0.10489896 -0.103377774 -0.10322443 -0.09816085 -0.07052624 -0.08232348 -0.07249061
-0.10590513 -0.05651808 -0.108085416 -0.10216758 -0.12967527 -0.088946715 -0.07977456 -0.12639967
-0.12915127 -0.07341851 -0.115485035 -0.08761354 -0.09542895 -0.103537835 -0.1074171 -0.09891993
-0.06615247 -0.08529852 -0.09659547 -0.050024822 -0.07745415 -0.11523865 -0.0935479 -0.107551634
-0.12466016 -0.050192617 -0.09451007 -0.10629871 -0.121647306 -0.094874464 -0.12171728 -0.108407974
-0.14095555 -0.11558119 -0.0692839 -0.12311201 -0.11594776 -0.0752217 -0.10406879 -0.08795327
-0.050002046 -0.07263677 -0.08759873 -0.057645362 -0.07885687 -0.10303735 -0.067930035 -0.0879739
-0.09472938 -0.05128531 -0.061902236 -0.101570725 -0.08508819 -0.097473316 -0.111623175 -0.111340225
-0.12882991 -0.085265145 -0.1055173 -0.053142224 -0.09469303 -0.090713866 -0.123448536 -0.07221432
-0.116675034 -0.08412273 -0.10711554 -0.08083162 -0.11306871 -0.08980013 -0.09566875 -0.11066224
-0.099156104 -0.0970581 -0.081677906 -0.06971047 -0.117594816 -0.08893064 -0.1042647 -0.08678048
-0.08890803 -0.094472095 -0.11251065 -0.09029304 -0.05230004 -0.05171109 -0.0878539 -0.08884524
-0.06205676 -0.10400644 -0.09121259 -0.0566944 -0.09413985 -0.066979855 -0.08122627 -0.047685772
-0.121804595 -0.073615745 -0.09086093 -0.080227986 -0.077018686 -0.1018101 -0.10110139 -0.09731584
-0.07428933 -0.07089922 -0.067281 -0.10700095 -0.049029294 -0.10535363 -0.05668226 -0.10352149

weight f4 [168, 336]
00000000: f985 323e 72d6 373e c911 053e 34a3 af3c
00000010: eeef 24bb ea8f ffbd ec0c acbd 681b 57bd
00000020: 80dc cfbd d5a0 2ebd aa7c cdbc 9d8c babc
00000030: f368 35bd fb38 c2bd d242 1bbe 0466 32be
00000040: b98c b8bd 9cea a2bd 52a2 cdbd 312e 74bd
00000050: 4673 503d ea05 b73d 75fe d43d 47b7 e9bc
00000060: 918a 9d3d af01 813d bdc1 66bd 143e 28be
00000070: 07ff 9cbd de5b 05be 5629 7dbd 1c55 89bd
00000080: 38bd 39bd eb15 dcbd 9f03 5e3c d282 a1ba
00000090: f04d 08bd 5b83 773d bd22 02bd 0928 67bb
000000a0: 0e8d 1b3d cec0 2dbb 4c3b ba3c 5a9b f13c
000000b0: 22b5 e63d d95d 2f3e 2c2a 283e d186 0d3e
000000c0: 556a 8a3d 469a bb3d c97a 4f3d 260b 8abd
000000d0: 789c 9cbd ccba 9ebd 18d5 1ebd 9fef 80bd
000000e0: d4b4 1fbc 8d99 bcbd 5f8b 1a3d 123e b03d
000000f0: c9ca 6f3d c237 833d 1024 503d 1d13 7c3c
00000100: 87fc 473d df86 c8bc 0508 ccbd 3c0c 6cbd
00000110: 0319 4f3d c945 8e3d 07d0 d83d c499 8b3d
00000120: 4e26 063d 40f5 8dbc dfa6 85bd 58cf d6bd
00000130: 9e1d 19be 32cc 79bd f9e1 1a3c 2812 2cbd
00000140: 84e2 9fbc 0ca5 80bd dfd5 023d d458 7f3d
00000150: 2418 07bd c970 7a3b bceb 3bbc 4057 18bd
00000160: 251c 11bd ffc7 9fbd 66ae c93b 4e6f af3c
00000170: 2335 733d 29b0 b23d 61c3 da3d fe3c 1e3e
00000180: 33a6 183c 2a7a 62bb bd9c d33c 09c4 80bd
00000190: 7e4e 7ebc be0e 1fbd f35a d23b 3ccb c6bc
000001a0: 656d c5bc 7e8f 2cbd 73ee 2fbc 3e9d ecbc
000001b0: c91f 1c3c b8bb 44bd 51bf 05be c11e 2cbe
000001c0: e236 3bbe 4b16 d4bd 57ab cfbd 75a0 c83c
000001d0: edbf f13c 8fe3 ee3d 66d3 453e de66 ee3d
000001e0: 59ee 993d 39c3 ae3d ea8f ce3d ac04 f33c
000001f0: b419 7abd 0f5c 65bb 227a 1c3d 2c20 4dbd
00000200: a4e7 773a c472 a23c e740 213d ae87 ce3d
00000210: 3134 1d3d 8ca2 da3b 6950 c0bc c794 36bc
00000220: 6db6 16bd f11a 033c 4af3 5abb 7012 8f3d
00000230: 1beb 043d f812 e13d c127 fa3d cb82 38bc
00000240: 3b2c 06bd 2f81 05bd b4e4 c83b 0f0d 06be
00000250: 08bc 02be da56 20be b867 61bd b9cf d7bd
00000260: e1bd 32bd 2e5b 4bbd 1521 70bd fed2 023d
00000270: 7b20 223d 2a57 ce3b 3cdc e13a 3162 e8bc
00000280: a5c9 20bd f29b be3c f5b2 863c 6285 873d
00000290: 7bf4 db3d 7b4d 813d a7cd f33d 63f6 ecbc
000002a0: 248f 833d fec0 e3bb a711 d33c dd32 ce3b
000002b0: 55ef 39bd 01f5 9bbc d463 83bd 0933 f5bc
000002c0: 1847 0fb9 8370 3fbd 9f21 283c 7285 893d
000002d0: 2278 af3d 52bf 813d 75e5 cdbc 4cb5 22bd
000002e0: 86c6 76bd 484d 8bbd a63f 31bd 5294 083c
000002f0: 2124 683b 2d5b 183d 9b47 13bc ac2d 75bb
00000300: e707 54bd a61c 02be 5787 43bd 7c27 d1bd
00000310: b715 08be ca8d 52bd 38c8 f3bd 970b 09bd
00000320: 0bc5 0cbd ecd7 65bd ffd2 653d b124 eb3c
00000330: 83d7 e83d 2378 b13d 1985 8abc 3213 8dbd
00000340: 37ff eebb c2a0 50ba e0ff 3dbb 8f96 bc3c
00000350: 1640 003e 535f 123e ac6f 403e 2390 e83d
00000360: 4ef2 db3d 0eae 223d ca42 e53d d222 1e3d
00000370: b103 a8bd 508e 8cbd fae8 50bd 77cb dbbd
00000380: 8847 413c b9b8 97bd 6d96 01bd 4040 d73c
00000390: a8ce b03b 940c 16bc 9ecb fbbd c4c8 ecbd
000003a0: 3c3b 87bd 8509 40bd 5266 4fbd 123d 473d
000003b0: 0fc3 a13d ba5e e63d d0dc 193d 3c37 aa3d
000003c0: a999 60bd a758 8cbc 3633 b8bd c95a 19be
000003d0: 0c5c a5bd 32f0 d6bd 6b48 61bd 3dff ddba
000003e0: 9c84 cebd a418 9f3c 1edf 57bd 8245 7c3b
000003f0: 8f60 643d 35c7 36bc 4ff3 8fbd bb0d d5bd
0.17433919 0.17952898 0.12995066 0.021440126 -0.0025167423 -0.12478621 -0.08400902 -0.05251637
-0.10149479 -0.04263385 -0.025083859 -0.022772128 -0.04428954 -0.094835244 -0.15162209 -0.17421728
-0.09011216 -0.079549044 -0.10040726 -0.059614364 0.050891183 0.08936675 0.10400096 -0.028529776
0.07692445 0.06299149 -0.056337107 -0.16429931 -0.0766583 -0.13023326 -0.061807 -0.067056865
-0.04534647 -0.10746368 0.013550668 -0.0012322313 -0.033277452 0.060428005 -0.03177141 -0.0035271666
0.037976317 -0.0026512626 0.022733353 0.029493023 0.11265017 0.17125644 0.16422337 0.1382096
0.067585625 0.09160285 0.050654206 -0.06740408 -0.076470315 -0.077504724 -0.03877744 -0.06295704
-0.009747703 -0.09208975 0.03773057 0.08605589 0.058543 0.06407119 0.050815642 0.015385416
0.048824813 -0.024478374 -0.09962467 -0.057628855 0.050560962 0.06946904 0.10586553 0.06816438
0.032751374 -0.017328858 -0.06525969 -0.104887664 -0.14952704 -0.06098575 0.00945329 -0.042009503
-0.01951719 -0.0628148 0.031942245 0.062340572 -0.032982007 0.0038214198 -0.011469778 -0.037192583
-0.03542723 -0.07801818 0.006154823 0.021415379 0.059376847 0.08725006 0.10681797 0.15452954
0.009316969 -0.0034557679 0.025831575 -0.06287391 -0.015521644 -0.03883242 0.0064195334 -0.024266832
-0.024100015 -0.042129032 -0.010738003 -0.028883573 0.009529063 -0.048030585 -0.13061263 -0.16808607
-0.18282655 -0.103558145 -0.10140102 0.024490574 0.029510463 0.11664497 0.19318923 0.11640714
0.07516164 0.085333295 0.10086043 0.029665314 -0.06105967 -0.0034997498 0.038202412 -0.05007951
0.00094568194 0.019830115 0.039368536 0.100844726 0.03837985 0.006672209 -0.023475843 -0.01114387
-0.03679507 0.008002029 -0.0033409172 0.069859385 0.032450777 0.10989946 0.12214614 -0.011261652
-0.032757025 -0.032593902 0.006130779 -0.13090919 -0.1276704 -0.15658131 -0.055030555 -0.10537667
-0.043638114 -0.049647503 -0.0586253 0.0319395 0.039581757 0.006297012 0.0017231773 -0.028367134
-0.039254803 0.02326772 0.016442755 0.06617238 0.1073999 0.06313606 0.119044594 -0.02892608
0.06423786 -0.0069504967 0.025765253 0.0062926845 -0.04539426 -0.019037725 -0.06415525 -0.029931562
-0.00013664027 -0.04673816 0.010261922 0.06714906 0.085678354 0.063353196 -0.025133828 -0.03972368
-0.06024792 -0.068018496 -0.04327359 0.008336144 0.0035421925 0.037196327 -0.00898924 -0.0037411256
-0.05176535 -0.12706241 -0.047736492 -0.10212609 -0.13289534 -0.05140475 -0.11903423 -0.03345832
-0.034367602 -0.056114122 0.056109425 0.02870402 0.113692306 0.086654924 -0.016909169 -0.06888427
-0.0072936076 -0.0007958525 -0.0028991625 0.02302101 0.12524447 0.14294176 0.187926 0.11355617
0.10739575 0.039716773 0.1119438 0.038607426 -0.08203829 -0.068630815 -0.051003434 -0.10732167
0.01179684 -0.0740828 -0.031637598 0.026275754 0.005395729 -0.009158272 -0.12294696 -0.115617305
-0.06603095 -0.04688408 -0.05063469 0.048642226 0.078985326 0.112485364 0.0375641 0.08311316
-0.05483404 -0.017132116 -0.08994143 -0.14976038 -0.08074197 -0.10495032 -0.055000704 -0.0016937029
-0.10083887 0.01942093 -0.052703016 0.0038493578 0.055756148 -0.011155893 -0.07028829 -0.104030095

bias f4 [168]
00000000: 1627 f9bd 7752 86bd cadd 92bd 602c f7bd
00000010: 7af8 b1bd 3c92 99bd 80d1 00be 55b1 b7bd
00000020: 95e7 a0bd 951e f2bd 210a 93bd 3b7d 8bbd
00000030: f820 e6bd 4520 f8bd b570 6bbd 9d18 a3bd
00000040: cb98 a1bd 90b4 a6bd 2ad2 8cbd baa1 30bd
00000050: 842a afbd 773c a7bd b0ef a0bd b7f8 ebbd
00000060: 3090 a7bd 18e6 05be 5589 bdbd e112 f2bd
00000070: c2d7 bbbd b15b b0bd 3cf7 0bbe c65c 9dbd
00000080: b4aa d6bd d2c1 63bd c571 c7bd 663c 4bbd
00000090: fd20 9bbd 17ca adbd 4615 f5bd 35a1 abbd
000000a0: d04a ccbd 198b d8bd b640 c6bd 0145 84bd
000000b0: ee5c a8bd 4d4f 8dbd 749c 03be cde6 92bd
000000c0: 57de e3bd 5821 a0bd 66a5 a2bd e6ed a1bd
000000d0: 204c acbd d867 e5bd 6899 cdbd 7308 e2bd
000000e0: f28d 9ebd f176 02be d95f 9bbd b813 a8bd
000000f0: 9699 5fbd 8077 c2bd d036 d5bd 7ea9 6bbd
00000100: c781 5fbd 3643 e1bd 75f4 8bbd 18e6 c4bd
00000110: 79dc b4bd 258f a4bd 812f 9dbd 14b3 adbd
00000120: 08b9 f0bd b6f7 c9bd 8b32 b2bd 46e8 08be
00000130: 6249 d9bd eef5 8cbd 83df b9bd 16f1 9dbd
00000140: bb99 76bd 365b 0abe 09fa babd 6362 a2bd
00000150: cd7e 83bd cbf7 b9bd 0b60 83bd 083f 9fbd
00000160: 0869 39bd abcf 90bd f45b f0bd 10a4 82bd
00000170: 3102 92bd 2a78 e6bd ed76 abbd c275 cbbd
00000180: e6cf 0cbe 84d3 eabd a144 ccbd d760 04be
00000190: 4002 ddbd 7f66 abbd 7f71 f3bd 09bb cabd
000001a0: 1e1d bdbd cc1e 0bbe 5b0c 00be 103a afbd
000001b0: 00df cfbd 579d b7bd 8bac 99bd 8ad6 9abd
000001c0: 2e9b 6ebd 646d d1bd a6e4 a8bd 5239 0abe
000001d0: 19b1 bfbd cd08 c8bd 3e1d 85bd 9ed9 ecbd
000001e0: 68b1 91bd 9ecf d2bd 64d3 a2bd c837 d8bd
000001f0: e5cd 95bd b5e1 c4bd f886 b9bd fc8f 9abd
00000200: 8714 b1bd 6acf b6bd efa1 d5bd 5bf6 edbd
00000210: 7f62 8bbd 5075 c5bd a102 a6bd 297c c8bd
00000220: 04ac c4bd 62f1 b8bd ea16 95bd f1dd c2bd
00000230: dd53 08be 63a0 09be cfb2 c8bd 5684 c6bd
00000240: a181 fdbd 741c a8bd 8f68 c0bd 57a2 03be
00000250: 33f0 babd 24c7 f2bd f599 d5bd 4b7d 0dbe
00000260: e139 83bd 18ae e6bd 8627 c2bd 649b d8bd
00000270: 1368 debd d253 aabd 8b11 abbd 6b0c b4bd
00000280: ed6b e2bd 1062 e9bd 2f7b f2bd 6a51 a2bd
00000290: 6687 0cbe fb28 a6bd 66f9 04be 2fdb a9bd
-0.12165658 -0.06558698 -0.07171209 -0.12069011 -0.08689971 -0.07498595 -0.12579918 -0.0896937
-0.07856671 -0.11822239 -0.07179666 -0.06810995 -0.11236757 -0.1211553 -0.057480533 -0.07963679
-0.07890471 -0.08139908 -0.06876023 -0.043122984 -0.08553031 -0.0816583 -0.07858217 -0.11522048
-0.081817985 -0.13076055 -0.0925471 -0.11820007 -0.09172012 -0.08611239 -0.13668531 -0.07683711
-0.10481778 -0.055604763 -0.09738497 -0.049618147 -0.075746514 -0.08485811 -0.11966948 -0.08380357
-0.09975207 -0.10573406 -0.096803114 -0.06458474 -0.0822085 -0.06899891 -0.12852651 -0.07172928
-0.11126392 -0.0781886 -0.079417035 -0.07906704 -0.08412957 -0.11201447 -0.100390255 -0.11036768
-0.07741918 -0.12740685 -0.07586641 -0.08206886 -0.05458983 -0.09495449 -0.10410845 -0.057534687
-0.054567125 -0.109991476 -0.06833736 -0.096141994 -0.08831114 -0.08035115 -0.07675076 -0.08481422
-0.11754042 -0.098617 -0.087010466 -0.13369855 -0.106097 -0.06882845 -0.090758346 -0.07711999
-0.060205203 -0.13511357 -0.09129722 -0.07928922 -0.0642067 -0.09080466 -0.06414803 -0.07775694
-0.04526618 -0.070708595 -0.11736289 -0.06378949 -0.07129324 -0.11253388 -0.08372293 -0.0993457
-0.13751182 -0.11466125 -0.099740274 -0.12927566 -0.10791445 -0.08369159 -0.11886882 -0.098989554
-0.09234069 -0.13585967 -0.12504713 -0.085559964 -0.10149956 -0.08965557 -0.07503613 -0.07560451
-0.05825346 -0.10225943 -0.08246736 -0.13498428 -0.093599506 -0.097673036 -0.06499718 -0.11564945
-0.07113916 -0.10293506 -0.07950476 -0.105575144 -0.07314662 -0.09613363 -0.09058946 -0.07546994
-0.086464934 -0.0892628 -0.10431277 -0.11619254 -0.06805896 -0.09641516 -0.0810597 -0.09789307
-0.09603122 -0.09030415 -0.07279761 -0.09514988 -0.13313241 -0.13440089 -0.0979973 -0.0969321
-0.123782404 -0.08208552 -0.09394943 -0.12854896 -0.091278456 -0.11854389 -0.104297556 -0.13817327
-0.06407524 -0.112636745 -0.09480195 -0.105765134 -0.10859694 -0.08316769 -0.083529554 -0.08791431
-0.110557415 -0.11395657 -0.11839902 -0.07925685 -0.13723525 -0.08113285 -0.12985763 -0.08293759

weight f4 [1, 27]
00000000: a287 25bc 3018 90bc b1b1 51be 81b2 61be
00000010: 5ca8 783c ec42 983d 5022 a13d 0238 df3d
00000020: 4635 7fbe bba8 513d d643 6bbe ec8e 36be
00000030: aa9d ddbd 15e6 10bc 84ae 81be 18a5 65be
00000040: d682 22be 1a8a 4dbe bddb 61bc 827f 8d3a
00000050: 1eaa 6cbd e961 80bd 1019 07bd aca1 10be
00000060: 058c cfbb 6afe f53c d62c 023c
-0.010103138 -0.017589658 -0.2047794 -0.2204075 0.015176859 0.07434639 0.07867873 0.108993545
-0.24922666 0.051186305 -0.22975096 -0.17827958 -0.10821088 -0.008843918 -0.25328457 -0.2242626
-0.15870222 -0.20072213 -0.0137853 0.0010795447 -0.057779424 -0.06268675 -0.032982886 -0.14124173
-0.0063338303 0.03002854 0.00794526
