js_park/best_AF_N.pth (torch, 455975 bytes, 5 tensors)

weight f4 [168, 336]
0	0x3b7c65aa	0.0038512745
1	0x3d88275c	0.06648132
2	0x3d8f54f1	0.06998623
3	0xbbf7558b	-0.0075480393
4	0x3d85e427	0.06537657
5	0x3d1b7933	0.03795738
6	0x3c663e6e	0.01405297
7	0x3ba3b157	0.004995506
8	0xbd0e337f	-0.03471708
9	0x3d04a7a1	0.032386426
10	0xbd048242	-0.032350786
11	0x3d8ac018	0.0677492
12	0x3d3e44f7	0.04645249
13	0x3b8d1626	0.004305619
14	0x3d4dbd6a	0.050229467
15	0x3d65ccf9	0.05610368
16	0x3d7b63f5	0.061374623
17	0xbd12f346	-0.035876535
18	0x3c243fef	0.010025009
19	0x3cd5c680	0.026095629
20	0x3d2b9905	0.041893978
21	0xbca36898	-0.019947335
22	0x3d85c4b3	0.06531658
23	0x3d1bfec2	0.038084753
24	0x3c95ab00	0.018270016
25	0x3d58044f	0.052738484
26	0x3b08c391	0.002086852
27	0x3d60f42c	0.05492036
28	0xbcef0636	-0.029177766
29	0x3d1bda0f	0.038049754
30	0x3ca05476	0.019571524
31	0x3ca1b177	0.019737942
32	0x3c2da39d	0.0105980905
33	0xbd2507b0	-0.040290534
34	0x3ce2c25a	0.027680565
35	0x3baccb84	0.0052732844
36	0x39d403dd	0.0004043867
37	0x3bb9272a	0.0056504207
38	0xba668c0a	-0.0008794671
39	0x3c7192ed	0.0147445025
40	0x3d853476	0.06504147
41	0x3d687751	0.056754414
42	0xbd22b453	-0.03972275
43	0xbcffa8dc	-0.031208448
44	0xbb8be8a6	-0.004269677
45	0x3d046492	0.032322474
46	0xbc3f8046	-0.011688298
47	0x3d00caf0	0.031443536
48	0x3cb80afd	0.022466177
49	0x3d32b6bd	0.043631304
50	0x3d545aca	0.051844396
51	0x3d6fc065	0.05853309
52	0xbcef4696	-0.029208463
53	0x3c95d57e	0.018290278
54	0x3ce72cf8	0.028219685
55	0x3c9b42b0	0.018952698
56	0x3d2a5378	0.04158351
57	0x3bb331cb	0.0054685823
58	0x3b89d411	0.0042061885
59	0xbbbc5e26	-0.005748528
60	0x3cebc426	0.028780054
61	0x3b80f714	0.003935704
62	0xbcf2ad14	-0.029623546
63	0x3cf1d284	0.029519327
64	0x3b8c428d	0.0042803944
65	0xbca8b453	-0.020593798
66	0x3d400688	0.04688123
67	0xbc2c722b	-0.010525267
68	0x3d0e5a35	0.034753997
69	0x3c3d42cd	0.011551571
70	0xbcb4c001	-0.02206421
71	0xbd08c1a6	-0.033387803
72	0x3d23e44e	0.04001265
73	0xbd1a8e0e	-0.03773313
74	0xbc924870	-0.017856807
75	0xbca10541	-0.019655826
76	0xbcfd6dd0	-0.030936152
77	0x3c872706	0.0164981
78	0x3b30b650	0.0026964135
79	0x3ac7f2c6	0.0015254847
80	0xbd16079a	-0.036628343
81	0x3d45b57a	0.048268773
82	0x3d33c656	0.04389032
83	0xbbd6c3bf	-0.0065540965
84	0xbbf83d91	-0.0075756987
85	0x3b89515a	0.004190606
86	0x3d638884	0.055550113
87	0xbcad5d65	-0.021162698
88	0xbb2808bb	-0.002563997
89	0xbcdcf22e	-0.026970949
90	0x3d42a8ab	0.047524136
91	0xbbcfce53	-0.0063417344
92	0xbd1205a3	-0.035649907
93	0x3cfb5c5a	0.030683685
94	0x3bf49704	0.0074642915
95	0x3d51903d	0.051162947
96	0xbcdf3f0e	-0.027251747
97	0xbc2dd891	-0.0106107155
98	0xbcb6f444	-0.022333272
99	0xbca1b711	-0.019740613
100	0x3bcb914b	0.0062123886
101	0xbcada528	-0.021196917
102	0x3c73b9b8	0.014875822
103	0xbc0ba31c	-0.008522775
104	0x3b1052e2	0.0022022058
105	0xbb19323d	-0.0023375892
106	0x3cd9d604	0.026591308
107	0xbc44a85b	-0.01200303
108	0xbcceded4	-0.025252737
109	0x3d54a37e	0.05191373
110	0x3b7650d2	0.0037584794
111	0xbcee3eb7	-0.02908264
112	0x3a41a8c1	0.0007387512
113	0xbd039a69	-0.03212968
114	0xbd17f1c6	-0.037095807
115	0x3cc1911a	0.02362876
116	0xbc7b1c07	-0.015326506
117	0xbb2e8b2b	-0.0026633244
118	0xbd043e52	-0.032285996
119	0x3cc7100b	0.024299642
120	0xbd264272	-0.04059071
121	0x3d5005a4	0.05078663
122	0xba8c4a52	-0.0010703302
123	0x3cc27398	0.02373676
124	0xbcc25f83	-0.023727184
125	0xba2a150d	-0.0006488122
126	0xbccc5d88	-0.024946943
127	0x3d7bbf43	0.0614617
128	0xbd296544	-0.04135634
129	0xbd2a6ebe	-0.04160952
130	0x3d6b0585	0.05737831
131	0x3cd51f9c	0.02601605
132	0x3d443725	0.047904152
133	0xbca031ab	-0.019554934
134	0x3d290dcb	0.04127292
135	0x3d5bc837	0.053657737
136	0xbd24cabb	-0.0402324
137	0x3d08cf47	0.0334008
138	0x3d65a45f	0.05606496
139	0x3be4443a	0.006966141
140	0x3d3ab93b	0.045586806
141	0x3d80b474	0.06284419
142	0xbca14b79	-0.019689308
143	0xbc39b645	-0.01133496
144	0xbd33a795	-0.04386099
145	0x3c3c48a1	0.011491925
146	0x3d1c3f7e	0.03814649
147	0x3c74a27c	0.014931317
148	0x3c12dd50	0.008963898
149	0xbc5fd229	-0.013660946
150	0x3c626fde	0.0138206165
151	0xbd46eed5	-0.04856761
152	0xbcfc6166	-0.030808162
153	0xbd1b080d	-0.037849475
154	0xbce34958	-0.027744934
155	0xbc3e2f32	-0.011607932
156	0xbc041198	-0.008060835
157	0x3b78cf77	0.0037965456
158	0xbd4625ec	-0.04837601
159	0xbcb0d52f	-0.021586029
160	0x3d0f2223	0.034944665
161	0x3d023182	0.031785496
162	0xbd25d235	-0.040483672
163	0x3a257582	0.00063117605
164	0xbb259ceb	-0.0025270532
165	0xbce7a4c1	-0.028276803
166	0xbce3e534	-0.027819254
167	0xbadf25ef	-0.0017024855
168	0x3cc3c318	0.023896739
169	0x3d0e20a0	0.034699082
170	0x3c1cfb50	0.009581402
171	0x3d456da9	0.048200283
172	0xbcc9241d	-0.024553353
173	0x3d0543e1	0.032535437
174	0xbd4c0fc6	-0.04981973
175	0xbd210ff8	-0.03932187
176	0x3d52ecb2	0.05149526
177	0x3bdaed2e	0.006681106
178	0x3c2e6267	0.010643578
179	0x3d4280df	0.047486182
180	0xbc98ea4a	-0.018666405
181	0xbcdc14bd	-0.026865358
182	0xbc71523d	-0.01472908
183	0x3d5a2b47	0.05326393
184	0xbc81d948	-0.015850678
185	0xbcfc0350	-0.030763298
186	0x3cba35b4	0.022730686
187	0xbd26fcf4	-0.04076858
188	0xbd5933dd	-0.053027976
189	0x3d2b109e	0.041763894
190	0x3d03cf09	0.032179866
191	0xbca10183	-0.019654041
192	0xbc71fbc3	-0.014769497
193	0xbcaf10bd	-0.021370286
194	0x3d400134	0.046876147
195	0x3cc3beb3	0.023894643
196	0x3cce1830	0.025158018
197	0x3cefe7a6	0.029285263
198	0xbd534d64	-0.051587477
199	0xbd3f23d6	-0.046665035
200	0x3d2bc03a	0.04193137
201	0x3c87ad6f	0.016562192
202	0xbacebe3a	-0.0015773245
203	0x3cc5c315	0.024140874
204	0x3d2965e1	0.041356925
205	0x3d20a2b7	0.039217677
206	0xbd4173d4	-0.047229603
207	0xbd41cf44	-0.047316805
208	0xbc669645	-0.014073913
209	0xbd4095d8	-0.047017902
210	0xbcebcb9b	-0.02878361
211	0xbd42c9f8	-0.047555894
212	0x3d03681f	0.03208172
213	0xbd63cd51	-0.055615727
214	0xbd255e17	-0.040372934
215	0x3d0cd813	0.034385752
216	0x3cf46a94	0.029835977
217	0xbd3a6fe4	-0.045516863
218	0xbd4f54bf	-0.05061793
219	0xbd296976	-0.04136034
220	0xbd0ce2fb	-0.034396153
221	0x3ce9adea	0.028525311
222	0xbd55b527	-0.052174713
223	0x3d0599c0	0.03261733
224	0xbb61ff12	-0.003448431
225	0xbc3b897d	-0.011446354
226	0xbc5cbbc2	-0.013472499
227	0x3d1a3142	0.037644632
228	0x3cfda635	0.030963043
229	0x3c23a501	0.00998807
230	0xbc94095a	-0.018070865
231	0x3d38fb25	0.045161385
232	0xbd55a28b	-0.052156966
233	0xbd086e3c	-0.033308253
234	0xbd3497fd	-0.04409026
235	0xbd3330f5	-0.04374786
236	0xbd05e130	-0.03268546
237	0x3d1d568c	0.038412616
238	0xbd6e2cf6	-0.058148347
239	0xb942ec5a	-0.0001858933
240	0x3bb73b86	0.0055918125
241	0xbd4f5c02	-0.050624855
242	0xbb210c80	-0.00245741
243	0x3b921c73	0.004458958
244	0x3ca1dc7c	0.019758455
245	0x3c8bd74e	0.017070439
246	0x3bd1cd2a	0.0064026313
247	0xbd292c4b	-0.041302007
248	0x3d219695	0.039450247
249	0x3d337d0b	0.043820422
250	0xbd0a9980	-0.033837795
251	0xbce77e35	-0.028258422
252	0x3c9ffa38	0.019528493
253	0xbd124264	-0.035707846
254	0xbcef7365	-0.02922983
255	0xbc389d95	-0.011268039

bias f4 [168]
0	0x3ddf21aa	0.10895093
1	0x3d7a7745	0.0611489
2	0x3d573b80	0.052546978
3	0x3cabe99b	0.020985415
4	0x3d0ba804	0.03409578
5	0x3c5bee81	0.013423563
6	0x3d96be1a	0.07360478
7	0x3d979461	0.07401348
8	0x3daac0d1	0.08337558
9	0x3d3e7b0c	0.046504065
10	0x3d9fc8ab	0.07801946
11	0x3d98c51d	0.074594714
12	0x3d1aa056	0.037750565
13	0x3de31c1d	0.110893466
14	0x3d1aff18	0.037840933
15	0x3dabae3a	0.083828405
16	0x3cfc8d34	0.03082905
17	0x3dc2718d	0.09494314
18	0x3d98d0a1	0.07461668
19	0x3dcf5d02	0.10125162
20	0x3d8c1eff	0.068418495
21	0x3bdce27a	0.0067408653
22	0x3d2468a4	0.040138856
23	0x3dda37db	0.10655185
24	0x3d37bf28	0.044860035
25	0x3dab93d1	0.08377803
26	0x3dbbeb38	0.09175724
27	0x3d88a4c3	0.06672051
28	0x3db59489	0.088662215
29	0x3d9e7988	0.07738024
30	0x3d30af1c	0.043135747
31	0x3d961448	0.07328087
32	0x3d3d48fa	0.046212174
33	0x3d3ca754	0.046058014
34	0x3d398191	0.04528958
35	0x3cd67393	0.026178157
36	0x3db856ed	0.09000955
37	0x3db910ed	0.090364315
38	0x3d0a1c23	0.03371824
39	0x3c738479	0.014863127
40	0x3d6dde28	0.058073193
41	0x3d8e687a	0.06953521
42	0x3d45539d	0.048175443
43	0x3dbc1cc1	0.09185172
44	0x3dbc2468	0.091866314
45	0x3d963b0a	0.073354796
46	0x3d6d6835	0.057960708
47	0x3d97fb6d	0.074210025
48	0x3d8bd56a	0.06827815
49	0x3d9d607e	0.0768442
50	0x3db02116	0.08600061
51	0x3db15018	0.08657855
52	0x3d6734c3	0.056446802
53	0x3d6bb05e	0.057541244
54	0x3d8af065	0.06784133
55	0x3c69d2c6	0.014271444
56	0x3d450481	0.0481
57	0x3dadfa9c	0.084950656
58	0x3dca1c6c	0.09868702
59	0x3d17c46b	0.037052553
60	0x3dbcfc8b	0.09227856
61	0x3dc541b1	0.0963167
62	0x3cd18560	0.025576293
63	0x3d8d6eda	0.06905909
64	0x3d8ac1c4	0.06775239
65	0x3daaa0c1	0.083314426
66	0x3dc7e12f	0.09759747
67	0x3cb41349	0.021981852
68	0x3d96d7e2	0.07365395
69	0x3db03756	0.086043045
70	0x3ca25c82	0.019819502
71	0x3dd21946	0.10258727
72	0x3dc8d255	0.09805743
73	0x3d8f8c09	0.070091315
74	0x3d0b2db4	0.033979133
75	0x3bc601f0	0.0060427114
76	0x3da5e2c2	0.08099891
77	0x3c9507b9	0.018192159
78	0x3d7e5fc4	0.062103048
79	0x3d9b40c1	0.0758071
80	0x3dc855df	0.097820036
81	0x3d48de65	0.049040217
82	0x3d85757e	0.065165505
83	0x3cd48168	0.025940612
84	0x3d98a378	0.07453054
85	0x3d976c50	0.07393706
86	0x3cb455b9	0.022013532
87	0x3c865df0	0.016402215
88	0x3d81c926	0.06337194
89	0x3d417e49	0.047239576
90	0x3dab49bc	0.08363673
91	0x3db2efec	0.08737168
92	0x3dc6fe7c	0.09716508
93	0x3d0d1cf6	0.034451447
94	0x3da18947	0.07887512
95	0x3d140b82	0.036143787
96	0x3d2185c6	0.039434217
97	0x3dd0e6b0	0.1020025
98	0x3d56bcdf	0.052426215
99	0x3d161ece	0.03665047
100	0x3d33a316	0.043856703
101	0x3dd76fcc	0.105193704
102	0x3d99596a	0.074877575
103	0x3d8843e1	0.06653572
104	0x3c9eb4e2	0.019373361
105	0x3d9bbe9e	0.07604717
106	0x3c50ed58	0.0127519
107	0x3d6e9546	0.058247827
108	0x3d60656c	0.054784223
109	0x3dc55571	0.09635437
110	0x3dcedcf2	0.10100736
111	0x3d8e050f	0.069345586
112	0x3d83b40c	0.064308256
113	0x3c9d1673	0.019175744
114	0x3d52b947	0.051446225
115	0x3daaa28d	0.08331785
116	0x3dc39b4a	0.095511034
117	0x3d707e23	0.058714043
118	0x3d70fe30	0.058836162
119	0x3d4872d9	0.048937652
120	0x3c96864f	0.01837459
121	0x3d85eae8	0.065389454
122	0x3daacea9	0.083401985
123	0x3d892c27	0.066978745
124	0x3d9b860e	0.07593928
125	0x3dcdcca3	0.10048797
126	0x3c97bf3e	0.018523809
127	0x3dbb58df	0.0914781
128	0x3d3663cd	0.04452877
129	0x3c74ca22	0.01494077
130	0x3c878844	0.016544469
131	0x3de8abc7	0.11360889
132	0x3dde0a66	0.10841827
133	0x3d7089ba	0.058725096
134	0x3da00437	0.07813304
135	0x3dcf69ae	0.10127579
136	0x3da0e801	0.07856751
137	0x3d5300d5	0.051514465
138	0x3cb1a9c5	0.021687398
139	0x3d33772f	0.043814834
140	0x3d04ca3a	0.03241942
141	0x3c56b5c6	0.013104862
142	0x3dd186a2	0.10230757
143	0x3d15e345	0.036593694
144	0x3d54477c	0.051825985
145	0x3dab1254	0.08353105
146	0x3d2f0f17	0.042739
147	0x3c2999a3	0.010351571
148	0x3db91ff0	0.09039295
149	0x3dabecc0	0.08394766
150	0x3dd6d244	0.10489324
151	0x3d215f63	0.03939761
152	0x3d3173db	0.04332338
153	0x3d75f19b	0.060044866
154	0x3d6d3912	0.057915755
155	0x3c95799b	0.018246463
156	0x3d971420	0.073768854
157	0x3cbfb0e0	0.02339977
158	0x3c5ada7d	0.013357756
159	0x3d684caa	0.056713738
160	0x3db9e575	0.090769686
161	0x3d3b7225	0.045763154
162	0x3d1d6474	0.038425878
163	0x3daf97b2	0.085738555
164	0x3c60aa3a	0.01371246
165	0x3d3142e1	0.04327667
166	0x3dafc059	0.08581609
167	0x3db634b6	0.088967726

weight f4 [168, 336]
0	0x3d6e58cc	0.058190152
1	0x3ca45080	0.020057917
2	0x3cb0a10b	0.021561166
3	0x3d26c62d	0.04071634
4	0xbb1d2aaa	-0.0023981729
5	0x3cb5f49b	0.022211364
6	0x3c9048b0	0.017612785
7	0x3c51819d	0.01278725
8	0x3d12a12f	0.035798248
9	0x3d0987ce	0.03357678
10	0xbd91bb38	-0.07115787
11	0xbd89558e	-0.067057714
12	0xbc9050e6	-0.0176167
13	0xbc38ceb9	-0.011279755
14	0xbd3b85cc	-0.045781896
15	0x3c934e86	0.017981779
16	0x3cbe39d2	0.02322093
17	0xbc35291b	-0.011057164
18	0xbbad7010	-0.0052929
19	0x3bbb33f0	0.0057129785
20	0x3caaad3e	0.020834561
21	0x3d58bd71	0.05291504
22	0x3cf98d30	0.030462831
23	0x3bc9e044	0.0061607677
24	0x3d01d0d9	0.031693313
25	0x3d9533f0	0.07285297
26	0x3d2eaf91	0.042647902
27	0x3c8cb95a	0.017178226
28	0x3d11fafe	0.035639755
29	0x3d48a714	0.048987463
30	0x3d1b755b	0.037953716
31	0xbbb5bb8f	-0.0055460404
32	0x3d12af6e	0.035811834
33	0xbd3f8e50	-0.04676658
34	0xbc3e5110	-0.0116160065
35	0xbd831830	-0.06401098
36	0x3c3b96e5	0.01144955
37	0x3b5fa8cf	0.0034127717
38	0xbd02edd4	-0.03196509
39	0xbdac5e30	-0.08416402
40	0xbd9825d9	-0.07429094
41	0x3ccdbf31	0.025115581
42	0xbd19f25e	-0.037584655
43	0x3cd72691	0.026263507
44	0x3d27d459	0.040973995
45	0xbc0b8abe	-0.008516965
46	0xbca45a40	-0.020062566
47	0x3d7594b5	0.05995627
48	0x3d8819b2	0.06645526
49	0x3d11e242	0.035616167
50	0xbc8b5387	-0.017007602
51	0x3d8f48dd	0.069963194
52	0xbca5b21e	-0.020226534
53	0xbd0de5df	-0.03464305
54	0x3ce78b9f	0.028264819
55	0x3c04059d	0.008057979
56	0x3cf402c8	0.029786482
57	0xbbafac3c	-0.005361108
58	0x3ca8c710	0.020602733
59	0xbb8f226f	-0.0043681185
60	0x3cbdd662	0.023173515
61	0xbd75bb07	-0.059992816
62	0xbd68edeb	-0.05686752
63	0xbc828c1b	-0.015935948
64	0x3c2baed0	0.01047869
65	0xbd94bf1f	-0.07263016
66	0x3ca2a9e0	0.019856393
67	0x3cd0786c	0.025448047
68	0xbca6530f	-0.020303277
69	0x3da2f307	0.0795651
70	0x3cc15167	0.023598386
71	0x3cda89d1	0.026677044
72	0x3d92ed98	0.07174224
73	0x3d3dbad5	0.046320755
74	0x3c0e624a	0.008690426
75	0xba8e1cc2	-0.0010842311
76	0x3d233b43	0.03985144
77	0x3d8789a8	0.06618053
78	0xbd22d6de	-0.039755695
79	0xbbf8dff8	-0.0075950585
80	0xbd85c86a	-0.065323666
81	0xbd1cdd81	-0.03829718
82	0x3ccffd38	0.025389299
83	0xbca479b2	-0.02007756
84	0xbb08c12f	-0.00208671
85	0xbd8bae90	-0.068204045
86	0xbcbb3397	-0.022851748
87	0x3b5db993	0.0033832535
88	0xbd841885	-0.06449989
89	0x3c14a3d5	0.009072264
90	0xbce6248d	-0.0280936
91	0xbd06f51b	-0.032948595
92	0x3b27393d	0.0025516294
93	0x3c91980f	0.017772703
94	0x3ceeee74	0.029166438
95	0xbab8b348	-0.0014091516
96	0xbc5a34b6	-0.013318231
97	0x3c50ead2	0.012751298
98	0x3a9f1388	0.0012136558
99	0x3d9e8441	0.07740069
100	0x3d64f611	0.05589873
101	0x3d1d8c9f	0.038464185
102	0xbbb0dc16	-0.00539733
103	0x3cc477ec	0.023982964
104	0x3b233667	0.0024904252
105	0x3c34091e	0.010988502
106	0xbd70c999	-0.05878601
107	0x3d1c594d	0.0381711
108	0x3d069294	0.03285463
109	0x3cd81217	0.026375813
110	0x3caf6138	0.021408662
111	0xbd012c70	-0.03153652
112	0x3ca07e38	0.019591436
113	0xbd7b99df	-0.06142604
114	0x3aee7215	0.0018191958
115	0xbcf190e8	-0.029488042
116	0xbd1ddc01	-0.03853989
117	0x3d2dadaa	0.042401947
118	0x3d116827	0.035499718
119	0x3a6f2b6d	0.00091235974
120	0x3c380e11	0.011233822
121	0x3cc6e8f0	0.024280995
122	0x3dacf2c2	0.0844474
123	0x3d96e564	0.073679715
124	0xbc514d77	-0.012774817
125	0x3d2973f0	0.041370332
126	0x3d26c3c6	0.040714048
127	0x3a52bc83	0.00080389547
128	0x3a456c64	0.0007531105
129	0x3b88376c	0.0041569974
130	0xbd04f1cb	-0.032457154
131	0xbd5ff3a2	-0.054675706
132	0xbd19f0ef	-0.037583288
133	0x3ae40903	0.0017397705
134	0xbc128fe0	-0.008945435
135	0xbcd5bca6	-0.026090931
136	0x3c05014d	0.008117986
137	0x3c0422c1	0.008064927
138	0xbd16c780	-0.03681135
139	0xbd629d84	-0.055326
140	0x3d123e08	0.03570369
141	0x3c92d24b	0.017922541
142	0x3d171b85	0.03689148
143	0x3d957e01	0.07299424
144	0x3d8ee70d	0.06977663
145	0x3d9c2d8b	0.07625874
146	0x3c58d16d	0.013233525
147	0x3cde36f8	0.02712582
148	0xbcbbabac	-0.022909008
149	0x3d678739	0.056525443
150	0x3c7ca90a	0.015421161
151	0x3c972a1e	0.0184527
152	0x3c90c8ad	0.017673815
153	0x3b95b825	0.004569071
154	0x3b9954b1	0.0046792855
155	0xbd453d22	-0.048154004
156	0xbd671d27	-0.056424286
157	0x3c387975	0.011259426
158	0xbd4409c5	-0.04786088
159	0xbdb845a8	-0.08997661
160	0xbcc65649	-0.024211066
161	0xbc839326	-0.016061377
162	0xbc69391f	-0.01423481
163	0x3c918f7d	0.017768616
164	0xbcf4ffad	-0.029907072
165	0x3b628555	0.0034564335
166	0xbc24a94e	-0.010050131
167	0x3d40f936	0.047112666
168	0x3d4add81	0.04952765
169	0x3bb71634	0.0055873636
170	0xbcad1a1a	-0.02113061
171	0xbc4a27d1	-0.0123385945
172	0xbd061576	-0.03273531
173	0x3d8c6f99	0.06857223
174	0x3cc97bf4	0.024595238
175	0xbd0b7c32	-0.03405399
176	0x3cd42743	0.025897628
177	0xbd06fc7d	-0.032955635
178	0xbd114c2e	-0.03547304
179	0xbabe50a3	-0.0014519881
180	0x3c890c3a	0.016729463
181	0xbd40782d	-0.04698961
182	0x3d04e7ba	0.032447554
183	0xbcb0407b	-0.021515122
184	0xbd608d2b	-0.05482213
185	0xbbfc598e	-0.0077011054
186	0xbcb6da18	-0.022320792
187	0xbd0f1b3e	-0.03493809
188	0x3d22326c	0.039598867
189	0xbd0d2b76	-0.034465276
190	0x3cdbbb6d	0.02682277
191	0xbc1f0383	-0.009705427
192	0x3d52a976	0.05143114
193	0xbb48aeaf	-0.0030621698
194	0x3b04b7f4	0.0020251246
195	0xbd0ae286	-0.033907436
196	0x3d427cba	0.04748223
197	0x3c8cf0e6	0.017204713
198	0xbd224c04	-0.039623275
199	0xbd18d3f6	-0.037311517
200	0xbb84a330	-0.004047774
201	0x3d320532	0.043461986
202	0x3d0ec2d9	0.03485379
203	0xbceefb19	-0.029172467
204	0xbd1bd7a3	-0.038047444
205	0xbcfe95bd	-0.03107726
206	0xbd1c728a	-0.03819517
207	0x3c7a64f5	0.015282859
208	0xbcd5bd13	-0.026091134
209	0xbd5e5986	-0.054284595
210	0x3cffe1fc	0.031235687
211	0xbd0d2752	-0.034461327
212	0x3d28c54d	0.041203786
213	0xbcd24338	-0.025666818
214	0xbc218503	-0.009858373
215	0x3c5042c1	0.012711228
216	0x3c89e93f	0.016834853
217	0x3d442ec8	0.047896177
218	0x3d6dd829	0.058067475
219	0x3d4ce7dd	0.05002581
220	0x3d2f3d95	0.04278334
221	0xbd0869cf	-0.033304032
222	0x3cc56936	0.02409802
223	0xbc9710b3	-0.01844058
224	0xbc9fd06c	-0.019508563
225	0xbb2de1af	-0.0026532223
226	0x3ce4c717	0.027926965
227	0xbbbaadb2	-0.0056969756
228	0x3d071140	0.032975435
229	0x3bdea24c	0.0067942496
230	0x3cf46d0e	0.029837158
231	0xbcfc7a95	-0.03082017
232	0x3d021f4e	0.031768136
233	0xbcdc663d	-0.02690422
234	0xbc94a696	-0.01814584
235	0xbd7f92ef	-0.062395986
236	0xbc1b8b73	-0.0094936965
237	0xbcb83fb4	-0.022491314
238	0xbb848d64	-0.0040451754
239	0x3a34eca6	0.00069017184
240	0xbca7a2c4	-0.020463355
241	0x3daa53a4	0.083167344
242	0xbcb56c63	-0.02214641
243	0xbce19839	-0.027538406
244	0x3d1ab797	0.03777274
245	0x3b412b08	0.0029475112
246	0xbd097501	-0.03355885
247	0xbd278640	-0.040899515
248	0x3c8ba424	0.017046042
249	0x3d06dd01	0.03292561
250	0xbd2c260d	-0.042028476
251	0x3c98d2c1	0.018655183
252	0x3cb9a945	0.022663722
253	0x3cef3546	0.029200207
254	0x3b6a4311	0.003574554
255	0xbc36bfcf	-0.011154129

bias f4 [168]
0	0x3c9a8fac	0.018867336
1	0x3da63b41	0.081167705
2	0x3d13ab3e	0.03605198
3	0x3db85bdf	0.09001898
4	0x3d8686e2	0.065686956
5	0x3d602f29	0.054732475
6	0x3cdd82ee	0.027039971
7	0x3d694ccd	0.05695801
8	0x3cd5e28b	0.026109
9	0x3dbc12a5	0.09183244
10	0x3dcb7dc5	0.09936098
11	0x3d4b324f	0.049608525
12	0x3db80784	0.089858085
13	0x3ce2a7b8	0.027667865
14	0x3da45479	0.080239244
15	0x3c99cf3b	0.018775573
16	0x3d1ef838	0.03881094
17	0x3dba3017	0.09091204
18	0x3d839419	0.06424732
19	0x3c2894d1	0.010289387
20	0x3cc6c138	0.024262056
21	0x3ddcd8a5	0.10783509
22	0x3d6f35f9	0.05840108
23	0x3d23e705	0.04001524
24	0x3cf1dad5	0.029523293
25	0x3db3a477	0.087716036
26	0x3db2bb92	0.087271824
27	0x3cc71b98	0.02430515
28	0x3d0af5ac	0.033925697
29	0x3da06458	0.07831639
30	0x3db9807a	0.09057708
31	0x3dadb44d	0.08481655
32	0x3d8d1764	0.06889227
33	0x3dabe351	0.083929665
34	0x3d66efbb	0.05638097
35	0x3dbab89f	0.09117245
36	0x3d38112e	0.04493826
37	0x3dbe4b14	0.09291664
38	0x3cf32693	0.02968148
39	0x3d668866	0.056282423
40	0x3d9dd902	0.077074066
41	0x3da660ae	0.08123909
42	0x3dbd113b	0.09231802
43	0x3d962224	0.073307306
44	0x3d7f4f84	0.06233169
45	0x3db7cacb	0.089742266
46	0x3da1b51b	0.07895871
47	0x3c82680d	0.015918756
48	0x3d8729ee	0.06599794
49	0x3d52387d	0.051323403
50	0x3dbe50e4	0.092927724
51	0x3d86ba49	0.065785
52	0x3d39cb99	0.04536018
53	0x3d200aa9	0.039072666
54	0x3d7e3359	0.062060688
55	0x3de7b50c	0.11313829
56	0x3cc96d17	0.02458815
57	0x3c4edd8d	0.012626064
58	0x3c29a40c	0.010354053
59	0x3cd35ff0	0.025802583
60	0x3c5cb952	0.013471918
61	0x3d8657c9	0.065597124
62	0x3dcac98e	0.09901725
63	0x3da4e769	0.080519505
64	0x3d182c83	0.037151825
65	0x3d5ab7ca	0.05339793
66	0x3d828a77	0.06374066
67	0x3ca90573	0.020632481
68	0x3cd0f2fc	0.025506489
69	0x3d12721f	0.035753366
70	0x3d9e4846	0.07728629
71	0x3c12e405	0.008965497
72	0x3da72a6e	0.0816239
73	0x3da3b0c8	0.07992703
74	0x3ceae44f	0.02867332
75	0x3dce1186	0.10061936
76	0x3db7d0e0	0.089753866
77	0x3dc55476	0.0963525
78	0x3d6b910c	0.057511374
79	0x3ccd8a51	0.025090368
80	0x3cdb8e99	0.026801394
81	0x3d277e9c	0.04089223
82	0x3dae0ad0	0.08498156
83	0x3d555467	0.052082445
84	0x3dc7aaa5	0.09749345
85	0x3daa7a9d	0.08324168
86	0x3cb2394c	0.021755837
87	0x3dcf7319	0.10129375
88	0x3da4a5af	0.08039414
89	0x3dab677a	0.08369346
90	0x3d0d2868	0.034462363
91	0x3d44157f	0.047872063
92	0x3d303010	0.043014586
93	0x3d89b40d	0.06723795
94	0x3cfea169	0.031082826
95	0x3db053c3	0.08609726
96	0x3c7781da	0.015106643
97	0x3d8510a7	0.06497317
98	0x3dbc6d2c	0.092005104
99	0x3dc9088a	0.09816082
100	0x3d9b2fe6	0.07577495
101	0x3b766362	0.0037595858
102	0x3d85887f	0.06520175
103	0x3d3d2fe5	0.046188254
104	0x3d09be8d	0.03362899
105	0x3d94930b	0.07254609
106	0x3d9d3fb0	0.07678163
107	0x3d84a321	0.06476427
108	0x3dc6fdcd	0.097163774
109	0x3d42dd3e	0.047574274
110	0x3d759688	0.05995801
111	0x3d0747cb	0.03302745
112	0x3d81b82d	0.06333957
113	0x3d75b047	0.059982564
114	0x3d8dbf4a	0.06921251
115	0x3c5ece65	0.013599013
116	0x3d152e13	0.036420893
117	0x3d22f18a	0.03978113
118	0x3cbf0901	0.023319723
119	0x3d999914	0.074999005
120	0x3db8880b	0.09010323
121	0x3dbf6d56	0.09347026
122	0x3d42e8c2	0.047585256
123	0x3d494796	0.049140535
124	0x3d85f2f6	0.06540482
125	0x3d4fd669	0.050741587
126	0x3dd8a6fe	0.10578726
127	0x3d564b05	0.052317638
128	0x3db2bc8c	0.08727369
129	0x3dcd94db	0.100381576
130	0x3d7d155b	0.061787944
131	0x3cbe344d	0.023218298
132	0x3c44841b	0.011994387
133	0x3d92a0a8	0.07159549
134	0x3dc98319	0.09839458
135	0x3d42e3e8	0.04758063
136	0x3d9536b8	0.072858274
137	0x3d8c54bc	0.06852099
138	0x3dad0225	0.08447675
139	0x3d884498	0.06653708
140	0x3db01cf3	0.085992716
141	0x3de52486	0.11188607
142	0x3cd8fa69	0.026486592
143	0x3daaae6a	0.08334048
144	0x3d5870d8	0.05284199
145	0x3dae9f7e	0.085265145
146	0x3dc9203d	0.09820602
147	0x3ddf802e	0.1091312
148	0x3d61d31b	0.055132966
149	0x3d220ee3	0.03956498
150	0x3cb61754	0.02222792
151	0x3dc45124	0.09585789
152	0x3dc9f663	0.09861448
153	0x3d9403e7	0.07227307
154	0x3d99a33f	0.0750184
155	0x3d4deb1f	0.050273057
156	0x3d5ff290	0.054674685
157	0x3da40f83	0.08010771
158	0x3da55ebb	0.08074709
159	0x3da6735b	0.08127471
160	0x3d5e00cf	0.05419999
161	0x3cfc21c6	0.030777823
162	0x3d9f4802	0.07777406
163	0x3cea499b	0.028599551
164	0x3d2f29c3	0.042764436
165	0x3dc1abce	0.09456597
166	0x3d374d86	0.044751666
167	0x3cbd83d0	0.023134142

weight f4 [1, 27]
0	0x3d8e5984	0.069506675
1	0x3e291531	0.1651199
2	0xbe1c357a	-0.15254775
3	0xbe07fb26	-0.132794
4	0xbe27cabc	-0.16385931
5	0x3e683b90	0.22678971
6	0xbdf9fe41	-0.12206698
7	0x3e1c2474	0.15248281
8	0xbabb8e12	-0.0014309308
9	0x3dabafdd	0.08383153
10	0x3e537a54	0.20652133
11	0x3ab540d8	0.0013828529
12	0x3e69c218	0.22827947
13	0x3e7d8046	0.24755964
14	0xbc2ffa20	-0.010740787
15	0x3e6d34da	0.23164693
16	0xbdb7595d	-0.089525916
17	0x3d4c4e0b	0.049879115
18	0x3e7919ae	0.24326202
19	0xbc9aadb6	-0.01888166
20	0xbd0edc2e	-0.03487795
21	0x3ca3a4ad	0.019975984
22	0xbcf85ebe	-0.030318614
23	0xbdd7cf90	-0.10537636
24	0x3e0f720d	0.1400835
25	0x3d30b2f5	0.043139417
26	0xbc6bfb3e	-0.0144031625
