js_park/best_AF_michin.pth (torch, 459875 bytes, 11 tensors)

weight f4 [168, 336]
000000 1a ea b6 be 2c 65 dc be 49 ab cb be 62 ed 9c be
       -0.3572548 -0.43045938 -0.39779118 -0.3064986
000010 95 6c a2 be af e3 95 be 45 b0 b7 be fb f5 a8 be
       -0.31723467 -0.2927527 -0.3587667 -0.33000168
000020 db b8 92 be cd fe 98 be f7 53 55 be 46 4a 50 be
       -0.2865666 -0.29881898 -0.20832811 -0.20340833
000030 3a b6 37 be 44 64 87 bd 99 32 3f bd 0c 96 b1 ba
       -0.17940608 -0.06610921 -0.046679113 -0.0013548746
000040 f3 22 8a bd 00 36 2d bb c1 b6 b1 3c ac 14 de 3c
       -0.06744947 -0.0026429892 0.02169359 0.027109466
000050 ea 29 44 3d 21 bb 45 3e bf 83 7e 3e c5 a6 68 3e
       0.047891535 0.19309665 0.24854945 0.22719868
000060 88 52 b1 3e 8b 0f b9 3e d0 74 ab 3e 4b 19 98 3e
       0.3463328 0.3614467 0.33487558 0.29706797
000070 e5 42 65 3e 34 52 6f 3e 7f 7d 9c 3e e0 23 84 3e
       0.223888 0.23371202 0.30564496 0.2580862
000080 54 de 20 3e e3 9c 11 3e da 61 64 3e 15 c0 d9 3d
       0.15709811 0.14220004 0.22302952 0.1063234
000090 d0 14 24 3e 62 3e e2 3d 5d 7b 57 3d f7 f9 a5 3b
       0.16023564 0.11047055 0.052607883 0.0050651985
0000a0 83 5a c4 bb 3f 51 89 bd 4e 83 ca bd 6d 72 25 be
       -0.005992235 -0.067049496 -0.09888326 -0.16156931
0000b0 02 6f 4d be 46 67 15 be 92 d5 19 be 8e 34 6b be
       -0.20061877 -0.14590177 -0.15022877 -0.22969267
0000c0 c2 6e 38 be 34 69 64 be 50 bd 91 be 50 44 b7 be
       -0.18011001 -0.22305757 -0.28464746 -0.35794306
0000d0 c1 b1 a6 be f4 1c 92 be 1c af b9 be 26 73 b6 be
       -0.3255749 -0.28537714 -0.3626641 -0.35634726
0000e0 d1 c5 8d be 65 b7 a2 be 7f 74 5a be 5f a8 80 be
       -0.27689984 -0.31780544 -0.21333502 -0.25128457
0000f0 a4 62 5d be a4 37 73 be 9c 15 51 be a6 b3 7f be
       -0.2161966 -0.23751694 -0.204184 -0.24970874
000100 32 a9 a2 be 3c c3 80 be 88 5e af be 4a 5a a8 be
       -0.3176971 -0.25148952 -0.3425181 -0.32881385
000110 5d bb b1 be 14 38 b3 be fc ea 91 be 2a 2f a6 be
       -0.3471326 -0.35003722 -0.2849959 -0.32457858
000120 54 42 9d be 42 48 8a be 4e b2 97 be 79 1b b6 be
       -0.30714667 -0.27008253 -0.29628223 -0.35567835
000130 21 5c d5 be d4 01 e1 be aa 57 bc be 2f 4d e0 be
       -0.4167185 -0.43946707 -0.36785632 -0.43808886
000140 9f f2 f0 be 2f 7e eb be 68 68 eb be a2 28 0b bf
       -0.47060105 -0.45994708 -0.45978093 -0.54358876
000150 c1 30 08 bf d3 25 ff be a3 6b 1b bf cb ae 19 bf
       -0.5319939 -0.49833545 -0.60711116 -0.6003234
000160 c7 84 1f bf 0a ba 21 bf 8a 9e 1a bf db 5a 0b bf
       -0.6231198 -0.631745 -0.6039816 -0.5443551
000170 f6 5e 09 bf be bd ec be 26 ea fd be fc 08 cf be
       -0.53660524 -0.46238512 -0.49592704 -0.40436542
000180 74 61 9c be a3 d4 89 be de 28 82 be 22 81 73 be
       -0.305431 -0.2692004 -0.25421804 -0.23779729
000190 13 96 5a be f2 a6 30 be 3c fe b8 bd 78 8b e6 bd
       -0.21346311 -0.17251185 -0.09032866 -0.1125707
0001a0 48 6c 7e bd dd 0b 55 3d 9f 5b 1a 3e e1 53 3c 3e
       -0.062114984 0.052013267 0.15074013 0.18391372
0001b0 cf 95 89 3e 69 30 84 3e c9 09 c5 3e 9a 00 d9 3e
       0.26872107 0.25818184 0.38484028 0.4238327
0001c0 84 2d d3 3e cb 40 e2 3e 66 9b 02 3f ae 79 0d 3f
       0.41245663 0.44190058 0.5101837 0.55263793
0001d0 77 2d 08 3f e3 35 29 3f 79 c9 39 3f b0 9d 2c 3f
       0.53194374 0.6609785 0.7257305 0.6742811
0001e0 38 46 3a 3f c5 29 41 3f d5 ea 2a 3f 5e 6c 37 3f
       0.72763395 0.7545436 0.66764575 0.7164973
0001f0 33 75 37 3f e8 25 2d 3f 40 fe 21 3f 03 0f 1a 3f
       0.71663207 0.67635965 0.6327858 0.60179156
000200 cf fb 22 3f 77 16 1b 3f 41 e9 07 3f 3e b4 09 3f
       0.6366548 0.60581154 0.5309029 0.5379065
000210 3e b7 f3 3e 76 e1 df 3e ed b8 b5 3e 10 a6 93 3e
       0.4760074 0.437267 0.3549265 0.28837633
000220 4d 14 5b 3e 2c fb 3f 3e 8e 05 12 3e a6 69 1f 3e
       0.21394463 0.18748158 0.14259931 0.15567645
000230 52 ac 0a 3e c5 54 bc 3d 2b 9f f6 3d 66 43 ab 3d
       0.13542297 0.09195856 0.12042078 0.083624646
000240 a6 7a 6e 3d c3 f4 0b bd 79 67 e8 bc 8e 05 21 bd
       0.058222435 -0.03416897 -0.028369652 -0.039311938
000250 75 1c 55 bd 94 f9 14 be 7c 6c d4 bd 8d 32 28 be
       -0.052029092 -0.14548331 -0.10372254 -0.16425534
000260 38 69 2b be 01 6f 62 be f7 d8 82 be 46 e3 5f be
       -0.16739357 -0.22112657 -0.25556156 -0.21864042
000270 88 91 92 be 25 f4 8b be f9 e4 67 be 63 ef 98 be
       -0.28626657 -0.27334705 -0.2264594 -0.29870138
000280 26 3d 8c be 93 16 86 be d1 95 89 be 24 76 6d be
       -0.27390403 -0.26189098 -0.26872113 -0.23189598
000290 31 3c 54 be be 14 98 be 24 75 6f be 5f fd 3d be
       -0.20726086 -0.29703325 -0.2338453 -0.18553685
0002a0 4e 1b 7b be b2 21 78 be 22 50 a9 be ae 15 94 be
       -0.24522135 -0.24231604 -0.3306895 -0.2892279
0002b0 48 8c c1 be d6 8f a5 be 8d e9 ae be 62 b0 b4 be
       -0.3780234 -0.323363 -0.3416256 -0.3529082
0002c0 14 5f bc be 4b 10 e0 be d7 c1 c1 be a0 78 c6 be
       -0.3679129 -0.4376243 -0.378432 -0.38763905
0002d0 46 f0 dc be 55 65 da be f8 ef af be f5 bf d8 be
       -0.43152064 -0.42655435 -0.3436277 -0.42333952
0002e0 40 aa ca be 14 19 bf be bf 9c c4 be 28 57 d9 be
       -0.39583015 -0.3732382 -0.38400838 -0.42449307
0002f0 6b 43 cd be 40 81 dd be eb 08 a9 be 9e cf 98 be
       -0.40090498 -0.43262672 -0.33014616 -0.298459
000300 2f aa a3 be 9d d7 a0 be 64 b7 b6 be f8 fe 93 be
       -0.31965777 -0.314145 -0.3568679 -0.28905463
000310 e2 d7 b0 be d9 bc 9e be 1f c0 b1 be 7c ed 7e be
       -0.34539706 -0.31003454 -0.3471689 -0.2489528
000320 53 d7 68 be 5b bd 7d be 7e 39 48 be 01 b6 13 be
       -0.2273839 -0.24779265 -0.19553182 -0.14424898
000330 a7 2c bf bd a8 0e 86 bd 0f 60 a6 bd f7 57 69 bd
       -0.09334689 -0.06545764 -0.081237905 -0.056968655
000340 e7 71 df bd 9b fa 73 bd b8 f8 07 bd 76 b7 d1 bd
       -0.10910397 -0.059565168 -0.03319618 -0.102400705
000350 dc e5 ae bd 89 74 9d bd f7 d8 0b bc 29 2b 93 3c
       -0.08539936 -0.07688243 -0.008535615 0.017964916
000360 da fb 0b 3d 9a ee 82 3d 50 4a 53 bc d6 29 dd 3c
       0.03417573 0.06393166 -0.012896135 0.026997488
000370 94 f9 48 bc 9d dd cb 3c 90 a3 5d 3c d2 8c 86 bc
       -0.012266535 0.024885947 0.013527766 -0.01642457
000380 8c f9 5b 3d 95 02 1b 3d 72 a8 dc 3b ef 35 26 3d
       0.053704783 0.03784426 0.0067339474 0.04057878
000390 42 e0 61 3d 87 60 56 3b 50 d0 47 bc 2b 1c 61 3c
       0.05514551 0.0032711343 -0.012195662 0.013739626
0003a0 8b a1 6e bd 4d 1d 60 bd 95 22 4d bd 82 c5 c5 bd
       -0.058259528 -0.054715443 -0.050081808 -0.09656812
0003b0 cc c1 96 bd a5 f6 19 bd a2 e7 80 bd bc 98 1c bd
       -0.073611826 -0.037588734 -0.062941805 -0.038231596
0003c0 a6 13 d3 bc 4a 5c d7 bc d0 9e 0e be 1f 73 fa bd
       -0.025766205 -0.026289124 -0.1392777 -0.12228989
0003d0 6d 29 db bd 88 cf 10 be 3e df 0a be 18 a3 62 be
       -0.10701261 -0.14141667 -0.13561723 -0.22132528
0003e0 02 54 45 be 93 fb 29 be c0 7b 38 be d5 a0 45 be
       -0.19270328 -0.16599874 -0.18015957 -0.19299634
0003f0 00 6e 40 be a7 97 49 be 75 61 3b be be 75 85 be
       -0.18791962 -0.19686757 -0.18298896 -0.26066393

bias f4 [168]
000000 15 21 2a 40 5a d9 2c 40 ec 02 2f 40 d8 9c 2c 40
       2.6582692 2.700766 2.7345533 2.697073
000010 13 29 2d 40 e1 fc 2c 40 69 15 2b 40 c7 38 2f 40
       2.705632 2.7029345 2.6731818 2.7378404
000020 46 9b 2c 40 19 a5 2c 40 1a 63 2d 40 50 cc 2d 40
       2.6969771 2.6975768 2.7091737 2.7155952
000030 8d f1 2c 40 b6 20 2b 40 e3 6d 2e 40 e9 43 2f 40
       2.702243 2.6738715 2.725457 2.73852
000040 11 d6 2b 40 36 f3 2f 40 0e 0f 2e 40 54 e4 2a 40
       2.6849406 2.7492194 2.7196689 2.670186
000050 51 25 2c 40 9c 63 2d 40 29 ff 2d 40 70 4f 2e 40
       2.6897776 2.7092047 2.7186987 2.7235985
000060 e4 e7 2d 40 2c 1b 2d 40 ba f1 2f 40 28 7e 2c 40
       2.7172785 2.7047834 2.7491288 2.6952
000070 d2 6a 2b 40 a7 3f 2c 40 01 a9 2e 40 22 48 2f 40
       2.6783948 2.691385 2.7290652 2.7387776
000080 79 27 2e 40 a0 3c 2f 40 4a e0 2f 40 52 8c 31 40
       2.7211592 2.7380753 2.7480645 2.7741895
000090 53 f6 2f 40 6d 99 2e 40 7d ea 2f 40 b1 a8 2d 40
       2.7494094 2.7281144 2.748687 2.713421
0000a0 de 23 2d 40 93 96 2d 40 88 9a 2d 40 27 f6 2e 40
       2.7053142 2.7123153 2.7125568 2.733774
0000b0 51 3e 2d 40 9d e8 2d 40 78 f9 2c 40 2b fb 2d 40
       2.7069285 2.7173226 2.7027264 2.718455
0000c0 02 fd 2d 40 71 b7 2c 40 55 e5 2b 40 d7 6f 2d 40
       2.7185674 2.6986964 2.6858723 2.7099512
0000d0 54 15 2e 40 22 a7 2f 40 68 95 30 40 8f 4d 30 40
       2.7200518 2.744576 2.759119 2.7547338
0000e0 3a e5 2f 40 46 54 2f 40 91 07 2d 40 02 52 2c 40
       2.7483659 2.7395186 2.7035868 2.6925054
0000f0 fb 00 31 40 75 b0 2d 40 c2 db 2e 40 58 5e 30 40
       2.7656848 2.713895 2.732163 2.7557583
000100 5b 64 2f 40 c1 0b 30 40 f7 72 30 40 c2 74 30 40
       2.7405002 2.7507174 2.757017 2.7571263
000110 88 99 2d 40 af 9d 2e 40 72 ff 2b 40 43 10 31 40
       2.7124958 2.7283742 2.6874661 2.7666175
000120 5a 20 2f 40 74 8c 2f 40 fe a0 2d 40 7d 5f 30 40
       2.7363496 2.7429476 2.7129512 2.7558281
000130 06 b8 2f 40 ca 54 30 40 84 69 32 40 7e e9 2e 40
       2.745607 2.755175 2.7876902 2.7330012
000140 4c cb 32 40 91 5e 30 40 86 62 30 40 e2 0e 31 40
       2.7936583 2.7557719 2.7560134 2.7665334
000150 e5 30 31 40 3c 90 2d 40 ab 8c 2e 40 ce d1 2c 40
       2.7686093 2.7119284 2.7273357 2.7003055
000160 5e 37 2d 40 ac d2 2f 40 a7 70 31 40 d3 d2 31 40
       2.7065043 2.7472334 2.7725008 2.7784927
000170 e9 a2 30 40 49 a2 2e 40 a2 5a 2d 40 11 0b 31 40
       2.7599432 2.728655 2.7086568 2.7663004
000180 83 f7 2e 40 e5 54 2e 40 d8 c2 30 40 63 2a 2d 40
       2.733857 2.7239316 2.7618923 2.705712
000190 dd 09 2e 40 2f 2d 30 40 bb 0f 32 40 77 cc 31 40
       2.719352 2.7527578 2.78221 2.7781045
0001a0 6d 89 2f 40 af c8 31 40 55 d9 31 40 23 00 2f 40
       2.7427628 2.7778738 2.77889 2.7343833
0001b0 6d 4f 30 40 0b ae 31 40 18 69 2f 40 5a 0c 30 40
       2.7548478 2.7762477 2.7407894 2.7507539
0001c0 c6 93 2f 40 f2 75 30 40 b6 1b 30 40 a1 df 31 40
       2.7433944 2.7571988 2.7516913 2.7792742
0001d0 d0 75 2e 40 64 99 2f 40 96 b8 30 40 6a c8 30 40
       2.7259407 2.7437372 2.7612662 2.7622323
0001e0 0e b9 30 40 b3 a7 32 40 a7 e5 2e 40 e9 56 2f 40
       2.7612948 2.7914855 2.7327669 2.7396796
0001f0 17 25 2f 40 39 07 31 40 47 0b 2e 40 9e 73 2f 40
       2.7366388 2.7660658 2.7194383 2.7414317
000200 9f cb 30 40 ac eb 30 40 36 82 32 40 5c 31 31 40
       2.762428 2.7643843 2.7891974 2.7686377
000210 e2 8e 32 40 4b 3b 2f 40 45 1f 32 40 b7 2d 32 40
       2.7899709 2.737994 2.7831585 2.7840402
000220 e4 3f 2f 40 be 30 32 40 6d 30 2e 40 da e9 30 40
       2.7382746 2.784225 2.7217057 2.7642732
000230 be d9 2f 40 70 ef 2f 40 ef 92 32 40 e8 f6 30 40
       2.747665 2.748989 2.790218 2.76507
000240 25 93 2f 40 34 a7 30 40 ef c8 31 40 40 f3 31 40
       2.743356 2.7602053 2.777889 2.7804718
000250 cc 09 35 40 20 50 31 40 27 c3 2f 40 aa 9a 32 40
       2.828723 2.7705154 2.7462862 2.79069
000260 1d f5 34 40 aa 16 33 40 eb b0 34 40 0a 81 32 40
       2.8274605 2.7982583 2.8232982 2.789126
000270 4d c5 35 40 b4 69 34 40 34 07 35 40 20 2d 31 40
       2.8401673 2.8189516 2.8285646 2.7683792
000280 99 98 34 40 e8 75 32 40 c0 fa 32 40 ac bb 32 40
       2.8218138 2.7884464 2.7965546 2.7927046
000290 72 bd 34 40 ba 27 34 40 59 20 33 40 1b 99 36 40
       2.8240628 2.8149247 2.7988493 2.8530948

weight f4 [168, 336]
000000 67 39 07 bf 7b 89 c6 bf b5 61 11 bf 4f 2d 7e 3f
       -0.52821964 -1.5510706 -0.56789714 0.99287885
000010 82 a9 a9 bf 39 48 82 c0 dd b7 81 bf 32 66 0e bf
       -1.3254855 -4.0713162 -1.0134236 -0.5562469
000020 89 a1 f3 bd 46 40 67 bf 39 d2 65 3e 6f 72 12 40
       -0.11896045 -0.9033245 0.22443475 2.2882345
000030 a2 e7 2d 40 99 6f 73 3f bb fc 4b bd 46 36 92 bd
       2.7172627 0.9509216 -0.04980157 -0.07139258
000040 97 f0 03 c0 36 04 5c c0 ee 97 ae bf 20 1e 0e c0
       -2.0615594 -3.437757 -1.3640115 -2.2205887
000050 5e af 34 c0 96 aa 63 be 0b 61 a1 3f cb 1a c4 3f
       -2.8232036 -0.22233042 1.260774 1.5320677
000060 55 4c f3 3f 4c 6b 93 3e 38 d6 b5 3f 4a 01 e5 3f
       1.900767 0.287928 1.4205999 1.7891018
000070 86 a8 00 be 2e d2 e0 bf 56 c7 52 bf 5f d9 a0 3f
       -0.12564287 -1.7564142 -0.8233541 1.2566336
000080 13 84 51 3f 45 71 ab 3f 2b 5a 29 40 09 cf 65 40
       0.81842154 1.3393942 2.6461284 3.5907614
000090 d5 15 97 40 08 01 2c 40 1b 6a 5c 3f 93 0a 15 3f
       4.721415 2.687563 0.86099404 0.5821926
0000a0 d9 58 13 bf 5a 7b ee bf 2c 2a e5 bf 08 4f 10 c0
       -0.57557446 -1.8631394 -1.7903495 -2.2548237
0000b0 22 9a 8a c0 47 67 ec bf d4 16 71 bf 0d 81 ce bf
       -4.331315 -1.8469018 -0.9417546 -1.6133133
0000c0 b1 b8 18 bf dc db e8 be ec 4e ba 3f f6 77 81 3f
       -0.59656817 -0.4548024 1.4555335 1.0114734
0000d0 e6 c4 cb bf 5e 82 a1 c0 1d 42 65 c0 3b 24 77 bf
       -1.5919464 -5.047164 -3.5821602 -0.9653966
0000e0 3a 17 8f be 51 b1 bc be c5 36 1f 3e 8a aa e2 3f
       -0.27947408 -0.36854032 0.15548237 1.7708294
0000f0 9b 0e 23 40 10 c5 07 40 2a a9 7a 3e 8e cb 2f 3f
       2.5477664 2.1214027 0.24478593 0.68669975
000100 ef 83 d6 3f 00 8c 2f 40 18 e8 3f 40 ad 3d cd 3f
       1.6759013 2.74292 2.9985409 1.6034447
000110 e6 fb 40 3f 4a ac a8 3f c5 a3 be 3f a8 f9 4f 3f
       0.75384367 1.3177578 1.4893728 0.8124032
000120 6c f9 3b 3f 92 0e 43 3c f3 52 0e 3d e6 48 4e bf
       0.7342746 0.011905329 0.034747075 -0.80579984
000130 d3 9f 44 c0 d9 17 a1 c0 dd 0a 87 c0 9c 83 76 c0
       -3.072255 -5.034161 -4.220076 -3.8517828
000140 0d 36 2d c0 ba 34 01 c0 e6 e7 1b bc 62 aa 0b 40
       -2.706424 -2.0188432 -0.009515738 2.1822743
000150 61 11 41 40 1c f1 0a 40 d2 8b 97 3e 87 e2 17 3f
       3.0166857 2.1709661 0.29598862 0.5933003
000160 ae 1e c6 3d be 9b 13 c0 9d ab 8c c0 87 0b 8a c0
       0.096738204 -2.3063807 -4.395949 -4.313907
000170 4a ca 9b c0 95 2a 2d c0 53 2e 95 bf eb 21 b1 bf
       -4.8684435 -2.705724 -1.1654762 -1.3838476
000180 8c ce d2 bf c6 64 06 c0 25 2d be be 2a 43 4d bf
       -1.6469283 -2.0999007 -0.37143818 -0.8018061
000190 91 a9 1d c0 0b 75 55 c0 95 58 28 c0 2e 1a 2e c0
       -2.4634745 -3.3352687 -2.6304066 -2.720348
0001a0 b2 e7 0f c0 cd f5 15 3f 3e 2a 96 3f 46 dc b1 3f
       -2.2485166 0.5857819 1.1731641 1.3895347
0001b0 51 4d 46 40 24 a0 83 40 52 c1 16 40 04 63 23 40
       3.098469 4.1132984 2.3555493 2.5529184
0001c0 f2 77 02 40 af be 82 3d 8b ed 65 be 75 59 d0 3f
       2.038571 0.06384026 -0.22453897 1.62773
0001d0 67 62 50 3f 6f 6b af 3e 1f a6 2b 3f ed 20 b8 3f
       0.8140015 0.34261653 0.67050356 1.4385048
0001e0 a7 c9 53 3f 2a ce ac be a3 91 43 3f 1f 2a 74 3f
       0.8272957 -0.3375104 0.763941 0.9537677
0001f0 73 a9 c7 bf 7e 0c 2d c0 d3 b4 e4 3f 35 96 4e 40
       -1.5598587 -2.7038875 1.7867683 3.227918
000200 5b 4c 06 40 d7 ca eb 3f 1b 46 12 40 f7 05 68 40
       2.0984104 1.8421277 2.285529 3.625364
000210 44 66 47 40 61 5d e7 3f 3f 72 b4 3e 8e ed 37 3f
       3.1156168 1.8075372 0.35243413 0.71846855
000220 c4 73 8c 3e 86 65 b5 be 4a eb ad be 1f f9 8c bf
       0.27432072 -0.3542902 -0.33968574 -1.1013526
000230 9d 54 ab bf 69 8e bd bf c3 3e 07 bf 94 57 d2 bf
       -1.3385197 -1.4809085 -0.5283014 -1.6432977
000240 83 ca 10 c0 d2 c2 32 c0 e0 f9 23 c0 cb 2f 46 c0
       -2.2623603 -2.793141 -2.5621262 -3.096667
000250 7a b8 91 c0 62 76 c8 c0 fc b3 ce bf 3b 32 9e 3f
       -4.553769 -6.264451 -1.6148677 1.2359079
000260 38 01 12 3d dc 21 65 3f 9d 53 35 40 ba 68 a0 40
       0.035645694 0.8950479 2.8332283 5.012784
000270 f3 00 9b 40 d6 e5 13 40 54 df 75 3f 55 15 c8 3f
       4.843866 2.310903 0.96043897 1.563151
000280 9b b3 80 3f ac 38 3e c0 8b 32 ce bf c8 8d 50 bf
       1.0054811 -2.972209 -1.6109174 -0.8146634
000290 a3 c0 3d c0 4d c9 27 c0 b3 77 8e bf cf 88 a7 bf
       -2.9648826 -2.6216614 -1.1130279 -1.3088626
0002a0 52 29 8d bf 4a de d9 bf 94 07 a1 3e eb 3b 62 3f
       -1.1028235 -1.7020962 0.31451094 0.8837268
0002b0 a8 07 fd bf ac b7 7b c0 e9 e0 e3 bf 04 d4 09 3f
       -1.9767962 -3.9330854 -1.7803012 0.53839135
0002c0 b8 11 a1 be 50 b3 a9 bd 42 9e c5 3f 18 35 35 40
       -0.3145883 -0.08286154 1.5438921 2.8313656
0002d0 ec 0a 63 40 07 d4 09 40 80 7e c9 3f 83 03 1d 40
       3.5475416 2.1535661 1.574173 2.4533393
0002e0 37 6e 77 3f 05 a8 43 c0 78 10 44 c0 fc b2 48 c0
       0.9665255 -3.05713 -3.0635052 -3.1359243
0002f0 a8 bd 97 c0 bc e2 7d c0 0f e0 b2 bf 36 72 f0 be
       -4.7419014 -3.9669638 -1.3974627 -0.46962136
000300 d6 9d 54 bf 81 82 fc be 39 5b 6f 3f b2 30 e5 3e
       -0.8305334 -0.49318317 0.9349857 0.44763714
000310 d6 ac 2f c0 94 74 43 c0 9d 25 22 c0 b3 21 50 bf
       -2.744924 -3.0539904 -2.5335457 -0.8130142
000320 b0 2c 8b bf 1e d6 23 3e cf 67 ba 3e 28 2e 94 3f
       -1.0873013 0.15999648 0.36407325 1.1576586
000330 ae 92 39 40 b5 12 d8 3f 6e e3 5a 3e d0 57 ba 3f
       2.8995776 1.6880709 0.2137582 1.4558048
000340 b1 27 94 3f 63 a1 a2 bf e5 37 7b bf 2f ed 0c 3e
       1.1574613 -1.2705501 -0.98132163 0.13762353
000350 05 5b 60 bf f8 4b 24 bf 29 ec 1a 3f dd 93 7e 3f
       -0.87638885 -0.6417842 0.605166 0.9944437
000360 0d 26 64 3f e8 54 83 3f f5 1e 42 40 96 9e 2a 40
       0.8912056 1.0260286 3.0331395 2.6659293
000370 0f ce d3 bf 12 73 b7 c0 16 26 9a c0 55 7d da bf
       -1.6547259 -5.7327967 -4.817149 -1.7069498
000380 22 59 ed bf b8 df 2b bf 65 eb 5c bf 4e da 6b 3f
       -1.8542826 -0.6713824 -0.86296684 0.9212998
000390 d9 ae 0f 40 44 cf e6 3f 6d 8a 3a 3f 67 74 15 40
       2.2450469 1.8032002 0.7286747 2.3352296
0003a0 dc c2 2f 40 97 e7 89 3f 86 ef af 3f 42 0e eb 3f
       2.7462683 1.0773801 1.3744972 1.8363726
0003b0 f5 cf 03 bf 4e 3a c0 3e 7f 6c 77 3f 17 a4 ca be
       -0.5148919 0.37544483 0.96649927 -0.39578316
0003c0 ab 40 89 bf da bf 08 3f b5 66 6d 3f 01 d6 bd be
       -1.072286 0.5341774 0.92734843 -0.37077335
0003d0 7a 83 0d c0 5a 92 50 c0 96 b6 ec be 3a 34 93 3e
       -2.2111497 -3.2589326 -0.46233052 0.28750783
0003e0 67 e3 8f bf 19 81 2e 3f f4 80 b1 3f dd 1a 98 3f
       -1.1241273 0.6816574 1.3867478 1.1883198
0003f0 94 9b b5 3f e0 a2 7e 3f f9 0e 18 be 8a 13 0d 3f
       1.4188104 0.9946728 -0.14849462 0.5510794

bias f4 [168]
000000 11 13 2d 40 3e 7c 2a 40 9c 66 28 40 54 15 2b 40
       2.7042887 2.6638331 2.6312628 2.6731768
000010 93 d0 2a 40 11 41 2b 40 fd 7f 2d 40 51 d2 29 40
       2.6689804 2.6758463 2.7109368 2.6534617
000020 80 a1 2c 40 09 d4 2c 40 e4 5f 2c 40 f0 1b 2c 40
       2.6973572 2.7004416 2.6933527 2.6892052
000030 05 ee 2c 40 22 bc 2e 40 ab 8f 2b 40 87 e7 2a 40
       2.7020276 2.7302327 2.6806438 2.6703813
000040 01 84 2e 40 8e 4f 2a 40 f4 44 2c 40 1e a8 2f 40
       2.7268069 2.6611056 2.6917086 2.744636
000050 a5 85 2e 40 c2 4c 2d 40 7d c2 2c 40 d0 a7 2c 40
       2.726907 2.70781 2.6993706 2.6977425
000060 9e 30 2d 40 2a 08 2e 40 00 0f 2b 40 24 9e 2e 40
       2.7060924 2.7192483 2.6727905 2.7284021
000070 3a f2 2f 40 63 55 2f 40 fb 38 2d 40 f0 08 2d 40
       2.7491593 2.7395866 2.7066028 2.7036705
000080 53 65 2e 40 82 70 2d 40 66 1e 2d 40 4a 6e 2b 40
       2.7249343 2.709992 2.7049804 2.6786065
000090 09 e0 2c 40 41 02 2e 40 59 9e 2c 40 53 cc 2e 40
       2.701174 2.7188876 2.6971648 2.731221
0000a0 30 35 2f 40 9f 92 2e 40 20 75 2e 40 2f 2d 2d 40
       2.7376213 2.727699 2.7258987 2.7058828
0000b0 2b e6 2e 40 35 0e 2e 40 9c b8 2e 40 39 b5 2d 40
       2.7327983 2.7196171 2.7300177 2.714186
0000c0 02 d8 2d 40 c1 39 2f 40 1b 0a 30 40 03 d4 2e 40
       2.716309 2.7379 2.7506168 2.7316902
0000d0 a4 aa 2e 40 02 8d 2d 40 88 09 2d 40 49 a8 2d 40
       2.729165 2.7117314 2.7037067 2.7133963
0000e0 84 4c 2e 40 c4 d4 2e 40 2d 30 31 40 34 c2 31 40
       2.7234201 2.7317362 2.7685654 2.7774782
0000f0 57 e2 2c 40 7b 2c 30 40 f2 1a 2f 40 e0 b8 2d 40
       2.7013147 2.7527149 2.7360196 2.7144089
000100 df 03 2f 40 b3 69 2e 40 3f 36 2e 40 b4 63 2e 40
       2.7346113 2.7252014 2.722061 2.7248354
000110 68 50 31 40 33 24 30 40 1a 7f 32 40 2b 6d 2d 40
       2.7705326 2.7522094 2.7890077 2.709788
000120 4a 76 2f 40 a8 1b 2f 40 76 15 31 40 d7 af 2e 40
       2.7415948 2.736063 2.7669349 2.7294824
000130 88 e0 2f 40 00 a3 2f 40 fe ea 2d 40 d8 bd 31 40
       2.7480793 2.7443237 2.7174678 2.7772121
000140 b2 f3 2d 40 e7 49 30 40 ca 4b 30 40 e8 7d 2f 40
       2.717999 2.7545106 2.7546258 2.7420597
000150 2f 20 2f 40 32 7a 32 40 2b 41 31 40 7c e7 32 40
       2.7363393 2.7887082 2.7696025 2.7953787
000160 ea 80 32 40 4e b9 2f 40 73 ea 2d 40 97 8c 2d 40
       2.7891183 2.745685 2.7174346 2.711706
000170 27 ae 2e 40 1b 73 30 40 16 7c 31 40 d1 e6 2d 40
       2.7293794 2.7570255 2.7731986 2.717213
000180 a3 29 30 40 7d eb 30 40 ba 89 2e 40 7d 54 32 40
       2.7525413 2.764373 2.7271562 2.7864068
000190 b5 bb 31 40 35 ce 2f 40 a5 18 2e 40 a9 67 2e 40
       2.7770817 2.7469609 2.7202542 2.725077
0001a0 47 b1 30 40 a3 6e 2e 40 53 7a 2e 40 5b 50 31 40
       2.7608202 2.7255027 2.726216 2.7705295
0001b0 73 ec 2f 40 d9 91 2e 40 46 3e 31 40 b8 f7 30 40
       2.7488067 2.7276518 2.7694259 2.7651196
0001c0 7a d7 31 40 1a 13 31 40 e8 a0 31 40 e3 02 30 40
       2.7787766 2.7667909 2.775446 2.7501762
0001d0 6c 53 33 40 f8 bf 31 40 8c 20 30 40 34 d7 2f 40
       2.8019667 2.7773418 2.7519865 2.74751
0001e0 3c eb 2f 40 03 e0 2d 40 d5 7f 31 40 37 1c 31 40
       2.7487326 2.7167976 2.7734272 2.767347
0001f0 97 59 31 40 11 89 2f 40 e9 a1 32 40 56 76 31 40
       2.7710931 2.7427409 2.7911322 2.7728477
000200 91 57 30 40 fe 3f 30 40 68 00 2f 40 ae 82 30 40
       2.7553446 2.7539058 2.7343998 2.757976
000210 18 10 2f 40 43 9f 32 40 f1 db 2f 40 b5 f8 2f 40
       2.7353573 2.7909706 2.7477992 2.7495549
000220 30 2d 33 40 92 42 30 40 c1 78 34 40 46 e4 31 40
       2.799633 2.7540631 2.8198702 2.7795577
000230 38 0e 33 40 38 c8 32 40 db cd 2f 40 d6 61 31 40
       2.7977428 2.7934704 2.7469394 2.7715964
000240 5f f0 32 40 4c e0 31 40 5b f9 30 40 8a 3a 31 40
       2.795921 2.779315 2.7652194 2.769198
000250 e8 a2 2e 40 18 ed 32 40 03 47 35 40 b4 5e 33 40
       2.728693 2.795721 2.8324592 2.8026552
000260 39 c8 31 40 e4 28 34 40 93 33 33 40 14 af 35 40
       2.7778456 2.8149958 2.8000228 2.838811
000270 cd 88 32 40 70 ee 33 40 52 70 33 40 2e 87 37 40
       2.7895997 2.811428 2.8037305 2.8676257
000280 3b 56 34 40 c0 8c 36 40 6a 1f 36 40 4a 9a 36 40
       2.817763 2.8523407 2.8456674 2.853167
000290 aa ae 34 40 8e 1f 35 40 a9 03 36 40 93 bb 32 40
       2.8231606 2.830051 2.8439734 2.7926986

weight f4 [14, 27]
000000 80 96 a7 3f 2b ff 61 3f cd 9f 4a 3f f7 d0 5a be
       1.3092804 0.8827998 0.79150087 -0.21368776
000010 46 f3 62 3f 3b d7 19 40 e5 82 1d 40 fd 41 d0 3f
       0.88652456 2.4037616 2.4611142 1.6270138
000020 bf c7 2b 40 f3 d2 1b 40 a3 c3 15 40 cb 88 20 40
       2.6840665 2.4347503 2.3400657 2.5083492
000030 3f 7a 18 40 4d c6 15 40 03 1f 16 40 fb d6 17 40
       2.3824613 2.3402283 2.3456428 2.3724964
000040 1b 19 29 40 7b 37 1a 40 cb 25 17 40 e9 56 ed 3e
       2.6421573 2.4096363 2.3616817 0.4635537
000050 d6 0f e9 3e 5b d6 a3 bf 80 d6 77 be 6a f4 4a bf
       0.45519894 -1.2799791 -0.24202919 -0.79279196
000060 04 11 78 3f e4 46 46 3f 1e 06 6f be 87 bd 9a bf
       0.96900964 0.7745192 -0.23342177 -1.2089089
000070 81 9c cf be cd b9 93 3e b5 2d ee be 37 5b 79 bf
       -0.4054909 0.28852692 -0.46519247 -0.9740481
000080 75 fe 92 bf 84 0a 64 bf 58 db a2 bf 8f 07 76 bf
       -1.1483904 -0.89078546 -1.2723188 -0.96105283
000090 14 95 68 bf 5b 08 8c bf 24 e7 5e bf 39 27 93 bf
       -0.90852475 -1.094005 -0.8707144 -1.1496345
0000a0 21 2e 89 bf 83 9b 95 bf 8d eb 90 bf 04 8b 5d bf
       -1.0717202 -1.1688083 -1.1321884 -0.86540246
0000b0 d5 06 7e bf 2b 64 97 bf 25 9a 09 3f c7 2f d5 3b
       -0.99229175 -1.1827444 0.5375083 0.0065059396
0000c0 76 12 94 3f 82 c0 61 bf 9d 18 77 3f f5 ca 9c 3e
       1.1568134 -0.8818437 0.9652193 0.30623594
0000d0 42 d5 09 bf 8c 91 4f 3e a4 dd 80 3e 8b 80 37 bf
       -0.5384103 0.20270365 0.25169098 -0.71680516
0000e0 e5 ae 2a c0 b5 18 bd 3e 82 b1 4c 3e d2 13 11 be
       -2.6669247 0.36932912 0.19989589 -0.14167717
0000f0 72 a5 cf 3d 83 4e cb bc f2 e4 b7 bd b4 1c ea 3d
       0.10138978 -0.02481771 -0.08979215 0.11431256
000100 7b bf 2e 3d 7a a7 a3 3d 39 8d 33 be 5a 63 bf 3d
       0.04266308 0.07990928 -0.17534341 0.09345122
000110 05 8d ff bd d2 31 01 be 3b 73 ff 3c 0b de f0 3c
       -0.12478069 -0.12616661 0.031182876 0.029402753
000120 81 df 10 be 32 9a 3d bd 36 a7 54 3e ea ff e6 be
       -0.1414776 -0.04628963 0.20766911 -0.45117122
000130 89 42 d4 3d 89 c6 14 be de 15 e1 3d 4b d2 b2 3e
       0.10364253 -0.1452886 0.10990499 0.34926066
000140 ab 65 1d 3f 35 48 fb bc c4 00 53 be 41 e7 3d 40
       0.6148326 -0.03067408 -0.20605761 2.9672396
000150 61 c3 14 c1 e5 bd 63 c0 2c 92 e8 40 96 f8 e7 40
       -9.2977 -3.5584652 7.2678432 7.249095
000160 04 e4 52 bd 4e 5d eb 40 8c 42 ea 40 14 50 ed 40
       -0.051486984 7.3551397 7.3206234 7.416025
000170 c2 50 e2 40 a4 c1 e9 40 28 7e eb 40 f2 b0 e2 40
       7.072358 7.304888 7.35915 7.0841
000180 c2 e2 ea 40 8a c4 eb 40 18 32 e3 40 fe 18 e3 40
       7.3401804 7.3677416 7.099865 7.096801
000190 80 e5 95 3e 46 f6 9c 3f 7e d6 9e 3e af 2d 0d 3f
       0.29276657 1.2262657 0.3102302 0.5514783
0001a0 2f ee e9 bf f3 e3 22 40 ef 72 7f 3e c9 8e e7 bd
       -1.8275813 2.545163 0.24946187 -0.11306531
0001b0 ce 92 33 3f bc 19 46 3f f8 24 10 bf e4 98 b6 3e
       0.7014588 0.7738302 -0.5630641 0.3566352
0001c0 d2 d6 42 3f d3 8d 26 3f ef 5a 75 3f 54 c4 30 3f
       0.7610904 0.65060157 0.9584188 0.6904957
0001d0 8b bc 7b 3f 3d 45 3a 3f 7a e7 6a 3f 48 2e 46 3f
       0.9833457 0.727619 0.91759455 0.7741437
0001e0 0a 46 58 3f 66 96 6a 3f c3 b9 61 3f d0 31 4f 3f
       0.8448187 0.9163574 0.88174075 0.8093538
0001f0 d7 f7 7b 3f ec 3c 36 3f 1f d1 2f 3f 2f e1 ba bd
       0.9842505 0.7118671 0.6867847 -0.091249816
000200 ea 32 de be f5 d5 05 bf 30 de ca be 5e 8b 01 be
       -0.4339822 -0.522796 -0.3962264 -0.1265082
000210 be e8 f5 be 95 75 b8 be 66 77 e7 be 49 09 aa bf
       -0.4802913 -0.36027208 -0.4520828 -1.3284084
000220 83 b5 5b bf a2 e0 ef be 31 9d b0 be bd fa 40 bf
       -0.8582384 -0.4685107 -0.34494928 -0.75382596
000230 0a 6c ea bf bb 3a c9 bf e3 76 bd bf dd 26 cf bf
       -1.8314221 -1.5721048 -1.4801906 -1.6183735
000240 98 e9 e7 bf 43 e1 cb bf b5 a8 db bf da 55 dd bf
       -1.8118162 -1.592812 -1.716086 -1.7291825
000250 87 b8 c7 bf 8b 85 c1 bf 9d 1b d9 bf 97 cd d1 bf
       -1.5603188 -1.5118879 -1.6961552 -1.6390866
000260 39 9d e2 bf 98 fc e9 bf d7 25 29 3d c5 f2 2e bf
       -1.770423 -1.828021 0.041295853 -0.68339187
000270 4c 85 bc 3f 7c 6a b9 bf c4 89 87 3f bf 0e 1d bf
       1.4728179 -1.4485621 1.0588918 -0.61350626
000280 a7 50 07 bf a4 25 74 3e ae ae a1 3e eb 9b a7 3f
       -0.5285744 0.23842484 0.31578583 1.3094457
000290 41 00 69 40 fb ab af 3f 25 33 73 3f 95 18 e5 3e
       3.6406405 1.3724359 0.94999915 0.44745317
0002a0 b0 e3 ee 3e de 15 dd 3e cf 4c aa 3e bf 72 c9 3e
       0.46658087 0.43180746 0.33261725 0.39345357
0002b0 75 96 bb 3e 23 64 83 3e c3 8c b6 3e 77 e0 03 3f
       0.36638227 0.25662336 0.35654268 0.5151438
0002c0 67 97 a0 3e 95 14 87 3e 5d 90 ff 3e a5 b7 bc 3e
       0.3136551 0.2638289 0.49914828 0.3685886
0002d0 d7 0c 03 3f 2a 0e ea be 8a bc af be 8f 19 27 3e
       0.5119147 -0.4571393 -0.3432353 0.16318344
0002e0 9c d1 92 3f ff 11 6f 3e 9e c1 0f 3f dd ad 36 3e
       1.1470218 0.23346709 0.5615481 0.17839761
0002f0 be de e4 be 31 c7 9b bd dd fd 89 bf b3 8e 62 bf
       -0.4470119 -0.07606352 -1.0780598 -0.8849899
000300 d8 af 2e c0 3f d2 8d bf f9 1b 79 3f c4 34 67 3f
       -2.7294827 -1.1079787 0.9730831 0.9031489
000310 91 41 dc bd f6 b3 6f 3f 20 76 69 3f d8 7f 81 3f
       -0.10754693 0.93633974 0.9119587 1.011714
000320 9f 3b 6b 3f aa 88 88 3f 1c e8 74 3f 7e 29 7b 3f
       0.9188785 1.0666707 0.9566667 0.9811019
000330 f8 ef 84 3f 9c 0c 35 3f 38 5c 81 3f 38 a6 46 3f
       1.0385733 0.70722365 1.0106268 0.7759738
000340 71 f0 31 3c 7b ca 16 bf 63 a9 d7 be 63 62 5f c0
       0.010860548 -0.5890271 -0.4212142 -3.49038
000350 c1 da 04 bf 97 fb 6d 3f 95 f4 9e 3e 61 26 68 3f
       -0.5189629 0.9296202 0.31045976 0.9068356
000360 80 3a be bf 01 79 f5 bf dc ea 80 c0 00 0b ac 3f
       -1.4861603 -1.9177552 -4.0286694 1.3440857
000370 87 76 e8 be d7 e0 8a c0 45 c8 88 c0 46 c6 b7 bf
       -0.4540293 -4.3399463 -4.274447 -1.4357383
000380 85 3c 84 c0 7f f6 8d c0 1d c4 87 c0 c1 8f 88 c0
       -4.1323876 -4.43634 -4.2426896 -4.267548
000390 17 82 88 c0 93 e6 8d c0 4d c0 8e c0 4b d7 88 c0
       -4.26588 -4.4343963 -4.460974 -4.276281
0003a0 c9 42 87 c0 fb 9c 89 c0 31 4f 90 c0 54 a3 9c bf
       -4.2269025 -4.3004127 -4.509667 -1.2237344
0003b0 b6 76 d9 bf 7a 12 9c 3e b2 55 ca bf 1c d0 0e c0
       -1.6989353 0.30482846 -1.5807402 -2.231452
0003c0 76 44 da bf eb da 82 bf 39 52 d0 3f ff 9b e3 3d
       -1.7052143 -1.0223058 1.6275092 0.11113738
0003d0 f3 c2 a7 3f 20 ff f9 3f 9f 9f 9f bf 0d a4 20 bf
       1.3106369 1.9530983 -1.2470587 -0.6275032
0003e0 6d fd 63 3f 8d 6c 4f 3f 31 76 2f 3e c5 58 44 3f
       0.8905857 0.8102501 0.1713493 0.7669795
0003f0 09 ee 67 3f 8f 18 5a 3f 31 e7 4c 3f 39 16 3c 3f
       0.9059759 0.85193723 0.8004027 0.7347141

bias f4 [14]
000000 55 fd 94 40 4e 5d c5 bf 0a 2b a1 3f 05 97 22 41
       4.6559243 -1.5419099 1.259126 10.16187
000010 d7 19 08 40 69 4d 32 c0 f9 70 92 3e 9e ac 8d 40
       2.1265771 -2.7859747 0.28601816 4.4273214
000020 6f 4d 93 c0 17 5f 03 3f bc b9 b6 bf 49 89 03 40
       -4.6032023 0.5131697 -1.4275432 2.0552542
000030 28 6e 43 c0 22 49 1b bf
       -3.0535984 -0.60658467

weight f4 [7, 14]
000000 66 a4 26 3f fd a3 00 bf 6b 39 a4 3f cb 64 ec 3e
       0.650946 -0.50250226 1.2830023 0.4617065
000010 d3 57 1a bf 42 b7 8d be 9f df 15 bd 6a b6 5c 3e
       -0.6029026 -0.27678877 -0.036590215 0.2155396
000020 22 38 41 3f 22 17 b2 bf 5a e6 49 3f 93 bd 59 3e
       0.75476277 -1.391331 0.78867114 0.21263723
000030 a1 1c ef be 70 10 12 3c c8 15 35 bf c4 38 8c 3c
       -0.4670153 0.008915052 -0.7073636 0.017116912
000040 29 13 9f be 44 32 22 3e 30 0f 12 be ce 18 7b 3d
       -0.31069306 0.15839487 -0.14263606 0.061302952
000050 5f 60 93 bd 6b 92 98 3d 75 e2 51 bf 68 98 a6 3e
       -0.07196116 0.07449802 -0.8198617 0.32538152
000060 aa e0 9b be 82 06 34 3d 41 c2 66 3e 7e 55 33 bf
       -0.30444843 0.04395152 0.2253504 -0.70052326
000070 30 ea 7b 3f ea 8d 2d be 72 74 2c 3f 23 d1 51 3f
       0.98404217 -0.16948667 0.6736518 0.8195974
000080 87 0a 6d 3e dd 76 1a bf d1 43 4a bf e4 7c a6 be
       0.23148547 -0.6033762 -0.7900973 -0.3251716
000090 57 f5 89 3f f8 77 95 bf 58 01 bd 3e 6d 4a b0 3e
       1.0777997 -1.1677237 0.36915088 0.34431782
0000a0 82 e4 97 3e ea dd a0 3f 3a 04 c4 be af 79 54 3e
       0.29666525 1.2567723 -0.38284475 0.20749544
0000b0 8c 6c 6a 3e 9b 4c ad be 79 27 a7 3c 1a e3 5a 3e
       0.2289297 -0.33847508 0.020404564 0.21375695
0000c0 a0 27 74 3c c2 bb 9a be c7 96 0c bf d2 d7 1c 3f
       0.014902025 -0.30221373 -0.5491757 0.61266816
0000d0 b2 4c cf bd 6b a6 0c be e1 ab 0e be a1 04 81 be
       -0.1012205 -0.13735358 -0.13932754 -0.25198844
0000e0 5e 24 fa be e2 12 37 3f 44 a0 22 3f bc 3f 8b 3f
       -0.4885587 0.7151319 0.63525796 1.0878825
0000f0 a9 68 13 be f1 8c 1e 3f d2 9b 91 3e 7d 5f a9 be
       -0.14395393 0.6193381 0.28439194 -0.33080664
000100 12 05 a7 bf 96 04 8a 3f 3e ed 33 bf 3a da 22 bf
       -1.3048422 1.078265 -0.7028388 -0.6361424
000110 17 35 ab be e1 85 1c 3f 7f 4d 15 be 75 c4 31 3e
       -0.33438942 0.61141783 -0.14580344 0.17360099
000120 d6 73 bb bc 41 6b ae be f6 df 97 3e c0 68 66 be
       -0.022882383 -0.34066203 0.29663056 -0.22500896
000130 05 b7 8f be fd a1 22 3e 8b 9d 1c be 42 01 c7 3d
       -0.2806932 0.15882106 -0.15294473 0.09717037
000140 65 ac f0 be 11 35 fb 3d 55 2d 01 bf b7 19 b5 3e
       -0.47006527 0.12265981 -0.50459796 0.3537118
000150 0a 73 4e bf 9b c3 3b 3e 6b ba d0 3e 9b 08 28 c0
       -0.80644286 0.18336336 0.40767226 -2.6255252
000160 b8 27 2f be cc ff 03 3f b8 08 5e 3d ec e5 c5 bd
       -0.17104995 0.5156219 0.054207534 -0.09662995
000170 45 86 ae 3f d0 87 a7 bd a9 b7 cf 3c 15 8c 58 be
       1.3634726 -0.08180201 0.02535613 -0.21147187
000180 a6 1d 10 3f 09 fc 16 3e
       0.5629524 0.14744581

bias f4 [7]
000000 cd 52 9a 40 84 3b d0 be b9 b7 0e 41 c7 25 bf c0
       4.8226075 -0.40670407 8.919854 -5.9733615
000010 04 74 81 41 5d bd d5 c0 fe 28 f5 c0
       16.181648 -6.6793656 -7.661254

weight f4 [3, 7]
000000 e6 bb 75 3f df 6d 89 3f 18 ce 88 bf cc 97 09 bf
       0.95989835 1.0736655 -1.0687895 -0.5374725
000010 e2 8e ed bf 91 83 97 3e d4 92 10 bf e0 64 6a 3f
       -1.8559229 0.29592565 -0.5647404 0.91560173
000020 7f ac b0 be 1d 74 e4 3e 78 cf 4a be e5 40 5b 3f
       -0.34506604 0.44619837 -0.19805706 0.85645896
000030 9f 3b 21 bf 4d 66 f5 3e 3e d7 52 3e ef 40 d0 3e
       -0.629816 0.47929612 0.20589921 0.4067454
000040 60 d3 56 be 19 65 a3 bd 40 f6 3e 3d 31 2a 7d 3c
       -0.2097907 -0.07978267 0.04662156 0.015451954
000050 1b 3a c6 bf
       -1.5486482

bias f4 [3]
000000 40 e1 c9 c1 e7 78 04 c1 54 89 86 41
       -25.234985 -8.279517 16.817055

weight f4 [1, 3]
000000 6e f4 0d be 0c 24 0f bd 2b b5 20 3f
       -0.13862774 -0.034946486 0.6277644
