js_park/DLinear_model.pth (torch, 455875 bytes, 4 tensors)

weight f4 [168, 336]
00000000: 07f2 c33c d5f3 ca3c e1e9 d73c 6ee6 eb3c
00000010: 7092 f83c 7c0a fc3c 1814 f23c 6edd dc3c
00000020: 45ef 9a3c fe40 563c 0151 883b e64d d9ba
00000030: 3d16 60bb 498e 0cbc 0452 57bc 1661 7bbc
00000040: dfd8 8fbc a8be a3bc 0ea8 a0bc 3605 a1bc
00000050: bb91 99bc b8b4 87bc 9d25 7ebc e120 4ebc
00000060: 004c 2fbc a9fc 0dbc d860 c2bb 75e9 41bb
00000070: 7e97 52bb 66c5 fdba 4174 abb9 b5a1 da3a
00000080: 80d7 773b ea18 9e3b e23c 5e3b 84f8 e43b
00000090: 7f5c 3b3c 40db f63b e726 a13b cd42 a33b
000000a0: f1b7 943b d338 723b 9a7e 753b 1de6 e53a
000000b0: 5665 683a 2662 ac3a 7d13 e5b8 781a 6638
000000c0: abf5 32b9 62c0 b5ba f54c 3eba 42d6 d238
000000d0: dcc3 3bbb 7436 9fbb 1a1b e7bb af6e e6bb
000000e0: 9a2a c4bb b4c5 c4bb cac2 06bc 6b0f b9bb
000000f0: 87cf 8cba aed3 acbb 1aa9 e9bb 8c83 ccbb
00000100: 479d a8bb 6586 a0bb e21e 01bb f4a9 98ba
00000110: a664 e839 1966 163b 7f28 f73a 5e01 2c3b
00000120: 947d 303b d386 b43a e0d7 0c3b eb9e cd3a
00000130: 6f9f d9ba d083 30bb cf39 1cbb 0b91 d4ba
00000140: 753c fcb8 288d 7638 456b 1cbb f572 0dba
00000150: 7a62 943b e489 c739 4f9c edba 8576 90ba
00000160: 1b3b 0aba 07b1 25bb 5018 e1ba 8f3d 55bb
00000170: 8107 21bb 8a74 1bba b138 093a 905a 063b
00000180: f5ed 083b 2662 a73a 7f01 4f3b 64f6 b23b
00000190: d72d c73b 6815 ed3b ff9c e23b 45a1 c03b
000001a0: 7171 d13b e546 883b ec8c 6cba 7631 c0b9
000001b0: 3ec2 a33b 9235 b0b9 61db 65bb 1230 79bb
000001c0: f9f4 a6bb 0a2e 00bc 9ca7 e8bb 2083 08bc
000001d0: 1423 e7bb 2868 90bb 5c21 64bb 4076 4abb
000001e0: ac32 7fbb 5032 b0bb 709a 90bb 8158 64bb
000001f0: 4a39 aabb da62 bebb 758c c2bb 4153 c5bb
00000200: ae9b 68bb ded8 30bb a821 83bb 5b29 a03a
00000210: 3ca0 333c e0f3 fa3b 21b1 bc3b 764f dc3b
00000220: 83fb ec3b 1994 d73b b991 023c 0626 bc3b
00000230: 32de 923b cae3 4c3b 0743 4bba 7fb4 9dbb
00000240: d4c4 19bc 0c87 70bc 71b9 85bc b5db 8ebc
00000250: 68a1 b7bc 83e5 d5bc 5c0f f3bc f815 01bd
00000260: 81ff f5bc b058 f6bc 34a4 e7bc 5269 aabc
00000270: 7dcd b5bb a86f 56bb e0f1 30ba cb08 af3b
00000280: 887c 353c c109 413c d3b8 713c 8ab0 643c
00000290: d5d9 743c 36e5 873c a3cd 763c 42cf 5f3c
000002a0: 1841 443c 00de 203c 8839 3a3c b8ee 543c
000002b0: 4f21 493c 1129 573c d294 623c 1475 5c3c
000002c0: 7e48 843c 509c 7b3c f383 433c e850 613c
000002d0: 32c1 ab3c 3b01 4f3c 5ba5 ae3b 4391 923b
000002e0: 91bf 8c3b f558 adb8 9c72 45bb 8f04 a0bb
000002f0: 28e8 50bb 5493 acba 9eae 67bb 7709 5ebb
00000300: e46f 85bb 789f 8bbb e1df 8fba c403 4f3b
00000310: 52f5 6e3b 1e22 d93b 2a97 023c 94ad 063c
00000320: 9d2e 273c 8334 163c a1db b23b e734 ff3b
00000330: be39 7a3c 2856 de3b 56cc 8cba 804b 2cbb
00000340: 9be8 92bb e4dc 19bc 7f26 1fbc 1701 5bbc
00000350: 8b07 4dbc 040c 24bc 613e 22bc 60e6 bfbb
00000360: 8c14 70bb 084c 3dbb 718a aab9 0066 4d3b
00000370: c8b7 093b 865e 243b 967e 123b 6fa0 2e3b
00000380: 71e7 753b 027b 663b 7b9f d23a 9080 b93b
00000390: eb2c 903c 0ade 423c fe06 f93b 94f0 193c
000003a0: 54ee 1b3c 3813 443b f15c 543b 36b8 1a3b
000003b0: 6a7b 013b 4e8b 3f3b 7223 beb9 92e7 9aba
000003c0: b36d a0bb 30cc 03bc 3df0 f6bb f132 b6bb
000003d0: 5ca5 e4bb b7a9 87bb f8f3 c0ba cc66 24bb
000003e0: 4a61 13b8 fddd ddb8 79b6 90bb e21a feba
000003f0: b8f9 3a3c f312 903b 665c 1439 bd7b 503b
0.023919119 0.024774471 0.02635664 0.0287964 0.030343264 0.030766718 0.029550597 0.026961055
0.01891292 0.013077019 0.004160047 -0.0016579002 -0.0034192943 -0.008578845 -0.013142113 -0.015342971
-0.017559467 -0.019988373 -0.019611385 -0.019655805 -0.018746248 -0.016565666 -0.015511897 -0.012581081
-0.010699272 -0.008666196 -0.005931955 -0.0029588614 -0.0032133753 -0.0019361197 -0.00032702278 0.0016680273
0.0037817657 0.0048247473 0.00339108 0.006987633 0.011435627 0.007533461 0.0049179676 0.0049823285
0.004538529 0.003696014 0.0037459494 0.0017539893 0.0008865198 0.0013151809 -0.00010923201 5.4860924e-05
-0.00017066921 -0.0013866539 -0.00072593923 0.00010053489 -0.0028650677 -0.0048587862 -0.0070527913 -0.0070322375
-0.005986524 -0.0060050134 -0.008225152 -0.00564759 -0.0010743 -0.0052742576 -0.007130754 -0.0062412675
-0.005145702 -0.0048988336 -0.0019702245 -0.001164733 0.00044325477 0.0022949039 0.0018856673 0.0026245932
0.002693032 0.0013773091 0.0021490976 0.001568762 -0.0016603301 -0.0026934035 -0.0023838168 -0.0016217543
-0.000120275574 5.8782432e-05 -0.0023867649 -0.0005395853 0.004528341 0.00038058974 -0.0018128249 -0.001102165
-0.00052730896 -0.0025282518 -0.0017173383 -0.0032537912 -0.0024571123 -0.00059301464 0.0005234583 0.0020500757
0.0020893787 0.0012770339 0.0031586585 0.005461501 0.0060784626 0.007235218 0.006915688 0.0058786
0.006391697 0.004158842 -0.00090236845 -0.00036657945 0.0049975207 -0.0003360925 -0.0035073387 -0.0038023037
-0.005095121 -0.007823477 -0.0071000587 -0.008332044 -0.007053742 -0.0044069476 -0.0034809923 -0.0030893236
-0.0038940115 -0.0053770915 -0.0044129416 -0.0034842792 -0.0051948177 -0.005810124 -0.005937154 -0.0060218875
-0.0035493183 -0.0026984732 -0.004001815 0.0012219356 0.010963496 0.0076584667 0.00575842 0.0067233397
0.007232131 0.006578934 0.007969313 0.0057418374 0.004482054 0.0031263703 -0.00077538233 -0.0048127766
-0.009385306 -0.014680635 -0.016323777 -0.017438749 -0.022415832 -0.026110416 -0.02967041 -0.03151509
-0.03002906 -0.030071586 -0.02827654 -0.020802174 -0.0055481778 -0.003272036 -0.00067499094 0.0053416244
0.011077054 0.011782111 0.014753538 0.013958106 0.014944513 0.016588788 0.015063676 0.013660254
0.01197841 0.009818554 0.011366256 0.012996368 0.012276008 0.01313235 0.013829427 0.013455648
0.016147848 0.015357092 0.011933315 0.0137522 0.020966146 0.012634571 0.0053297705 0.004472883
0.0042952974 -8.2658524e-05 -0.0030128127 -0.004883356 -0.0031876657 -0.0013166466 -0.0035351883 -0.0033880153
-0.0040721763 -0.0042609535 -0.0010976755 0.0031587938 0.003646214 0.0066263815 0.007970611 0.008220095
0.010203985 0.009167793 0.0054583107 0.007788289 0.015272556 0.006785173 -0.0010742049 -0.0026290119
-0.004483295 -0.009391043 -0.009713768 -0.013366959 -0.012514005 -0.01001263 -0.009902568 -0.0058563203
-0.003663334 -0.002888443 -0.00032528074 0.0031341314 0.0021014083 0.0025080754 0.0022353283 0.002664592
0.0037521983 0.0035168533 0.0016069257 0.005661078 0.017599544 0.011893759 0.0075997105 0.009395737
0.009517271 0.0029918682 0.003240403 0.0023608333 0.0019757398 0.002922732 -0.00036266033 -0.0011818281
-0.0048958897 -0.008044288 -0.007535963 -0.005560272 -0.00697772 -0.0041401046 -0.0014721146 -0.0025085686
-3.513814e-05 -0.0001057945 -0.0044162837 -0.0019386674 0.011412077 0.00439679 0.00014148801 0.0031812035

bias f4 [168]
00000000: 85e8 4c3c 1d0a 863c 2248 3ebc 2cce 3c3d
00000010: 9095 a9bc 4d72 c73c a6be ff3c 0153 8d3d
00000020: 4993 793d d2ee 16bc c373 253d 3833 573a
00000030: 822a 083d 9a89 273d ec45 a7bc 0b34 f83c
00000040: 0e3d 4d3d 9ad3 fd3c 5e68 333d f9ca 863d
00000050: 9807 dc3c 560c 543d 432c 41bb 0bec 9dbc
00000060: b53d 7bbb c904 b23c 3155 6f3d c7e4 c63c
00000070: 1b0a 193c 9484 e43c 6b2d c03c 3456 6b3d
00000080: 2458 37bc 401a 353d d74c 11bb b2f7 143d
00000090: 6654 873c e00f 583d c332 aa3c 8303 8b3d
000000a0: 25ce 303d 2829 543c 21a9 373d 47c8 1a3d
000000b0: dfbd db3b 6766 573b 7032 a53c 683f 073d
000000c0: bfcd c43c ba47 583d 6f87 aa3b cb97 53bb
000000d0: a99c 81ba c1e9 36bc 7eec 233d e3cc 7d3c
000000e0: 8859 1c3d 62b1 483d 7093 95bb 6d01 a83c
000000f0: 7408 a43c 9c6b 5f3d 7241 6b3d 02cd 493d
00000100: 94dd 4d3d 8179 4f3d 3b1f e73c 9a76 743c
00000110: 0cbd 8c3d e1ed 983c fe51 f63c c981 393d
00000120: 346d a03d cb76 f03b 46a5 143c ba7d 3e3d
00000130: f330 6e3d 7d4c b63c 900f b63d 3748 2e3d
00000140: b44d 9c3c aa7f af3d 785d 583d 0d57 c83c
00000150: a09b 1a3d d6bd 273d 83a0 823d 2af0 9c3c
00000160: 8030 763d a574 213d ae21 fd3b ecce 833c
00000170: 2100 653d 7510 c23c 758b ae3d 6ad7 303d
00000180: 1414 ba3d c45e 003d 70b8 cf3d 56d8 573d
00000190: 1198 923d e0bd c93d a4ee b23d 108c 9d3d
000001a0: e74a 233d cb13 8d3d fc0f 573d 117f c23d
000001b0: 88ea 273c 8d60 9f3d dddf 913d dbb9 6f3d
000001c0: 7cd4 9a3d dbb9 5e3d e52d 7d3d 8e9f 473d
000001d0: 21b7 733d cdcf b03c 0096 d73c 16fd 213d
000001e0: 2e3b 223d 945b 603d 1a94 ac3d f30c 853d
000001f0: ba4a 503d 8157 093d b48b 833d 56fc c03d
00000200: 800c c93d 7dcc cf3d a629 a73c 526c 343d
00000210: 79c2 333d b2a7 333d 7385 3d3d e56e 353d
00000220: da93 813d 92d8 5e3d 7a84 863d 4b48 3c3c
00000230: 63be a23d 4071 483d 4650 cc3d bf18 ac3d
00000240: 671a 8b3d 7ce6 693d 21ac 0c3d bfd4 563d
00000250: fa7c da3d ac07 133d 5c6f a33d 6c60 b93d
00000260: 6f5e 363d 8cc9 a83d c7b0 a83d 5637 1c3d
00000270: e460 a13d be09 093d 0854 3c3d 4eee 8d3d
00000280: a244 993d b3e2 df3c 435f 773d ce52 8e3d
00000290: 0913 6e3d 2e55 323d 4207 db3d 6c80 d93d
0.012506609 0.016362244 -0.0116138775 0.04609506 -0.0207012 0.024346495 0.031218838 0.06900597
0.060931478 -0.009212213 0.040393602 0.00082092313 0.033243664 0.04090271 -0.020419084 0.030298254
0.050107054 0.030984689 0.043800704 0.06581683 0.02685909 0.051769577 -0.0029475845 -0.019277593
-0.003833634 0.021730797 0.058430854 0.024279011 0.009340788 0.02789525 0.023459157 0.057455257
-0.011190448 0.044214487 -0.0022171044 0.036369033 0.016519736 0.052749515 0.020776158 0.06787779
0.043165345 0.012949266 0.04483903 0.037788656 0.006705984 0.0032867433 0.020165652 0.033019453
0.024023889 0.05280278 0.005204133 -0.003228652 -0.0009888607 -0.01116413 0.04002046 0.015490743
0.03817132 0.04899729 -0.004564695 0.020508492 0.020023562 0.054545984 0.05743546 0.049267776
0.05026014 0.050652985 0.028213134 0.014920855 0.06871995 0.018668117 0.030068394 0.04528979
0.07833329 0.00733838 0.009072607 0.04650662 0.05815215 0.02225327 0.08889687 0.04254934
0.01908002 0.08569272 0.052823514 0.024455572 0.03774607 0.040952526 0.063782714 0.019157488
0.060104847 0.03941788 0.007724962 0.016089879 0.055908326 0.023689488 0.08522693 0.043174185
0.09085861 0.031340376 0.101426005 0.05269655 0.071579106 0.09850669 0.08736923 0.076927304
0.039866354 0.06888541 0.05250548 0.09496892 0.010248788 0.077820875 0.07122777 0.058526855
0.075600594 0.054376464 0.061811347 0.048736148 0.059500817 0.021583462 0.026316643 0.039548002
0.03960722 0.054774836 0.08426686 0.064966105 0.050852515 0.033530716 0.06423131 0.09423129
0.09816837 0.10146425 0.020405602 0.044048615 0.043886635 0.0438611 0.046269845 0.04429521
0.063270286 0.054405756 0.06568237 0.011491845 0.0794647 0.04893613 0.099762484 0.084031574
0.06792145 0.057104573 0.034343842 0.052448984 0.10668369 0.03589599 0.079802245 0.09051594
0.044523653 0.08241567 0.082368426 0.03813871 0.078798085 0.033456556 0.045978576 0.06930219
0.07483794 0.027329778 0.060393583 0.069493875 0.058123622 0.043538265 0.10694744 0.10620198

weight f4 [168, 336]
00000000: 7ca1 bf3c 7061 053a 691c 28bc ac26 d8bb
00000010: f5f8 893a a2b4 4abc 0a8e 94bc 3026 29bc
00000020: 923e e7ba 6978 caba ba3b 09bc 9920 f8ba
00000030: 09b1 6fbb 0466 44bb bd6c 823b aa09 393c
00000040: b95b 863a 1eac edbb 4dab 67bc 444a a1bb
00000050: e486 0fba e3f8 8eba 8c21 74bc 751c a33a
00000060: 2fc1 ad3c 3ca9 a53b b1af 8dbb bfd6 0cbb
00000070: 9cfb cdba 5a94 1a3a 5764 d13b 74e3 a33b
00000080: 147c cd3b 7409 553c 7c29 803b 2deb aa3b
00000090: b9c1 713b e47b 663b 384b d43b 1be7 893c
000000a0: f319 d93b 6c9c b23b 18cb 8bbb 5bf0 c2ba
000000b0: c6e5 b23b 2598 ad3a 102e 66bc 0a01 07bb
000000c0: 6fa0 953c 1bc6 b83a 1199 d3bb 8601 98ba
000000d0: 8e3f d8ba 9994 e2bb 538d a1bb f0bc bfbb
000000e0: 9a84 8539 5f2d 083c 2e52 923b 244f ad3b
000000f0: a207 9f3b 2de8 dc39 f46a 123c 2bfe 753c
00000100: 4723 9c3b 1bf7 aaba 50e6 23bc a2f5 c639
00000110: d489 e03b d254 4e3b 83e8 53bc cc0f 5abb
00000120: c016 a23c 9c23 ea3a 7d73 82bb bd15 5c3a
00000130: 204c 173c 149a 08bb 1274 ac3b b556 d7ba
00000140: 54c5 493a 7a28 bb3b be07 db3a 26c1 bf3b
00000150: a9bb 8d3b 6da8 a1ba 7650 893b 299c ef3b
00000160: 6b9e afba 4013 1b3b 5f72 353b 2153 023b
00000170: a8e4 393c 8181 b13b e2d8 48bc ff2d f2bb
00000180: b671 9a3c 813b 2a3a 2c8b 04bc 80ea 8fba
00000190: e931 3e3b dd11 25bc d81d e3bb 982a 11bc
000001a0: ada3 203b e6c1 1f3c 25bd 393c ede7 263c
000001b0: d341 d43b 6f88 e93a 9049 1c3c 44a8 a43c
000001c0: 8832 873c d243 3b3c 6cea d1b9 88c9 1bbb
000001d0: 56f9 c73b 21a4 67bb 3475 bbbc a811 41bc
000001e0: 3e77 8d3c 9780 7bbb 3078 49bc 6a63 0cbc
000001f0: 68ca d8bb 9c1f 69bc 7ade e0bb 8ad3 09bc
00000200: ca1b 8f3b 02ca 973c bd55 763c de79 523c
00000210: 9b9b ac3b 1452 8039 8e9c ce3b 1385 773c
00000220: 4685 413c 8d69 5a3c 8ce6 aa3b 7ad1 99ba
00000230: 0350 413c 862b cc3b 72a3 5abc 05e2 e4ba
00000240: e0c0 ee3c 4a70 8d3b f32b 0fbc 481f b7bb
00000250: 1c04 22bb 0cc7 e2bb 541d acbb 1cc7 72bc
00000260: 4d61 16bc 611f 403b 566b ab3b e119 1c3b
00000270: f2c3 12bb f366 3fbc 2c70 13bb 0e00 df3b
00000280: 2f17 c1bb daa8 d0bb f411 55bc 27fa ccbb
00000290: 9fab 463a aa53 23bb 8ed7 1cbc 4742 cf3b
000002a0: 353a 523d 617c 023d 8ad2 373c 7e57 6f3c
000002b0: f729 b43c 54a4 113c ea7e e4ba 6ea4 9cbc
000002c0: decb 3fbc ba1e 56bb 0ad4 0ebc 0e7a b5bb
000002d0: 6f4c 2bbc 95cd 74bc d202 f7bb 191d 043b
000002e0: 7fe1 0fba 36cc 98bb c954 22bb 354e e1bb
000002f0: 8087 213b b0d1 a4b9 1d01 5abc e97e 0f3b
00000300: 994a 263d f602 ba3c d1d7 0b3c e665 6f3c
00000310: 877c be3c fa12 6b3b a0ae 7ab9 6a21 01bc
00000320: 9b4e bcba 226e 0e3b 8b14 31bc 35f3 e5bb
00000330: ef6c 1abc 244b 33bc 840d 5ebb bea9 203c
00000340: 069e 743b 3960 b03b 9882 243b 79e1 823a
00000350: 1981 0d3c a219 043a e702 63bc c0f4 46bb
00000360: 8540 093d 6fb9 0f3c 4130 01bc 53ea 233b
00000370: 378b 023c 36b2 9cbb f972 83bb 3ed7 a939
00000380: 3221 423b 7db0 503c 29c4 5d3b fccf f13b
00000390: 3991 553a 4c8c cabb 7934 f7ba d536 203c
000003a0: cb8e d33a 0a75 bb3a ae4e 94bb 0373 4dbc
000003b0: e27a 243b 6921 2f3b 22a1 30bc 196a 26bb
000003c0: fef3 273d a493 593c 08a1 cdbb d29e 7db9
000003d0: 18fb 023c 89cf d2bb 801e 21bb 9d42 9339
000003e0: d5aa 893a 0d83 113c fc2b 8dba 6bcc b63a
000003f0: f80e 00bc cec1 20bc 9131 41bb 7af1 053c
0.023392431 0.00050880667 -0.01026068 -0.006596407 0.0010526465 -0.012372168 -0.018134136 -0.010324046
-0.0017642549 -0.0015447262 -0.008376056 -0.0018930613 -0.0036574027 -0.0029968033 0.003980248 0.011293808
0.0010250724 -0.007253184 -0.014139962 -0.004922183 -0.00054751174 -0.0010907914 -0.014900576 0.0012444394
0.021210281 0.0050555747 -0.0043239226 -0.0021490303 -0.0015715244 0.000589674 0.0063901353 0.0050014798
0.006270895 0.013002742 0.0039111953 0.0052160234 0.003688915 0.003516906 0.0064786933 0.016833832
0.006625408 0.005450776 -0.004266154 -0.0014872657 0.00545952 0.0013244195 -0.014049068 -0.0020599985
0.018264977 0.0014097126 -0.006457456 -0.0011597134 -0.0016498433 -0.006914687 -0.0049301772 -0.0058513805
0.00025466533 0.008311599 0.004465363 0.0052889753 0.004853205 0.00042134654 0.008936632 0.015014212
0.0047649476 -0.0013043614 -0.010003641 0.00037948514 0.006852368 0.0031483662 -0.012933853 -0.0033273576
0.019786239 0.0017863396 -0.0039810524 0.0008395573 0.009234458 -0.002084379 0.00526286 -0.0016429039
0.00076969457 0.0057116123 0.0016710681 0.0058518825 0.0043253493 -0.001233352 0.0041905 0.007312317
-0.0013398653 0.0023662597 0.0027686579 0.0019885974 0.01134602 0.0054170494 -0.01225874 -0.007390737
0.01885305 0.0006493852 -0.008089822 -0.0010979921 0.0029021448 -0.01007506 -0.006931048 -0.008860253
0.002451162 0.009750819 0.0113365995 0.010187131 0.0064775734 0.001781715 0.009539023 0.020099767
0.016503587 0.011429744 -0.00040038244 -0.0023771245 0.006102721 -0.0035345631 -0.022883035 -0.011783995
0.017268773 -0.0038376206 -0.012296721 -0.008568624 -0.0066159256 -0.014228728 -0.006862459 -0.008412251
0.0043673264 0.018528942 0.01503509 0.012846438 0.005267573 0.00024475215 0.006305284 0.015107411
0.01181156 0.013330829 0.0052154716 -0.0011735403 0.011798861 0.0062307743 -0.013344632 -0.0017462379
0.029144704 0.0043163644 -0.008738506 -0.005588446 -0.0024721688 -0.006920701 -0.0052525196 -0.014817979
-0.009178472 0.0029315578 0.0052313013 0.0023819136 -0.0022394625 -0.01168226 -0.002249728 0.0068054264
-0.0058926563 -0.006367785 -0.013004769 -0.0062554064 0.0007578674 -0.0024921694 -0.009572877 0.0063250395
0.05132504 0.0318569 0.01121963 0.014608262 0.021992667 0.0088892765 -0.0017432843 -0.019121375
-0.011706321 -0.0032672123 -0.008717546 -0.0055382317 -0.010455235 -0.014941593 -0.007538178 0.0020158945
-0.00054886186 -0.0046630157 -0.0024769774 -0.006875778 0.0024647415 -0.00031436747 -0.0133059295 0.0021895713
0.040598486 0.02270649 0.008535341 0.014611697 0.023252739 0.0035869465 -0.00023906911 -0.007881502
-0.0014366688 0.0021733125 -0.0108081205 -0.007017518 -0.009425386 -0.010943208 -0.0033882568 0.009806095
0.0037325635 0.0053825644 0.0025102254 0.0009985409 0.008636736 0.000503922 -0.013855672 -0.0030358285
0.033508796 0.008772238 -0.00788504 0.0025011494 0.007967762 -0.0047819866 -0.0040115085 0.0003239456
0.0029621837 0.012737391 0.0033838844 0.00737953 0.0008146945 -0.0061812755 -0.0018860243 0.009778698
0.0016140578 0.0014301848 -0.004525981 -0.012539628 0.0025097658 0.0026722795 -0.010780605 -0.002539283
0.041004173 0.013279829 -0.0062753 -0.00024187125 0.007994436 -0.0064334315 -0.002458483 0.00028087656
0.0010503182 0.008881343 -0.0010770555 0.0013946419 -0.007816069 -0.009811832 -0.0029479007 0.008175248

bias f4 [168]
00000000: aa39 423b 9cb0 d03b c456 273d 4c85 4cbc
00000010: ca9d 763d 8fdd 8b3c 3f21 663c d14d bfbc
00000020: 58a4 75bc 3808 5d3d f785 a03b bab9 313d
00000030: c2e7 433c f400 2f3b b8d7 7d3d 774a 333c
00000040: 2272 29bc cff2 423c 1602 9e39 a22c bebc
00000050: 219e 863c f185 37bc f77d 2a3d e925 693d
00000060: 3b91 483d a53e df3c 7783 03bc f709 ec3c
00000070: 1abc 333d a4e7 d33c 0f3c f43c 797e d1bb
00000080: 71ff 7e3d c338 0c3c 2ff8 603d fd79 773c
00000090: 7ac4 0f3d 311a b7ba 5578 e73c a87d 8ebc
000000a0: e04d e33b 7fa1 1b3d d0b9 ee3b c89c 753c
000000b0: 648f 3d3d b624 463d f755 013d a3f4 a93c
000000c0: d7ac 133d 7fea 193c 85a7 773d f3f5 8d3d
000000d0: cd53 903d 6fc7 a23d 84a7 033d 56cf 633d
000000e0: 8941 f83c a0e9 ad3c 0049 983d 9874 4e3d
000000f0: 5568 3a3d eed7 2c3c c1a6 833b 2758 783c
00000100: 94f6 513c 6e65 603c fc00 1c3d ffc5 593d
00000110: 980d 163a 4cf9 4a3d bcd7 1e3d b938 b53c
00000120: 65c0 06bc 16d2 8a3d ea32 913d a45a 133d
00000130: 9245 f33c 42c9 8a3d 8fcc 863b db3b 4a3d
00000140: 1e63 903d ecaf 763b 363e 0f3d 232b 803d
00000150: f03c 4e3d 5844 433d 338b c33c c797 8f3d
00000160: d12e f53c c590 553d faff b33d 82fb a43d
00000170: e4af 283d 455c 953d 39b7 493c db31 663d
00000180: e486 853c 45ab a43d 6908 503c 327b 803d
00000190: 2d7f 3e3d 01b6 a83c 72e6 fe3c 495a 293d
000001a0: 0d4e a23d 111a 4e3d de31 8a3d 5024 bb3c
000001b0: 3a94 dc3d e289 203d 1f7c 333d 25d2 713d
000001c0: 5b32 2c3d 1196 873d f86e 7a3d 842d 943d
000001d0: a630 7f3d 1caa cb3d f8f3 b93d 16a7 a13d
000001e0: 5a84 a93d a259 8c3d ce33 283d 54a0 783d
000001f0: 2e4c a33d 1587 c03d b297 803d 0e4f 103d
00000200: 1541 023d 07c5 e83c a6cd db3d db15 a93d
00000210: 98c6 a93d 075f a83d c037 a13d 80dd 9e3d
00000220: 91ef 633d 1f0e 823d 95c7 523d ce87 d53d
00000230: 05cc 0e3d 6f94 843d debe 7a3c 075c 073d
00000240: 377d 693d 26e2 913d 1028 c23d 70c5 a93d
00000250: 8523 f03c a551 c83d e8a7 683d 76df 313d
00000260: c7f5 b63d 383c 4f3d 56a1 4d3d 9a71 c23d
00000270: fd15 493d 370b bf3d 34d3 a43d 1c58 673d
00000280: 7266 4b3d e026 c23d a5d5 7a3d c238 4d3d
00000290: 20dc 7f3d afe3 a03d 789f 9a3c b38d be3c
0.0029636421 0.0063687097 0.04085423 -0.012482952 0.060209073 0.01707342 0.014046012 -0.023352535
-0.014992796 0.053962916 0.0048987824 0.043390013 0.011957111 0.002670345 0.061973304 0.010943047
-0.010342153 0.01189871 0.00030137663 -0.023214642 0.016432824 -0.011201368 0.041624036 0.05692092
0.048966628 0.02725155 -0.008026949 0.028813345 0.04388056 0.02586729 0.029813794 -0.0063932505
0.062255327 0.008558455 0.054924186 0.015104768 0.035099484 -0.0013969598 0.028255621 -0.017393902
0.0069367737 0.03799581 0.007285334 0.014990993 0.046279326 0.048374854 0.031576123 0.020746535
0.036053505 0.009394287 0.060462493 0.06931677 0.07047234 0.07948195 0.032142177 0.055617653
0.030304687 0.021229565 0.07435799 0.05040416 0.045509655 0.0105495285 0.0040176813 0.015157736
0.012815136 0.013696058 0.038086876 0.05316734 0.00057240715 0.049554154 0.03877996 0.022121774
-0.008224581 0.06778352 0.07089789 0.035975114 0.02969626 0.06776668 0.0041137408 0.04937349
0.07050155 0.0037641479 0.03497144 0.06258228 0.050351083 0.0476726 0.023870086 0.07011371
0.02992955 0.052140016 0.08789058 0.08055784 0.041183367 0.0729299 0.01231175 0.05619989
0.016299672 0.080404796 0.012697318 0.06273498 0.046508003 0.020594599 0.031115744 0.04134587
0.07925043 0.050317828 0.06747793 0.022844464 0.107704595 0.039193995 0.043819543 0.0590383
0.04204021 0.0662042 0.061140984 0.07235244 0.062302254 0.09944555 0.090797365 0.07893197
0.08277197 0.068530336 0.04106503 0.060699776 0.079735145 0.09400765 0.062789336 0.035231642
0.03180035 0.028414262 0.10732584 0.08256122 0.08289832 0.0822125 0.078719616 0.077570915
0.05564839 0.0635035 0.051459868 0.10426293 0.034862537 0.06473624 0.015304295 0.03304675
0.05700418 0.071232125 0.094802976 0.08289611 0.029313812 0.097811975 0.056800753 0.043426
0.08933597 0.05059454 0.05020269 0.09494324 0.049093235 0.09328311 0.08048096 0.056480512
0.049658246 0.09480071 0.061238904 0.050102957 0.062465787 0.07855927 0.018874869 0.023260927
