js_park/DLinear_model.pth (torch, 455875 bytes, 4 tensors)

weight f4 [168, 336]
0	0x3c84c03d	0.016204948
1	0x3c8f4572	0.017489169
2	0x3ca224fe	0.01979303
3	0x3cc16d57	0.023611708
4	0x3cd44c2e	0.025915232
5	0x3cd98376	0.026551943
6	0x3ccec671	0.025241109
7	0x3cab618e	0.020920541
8	0x3c83aff9	0.016075121
9	0x3c3c072c	0.011476319
10	0x3b5d0f0b	0.003373089
11	0xbac96300	-0.0015364587
12	0xba831395	-0.0010000343
13	0xbbb3d29b	-0.0054877526
14	0xbc15f0c3	-0.00915164
15	0xbc4083fe	-0.011750219
16	0xbc758c74	-0.0149871
17	0xbc925211	-0.017861398
18	0xbc85d6d4	-0.01633779
19	0xbc810030	-0.01574716
20	0xbc764b3f	-0.0150325885
21	0xbc54d5ae	-0.012990398
22	0xbc5841e4	-0.013199303
23	0xbc18a8e9	-0.009317615
24	0xbbe4dc57	-0.0069842744
25	0xbb6c4b30	-0.0036055557
26	0xbb2a9c9e	-0.0026033293
27	0xb8d87c7d	-0.000103228704
28	0xbb045fde	-0.0020198743
29	0xba65730b	-0.00087527995
30	0x3944939e	0.00018747008
31	0x3ae5945c	0.0017515528
32	0x3b09bcae	0.0021017003
33	0x3b88ca97	0.004174541
34	0x3ad1de0f	0.0016011613
35	0x3b89a932	0.004201078
36	0x3c19e949	0.009393998
37	0x3b68fa2a	0.00355495
38	0x3afd6e24	0.0019335193
39	0x3b638091	0.0034714083
40	0x3b8b3a02	0.0042488584
41	0x3bb64d56	0.0055634184
42	0x3bec2b44	0.007207306
43	0x3b9e1bb5	0.0048250803
44	0x3b47597e	0.0030418332
45	0x3b58d72a	0.0033087232
46	0x37bb5ce6	2.2335396e-05
47	0x38025ec1	3.108266e-05
48	0xb900d25a	-0.00012285393
49	0xbae41c2e	-0.0017403418
50	0xbafa4033	-0.0019092619
51	0x3968cbf2	0.0002220122
52	0xbb4c1df9	-0.0031145795
53	0xbb91e49f	-0.0044523026
54	0xbbe879de	-0.007094606
55	0xbbd6f2e0	-0.0065597147
56	0xbbd5d567	-0.0065256837
57	0xbbb4d4b2	-0.0055185193
58	0xbc0b8aa0	-0.0085169375
59	0xbbf4d5ea	-0.0074717896
60	0xbadf51e7	-0.0017037959
61	0xbbf74063	-0.0075455173
62	0xbbfd11ac	-0.007723054
63	0xbbdedb1d	-0.0068010227
64	0xbb960737	-0.004578497
65	0xbb80739f	-0.003920033
66	0x395db078	0.00021141942
67	0x389cc8db	7.476072e-05
68	0x3a818d67	0.000988406
69	0x3b1fabc4	0.0024363855
70	0x39c6793f	0.00037855838
71	0x3ac77aa3	0.0015219044
72	0x3b5a045d	0.003326676
73	0x3b4f98ed	0.0031676844
74	0x3b989106	0.00465596
75	0x3b43ccf2	0.0029876796
76	0xbb2d7ff7	-0.0026473978
77	0xbb8acdeb	-0.004235973
78	0xbb6afab9	-0.0035855009
79	0xbb10bfde	-0.0022087018
80	0xba9ceb54	-0.0011971989
81	0x3a8ecee4	0.0010895398
82	0xba87e420	-0.0010367669
83	0xbad647fb	-0.0016348356
84	0x3ba2e6d9	0.004971367
85	0xba86df4c	-0.0010289936
86	0xbb0686f7	-0.0020527223
87	0xbab4c56a	-0.0013791744
88	0x390b7fea	0.00013303725
89	0xbb4b6b39	-0.0031039251
90	0xbaa8346c	-0.0012833006
91	0xbb9bc73e	-0.004753976
92	0xbb94a490	-0.004536219
93	0xbb390074	-0.002822903
94	0xba6b5353	-0.0008976955
95	0x3ad141c7	0.0015965038
96	0x3af185df	0.0018426738
97	0x392ae386	0.00016297222
98	0x3a3d93a6	0.0007231779
99	0x3b2ceb23	0.002638527
100	0x3b964bb0	0.0045866594
101	0x3c022623	0.007943663
102	0x3c064a09	0.008196362
103	0x3bebebe4	0.007199751
104	0x3bfed15c	0.0077764224
105	0x3bc756f7	0.006083365
106	0xba90c20f	-0.0011044162
107	0xbb4d8dc9	-0.0031365028
108	0x3bb0016b	0.005371263
109	0xba89e2f2	-0.0010519905
110	0xbb117beb	-0.0022199105
111	0xbb096771	-0.0020966197
112	0xbb5c37f5	-0.003360269
113	0xbbf3b314	-0.0074371193
114	0xbbd51dc9	-0.006503795
115	0xbc1b2215	-0.009468575
116	0xbc0b1f6e	-0.00849138
117	0xbba48715	-0.005020986
118	0xbb6dd9a5	-0.0036293056
119	0xbb5da208	-0.0033818502
120	0xbb835b49	-0.004008685
121	0xbbbeea68	-0.0058262832
122	0xbbbdba66	-0.0057900427
123	0xbbb060a5	-0.0053826147
124	0xbbfc2b26	-0.0076955734
125	0xbc055720	-0.008138448
126	0xbc02da26	-0.007986581
127	0xbc01ebb4	-0.007929731
128	0xbba9cd65	-0.0051819556
129	0xbb404f85	-0.0029344272
130	0xbb98fa67	-0.004668522
131	0x3a08d9e1	0.0005220455
132	0x3c73b349	0.014874288
133	0x3c15681a	0.009119058
134	0x3bed8495	0.007248471
135	0x3bc6ddaf	0.006068907
136	0x3b99987c	0.004687367
137	0x3b771f8d	0.0037708015
138	0x3becc705	0.0072258734
139	0x3ba705a5	0.0050971084
140	0x3b841f96	0.0040320856
141	0x3b7a8608	0.0038226862
142	0x399bee74	0.00029741565
143	0xbb4f518b	-0.0031634297
144	0xbbcee383	-0.0063137426
145	0xbc38c9aa	-0.011278549
146	0xbc3e16e7	-0.01160214
147	0xbc2608d0	-0.010133937
148	0xbc6c4f3b	-0.014423187
149	0xbc8cac9d	-0.017172152
150	0xbcb417a6	-0.021983933
151	0xbcca444e	-0.024690773
152	0xbcca3a89	-0.024686115
153	0xbcbddc9d	-0.023176486
154	0xbce42699	-0.027850436
155	0xbccde028	-0.0251313
156	0xbb979cb5	-0.004626835
157	0xbb76e864	-0.0037675137
158	0xba45f297	-0.00075511023
159	0x3bbdbcda	0.005790335
160	0x3c6855c6	0.014180606
161	0x3c95c0d2	0.01828042
162	0x3c8a44e2	0.016878549
163	0x3c3ca39d	0.011513618
164	0x3c28a1eb	0.0102925105
165	0x3c458e61	0.012057872
166	0x3c1334b2	0.0089847315
167	0x3bf5adc8	0.007497523
168	0x3bc3d3ac	0.005976161
169	0x3b456eb6	0.0030125803
170	0x3ba0d516	0.0049082143
171	0x3bce8eae	0.00630363
172	0x3bb55f76	0.0055350615
173	0x3beb22b6	0.0071757687
174	0x3c39942e	0.011326833
175	0x3c54d770	0.012990817
176	0x3c55d9de	0.013052432
177	0x3c5c2adf	0.013437956
178	0x3c23bf66	0.009994363
179	0x3c31b8c3	0.010847273
180	0x3cc3e8b3	0.02391467
181	0x3c3c7159	0.011501634
182	0x3b3aceff	0.0028504727
183	0x3b729e97	0.0037020796
184	0x3b85e53b	0.0040861643
185	0xba8c8a58	-0.0010722382
186	0xbae28f8f	-0.0017285215
187	0xbb8dc403	-0.004326345
188	0xb9d79ae5	-0.000411234
189	0x3b61a6d2	0.0034431708
190	0xba842c90	-0.0010084081
191	0xba0cc678	-0.00053701503
192	0xbb0223dd	-0.0019857802
193	0xbb467b4b	-0.003028589
194	0xba577e88	-0.0008220454
195	0x3b63311b	0.003466672
196	0x3b386221	0.0028134661
197	0x3b5ee0ab	0.0034008424
198	0x3ba6c7cf	0.005089737
199	0x3ba86d1f	0.0051399614
200	0x3bfaa7bd	0.0076493905
201	0x3c14604e	0.009056164
202	0x3ba0e594	0.0049101803
203	0x3bd14bf2	0.006387227
204	0x3ca77d92	0.020445619
205	0x3c1e23b5	0.009652068
206	0xba6a7860	-0.0008944329
207	0xbb1125f5	-0.0022147868
208	0xbb9def9e	-0.0048198244
209	0xbc45b94f	-0.012068107
210	0xbc50f1d8	-0.012752973
211	0xbc6bb7d2	-0.014387088
212	0xbc630074	-0.0138550885
213	0xbc3e664e	-0.011621071
214	0xbc5c83c6	-0.013459152
215	0xbbb8c81c	-0.0056390893
216	0xbaaacd66	-0.0013031184
217	0xb9ba6e8c	-0.00035559048
218	0x3adb90d3	0.0016751535
219	0x3bb32d16	0.005468021
220	0x3b5cefe9	0.0033712334
221	0x3b96deca	0.0046041952
222	0x3b7d95a1	0.0038693922
223	0x3a9d7c0e	0.0012015121
224	0x3b16c3f0	0.0023004971
225	0x3b3dce78	0.0028962176
226	0x3ad90312	0.0016556701
227	0x3b56aca7	0.0032756717
228	0x3cb58a6b	0.02216073
229	0x3c520d16	0.012820503
230	0x3bf57622	0.007490889
231	0x3c085b46	0.0083225425
232	0x3bf03746	0.007330808
233	0x3b17fe78	0.0023192447
234	0x3b525faa	0.0032100477
235	0x3b38fdf2	0.0028227535
236	0x3b1776db	0.0023111615
237	0x3ba2e1b3	0.004970753
238	0x399075c9	0.00027553577
239	0x3aa208dd	0.0012362261
240	0xbb846d10	-0.0040413216
241	0xbc147ba5	-0.009062682
242	0xbc056a95	-0.008143087
243	0xbb9575e0	-0.004561171
244	0xbb7acc99	-0.0038268922
245	0x3a21b0ca	0.0006168006
246	0x3b234d64	0.0024917955
247	0x38a056bd	7.645551e-05
248	0x3b24984e	0.0025115195
249	0x3b1b6ae6	0.002371484
250	0xbb835068	-0.004007388
251	0xbbcf25d3	-0.0063216477
252	0x3c662f90	0.014049426
253	0x3b2c8ab0	0.0026327781
254	0xbaa8c778	-0.0012876829
255	0x3b791662	0.0038007726

bias f4 [168]
0	0xbc7169c1	-0.014734686
1	0x3cffbc59	0.03121774
2	0x3d0df1c5	0.034654398
3	0x3cc38918	0.023869082
4	0x3c94980f	0.018138913
5	0x3cbed7b2	0.02329621
6	0x3d05675c	0.032569274
7	0x3b9c38b8	0.0047675036
8	0x3c9ea52e	0.019365873
9	0x3c56a767	0.013101435
10	0xbae0ec46	-0.0017160259
11	0x3d786209	0.06064037
12	0x3d6c489c	0.057686433
13	0xbc794149	-0.015213319
14	0xbc7d643e	-0.015465794
15	0x3d85071f	0.06495499
16	0x3a3263d5	0.0006805037
17	0x3d350019	0.044189546
18	0x3ce63c10	0.028104812
19	0x3b9b515b	0.004739923
20	0x3cc3d61a	0.023905803
21	0x3c9bef56	0.019035023
22	0x3c2c87ec	0.010530453
23	0xbbe5eafc	-0.0070165377
24	0xbcaf59bf	-0.021405099
25	0x3d11ed71	0.035626832
26	0x3d821645	0.06351904
27	0xbcd32953	-0.02577654
28	0x3d554582	0.05206824
29	0x3cb063c4	0.021531947
30	0x3a322f22	0.00067971845
31	0x3c088a70	0.008333787
32	0x3ce3383e	0.02773678
33	0xbc5d89fe	-0.013521669
34	0x3cb0f1b6	0.021599632
35	0xbc3eeec9	-0.0116536105
36	0x3d76f3f0	0.06029123
37	0x3d85f864	0.065415174
38	0x3c41a2f6	0.011818638
39	0x3ce19f4c	0.027541779
40	0x3cc0de98	0.023543641
41	0x3d2796c1	0.040915255
42	0x3ce80aba	0.028325427
43	0x3d87af7b	0.06625267
44	0x3c8008be	0.015629169
45	0xbc183bf8	-0.009291641
46	0x3bb10820	0.00540258
47	0x3d072b47	0.033000257
48	0x3d36bf2c	0.04461591
49	0x3d5fd493	0.054646086
50	0x3d2f152b	0.042744797
51	0x3ca3383d	0.019924277
52	0x3d60de45	0.054899473
53	0x3d5727db	0.052528244
54	0xbc11f855	-0.008909305
55	0x3d019e63	0.03164519
56	0x3d6fba9d	0.058527578
57	0x3d073f48	0.033019334
58	0x3c8b9568	0.017039016
59	0x3c91211b	0.017715981
60	0xbc576756	-0.013147196
61	0x3ce07bea	0.027402837
62	0x3b828408	0.0039830245
63	0x3d4a0502	0.049321182
64	0x3c80aaa6	0.015706372
65	0x3c80cfc0	0.015724063
66	0x3cdf68b5	0.027271608
67	0x3da10d1a	0.07863827
68	0x3d6173bf	0.055042025
69	0x3d6dff19	0.05810461
70	0x3c84d872	0.01621649
71	0x3d3a56b9	0.04549286
72	0x3d91d13a	0.07119985
73	0x3c2c1e82	0.0105053205
74	0x3cdb21f0	0.026749581
75	0x3c76f0ce	0.015072061
76	0x3d22fdee	0.039792947
77	0x3d612243	0.054964315
78	0x3d9aa2ee	0.075506076
79	0x3d56f707	0.052481677
80	0x3d8e169d	0.06937907
81	0x3cb9dba6	0.022687744
82	0x3d4f171a	0.05055914
83	0x3c840d73	0.016119694
84	0x3d741177	0.05958697
85	0x3d2a89dd	0.041635383
86	0x3d1f6a5d	0.038919795
87	0x3c40ff84	0.01177967
88	0x3ccdae0b	0.025107404
89	0x3d4cffa8	0.0500485
90	0x3d9d9c5b	0.07695838
91	0x3da1ed46	0.079065844
92	0x3da33566	0.07969169
93	0x3d6e8394	0.05823095
94	0x3d201cc1	0.03908992
95	0x3d5a1f8a	0.053252734
96	0x3cfa6a63	0.030568307
97	0x3d29550b	0.04134087
98	0x3d83922c	0.064243644
99	0x3d0b29eb	0.033975523
100	0x3d895fbe	0.067077145
101	0x3d821e02	0.0635338
102	0x3da4faa9	0.08055622
103	0x3d2fdfd2	0.04293806
104	0x3da98109	0.08276565
105	0x3d47316b	0.048631113
106	0x3d5fb50a	0.05461601
107	0x3d848e02	0.06472398
108	0x3d838020	0.06420922
109	0x3dcd5330	0.100256324
110	0x3d8e54d4	0.069497734
111	0x3d92888d	0.07154951
112	0x3d8fac42	0.070152774
113	0x3da25ea0	0.079282045
114	0x3d808212	0.06274809
115	0x3d9206a6	0.07130174
116	0x3dcf6966	0.10127525
117	0x3d763c6d	0.06011622
118	0x3d6dfbf8	0.058101624
119	0x3d28e594	0.041234568
120	0x3d6296b2	0.055319495
121	0x3db331b2	0.08749713
122	0x3d86a378	0.06574148
123	0x3dbf05c5	0.09327272
124	0x3d1c2f3f	0.038130995
125	0x3d4d5d1f	0.050137635
126	0x3da50a26	0.08058576
127	0x3d8525fd	0.06501386
128	0x3da40ff1	0.08010853
129	0x3d3f24ed	0.046666075
130	0x3dc01980	0.09379864
131	0x3d0508ee	0.03247922
132	0x3db780be	0.089601025
133	0x3da326ae	0.07966362
134	0x3dac4fb5	0.084136404
135	0x3dcbfee7	0.09960728
136	0x3da067a0	0.07832265
137	0x3cdfc273	0.0273144
138	0x3d8a65fb	0.067577325
139	0x3d9cfba4	0.07665184
140	0x3ce840bb	0.028351178
141	0x3da294c2	0.079385296
142	0x3ca3f054	0.020012058
143	0x3d26c632	0.040716358
144	0x3d706421	0.05868924
145	0x3db3af7d	0.08773706
146	0x3db8b900	0.09019661
147	0x3db30340	0.08740854
148	0x3ceea405	0.029130945
149	0x3dbf3dd2	0.09337963
150	0x3d93207d	0.07183931
151	0x3d9804eb	0.07422813
152	0x3cd109c5	0.025517354
153	0x3d0f1ae9	0.034937773
154	0x3da7869b	0.08179971
155	0x3ce10ab5	0.027470926
156	0x3d755e34	0.059904292
157	0x3dc83c9f	0.097771876
158	0x3dd510e6	0.10403614
159	0x3d08b412	0.033374853
160	0x3d140cba	0.03614495
161	0x3d9679ca	0.07347448
162	0x3d98d7a3	0.074630044
163	0x3d8764ca	0.06611021
164	0x3cca0914	0.024662532
165	0x3dc3506b	0.09536823
166	0x3d0be84f	0.034157094
167	0x3dacf5cb	0.08445319

weight f4 [168, 336]
0	0x3c753044	0.014965121
1	0xbc09ead2	-0.008417802
2	0xbc0557c5	-0.008138602
3	0xbbe6c9f2	-0.0070431167
4	0x3c3d3e86	0.011550551
5	0xbc0c2a56	-0.008555016
6	0xbbb4b7b0	-0.0055150613
7	0x39bc79a5	0.00035948787
8	0x3c40f8af	0.011778041
9	0x3b311c84	0.0027025053
10	0xbca66e6f	-0.02031633
11	0xbbae6501	-0.005322099
12	0xbbf8e141	-0.0075952117
13	0x3a0910dd	0.0005228648
14	0x3bee50f1	0.0072728326
15	0x3c91f8cb	0.017818829
16	0x3ae2c83f	0.001730211
17	0xbc23f8d6	-0.010008058
18	0xbc516ada	-0.012781823
19	0x3b937565	0.0045000785
20	0xbb0183f1	-0.001976248
21	0x3c0051d2	0.0078320075
22	0xbc6082de	-0.013703076
23	0x3916f7e8	0.00014397467
24	0x3ce64cb0	0.02811274
25	0x3b329ca8	0.002725402
26	0xbbd3e152	-0.0064660693
27	0xbc0f962c	-0.008763831
28	0xbc858a3d	-0.016301269
29	0xbbb75266	-0.0055945395
30	0x3c4d6cf7	0.012538186
31	0x3c0d01a5	0.008606349
32	0x3bcfbe38	0.0063398145
33	0x3cab1ba6	0.020887207
34	0xbb501311	-0.0031749646
35	0x3b15eb3b	0.0022875804
36	0x3ba2b6bc	0.0049656313
37	0x3c357b24	0.011076722
38	0x3b226d37	0.0024784335
39	0x3cab0532	0.0208765
40	0x3aadf8ed	0.0013273038
41	0x3bc397a3	0.0059690042
42	0xbb8e079f	-0.0043344046
43	0xba5de041	-0.00084638974
44	0x3aceb90c	0.0015771701
45	0x3c1ddce6	0.009635186
46	0xbc3be72d	-0.011468691
47	0xbbaad61e	-0.005213513
48	0x3ccbc694	0.024874963
49	0xbb061dc3	-0.0020464517
50	0xbb2775d1	-0.0025552402
51	0x3b6db0a4	0.0036268616
52	0xbb365d49	-0.0027826598
53	0xbbec37a2	-0.0072087804
54	0x3b2ba7f2	0.0026192633
55	0xbbde0b03	-0.006776215
56	0xbbc2e63e	-0.005947857
57	0x3be11324	0.006868737
58	0xbb3789b0	-0.0028005652
59	0xbb07c604	-0.0020717392
60	0x3b265688	0.0025381166
61	0xbabb0841	-0.0014269428
62	0x3c43e54d	0.011956525
63	0x3ca4a753	0.020099318
64	0x3b3b2924	0.0028558457
65	0xbba74fee	-0.005105964
66	0xbc68d7ae	-0.014211578
67	0x3bc9e62b	0.0061614714
68	0x3b6d65e2	0.0036224057
69	0x3c4f89fa	0.0126671735
70	0xbbc43949	-0.0059882742
71	0xbc104d4d	-0.008807492
72	0x3cbd4307	0.02310325
73	0xbbbb94e2	-0.0057245353
74	0xbae04035	-0.0017108979
75	0x39d279e2	0.0004014513
76	0x3c99b789	0.018764274
77	0xba5d5361	-0.00084429054
78	0x3caf9c54	0.021436848
79	0x3ad4bb45	0.0016230127
80	0xbb105470	-0.0022022985
81	0xb9811041	-0.00024616907
82	0xbc29f022	-0.0103721935
83	0x3b6455de	0.003484122
84	0x3c034d43	0.008014026
85	0x3b4849fd	0.0030561679
86	0x3bde977c	0.0067929607
87	0x3a777327	0.0009439461
88	0xbc90cdaf	-0.017676203
89	0xbbf1d688	-0.0073803104
90	0x3b662c7c	0.003512173
91	0x3b60fc40	0.003433004
92	0x3c68a9e6	0.014200663
93	0x3c9f597d	0.019451851
94	0xbb5d2ccf	-0.0033748632
95	0xbc8e5cfa	-0.017378319
96	0x3cb895ce	0.02253237
97	0xbba69756	-0.0050839586
98	0xbbcd4e4a	-0.0062654363
99	0x3b8cb0ff	0.0042935605
100	0x3c42feab	0.011901538
101	0xbc083e8c	-0.008315694
102	0x3b71ef36	0.0036916262
103	0xbc4869fc	-0.0122323
104	0xba7b49ac	-0.0009585868
105	0x3bb9c9b8	0.0056697987
106	0x3c45c061	0.0120697925
107	0x3bd853b6	0.006601776
108	0x3b7ca80e	0.0038552317
109	0xba61f72b	-0.00086199
110	0x3ba41fb2	0.005008661
111	0x3c993ae8	0.018704847
112	0x3c90e443	0.017686969
113	0x3c3bb9d7	0.011457882
114	0xbb6de104	-0.003629745
115	0x39ce3785	0.00039332747
116	0x3c31fe82	0.010863902
117	0x3b6b8a98	0.0035940763
118	0xbcbfbb2a	-0.023404676
119	0xbc99b9dc	-0.018765382
120	0x3cc97321	0.02459103
121	0xbbd5b0c0	-0.0065213144
122	0xbbc686dc	-0.006058557
123	0xbb9df270	-0.0048201606
124	0xbb5531a9	-0.003253082
125	0xbc8ec85f	-0.017429529
126	0xbb1da0c8	-0.0024052132
127	0xbc76a900	-0.015054941
128	0xbb34e9b0	-0.002760511
129	0x3cba024f	0.022706179
130	0x3c87bb98	0.016568944
131	0x3c68e6d6	0.014215192
132	0x3b098330	0.0020982735
133	0xbb8cb826	-0.004294413
134	0xb9b2d96f	-0.00034112806
135	0x3c13f385	0.009030228
136	0x3c11a1f0	0.008888707
137	0x3c9e28cc	0.019306563
138	0x3c5067db	0.012720074
139	0xbac5bcb8	-0.001508615
140	0x3c6b0a9b	0.01434579
141	0x3c80c79f	0.015720187
142	0xbc47b222	-0.012188466
143	0xbbf8b447	-0.00758985
144	0x3d275a10	0.040857375
145	0xbb12b0ad	-0.002238314
146	0xbc4d3069	-0.012523749
147	0xbc50c6bc	-0.0127426945
148	0xbc2cfe48	-0.010558672
149	0xbba1e405	-0.004940512
150	0x3bdcb6a3	0.006735639
151	0xbc4abb5e	-0.012373773
152	0xbc7285a0	-0.0148023665
153	0x3b432ef0	0.0029782616
154	0x3c267a99	0.0101610655
155	0x3be18afe	0.0068830242
156	0x3bb3782c	0.005476972
157	0xbc507e41	-0.012725414
158	0x3b182044	0.0023212591
159	0x3c86e242	0.01646531
160	0xbbddc947	-0.006768379
161	0xbb226fc4	-0.0024785856
162	0xbc39834e	-0.011322809
163	0xbb1d75d7	-0.0024026537
164	0xbc2e98a8	-0.010656513
165	0xbc77bfae	-0.015121384
166	0xbcb62e62	-0.022238914
167	0xbc85c1d5	-0.016327778
168	0x3d8d4f9d	0.06899951
169	0x3d1ece65	0.038771052
170	0x3bb061e2	0.0053827623
171	0x3c029376	0.007969728
172	0x3cd1e9dd	0.02562421
173	0x3c21bf59	0.009872281
174	0x3b8abeb9	0.0042341617
175	0xbcf007e9	-0.029300647
176	0xbc8b28e4	-0.016987272
177	0xba219c84	-0.0006164985
178	0xbc493913	-0.012281674
179	0x39d7dfef	0.0004117484
180	0xbbb24fc3	-0.0054416372
181	0xbc3f5279	-0.011677378
182	0xbbbd12d5	-0.005770067
183	0x3bc3e89c	0.005978657
184	0x3c0013d2	0.0078172255
185	0xba863c55	-0.0010241369
186	0x3bb933ff	0.0056519504
187	0xbb556eab	-0.0032567184
188	0xbb03b0f7	-0.0020094493
189	0xbb7a19c7	-0.0038162337
190	0xbcc55cf3	-0.024092173
191	0xbc7d5a26	-0.015463388
192	0x3d3d66af	0.046240505
193	0x3c9fbe38	0.019499883
194	0x3be31aaa	0.006930669
195	0x3c772399	0.015084171
196	0x3d100daf	0.0351693
197	0x3bba29d2	0.005681255
198	0x3be3d4da	0.006952864
199	0xbc02f8e6	-0.007993912
200	0x3ba2b19c	0.0049650203
201	0x3c1ac585	0.009446506
202	0xbcbd4c93	-0.023107802
203	0xbc163c94	-0.009169716
204	0xbc18802d	-0.009307903
205	0xbc358ec7	-0.011081404
206	0xbb901710	-0.0043972805
207	0x3c418aa9	0.011812844
208	0xba82e88e	-0.000998752
209	0x3c252b94	0.010081191
210	0x3bf70bfc	0.0075392704
211	0x3bc30329	0.0059513045
212	0x3c4052db	0.011738504
213	0xba91cc2c	-0.001112347
214	0xbc8dab27	-0.017293526
215	0xbc8ccbec	-0.017187081
216	0x3d406ed0	0.04698068
217	0x3b97ea21	0.0046360646
218	0xbc6043b1	-0.013688014
219	0x3b3a0d6f	0.0028389355
220	0x3bf007d2	0.007325151
221	0xbbba6efa	-0.005689499
222	0xbaebd6b5	-0.0017993065
223	0x3acd9ad7	0.0015686405
224	0xbae7c4c6	-0.0017682544
225	0x3c860f72	0.016364787
226	0xbabb5916	-0.0014293517
227	0x3c848872	0.016178343
228	0x3c0ff2ce	0.0087859165
229	0xbb974003	-0.004615785
230	0xbb5371ba	-0.0032263831
231	0x3c4a6818	0.012353919
232	0xbaa7fb92	-0.0012816063
233	0x3b9adfce	0.0047263866
234	0xbae578e2	-0.0017507339
235	0xbca008dc	-0.019535474
236	0xb96ba00e	-0.00022470971
237	0x3ba26413	0.0049557774
238	0xbc34fddd	-0.011046854
239	0xbc9b7a98	-0.018979356
240	0x3d7953da	0.060870983
241	0x3c381f5e	0.011237947
242	0xbc638731	-0.013887213
243	0xbc08bfd1	-0.008346514
244	0x3bb97a79	0.005660352
245	0xbc748abf	-0.014925658
246	0x3b4bc35d	0.0031091787
247	0x3b8d62f4	0.0043147746
248	0x39d7e3ec	0.0004117781
249	0x3c54c6d0	0.012986854
250	0xbb98845f	-0.0046544517
251	0x3bf58032	0.0074920887
252	0xbbf9100a	-0.007600789
253	0xbc2deb95	-0.010615249
254	0xbab2d286	-0.0013643063
255	0x3c0dd47d	0.008656618

bias f4 [168]
0	0x3cdab839	0.026699172
1	0xbc3cf9f3	-0.011534202
2	0xbc1eb1d4	-0.009685952
3	0x3be0b662	0.006857679
4	0x3c8cffa7	0.017211748
5	0x3c59c8d9	0.013292515
6	0x3bd3c6b3	0.006462896
7	0x3d10b1e0	0.035325885
8	0x3ca3d3b6	0.019998413
9	0x3cdb7579	0.026789414
10	0x3d26fb83	0.040767204
11	0xbcb46cef	-0.0220246
12	0xbca74d03	-0.020422464
13	0x3d66c85d	0.056343425
14	0x3d6b5151	0.057450596
15	0xbcc9de3f	-0.024642108
16	0x3d23a76b	0.039954584
17	0xba5a8135	-0.00083352934
18	0x3c6c6c98	0.014430188
19	0x3d14ca4c	0.036325738
20	0x3c7a99a2	0.015295418
21	0x3caac4da	0.02084582
22	0x3d001493	0.03126962
23	0x3d4216bd	0.047384966
24	0x3d88ce63	0.0667999
25	0x3c5984e9	0.013276317
26	0xbc7f3581	-0.015576721
27	0x3d9f4bb4	0.07778111
28	0xba901d24	-0.0010995013
29	0x3cecbaa0	0.028897583
30	0x3d4ebc25	0.050472397
31	0x3d2fc9d8	0.042917103
32	0x3cb6b34e	0.022302296
33	0x3d8531ef	0.06503665
34	0x3cd6af1a	0.026206542
35	0x3d7961c8	0.060884267
36	0xbc54f661	-0.012998194
37	0xbc769110	-0.015049234
38	0x3d28bde4	0.04119672
39	0x3cdf4046	0.027252328
40	0x3cef52a2	0.029214207
41	0x3c51e2f0	0.012810454
42	0x3cce64d8	0.02519457
43	0xbc33d5f8	-0.010976307
44	0x3d227d38	0.0396702
45	0x3d82d299	0.063878246
46	0x3d55876c	0.0521311
47	0x3cbffd4c	0.023436211
48	0x3c84dfee	0.01622006
49	0x3bf361ae	0.007427416
50	0x3c9bcab0	0.019017547
51	0x3d3c483e	0.045967333
52	0x3c4bb682	0.01243365
53	0x3c51bfab	0.012802045
54	0x3d98e25e	0.07465051
55	0x3d07a7bc	0.03311895
56	0x3ba6cb9c	0.00509019
57	0x3d04275e	0.032264106
58	0x3d404483	0.046940338
59	0x3d446ff7	0.04795834
60	0x3d9c4ad7	0.07631462
61	0x3d2086aa	0.039190926
62	0x3d82166f	0.06351935
63	0x3c964709	0.01834442
64	0x3d507a68	0.050897986
65	0x3d4466cb	0.047949594
66	0x3d19f3e1	0.037586097
67	0xbc218037	-0.009857229
68	0x3c77ed8f	0.015132322
69	0x3c4550af	0.012043162
70	0x3d5ca5d1	0.053869072
71	0x3cbce13f	0.023056624
72	0x3b8cc12a	0.004295488
73	0x3d88d9ed	0.06682191
74	0x3d4bcc0e	0.04975515
75	0x3d8301d4	0.06396833
76	0x3d2ef748	0.042716295
77	0x3cd77ade	0.026303705
78	0x3bbea6ff	0.0058182473
79	0x3ce7d6e7	0.028300716
80	0x3c4eecf6	0.012629738
81	0x3d7984d2	0.060917683
82	0x3d0ddb29	0.034632836
83	0x3d8f1721	0.06986833
84	0x3cce25e2	0.025164548
85	0x3d39172b	0.04518811
86	0x3d48f0b3	0.049057674
87	0x3d9aa826	0.07551603
88	0x3d832698	0.064038455
89	0x3d2fdefa	0.042937256
90	0x3c9d3d60	0.019194305
91	0x3cb05855	0.021526495
92	0x3ca6dae8	0.020368055
93	0x3d2871fa	0.04112432
94	0x3d81b628	0.06333572
95	0x3d4a17d0	0.049339116
96	0x3d9ee60e	0.07758723
97	0x3d91bc0a	0.07115944
98	0x3d518164	0.051148787
99	0x3daa3468	0.08310777
100	0x3d600f99	0.054702375
101	0x3d6c02d9	0.057619903
102	0x3d229671	0.039694253
103	0x3d9ae084	0.07562354
104	0x3d1a9662	0.037741072
105	0x3d959280	0.07303333
106	0x3d8615a7	0.065470986
107	0x3d63b598	0.055593103
108	0x3d5c387b	0.0537648
109	0x3ca29027	0.019844128
110	0x3d4fea7c	0.05076073
111	0x3d5081c5	0.050905008
112	0x3d53ef43	0.05174185
113	0x3d3380d6	0.04382404
114	0x3d6e78e3	0.058220755
115	0x3d52a55d	0.051427234
116	0x3ca22c91	0.019796642
117	0x3d7e7ca1	0.062130574
118	0x3d84071f	0.06446671
119	0x3da3106b	0.07962116
120	0x3d8f3a72	0.069935694
121	0x3d221f99	0.039580915
122	0x3d808023	0.0627444
123	0x3d1add85	0.037808914
124	0x3dc1a250	0.09454787
125	0x3da3697f	0.07979106
126	0x3d49286b	0.04911081
127	0x3d8d21bc	0.068912
128	0x3d570bd5	0.05250152
129	0x3db19cf6	0.08672516
130	0x3d14c89b	0.036324125
131	0x3dc7a5dd	0.09748433
132	0x3d1b89ab	0.037973087
133	0x3d4017ac	0.046897575
134	0x3d1f8734	0.0389473
135	0x3c9e6dfa	0.01933955
136	0x3d24a533	0.04019661
137	0x3dbd97b1	0.092574485
138	0x3d50ea83	0.051004898
139	0x3d276f0f	0.040877398
140	0x3db70b0a	0.089376524
141	0x3d148e71	0.036268655
142	0x3dc67921	0.09691072
143	0x3d989639	0.07450528
144	0x3d823049	0.06356866
145	0x3d1adc6d	0.03780787
146	0x3d1576a1	0.036490086
147	0x3d286f5e	0.041121833
148	0x3dd5f6ff	0.104475014
149	0x3d2aa4f8	0.041661233
150	0x3d7ea147	0.062165525
151	0x3d7492d8	0.059710354
152	0x3de2611e	0.1105368
153	0x3dcd8d4d	0.100367166
154	0x3d5dfed3	0.054198097
155	0x3ddc08f3	0.107438944
156	0x3d8eda7d	0.06975267
157	0x3d100cd0	0.03516847
158	0x3cd27aaf	0.025693266
159	0x3dc3e73a	0.09565587
160	0x3db90b5f	0.09035372
161	0x3d498798	0.049201578
162	0x3d45207a	0.048126675
163	0x3d6bc055	0.05755647
164	0x3dc9a98e	0.09846793
165	0x3ced2d8e	0.028952386
166	0x3dbc8734	0.092054754
167	0x3d27834e	0.040896706
