kjeong/best_model/best.pth (torch, 46011 bytes, 14 tensors)

weight_ih_l0 f4 [64, 28]
00000000: ecc1 bc3e a593 ecbc 3744 803c a54e 4e3e
00000010: c6ef 3dbe 3da6 72bd aa2a 0cbe 74cc 59be
00000020: 22ed 40be ec85 5e3e c01e 5a3c 34b7 4b3e
00000030: 5898 1d3e f00b bf3d 142d 4bbe 786b babd
00000040: 38c3 bd3d 5edd b13e e451 cc3d 0b90 0c3f
00000050: 1b98 003f c4e3 ca3d 58bf e0be a995 31be
00000060: 0734 bc3e 5180 c33e 51ce 183e b21e a03e
00000070: b45f 9ebd e577 07be f228 a3bd ab7e a83e
00000080: 460c 33be 22b8 bc3d 6dc3 043e a00d 62bc
00000090: 44cd 853d 9e5f 3bbe 3893 eb3d 66b4 363e
000000a0: 5649 74be c86d fe3d b056 e8bc a051 3c3d
000000b0: 6039 5cbd 73e1 7d3d f3b7 8e3e 69e2 5e3d
000000c0: 86d5 a2bd 7825 42bd acff 293d d6d1 d9bd
000000d0: c5bf 053e b5b8 0d3d 3bad 193c 1039 363e
000000e0: d437 003e da02 66be 7002 5bbe aec7 7ebe
000000f0: f148 183e c6c3 7ebe f5e5 1e3e 9ad2 183e
00000100: f880 543d c626 6a3e f8a3 34bd 2013 10bc
00000110: c4b7 d63d 1c96 30be 7ea9 543e cc6d dbbd
00000120: da12 52be 4d89 b13d 3595 d3bd 2824 5b3e
00000130: 23e8 13bd b607 303e db26 85bd d0d4 19be
00000140: 9002 64bd 05c7 13bd ef01 c23d c183 bf3d
00000150: 4afa 473e 38f9 45be 7349 773d b3ff 0d3f
00000160: 3419 a93e 0532 6c3e ce78 413e 408b 533d
00000170: 8874 233d bc57 1ebe 204f 39be 9a4d 5cbe
00000180: 400e 77bc 20c4 dcbc 98f7 22be b4fe 243e
00000190: 00bb babc 7127 ca3e 19af 6d3e 1c12 5e3e
000001a0: 0676 393e 10ff 66bd cf81 c0be fa91 e4be
000001b0: 8243 093f 1c2b ebbd 9df7 91bd 36ad 093f
000001c0: eb6f 33bf c853 e03d 6125 2fbf 55e1 b2be
000001d0: 8607 08bf 47b0 21bf d34e fdbd 463a c5ba
000001e0: 71df e9be 50ea ed3c 0044 563a 0069 64be
000001f0: fa6f 533e 449e 9dbd 38bb 6b3e d087 91bc
00000200: 78c2 243e 4802 f7bd 5802 4abf ecbe fbbe
00000210: 38c5 e2be b473 56be e03c c33e 96df 953e
00000220: ab5c 0cbf 64ac c73e 916d 563f f779 45bf
00000230: f008 a83d fdd0 913e ed6f 5fbd 0b65 ab3e
00000240: 0b1f 333e 8727 573e 0a65 1ebd e2fb 5cbe
00000250: ea6f 3bbe 6cb7 7fbe a601 6c3e 38e5 aabd
00000260: 0054 623d a091 ca3c f8cc fabd ea89 47be
00000270: c6d7 4fbe 845f bf3d 4a3d e73d 90bb 933e
00000280: 1645 b13e b7df c4bc 7741 20be e153 1b3e
00000290: 24be bfbe 341d c03e 0ee3 66bc 3e36 eb3d
000002a0: e00b c5bd 605d adbd cb20 8dbe 102d 32be
000002b0: 5d55 ebbe 7759 40be c83e cebd 4c34 19be
000002c0: b61e 63be ccb0 193e 48f6 d2bd 8e4b 5e3e
000002d0: ba97 773e 9d73 153c ecd9 523e b8f8 71bd
000002e0: a2cc 123e ac8b b7be 1e26 04bf b464 f3be
000002f0: 6d40 02bf 5a02 873d 5a51 ad3e 857d 0a3f
00000300: f7f5 8dbe 1496 933e 3c90 953e 84ac 31be
00000310: 9d16 e3be 80ab 7c3e fcc2 a6be 803d 85be
00000320: 3926 a1bd cdc2 07bf 6244 2d3e 9e8f 503e
00000330: 4a26 543e 249e b23d 5c1b 9fbd b819 2ebe
00000340: 32f1 3b3e d856 723d 16cd 453e a653 1c3e
00000350: a04f 09be c2af 12be 4aee 93be e1f7 09bf
00000360: d771 93be d413 ffbd c589 5f3e 825d 643e
00000370: 1a01 0bbf 557b 123e 05b9 033f 6dca e2be
00000380: ef56 b8be b8b3 0ebd fc89 e1bd 4105 3ebe
00000390: b508 cfbe 14da 89be 72d3 e5bd 0000 ab3c
000003a0: 7d16 09be 8805 14be 740c 8abd 5074 40be
000003b0: 74c8 d8bd f44b b83d 106b 33bd c4e5 4ebe
000003c0: 048c 2dbe 9c9e eabe 49bf 47be b8a8 f9be
000003d0: 3a8d c9be 87c8 0c3e 7399 b53d c9a4 b53e
000003e0: 3c3e 61be 9aa5 083f e6c2 d13e ee29 1abf
000003f0: 0e99 df3e 1048 72bc 9ff1 4d3e b3d2 8d3e
0.368667 -0.028878996 0.015657527 0.20147188 -0.18548498 -0.05924057 -0.1368815 -0.21269399
-0.18840459 0.21730775 0.013312995 0.19894105 0.15390146 0.09328449 -0.19841415 -0.09102529
0.09265751 0.34739202 0.09976557 0.5490729 0.50232095 0.09906724 -0.43895984 -0.17342247
0.36758444 0.38183835 0.14922453 0.3127342 -0.07733098 -0.1322933 -0.07966794 0.3290914
-0.1748515 0.09214808 0.12965174 -0.013797194 0.06533292 -0.18298194 0.11502689 0.17842254
-0.238561 0.12423283 -0.028361648 0.04597628 -0.053765655 0.061982583 0.27874717 0.05441514
-0.079508826 -0.047399014 0.041503593 -0.10635726 0.13061436 0.03459998 0.00937968 0.17795205
0.12521297 -0.22462025 -0.21387649 -0.2488086 0.14871575 -0.24879369 0.15517409 0.14924088
0.051880807 0.22866353 -0.044101685 -0.008793622 0.10484269 -0.17244762 0.20767781 -0.107143015
-0.20515004 0.08668766 -0.10331193 0.21400511 -0.036110055 0.17190441 -0.06501552 -0.15022588
-0.055666506 -0.03607847 0.09473025 0.09351302 0.19529071 -0.1933335 0.06037278 0.5546829
0.3302704 0.23065956 0.1889374 0.05164647 0.039906055 -0.15463156 -0.1809659 -0.21513978
-0.015079081 -0.026948988 -0.15914762 0.16112787 -0.022794247 0.39483216 0.23211326 0.21686596
0.18111429 -0.05639559 -0.37599036 -0.4464262 0.53618634 -0.11482832 -0.071273066 0.53779924
-0.7009265 0.1095348 -0.6841641 -0.3493754 -0.5313648 -0.631596 -0.1236855 -0.0015047274
-0.45678285 0.029042393 0.0008173585 -0.2230568 0.20648184 -0.076962024 0.23020637 -0.017764956
0.16089809 -0.12060982 -0.78909826 -0.491691 -0.4429109 -0.20942575 0.3813238 0.29272145
-0.548289 0.3899871 0.83760935 -0.7713923 0.0820483 0.28479758 -0.0545501 0.33475527
0.1749231 0.21011172 -0.038670577 -0.2158046 -0.1830441 -0.24972314 0.23047504 -0.08344501
0.05525589 0.024727643 -0.12246126 -0.19486204 -0.20297155 0.0934439 0.11290987 0.28854036
0.3462302 -0.024032457 -0.15649973 0.15168716 -0.37449753 0.3752228 -0.01409222 0.11484955
-0.096214056 -0.084650755 -0.27564082 -0.17400002 -0.45963565 -0.18784128 -0.10070568 -0.14961356
-0.22179684 0.15008849 -0.10300881 0.2170851 0.24178973 0.009121803 0.20590943 -0.059075087
0.14335874 -0.3584875 -0.5162066 -0.47537768 -0.50879556 0.065922454 0.3385113 0.5409778
-0.2772672 0.28825438 0.29211605 -0.17350966 -0.4435319 0.24674797 -0.32570636 -0.26023483
-0.078686185 -0.5303162 0.16920617 0.20367286 0.20717731 0.08721569 -0.0776889 -0.17001998
0.18353727 0.059164852 0.19316515 0.15266284 -0.13409281 -0.14324859 -0.28892738 -0.5389386
-0.2879779 -0.12454954 0.21829899 0.22301295 -0.54298556 0.1430486 0.5145419 -0.44295064
-0.36003825 -0.034839362 -0.110126466 -0.18556692 -0.4043633 -0.26924193 -0.112219706 0.020874023
-0.13387485 -0.14455235 -0.067406565 -0.1879437 -0.105851084 0.08998862 -0.043803275 -0.20204836
-0.16947943 -0.45824134 -0.19506563 -0.48761535 -0.3936556 0.1374837 0.08867159 0.35477284
-0.21996397 0.5337769 0.40969008 -0.6022023 0.4367146 -0.014787689 0.20111702 0.27699813

weight_hh_l0 f4 [64, 16]
00000000: aa98 1cbe 2578 8f3e 39d5 673e 4b6c 593e
00000010: 483a 253e 7394 bebe 6de0 ae3d f413 2f3e
00000020: c2ed fc3d 79b1 cd3d 381a 54ba 1f51 213e
00000030: 21f9 3cbe f491 733e 0644 68be 5d61 afbe
00000040: ffd7 583e 6316 103d 804b 02be 9658 a83e
00000050: d0d6 83bd 8cd5 d53d c8e7 e83d 9c0c a3bd
00000060: 0411 78be bd9c 11bd f32f 4bbe 2585 fbbd
00000070: 4a59 57be f8c5 ee3d fa34 34be 1589 253d
00000080: fa4b 573e ea39 ff3d 3214 183e d8ea 2d3d
00000090: 7256 2b3e 4bb2 703e 8061 5a3d 0891 d93d
000000a0: 2456 213e 2e00 f8b8 3810 5c3e 99ea 773d
000000b0: c013 1cbe 1467 42be cc4a 823d 0650 4abe
000000c0: 027a efbe 4c3d 0a3f f9fc fe3e 6750 773e
000000d0: b403 bd3d 091d 66be 18cc e83d c456 19be
000000e0: 5022 f43d af21 ee3d e0c9 64be c48c ee3d
000000f0: 6c78 68be 9d66 1abd 3491 fabd ce56 e2bd
00000100: e18a 903e 46df ebbe 14f7 c3be 5a4a 20bf
00000110: e791 2b3f bac1 e83e c67a f43e 3e94 063f
00000120: 0535 09be 5cff edbd ff38 983e dbc9 9bbe
00000130: b584 5f3e 4a4f e73e 935a d13b 9365 5fbe
00000140: 567e 0dbe a6dc 783e e67c ce3e 592e 21bd
00000150: c04a 253e 7087 8e3c 1df0 5dbe 5488 e93d
00000160: d9f5 b43c f4a2 413e 7fba 573e 5d5a 143e
00000170: c2c9 a6be 8fbb 5fbe 04b4 323e 8885 37be
00000180: 5d5a 0d3f 4320 92be 027d 8bbe 3695 ecbd
00000190: 1a56 2fbd 81ea d63e d25a 4a3e cbcc 9b3d
000001a0: 0892 d73d d3b3 ddbe 1bb9 973e 7b1d 58be
000001b0: ea38 463e 1d3b 7d3e 1290 8dbd 17b3 d83d
000001c0: 156a e63e e24e 9a3e ec18 fcbe b072 64be
000001d0: 1611 303e a04c a73d f6ca 023f 64b1 ca3d
000001e0: 6a71 d3be 7ddc ebbe d638 003f 5a23 aabe
000001f0: 6753 ce3d 61c1 e93e 1869 433e 9bc0 6ebe
00000200: 0d73 753e c2a2 0dbf fedf b5be 42ab 37be
00000210: 645d adbd 6b8c 8e3d c973 513e 41f1 a23e
00000220: 2b71 dfbd ce8b cbbe 0889 e43d 891d b1be
00000230: 39a2 ac3e 0e09 eb3e 10f3 353d 5195 a13e
00000240: 4bbd 69be e04e acbe 5cfd 1e3e 3024 9dbd
00000250: 3dd7 a33d 2d2b ddbe c4e5 b3be dc9d 77be
00000260: d864 693d cabb 673e 2bd1 0abf 4010 033e
00000270: b5c8 61be deb8 eabe c9cc 1ebe 68de 9a3e
00000280: f6c4 0bbf 9033 dd3e c6e2 9c3e c004 c03d
00000290: e944 3bbe 0a9a f4bd 61e2 8cbe aa9e c9be
000002a0: af0a 6b3e ef09 c83e eb0b 97bd d094 ab3e
000002b0: 6664 cfbe c912 b0be ad22 0b3d 27ce bebd
000002c0: 842f 753e 26c9 153f 3961 283e d836 c13e
000002d0: e0f5 5a3c 6392 91be d20f 423c 2c65 b1bd
000002e0: b4a5 933d 0634 583e ad26 203d ff90 bc3e
000002f0: 56a3 1b3e 0060 eb39 d419 b6bd 0e8c c0bd
00000300: 18d4 0bbe a17e cd3e 4016 033e 5fa7 a43e
00000310: 6017 a13c b54f e4bd fe69 3c3e 907e cebd
00000320: f9ad 55be 0164 9b3c 800d 55be eec7 2cbe
00000330: 8118 bf3d 70e9 133d fcaa b3bd 82de a03d
00000340: 0887 a43e 9a7f 24be b75d d7be ec7c 72be
00000350: 6de2 e03e 98fb db3e d4fd b03d 06ff 073f
00000360: 5f55 a5be 57d6 a6be b09b 863e 9c15 50be
00000370: 6974 9c3c c06f 983e 58c1 963d ee31 c23e
00000380: 9474 84be e7c3 bb3c aae7 61bc d875 04bd
00000390: 0529 813d a4a8 73be efaa 423e e2f7 d4bd
000003a0: bd48 40bd 5a8b 033f 88c5 94be cd38 ae3e
000003b0: becf 2c3f a60a 99bd 9290 d73e 60a1 4b3f
000003c0: 0543 00be 6142 053e d63d cb3e 0ca5 ed3e
000003d0: d479 efbd 0bd9 39be 8994 45be d5bd ebbe
000003e0: 88fb e33e 954e 583e 543e b1be 8307 963e
000003f0: fe20 07bf 80c2 bebd 68dd 71be fc88 96be
-0.15292612 0.2802135 0.22639932 0.21232717 0.16135514 -0.37222633 0.085388996 0.17097455
0.12350036 0.10043616 -0.0008091065 0.15753601 -0.1845441 0.23786145 -0.22682199 -0.3425397
0.21176146 0.0351776 -0.12724113 0.32880086 -0.064374566 0.104411215 0.11372334 -0.079613894
-0.24225241 -0.035549868 -0.1984251 -0.12281255 -0.21030155 0.11658853 -0.17598334 0.040413935
0.21025077 0.12462218 0.14851454 0.042460293 0.16732195 0.23505513 0.05331564 0.10623366
0.15755516 -0.00011825595 0.21490562 0.060526464 -0.15241909 -0.18984634 0.063619226 -0.19757089
-0.46772772 0.5399978 0.49802378 0.24151765 0.09229222 -0.22472014 0.11367053 -0.14974505
0.11920607 0.116275184 -0.22342634 0.11647943 -0.22702187 -0.037695516 -0.122347265 -0.11051713
0.28230956 -0.46068782 -0.38274443 -0.6261345 0.67019504 0.45460302 0.4774992 0.5256995
-0.13399132 -0.116209716 0.29730985 -0.3042744 0.21827967 0.4517768 0.006388971 -0.21816091
-0.13817725 0.2430292 0.40329665 -0.03935084 0.16141796 0.017398566 -0.21673627 0.11402956
0.022089886 0.18909818 0.21067236 0.14487596 -0.32575804 -0.21848892 0.17451483 -0.17922032
0.5521601 -0.2854024 -0.2724381 -0.11551897 -0.042806722 0.41975787 0.19761208 0.076074205
0.105259 -0.43301257 0.29633412 -0.21104996 0.19357648 0.24729581 -0.06912245 0.10581034
0.4500281 0.30138308 -0.49237764 -0.22309375 0.17194018 0.08168912 0.51090944 0.09897116
-0.41297466 -0.46066657 0.50086725 -0.33230096 0.100745015 0.4565535 0.19083059 -0.2331566
0.2396967 -0.55326474 -0.35522455 -0.17936423 -0.084650785 0.06960376 0.20454325 0.31824687
-0.10910257 -0.397551 0.11158949 -0.34592846 0.33717516 0.45905346 0.044421256 0.31559232
-0.22826116 -0.33653927 0.15526336 -0.07672918 0.08000038 -0.43197003 -0.35136235 -0.24181312
0.056980938 0.2263023 -0.54225415 0.12799168 -0.2204922 -0.45844167 -0.15507807 0.30247808
-0.54597414 0.43203402 0.30641764 0.09375906 -0.18288006 -0.11943443 -0.27516463 -0.39378864
0.22953294 0.3907008 -0.0737532 0.33511972 -0.40506285 -0.34389332 0.033968616 -0.09316664
0.23943907 0.58510053 0.16443338 0.37737155 0.013364285 -0.28431997 0.011844592 -0.08661875
0.0720934 0.21113595 0.039099384 0.36829373 0.15199026 0.00044894218 -0.08891645 -0.09401713
-0.13655126 0.40135673 0.12801456 0.32158944 0.019664466 -0.111480154 0.18399808 -0.10082734
-0.20867147 0.018968584 -0.20805931 -0.16873142 0.093308456 0.036111295 -0.08772847 0.0785494
0.3213427 -0.16064301 -0.42063686 -0.23680466 0.4392275 0.42965388 0.08642164 0.5312351
-0.32291695 -0.32585403 0.26290655 -0.20320743 0.019098477 0.29772758 0.07361096 0.37928718
-0.25870192 0.022920562 -0.013788143 -0.032338947 0.06306652 -0.237948 0.19010518 -0.103988424
-0.04694437 0.5138451 -0.29056954 0.3402771 0.6750449 -0.07472734 0.42102486 0.79543114
-0.12525566 0.13013603 0.39695615 0.46414983 -0.11693159 -0.18149202 -0.19294943 -0.46043268
0.4452784 0.21123727 -0.34617865 0.29302606 -0.5278472 -0.09314442 -0.23619616 -0.29401386

bias_ih_l0 f4 [64]
00000000: 552c 763e 7790 9ebd 0f18 2e3e 0086 e13e
00000010: a3e1 cabe 4aa6 5fbd bf3e 9cbe 9acb 2cbe
00000020: d59d b3be 6437 9e3e 6e52 de3e 3ffc 593e
00000030: e313 b23e 874f c4be a8e8 1b3e d537 e33e
00000040: cf5b ff3e 27f7 ec3d d53d 433e e713 4d3e
00000050: 04bf 0fbf bb94 883e 21c5 e53e 83ab 2bbe
00000060: dfe2 c0be 8865 8a3e a214 8d3e 1ec2 a93e
00000070: 9653 c63e e212 3cbe 5dfe 3ebe da9e f0be
00000080: 7d60 bdbe 9426 54be 4260 3e3e d676 1a3c
00000090: 0806 a43e 6b2c ddbe bbb8 473d c03a e33e
000000a0: a843 e8be 3a54 f33e ce23 87be 1f53 103f
000000b0: 47b2 5fbe b9e6 f23e 7d99 99bd a4de f23e
000000c0: 4aaa 03bf ffdb 993e 53d9 0cbf 67ea 08be
000000d0: 36e6 04be c5f1 5bbe 10b1 e2bd 75cc 35be
000000e0: 697c 99be d31b bebe c93a 683e f6a8 083f
000000f0: e7d9 663e 500c 6fbd 70c9 153f dd8d ee3d
0.24040349 -0.07742398 0.17001365 0.44047546 -0.39625272 -0.054601945 -0.3051662 -0.16874543
-0.35081354 0.30901635 0.43422264 0.2128763 0.34780797 -0.38341925 0.1522547 0.44378534
0.49874732 0.11570578 0.19066556 0.20027123 -0.5615084 0.26675972 0.4487696 -0.16764645
-0.3767309 0.27030587 0.27554804 0.33155912 0.38735646 -0.18366578 -0.1865172 -0.46996194
-0.36987677 -0.20717841 0.18591407 0.009427747 0.3203585 -0.4319795 0.048760157 0.4438076
-0.45364118 0.47525197 -0.26394504 0.5637683 -0.21845351 0.47441652 -0.07499979 0.47435486
-0.51431715 0.30050656 -0.5501911 -0.13370667 -0.12978444 -0.21478947 -0.11068928 -0.17753775
-0.2997773 -0.37130603 0.22678675 0.53382814 0.2254406 -0.05836135 0.58510494 0.11648152

bias_hh_l0 f4 [64]
00000000: 6fa7 643d 0cb9 7dbd 822e 9f3b ef78 993d
00000010: 0fa4 d0be 4d8f cd3e 31ad bebe 424b 31be
00000020: 9d99 e3bd b0be 8b3e 228b 3f3e 86cf a73e
00000030: 47ba ad3e 87b1 0cbf 33cb 3d3e 25b7 a33e
00000040: f92e 863e 104a e03c 2a2d 73bd f7a0 953e
00000050: a19d 5dbe d78d 6e3e c978 8a3e 5b3c c0bd
00000060: 6674 61be 4449 083e 6610 753e 3460 b43e
00000070: 416d 1c3d fe79 04bf bb60 67be 6b3b 45be
00000080: f9f4 01bf 1869 803e 0e8b ed3d 2da9 a43e
00000090: e25c 133e d32e 44be 32f6 2d3e 5d7e e43e
000000a0: 3921 8fbe 4afb e43e 77ee 39be 8027 923e
000000b0: 99c5 063e 7d09 953e e1c6 fabd d010 6d3e
000000c0: 7f52 0dbf fddd cc3e 0df2 05bf 90ff abbe
000000d0: 9754 b1bd b449 c6bd cfe6 3e3e 486f 9fbd
000000e0: e1fc 59be 61b7 70be ab41 6a3e 5f75 7e3e
000000f0: fa0a dd3e 8d89 70be 03d8 c93e 6499 ba3e
0.05582374 -0.061944053 0.004857839 0.074937694 -0.40750167 0.40148392 -0.3724151 -0.17313865
-0.11113284 0.2729392 0.18705419 0.32775515 0.3393118 -0.54958385 0.18534546 0.31975666
0.26207712 0.027379066 -0.059369244 0.2922437 -0.21642162 0.23296295 0.27045277 -0.09386512
-0.22017059 0.13309199 0.23932037 0.35229647 0.03819013 -0.51748645 -0.22595493 -0.19260947
-0.50764424 0.2508018 0.11598788 0.3216032 0.143909 -0.19158487 0.16988447 0.44627658
-0.27955034 0.44722968 -0.18157373 0.2854576 0.13161315 0.291088 -0.122449644 0.23150945
-0.55204004 0.40013114 -0.52322465 -0.33593416 -0.08658712 -0.096820265 0.18642734 -0.07784897
-0.21287872 -0.23507454 0.22876613 0.24849461 0.43172437 -0.23489971 0.39422616 0.36445153

hidden f4 [1, 60, 16]
00000000: 0000 80bf 0000 803f 0000 0000 0000 0000
00000010: 0000 0000 0000 80bf 0000 0080 0000 0000
00000020: 0000 0000 0000 803f 0000 80bf 0000 803f
00000030: 0000 80bf 0000 0000 0000 0000 0000 803f
00000040: 0000 80bf 0000 803f 0000 0000 0000 0000
00000050: 0000 0000 0000 80bf 0000 0080 0000 0000
00000060: 0000 0000 0000 803f 0000 80bf 0000 803f
00000070: 0000 80bf 0000 0000 0000 0000 0000 803f
00000080: 0000 80bf 0000 803f 0000 0000 0000 0000
00000090: 0000 0000 0000 80bf 0000 0080 0000 0000
000000a0: 0000 0000 0000 803f 0000 80bf 0000 803f
000000b0: 0000 80bf 0000 0000 0000 0000 0000 803f
000000c0: 0000 80bf 0000 803f 0000 0000 0000 0000
000000d0: 0000 0000 0000 80bf 0000 0080 0000 0000
000000e0: 0000 0000 0000 803f 0000 80bf 0000 803f
000000f0: 0000 80bf 0000 0000 0000 0000 0000 803f
00000100: 0000 80bf 0000 803f 0000 0000 0000 0000
00000110: 0000 0000 0000 80bf 0000 0080 0000 0000
00000120: 0000 0000 0000 803f 0000 80bf 0000 803f
00000130: 0000 80bf 0000 0000 0000 0000 0000 803f
00000140: 0000 80bf 0000 803f 0000 0000 0000 0000
00000150: 0000 0000 0000 80bf 0000 0080 0000 0000
00000160: 0000 0000 0000 803f 0000 80bf 0000 803f
00000170: 0000 80bf 0000 0000 0000 0000 0000 803f
00000180: 0000 80bf 0000 803f 0000 0000 0000 0000
00000190: 0000 0000 0000 80bf 0000 0080 0000 0000
000001a0: 0000 0000 0000 803f 0000 80bf 0000 803f
000001b0: 0000 80bf 0000 0000 0000 0000 0000 803f
000001c0: 0000 80bf 0000 803f 0000 0000 0000 0000
000001d0: 0000 0000 0000 80bf 0000 0080 0000 0000
000001e0: 0000 0000 0000 803f 0000 80bf 0000 803f
000001f0: 0000 80bf 0000 0000 0000 0000 0000 803f
00000200: 0000 80bf 0000 803f 26e1 1c04 0000 0000
00000210: 0000 0000 0000 80bf 0000 0080 0000 0000
00000220: 0000 0000 0000 803f 0000 80bf 0000 803f
00000230: 0000 80bf 0000 0000 0000 0000 0000 803f
00000240: 0000 80bf 0000 803f b478 2705 0000 0000
00000250: 0000 0000 0000 80bf 0000 0080 0000 0000
00000260: 0000 0000 0000 803f 0000 80bf 0000 803f
00000270: 0000 80bf 0000 0000 0000 0000 0000 803f
00000280: 0000 80bf 0000 803f 9978 4b0a 0000 0000
00000290: 0000 0000 0000 80bf 0000 0080 0000 0000
000002a0: 0000 0000 0000 803f 0000 80bf 0000 803f
000002b0: 0000 80bf 0000 0000 0000 0000 0000 803f
000002c0: 0000 80bf 0000 803f 7557 740d 0000 0000
000002d0: 0000 0000 0000 80bf 0000 0080 0000 0000
000002e0: 0000 0000 0000 803f 0000 80bf 0000 803f
000002f0: 0000 80bf 0000 0000 0000 0000 0000 803f
00000300: 0000 80bf 0000 803f 49e6 1813 0000 0000
00000310: 0000 0000 0000 80bf 0000 0080 0000 0000
00000320: 0000 0000 0000 803f 0000 80bf 0000 803f
00000330: 0000 80bf 0000 0000 0000 0000 0000 803f
00000340: 0000 80bf 0000 803f c6f5 4821 0000 0000
00000350: 0000 0000 0000 80bf 0000 0080 0000 0000
00000360: 0000 0000 0000 803f 0000 80bf 0000 803f
00000370: 0000 80bf 0000 0000 0000 0000 0000 803f
00000380: 0000 80bf 0000 803f 4a71 dd22 0000 0000
00000390: 0000 0000 0000 80bf 0000 0080 0000 0000
000003a0: 0000 0000 0000 803f 0000 80bf 0000 803f
000003b0: 0000 80bf 0000 0000 0000 0000 0000 803f
000003c0: 0000 80bf 0000 803f b42d 7a23 0000 0000
000003d0: 0000 0000 0000 80bf 0000 0080 0000 0000
000003e0: 0000 0000 0000 803f 0000 80bf 0000 803f
000003f0: 0000 80bf 0000 0000 0000 0000 0000 803f
-1.0 1.0 0.0 0.0 0.0 -1.0 -0.0 0.0
0.0 1.0 -1.0 1.0 -1.0 0.0 0.0 1.0
-1.0 1.0 0.0 0.0 0.0 -1.0 -0.0 0.0
0.0 1.0 -1.0 1.0 -1.0 0.0 0.0 1.0
-1.0 1.0 0.0 0.0 0.0 -1.0 -0.0 0.0
0.0 1.0 -1.0 1.0 -1.0 0.0 0.0 1.0
-1.0 1.0 0.0 0.0 0.0 -1.0 -0.0 0.0
0.0 1.0 -1.0 1.0 -1.0 0.0 0.0 1.0
-1.0 1.0 0.0 0.0 0.0 -1.0 -0.0 0.0
0.0 1.0 -1.0 1.0 -1.0 0.0 0.0 1.0
-1.0 1.0 0.0 0.0 0.0 -1.0 -0.0 0.0
0.0 1.0 -1.0 1.0 -1.0 0.0 0.0 1.0
-1.0 1.0 0.0 0.0 0.0 -1.0 -0.0 0.0
0.0 1.0 -1.0 1.0 -1.0 0.0 0.0 1.0
-1.0 1.0 0.0 0.0 0.0 -1.0 -0.0 0.0
0.0 1.0 -1.0 1.0 -1.0 0.0 0.0 1.0
-1.0 1.0 1.8441095e-36 0.0 0.0 -1.0 -0.0 0.0
0.0 1.0 -1.0 1.0 -1.0 0.0 0.0 1.0
-1.0 1.0 7.874472e-36 0.0 0.0 -1.0 -0.0 0.0
0.0 1.0 -1.0 1.0 -1.0 0.0 0.0 1.0
-1.0 1.0 9.796776e-33 0.0 0.0 -1.0 -0.0 0.0
0.0 1.0 -1.0 1.0 -1.0 0.0 0.0 1.0
-1.0 1.0 7.5293578e-31 0.0 0.0 -1.0 -0.0 0.0
0.0 1.0 -1.0 1.0 -1.0 0.0 0.0 1.0
-1.0 1.0 1.9298637e-27 0.0 0.0 -1.0 -0.0 0.0
0.0 1.0 -1.0 1.0 -1.0 0.0 0.0 1.0
-1.0 1.0 6.8087914e-19 0.0 0.0 -1.0 -0.0 0.0
0.0 1.0 -1.0 1.0 -1.0 0.0 0.0 1.0
-1.0 1.0 6.002212e-18 0.0 0.0 -1.0 -0.0 0.0
0.0 1.0 -1.0 1.0 -1.0 0.0 0.0 1.0
-1.0 1.0 1.3562205e-17 0.0 0.0 -1.0 -0.0 0.0
0.0 1.0 -1.0 1.0 -1.0 0.0 0.0 1.0

hidden f4 [1, 60, 16]
00000000: 0000 c8c2 0000 c842 0000 c842 0000 c842
00000010: 0000 0000 0000 c8c2 8bb3 0f85 0000 0000
00000020: 0000 0000 0000 c842 0000 c8c2 0000 c842
00000030: 0000 c8c2 0000 0000 0000 0000 0000 c842
00000040: 0000 c8c2 0000 c842 0000 c842 0000 c842
00000050: 0000 0000 0000 c8c2 8bb3 0f85 0000 0000
00000060: 0000 0000 0000 c842 0000 c8c2 0000 c842
00000070: 0000 c8c2 0000 0000 0000 0000 0000 c842
00000080: 0000 c8c2 0000 c842 0000 c842 0000 c842
00000090: 0000 0000 0000 c8c2 8bb3 0f85 0000 0000
000000a0: 0000 0000 0000 c842 0000 c8c2 0000 c842
000000b0: 0000 c8c2 0000 0000 0000 0000 0000 c842
000000c0: 0000 c8c2 0000 c842 0000 c842 0000 c842
000000d0: 0000 0000 0000 c8c2 8bb3 0f85 0000 0000
000000e0: 0000 0000 0000 c842 0000 c8c2 0000 c842
000000f0: 0000 c8c2 0000 0000 0000 0000 0000 c842
00000100: 0000 c8c2 0000 c842 0000 c842 0000 c842
00000110: 0000 0000 0000 c8c2 8bb3 0f85 0000 0000
00000120: 0000 0000 0000 c842 0000 c8c2 0000 c842
00000130: 0000 c8c2 0000 0000 0000 0000 0000 c842
00000140: 0000 c8c2 0000 c842 0000 c842 0000 c842
00000150: 0000 0000 0000 c8c2 8bb3 0f85 0000 0000
00000160: 0000 0000 0000 c842 0000 c8c2 0000 c842
00000170: 0000 c8c2 0000 0000 0000 0000 0000 c842
00000180: 0000 c8c2 0000 c842 0000 c842 0000 c842
00000190: 0000 0000 0000 c8c2 8bb3 0f85 0000 0000
000001a0: 0000 0000 0000 c842 0000 c8c2 0000 c842
000001b0: 0000 c8c2 0000 0000 0000 0000 0000 c842
000001c0: 0000 c8c2 0000 c842 0000 c842 0000 c842
000001d0: 0000 0000 0000 c8c2 8bb3 0f85 0000 0000
000001e0: 0000 0000 0000 c842 0000 c8c2 0000 c842
000001f0: 0000 c8c2 0000 0000 0000 0000 0000 c842
00000200: 0000 c8c2 0000 c842 0000 c842 0000 c842
00000210: 0000 0000 0000 c8c2 8bb3 0f85 0000 0000
00000220: 0000 0000 0000 c842 0000 c8c2 0000 c842
00000230: 0000 c8c2 0000 0000 0000 0000 0000 c842
00000240: 0000 c8c2 0000 c842 0000 c842 0000 c842
00000250: 0000 0000 0000 c8c2 8bb3 0f85 0000 0000
00000260: 0000 0000 0000 c842 0000 c8c2 0000 c842
00000270: 0000 c8c2 0000 0000 0000 0000 0000 c842
00000280: 0000 c8c2 0000 c842 0000 c842 0000 c842
00000290: 0000 0000 0000 c8c2 8bb3 0f85 0000 0000
000002a0: 0000 0000 0000 c842 0000 c8c2 0000 c842
000002b0: 0000 c8c2 0000 0000 0000 0000 0000 c842
000002c0: 0000 c8c2 0000 c842 0000 c842 0000 c842
000002d0: 0000 0000 0000 c8c2 8eb3 0f85 0000 0000
000002e0: 0000 0000 0000 c842 0000 c8c2 0000 c842
000002f0: 0000 c8c2 0000 0000 0000 0000 0000 c842
00000300: 0000 c8c2 0000 c842 0000 c842 0000 c842
00000310: 0000 0000 0000 c8c2 b5b3 0f85 0000 0000
00000320: 0000 0000 0000 c842 0000 c8c2 0000 c842
00000330: 0000 c8c2 0000 0000 0000 0000 0000 c842
00000340: 0000 c8c2 0000 c842 0000 c842 0000 c842
00000350: 0000 0000 0000 c8c2 46b5 0f85 0000 0000
00000360: 0000 0000 0000 c842 0000 c8c2 0000 c842
00000370: 0000 c8c2 0000 0000 0000 0000 0000 c842
00000380: 0000 c8c2 0000 c842 0000 c842 0000 c842
00000390: 0000 0000 0000 c8c2 6cc0 0f85 0000 0000
000003a0: 0000 0000 0000 c842 0000 c8c2 0000 c842
000003b0: 0000 c8c2 0000 0000 0000 0000 0000 c842
000003c0: 0000 c8c2 0000 c842 0000 c842 0000 c842
000003d0: 0000 0000 0000 c8c2 7f13 1085 0000 0000
000003e0: 0000 0000 0000 c842 0000 c8c2 0000 c842
000003f0: 0000 c8c2 0000 0000 0000 0000 0000 c842
-100.0 100.0 100.0 100.0 0.0 -100.0 -6.7568045e-36 0.0
0.0 100.0 -100.0 100.0 -100.0 0.0 0.0 100.0
-100.0 100.0 100.0 100.0 0.0 -100.0 -6.7568045e-36 0.0
0.0 100.0 -100.0 100.0 -100.0 0.0 0.0 100.0
-100.0 100.0 100.0 100.0 0.0 -100.0 -6.7568045e-36 0.0
0.0 100.0 -100.0 100.0 -100.0 0.0 0.0 100.0
-100.0 100.0 100.0 100.0 0.0 -100.0 -6.7568045e-36 0.0
0.0 100.0 -100.0 100.0 -100.0 0.0 0.0 100.0
-100.0 100.0 100.0 100.0 0.0 -100.0 -6.7568045e-36 0.0
0.0 100.0 -100.0 100.0 -100.0 0.0 0.0 100.0
-100.0 100.0 100.0 100.0 0.0 -100.0 -6.7568045e-36 0.0
0.0 100.0 -100.0 100.0 -100.0 0.0 0.0 100.0
-100.0 100.0 100.0 100.0 0.0 -100.0 -6.7568045e-36 0.0
0.0 100.0 -100.0 100.0 -100.0 0.0 0.0 100.0
-100.0 100.0 100.0 100.0 0.0 -100.0 -6.7568045e-36 0.0
0.0 100.0 -100.0 100.0 -100.0 0.0 0.0 100.0
-100.0 100.0 100.0 100.0 0.0 -100.0 -6.7568045e-36 0.0
0.0 100.0 -100.0 100.0 -100.0 0.0 0.0 100.0
-100.0 100.0 100.0 100.0 0.0 -100.0 -6.7568045e-36 0.0
0.0 100.0 -100.0 100.0 -100.0 0.0 0.0 100.0
-100.0 100.0 100.0 100.0 0.0 -100.0 -6.7568045e-36 0.0
0.0 100.0 -100.0 100.0 -100.0 0.0 0.0 100.0
-100.0 100.0 100.0 100.0 0.0 -100.0 -6.756807e-36 0.0
0.0 100.0 -100.0 100.0 -100.0 0.0 0.0 100.0
-100.0 100.0 100.0 100.0 0.0 -100.0 -6.756835e-36 0.0
0.0 100.0 -100.0 100.0 -100.0 0.0 0.0 100.0
-100.0 100.0 100.0 100.0 0.0 -100.0 -6.7571224e-36 0.0
0.0 100.0 -100.0 100.0 -100.0 0.0 0.0 100.0
-100.0 100.0 100.0 100.0 0.0 -100.0 -6.75917e-36 0.0
0.0 100.0 -100.0 100.0 -100.0 0.0 0.0 100.0
-100.0 100.0 100.0 100.0 0.0 -100.0 -6.774428e-36 0.0
0.0 100.0 -100.0 100.0 -100.0 0.0 0.0 100.0

weight_ih_l0 f4 [64, 28]
00000000: 106a f1be 26ac 10be 63f9 d1bd e898 d5be
00000010: bef6 37be 98e5 97bd e082 68be 685b 263d
00000020: a438 803d 46d5 1ebe c8d9 7fbd 6461 f4bd
00000030: a602 7ebe e890 b1bd 8a47 6a3e 8667 733e
00000040: 00d9 16be d170 c7be d3f7 e0be ae6a 11be
00000050: e9e1 03bf 803a aebd a771 6b3e 7b01 563e
00000060: 774e c3bd 95bd bd3d 2b41 e53d 980c 04bf
00000070: c06d e7bd 68ff 0a3e 98c9 0c3d 60ae 39bc
00000080: f27c 483e 3872 303e 380c 6f3d 0877 423d
00000090: 64da ccbd 005a 77be e098 353d 4627 5c3e
000000a0: 64ef 393e c0f5 bebc 0049 dbbb 8844 773e
000000b0: 98b9 7fbe bec9 603e f640 7a3e 666f 213e
000000c0: 5cc5 cc3d 40ea 283c 2c88 b13d 9ae7 04be
000000d0: 007c 1bbd f456 24be 00a9 f73c 08ce 88bd
000000e0: c255 643e a86e bb3d 18a1 ed3d e08d 2abe
000000f0: 00a3 3dbb 0448 603e 7054 d13d d65f 5fbe
00000100: 6c3d d3bd 6a2a 133e d476 083e e0ae 0f3d
00000110: 3c78 8bbd 6263 153e d4ab 8d3d 908e cf3c
00000120: 10cd 9d3d c6b2 12be d45a 31be ec3f 253e
00000130: 58ba 0bbe 12fd 39be 4e0a 4fbe eab9 4a3e
00000140: b844 d13d 50a6 dd3d 269e 383e d472 70be
00000150: 45f7 eb3d 0405 c43d 34f2 e23e baee d03e
00000160: 7e93 863d e60c 853e 9bd7 56bd 7c33 5c3e
00000170: 1a3a 513e 8c89 47be e0da b3bc 6266 543e
00000180: f624 6d3e f886 4bbd 0afa 5f3e 28a5 4fbe
00000190: c090 8a3d 7e00 a43e 67d0 de3e b8d5 003f
000001a0: d1c5 d13e 911e 3b3e 856e 0abe 03da 93bd
000001b0: ed56 ee3e caf9 f33c b04a 133e 422f a03d
000001c0: f02b bcbe 68f0 de3d 213a 21be 8d83 163e
000001d0: f1c8 91be db7b 38be 2c12 2cbe 802e f5bd
000001e0: ce3f 383e e09b 25be a85a 03be a0f9 293c
000001f0: 804c 3d3c 7211 373e 920a 27be a8fd 383d
00000200: 548e 20be 67ce 8bbd 2803 3fbd 84ad 8bbe
00000210: 44b1 36bd 70d7 0c3f 44f9 32ba 9501 3a3e
00000220: 174d 863d 400f 803e 6a3e a73d 452f ae3e
00000230: 1b8c 62be 58ed ff3d f326 e2be 525d 96be
00000240: d080 e1be b676 b8bd 9094 963d 8479 5f3e
00000250: 4612 4a3e d8fd e43d 08e2 213e 0068 7d39
00000260: 6446 3fbe 3497 d2bd 405f c9bd ec2f dfbd
00000270: 0c7d 01be 35bb 0dbf d6c9 86be 0edc efbe
00000280: 0e20 07bf bc0f 9f3d 407a 9a3d 563e ba3e
00000290: c3da a5be 6113 e23e b8d0 013f b37d 3ebe
000002a0: 1232 9a3e d9a1 c3bc 2e80 1a3f e462 933e
000002b0: ed25 823e 40dd 893e 732e 40be 0cdb dd3d
000002c0: 29f1 97bd e48e cf3d d456 08be 5489 81bd
000002d0: a0ac 18bd a41b 763e a853 073d 2849 51be
000002e0: bc8c 453e 36de 023f d540 363f e8f5 fd3e
000002f0: 5514 893e 4669 8abe 9a99 22bf cf85 bdbd
00000300: b089 c5bd 57c3 353e 719c 783c db7b 953e
00000310: f77c 9abe 358a f93e d50e 2dbe 9c60 cfbe
00000320: 0a1d 0cbf 5ffe bebe 892c 903d eede cf3e
00000330: 2efb 9dbe 38fd d4bd 05f3 ec3f 8e68 663e
00000340: 9000 633f 4a1d 07be 00c8 cdbc d043 6abd
00000350: 3053 b6bd 5205 a0be 6236 bbbe 5a1b a3be
00000360: 7ec3 963d 2b7c 74bf 4f4e db3e 5e39 dfbe
00000370: 60e9 9cbc fcd3 ccbe 04ed e13d 87a1 843e
00000380: df48 a73d a821 c43d c8b4 ad3e 825b ec3e
00000390: 0ac5 2b3e 3247 e93e 1c2e 443e 3026 683d
000003a0: 54d3 403e 46f4 74be b446 263e c002 a1bd
000003b0: d837 b43d 221d 3b3e a85c 093d 0071 88bb
000003c0: dc31 e13d 6fc4 0c3f c285 063e 1bf6 0a3f
000003d0: 6ce0 b23e b413 073e 74b8 a2be a518 b9be
000003e0: de69 8a3e 17da babe 817b 06bf e214 fa3e
000003f0: 0992 d53e 647d c8be 363f da3e 74ff 933d
-0.47151232 -0.1412817 -0.10252645 -0.4171822 -0.17965218 -0.074168384 -0.22706175 0.040614516
0.06260803 -0.15511045 -0.06246355 -0.11932638 -0.24805698 -0.08670217 0.22878852 0.2376996
-0.14731216 -0.3895326 -0.43939075 -0.14200851 -0.51516587 -0.08507252 0.22992574 0.20899002
-0.0953645 0.092646755 0.111940704 -0.51581717 -0.1130023 0.13573992 0.034371942 -0.011333078
0.19578913 0.17231071 0.058361262 0.0474768 -0.10002592 -0.24155426 0.044335246 0.21499357
0.18157727 -0.023310542 -0.006692052 0.24147236 -0.24973142 0.21951959 0.24438843 0.15765151
0.09998581 0.010309756 0.08668551 -0.12978974 -0.037960052 -0.16048795 0.030231953 -0.06679922
0.22298339 0.091519654 0.11602992 -0.16655684 -0.0028936267 0.21902472 0.10221183 -0.21813902
-0.1031445 0.14371648 0.1332658 0.035078883 -0.06810042 0.14588693 0.06917539 0.025336534
0.07705128 -0.14326009 -0.17319804 0.16137666 -0.13645303 -0.18162945 -0.20218775 0.19797483
0.10218185 0.10822737 0.18029079 -0.23481303 0.11521772 0.09571269 0.4432541 0.40807134
0.06571101 0.25986403 -0.05245171 0.21504015 0.2043232 -0.19486064 -0.021954954 0.20742181
0.2315863 -0.049689263 0.21872726 -0.20277846 0.0676589 0.32031626 0.43518373 0.5032611
0.40971234 0.18273379 -0.13518722 -0.07219317 0.46550694 0.029782195 0.1438396 0.07821514
-0.36752272 0.108856976 -0.1574483 0.1469862 -0.2847362 -0.18015997 -0.16803807 -0.1197176
0.1799309 -0.16172743 -0.12827551 0.010374457 0.011553884 0.17877749 -0.16312626 0.04516378
-0.15679294 -0.068264775 -0.04663387 -0.2728082 -0.044602647 0.5501623 -0.00068273046 0.18164666
0.065576725 0.25011635 0.081662014 0.3402044 -0.22123758 0.124964416 -0.4417034 -0.29368073
-0.4404359 -0.09007017 0.07352555 0.21823698 0.19733533 0.11181229 0.1580888 0.00024166703
-0.18679196 -0.10282746 -0.098326206 -0.10897812 -0.12645358 -0.5536378 -0.26325864 -0.46847576
-0.52783287 0.07766673 0.075428486 0.36375684 -0.32393464 0.4415541 0.50709105 -0.18602638
0.30116326 -0.023880886 0.60351837 0.28786385 0.2541956 0.26926613 -0.18767719 0.108327955
-0.074190445 0.10134676 -0.13314372 -0.063250214 -0.037274003 0.24033982 0.033038765 -0.20438063
0.19291967 0.51120317 0.71192676 0.49601674 0.26773325 -0.27033442 -0.6351563 -0.092540376
-0.096454024 0.17750297 0.015174017 0.29196057 -0.30173466 0.48738256 -0.16900189 -0.40503395
-0.5473181 -0.37303445 0.070397444 0.4059977 -0.30855697 -0.1039986 1.8511664 0.22500822
0.88672733 -0.13194767 -0.025119781 -0.057193577 -0.089025855 -0.3125406 -0.36564928 -0.31856805
0.07361506 -0.95501965 0.42833182 -0.43598455 -0.01915425 -0.4000548 0.11031535 0.25904486
0.08168196 0.09576732 0.33926988 0.46163565 0.16774383 0.4556213 0.19158214 0.056677043
0.18830615 -0.23921308 0.16237909 -0.07861853 0.08799714 0.18272832 0.03353563 -0.0041638613
0.10995838 0.54987234 0.13136962 0.5428178 0.34936845 0.1319111 -0.31781352 -0.36151615
0.27033895 -0.36494514 -0.525322 0.48844057 0.41712978 -0.39158165 0.4262635 0.07226458

weight_hh_l0 f4 [64, 16]
00000000: 81e1 f53d 2934 37be 253d eabd 6d5f 1ebe
00000010: ad60 223e aa6a ab3e 3c35 423e b608 da3e
00000020: c40a 24be 8d3b e1be 4d82 073e 5464 083e
00000030: 9289 d43e 22d2 bd3e b5fa 333e 6ae9 b0be
00000040: f619 483e 7a03 6c3e fe77 45be a8c8 2ebd
00000050: f054 ec3c 24c0 1f3e 3e50 64be c088 df3d
00000060: d0c4 a33c ae83 3c3e ca7f 5dbe 5ec4 4f3e
00000070: be54 3c3e 00ae 79bb dc38 8cbd c08e ff3d
00000080: 50c2 98bd 885a 5ebd 70a3 15be aee7 6d3e
00000090: c666 303e b85f 213d c081 9d3c 8af0 23be
000000a0: 38d5 4b3e e44c d93d bc8c a43d 5824 c23d
000000b0: cced 62be 8888 b2bd d407 2d3e e867 9fbd
000000c0: 207c 463e a4d0 1e3c 7744 053f ddea 0f3f
000000d0: 65f6 5cbe 2b56 92bd 6849 863d dfff dc3d
000000e0: 6566 9dbd a049 743e e289 26be 795c e6be
000000f0: 28ad 5e3e 9ca0 85bb 20d0 75bd 497e 233e
00000100: 5c58 d13c 39d1 2fbe 7758 2c3b 69f6 8abe
00000110: cb01 bb3e eafb 863e 447c 933d 792d c23d
00000120: ea63 88be 2dca 9cbd b64e 903e 8bd3 d63e
00000130: 20e4 083f 94a0 023f b578 e23c 42cc 37be
00000140: bfff 8e3e 5f36 cabe afe2 0ebf 97f5 76be
00000150: 7340 3b3e 0151 6e3e ba03 cd3e 1fc2 983e
00000160: 8f81 b9bc fe22 babe f570 0c3f 3904 e33e
00000170: f8ff afbd ac9f fa3c 58ba 4ebe 63eb a7bd
00000180: b323 86be 1656 193f 0640 1e3f 5cb7 0f3e
00000190: 6a2b 73bd 79bf 03bf 86cf 97be e1cd 8cbe
000001a0: a640 0c3c 922a 0a3f 3558 e6be bb47 8c3e
000001b0: a2db cebe df35 03bf fd16 abbd 4c32 86bd
000001c0: bb53 753e 6859 c3be 41d8 01bb f675 563e
000001d0: 575a 063f dbbc 0d3f e6e1 813e 9e4e 0a3e
000001e0: b692 89be 6f8d 81bf 32c5 8b3f 051a 613f
000001f0: 5ef8 df3d ad8f 9f3e 28a6 ca3d 6763 b1be
00000200: 1b2e ddbe e93b 9a3e 6b1f fc3e 56c8 003e
00000210: 1bc0 86bd a809 1ebe d011 8bbe 8690 c9bd
00000220: b867 b4bd 6890 e83d 9fdb ccbe 1b01 ccbd
00000230: f0ad c8be 5a5d 53be 37a1 33be 324e a73e
00000240: ca35 d43e bdda 893e 6de8 cc3e d501 513e
00000250: 8864 0fbe 7258 9abd 8f43 f7be 1d0f 79be
00000260: 1f33 8fbc 4081 dc3e b371 a6be 0199 c6be
00000270: 59b5 e2be 98ab f2be 2cef 023d 774a 013f
00000280: 8112 a2be b4d7 023f b296 953e e822 0a3e
00000290: 2924 62be c320 f4be cede c9bd e93e 8cbe
000002a0: 5c85 9c3e 3be5 cb3e b25f 3fbe f6dc fdbe
000002b0: 811b d1be c728 c9be f4db d6bb a2e0 d93e
000002c0: f43a dbbe 13a4 c83e d00b ad3e 7e6b e33d
000002d0: 9dba 37be 0f6e 9bbe 59cf f1be f378 82be
000002e0: bf09 463e a512 a23e f3d2 02bf 7205 e2bd
000002f0: d182 adbe 5e0b 9bbd 0b50 873d 0d8a b23d
00000300: bc7e 7ebe a014 1f3e 4c70 9dbd 52f9 1a3e
00000310: 6049 5a3d d425 d43d 8655 2d3e 2843 cb3d
00000320: 5ca0 5e3e 20e3 d0bc 3add 483e d25c 54be
00000330: 7ef6 75be acec 36be 840e c83d d4c1 74be
00000340: 7631 d13e 8715 62be 5422 f9be e636 03bf
00000350: 5d46 4d3e 8e75 303e 5527 493e 988f 893e
00000360: 331e 4cbd 30de e4be 346c 0f3e c316 bf3d
00000370: 641f b73e bccb 4b3e a273 4c3e f9b2 a7be
00000380: 451e 8b3e 1695 b9be 5a6d f3be b58e 2bbe
00000390: 4a08 883e 86b7 0c3e c0e2 8a3e d29e 793e
000003a0: 8c45 73be 5148 a3be 31fd 6c3e 93ff 6a3e
000003b0: f0cc cdbd 08ac 363e 7c2e 7d3e e703 8fbe
000003c0: 865e 0b3d 10d7 96be 00ae 03bf 34d9 53be
000003d0: c5ab a13e 1e49 da3e c7e7 403e 4633 283e
000003e0: ef52 dcbd cdf1 06bf b068 533e 862a 3d3e
000003f0: 86ba 003b ce35 9b3d 6505 5ebd 7853 e3be
0.12005902 -0.17890991 -0.11437444 -0.1546609 0.15857191 0.33479816 0.1896562 0.4258477
-0.16019732 -0.43990746 0.132333 0.13319522 0.41511208 0.3707438 0.17576106 -0.3455308
0.19541153 0.23048201 -0.19284055 -0.04267183 0.028849095 0.1560064 -0.22296235 0.10914755
0.019991308 0.18409607 -0.21630779 0.20289752 0.18391702 -0.0038098097 -0.068467826 0.12478399
-0.07458937 -0.054285556 -0.14613128 0.2323291 0.17226705 0.039397925 0.019226909 -0.16009727
0.19905555 0.10610369 0.080346555 0.09479588 -0.22161025 -0.087174475 0.16897517 -0.077834904
0.19383287 0.0096932985 0.52057594 0.5621775 -0.21578367 -0.071453415 0.0655697 0.10790991
-0.07685546 0.2385621 -0.16263536 -0.44992426 0.21745741 -0.004077984 -0.060012937 0.15966143
0.025554828 -0.17169656 0.0026297846 -0.2714112 0.36524805 0.2636407 0.07201436 0.094813295
-0.26638728 -0.076557495 0.28185052 0.4195827 0.5347309 0.5102627 0.027645448 -0.17949012
0.27929494 -0.39494607 -0.5581464 -0.24117123 0.18286304 0.23273088 0.40041906 0.29835603
-0.022644786 -0.36354822 0.5485986 0.4433916 -0.08593744 0.030593716 -0.20188272 -0.08199193
-0.2619911 0.5989698 0.6181644 0.1403479 -0.059367575 -0.5146404 -0.29650515 -0.27500823
0.008560335 0.5397121 -0.44989172 0.27398476 -0.40401942 -0.51254076 -0.08353994 -0.06552562
0.23957722 -0.3815415 -0.0019812735 0.20943436 0.524816 0.55366296 0.2536766 0.13506553
-0.26869744 -1.0121287 1.0919554 0.8793033 0.10936044 0.31164303 0.09894973 -0.3464615
-0.43199238 0.30123833 0.4924272 0.12576422 -0.0657961 -0.15433371 -0.27162027 -0.09842019
-0.08808845 0.11355668 -0.40011308 -0.09961148 -0.39195204 -0.2064108 -0.17541967 0.32676846
0.41447288 0.26924697 0.40021077 0.20410855 -0.14003193 -0.07536401 -0.4829373 -0.24322172
-0.017480431 0.4306736 -0.3250862 -0.38788608 -0.44278982 -0.4739654 0.031966373 0.5050425
-0.31654742 0.51110387 0.29216534 0.13489878 -0.22084107 -0.47681245 -0.0985695 -0.27391747
0.30570495 0.39823326 -0.18688849 -0.49582642 -0.40841296 -0.39288923 -0.006556982 0.42554194
-0.42818415 0.3918768 0.33798075 0.11104487 -0.17942281 -0.30357406 -0.47228506 -0.25482902
0.19339655 0.3165485 -0.5110313 -0.11036195 -0.33888867 -0.075705275 0.06607064 0.08717737
-0.24853033 0.15535212 -0.076874346 0.1513417 0.053292632 0.10358778 0.16927156 0.099249184
0.2174086 -0.025498927 0.19615641 -0.20738533 -0.2401981 -0.1786372 0.09768394 -0.23902065
0.40858048 -0.22078525 -0.48659003 -0.51255643 0.20046373 0.17232344 0.1964391 0.26867366
-0.049833488 -0.44700766 0.1400612 0.09330513 0.35766137 0.19901937 0.19965985 -0.32753733
0.2717153 -0.36246556 -0.47544366 -0.16753657 0.26568824 0.13741884 0.27126122 0.24376991
-0.23756999 -0.3189111 0.2314346 0.22949056 -0.10048854 0.17839062 0.24724764 -0.27932665
0.03402569 -0.29460955 -0.5143738 -0.20688325 0.31576362 0.4263391 0.18838416 0.1642581
-0.10758006 -0.5271271 0.20645404 0.18473253 0.0019642427 0.07578622 -0.054204363 -0.4439962

bias_ih_l0 f4 [64]
00000000: 61bc 02bf 92a0 1dbe 787c bc3d efd2 ac3e
00000010: 5591 19be 4987 bebe be53 293f b5c7 9fbe
00000020: e24e 843e cb99 463d a559 cf3e a8cc 083f
00000030: 84f0 43be b81f f4be 11a4 b0be 82aa 03bf
00000040: 0d50 c5be c232 693e 5c2c 9dbd ec4f 8f3e
00000050: 5663 b1bd 5809 3c3e 7c5e 923e addc a2be
00000060: e4b6 d03e ef4a ac3d 40e9 8b3e 9ca1 6c3e
00000070: 2039 203e 9562 43be d58e 5cbe ef8e 413d
00000080: f9d6 823d 807e 483e a042 a43c e1ba 983e
00000090: d584 f13e baf7 bebe a635 75be a9d1 ef3e
000000a0: 5d3a 333e cbc0 883e bb8b eebe 60a2 de3e
000000b0: 4683 133e 9756 e33d 7051 e3bd 1840 e73d
000000c0: f69d 79bd f38b 883d 03c1 c73e 0bf8 7f3e
000000d0: d9ee 29bf 0c63 9cbc 3d4c 3f3e 8bfa 8dbd
000000e0: 25f5 b23e d345 303e e427 e83e 2f11 f13c
000000f0: 3782 e1be 189c 02be 0a35 fdbe 7d23 00bf
-0.51068693 -0.15393284 0.09203428 0.3375468 -0.14996846 -0.3721259 0.66143405 -0.31207052
0.25841433 0.048486512 0.4049808 0.5343728 -0.19134718 -0.4768045 -0.34500173 -0.5143205
-0.38537636 0.22773269 -0.076744765 0.27990663 -0.08661525 0.1836294 0.2858771 -0.31808987
0.40764534 0.0841273 0.27326393 0.23108524 0.15646791 -0.19080575 -0.21538861 0.047255453
0.06388659 0.19579506 0.0200513 0.29830077 0.47171655 -0.37298375 -0.23946247 0.46839646
0.17502733 0.2670959 -0.4659098 0.43483257 0.14405546 0.111005 -0.11099517 0.11291522
-0.06094166 0.06667318 0.39014444 0.24996965 -0.6638008 -0.019090198 0.18681426 -0.06932553
0.34952655 0.17214136 0.45342934 0.02942714 -0.4404466 -0.12754858 -0.49454528 -0.5005415

bias_hh_l0 f4 [64]
00000000: ed11 5dbe 3871 5f3d 3676 67be 9507 a03e
00000010: e025 743d 7177 ddbe e13a 2b3f 8979 a4be
00000020: 5357 083f 81d6 003f c533 9a3e 0cf0 c53e
00000030: b440 14be 3099 0bbf ed6c 1bbe 7e8c 07bf
00000040: cc47 86be 7c69 a43d a0a3 933c cc3c 043f
00000050: 649c 6ebe 674a 823d aab2 463e 04bc 0ebf
00000060: bed5 293e 4280 6f3e 040d 4d3e 07d9 9f3e
00000070: c48a 213e 8575 04bf 777a aebd fa13 bf3e
00000080: d31d cd3e c0fc 1c3e 4cf4 a0bd 55fa f83e
00000090: 77a6 c33e 237a e7bd cfb7 f9bd 905d bb3e
000000a0: fcee 873e 2091 d73e 3457 d8be 54cd 343e
000000b0: 2ce5 363e 0050 c63e 70b2 1abe 98fa 0a3f
000000c0: 2288 95be a36e cd3e be30 3e3e 4eb8 2a3e
000000d0: 2aa9 26bf decb 473e 5d5f 29be 4adc f13d
000000e0: 8126 af3e ddb5 053f c1b2 223e 12e5 6dbd
000000f0: 0827 6abe 4d65 0bbe 6cab a0bd 0542 93be
-0.2158887 0.054551333 -0.22603688 0.31255785 0.059606433 -0.4325519 0.6688672 -0.32123974
0.53258246 0.50327307 0.30117622 0.38659704 -0.14477807 -0.5453062 -0.1517827 -0.5294875
-0.26226652 0.08027932 0.018022358 0.5165527 -0.23301846 0.06361847 0.19404092 -0.5575564
0.16585442 0.2338877 0.20024496 0.31220266 0.15775591 -0.5174182 -0.08519452 0.37319928
0.40061817 0.15330791 -0.07859096 0.48628488 0.3821294 -0.113025926 -0.12193262 0.3659482
0.26549518 0.4210291 -0.4225403 0.17656451 0.1786086 0.3873291 -0.15107131 0.54288626
-0.29205424 0.40123472 0.18573281 0.16671869 -0.65101874 0.19511363 -0.16540284 0.11809595
0.34209064 0.52230626 0.15888502 -0.058079787 -0.22866452 -0.13612862 -0.07845196 -0.28761306

weight f4 [28, 16]
00000000: 581d 293d 24ed 6b3e d03a 813c 484e ecbd
00000010: 8025 aabb 368d 5bbe 6867 3f3d 08a0 b53d
00000020: 5c32 5ebe 2613 5c3e 3000 723e 50ba 303d
00000030: 08ec 60be 920a 71be 80ee 2a3d 887f 37be
00000040: 60bf 133c d003 523d 20d4 72be 94af 40be
00000050: 8812 9f3d 6608 35be d0b5 2d3d 4ca8 2f3e
00000060: 9042 4fbe b82e e5bd 206c aa3c 0891 2f3d
00000070: 0ee0 01be 208f 28be 8065 efbc 58a3 18bd
00000080: 36ae 7ebe 1220 24be 343a 7f3e b0d1 85bd
00000090: 8005 bebc c475 4dbe 60f6 a9bc 9022 a23d
000000a0: 7e08 68be 50cb fe3c b893 e43d f0ca 3abe
000000b0: a44a 283e ae38 25be 08f0 42bd ba98 1abe
000000c0: 48c8 533d 30fa 04bd 0027 bc3a 9671 58be
000000d0: d83b 553e 68e5 abbd d0f3 61bd a05f 21bc
000000e0: 20d7 fbbc 58b6 323d 5e21 5c3e 0ad6 383e
000000f0: f645 623e 80d4 fc3c bc18 0fbe 2067 65bc
00000100: 8ce5 753e 8659 1d3e 1c13 cabd 684b 2fbe
00000110: 2434 283e 7a88 4c3e 8c2a 483e b8c3 70bd
00000120: 30a2 383e 560f 503e f24d 4b3e c451 763e
00000130: 042b 6bbe 7228 703e 3057 403e 7047 963d
00000140: ee3a 003e b02c da3c 1c7e 21be b865 e23d
00000150: 802c 46bb 969e 763e 1a34 00be 140d c93d
00000160: 0ae6 33be ee68 66be 824a 273e ee52 6a3e
00000170: d8cf 773e 80a6 afbc 009d 52bb 2043 0cbc
00000180: 540d 66be bc83 f43d ecbe 1bbe 7038 d5bc
00000190: 7479 cfbd a093 77be 5e82 193e c821 b23d
000001a0: b0ca 683d d0a7 073d d4cf 533e 1840 fe3d
000001b0: a0ad f53c 987c 1d3e 6451 6b3e 00dc bebb
000001c0: 3e03 603e ceaa 2dbe 1097 6cbe f628 123e
000001d0: d67e 41be e82c 09be f8b2 7a3e ead1 01be
000001e0: 180d be3d 0030 433e 00cb 5ebd 1a9e 1abe
000001f0: 1431 1cbe 682c 473d f4e9 453e dce6 1f3e
00000200: 8283 1fbe acc5 45be 2414 ebbd 1c51 c3bd
00000210: a014 a03d c030 edbd 0cbf a43d 1a74 23be
00000220: e428 693e b4a1 52be 0000 6dbc a008 d03d
00000230: 589d 503e 5263 7dbe 3e7c 60be c27c 453e
00000240: 20b5 6fbc e8eb cc3d fabb 303e 9cf2 4a3e
00000250: 608c 41be d06d 8dbd 749b 42be f09e 20be
00000260: d6c7 0e3e 7c0f 2c3e 1033 6e3d a885 c9bd
00000270: 96e8 06be 90ea 55bd 30c5 6b3d ac5a 133e
00000280: 6456 b33d 00dc fb3d 34ce f33d 7c1b a63d
00000290: 00f2 f73a 78db 7c3d dc32 d6bd 00c2 623d
000002a0: 7893 34be 7c47 47be 40d9 bcbd 9e87 33be
000002b0: 70ac fdbc 68ba 7b3e b4bc 103e 9003 043d
000002c0: 2c42 9dbd 20f7 dabd 50d5 833c 78cf 66bd
000002d0: 8807 25bd feea 4dbe dca3 1b3e c0d0 ac3c
000002e0: 50d1 bfbd 7862 043d e448 a1bd ac85 4abe
000002f0: c8a1 29bd 96b9 7fbe dc9c a5bd d837 a83d
00000300: 4002 49be 787a c03d 96dd 7e3e 20ea 813d
00000310: 3804 2fbe e0e6 b0bd 44f7 84bd f0be b4bc
00000320: 464c 3abe 8440 86bd 9ce7 983d 5448 6bbe
00000330: ec09 3cbe f456 f23d 6875 5fbd dcd3 06be
00000340: 0063 e23a e6d0 093e b28e 013e b87d 25bd
00000350: 4887 01bd 3074 f43d f81c 733e 341e fdbd
00000360: b41a aa3d 600a 45bd c24d 353e 380d 063e
00000370: ba86 53be e806 9ebd c8df 963d 46b6 3abe
00000380: 06ff 63be 0029 fb3c a2f6 25be 80f9 323c
00000390: 1280 3fbe d2ea 7bbe 6afd 7c3e ecda 3c3e
000003a0: 44b8 77be f2d7 723e 9832 9abd c497 f73d
000003b0: a8b0 3a3e b076 f13c 14c0 12be fc2a 3b3e
000003c0: c093 113d 004c 3dbd 00e7 6a3b 7c6c 09be
000003d0: f6eb 2bbe 6649 5dbe 945a 52be 6c57 c1bd
000003e0: 4027 263e 9803 733d 6c06 98bd f2f7 76be
000003f0: 4ef6 31be 64f2 7ebe 66d3 50be deae 023e
0.04128775 0.2303968 0.015775114 -0.115383685 -0.0051924586 -0.21440586 0.046729475 0.08868414
-0.21698898 0.2149168 0.23632884 0.04314643 -0.21965039 -0.23539189 0.041731358 -0.17919743
0.009017795 0.051273167 -0.23713732 -0.18816978 0.077672064 -0.17678985 0.042409718 0.17154044
-0.20240235 -0.111905515 0.020803511 0.042862922 -0.12683126 -0.16460848 -0.029223204 -0.03726515
-0.24871144 -0.16027859 0.24924546 -0.06534135 -0.023195982 -0.20064455 -0.020747364 0.079167485
-0.2265949 0.031102806 0.111609876 -0.18241477 0.16434723 -0.16134903 -0.047592193 -0.15097323
0.051704675 -0.03246516 0.0014354885 -0.2113708 0.2082361 -0.08393365 -0.05516416 -0.009849459
-0.030742228 0.043630928 0.21497104 0.180504 0.22097 0.030863047 -0.13974279 -0.014001638
0.24013346 0.15366182 -0.09866926 -0.17118609 0.1642614 0.19973937 0.1954748 -0.058780402
0.1803062 0.2031835 0.19853953 0.24054629 -0.22965628 0.23452929 0.1878326 0.07337844
0.1252248 0.026632637 -0.15770763 0.110545576 -0.0030238926 0.24083933 -0.12519875 0.098169476
-0.17568222 -0.22500965 0.16337016 0.22883198 0.2420038 -0.021441698 -0.0032137036 -0.008560926
-0.22466022 0.11939189 -0.1520955 -0.026027888 -0.10130587 -0.24177408 0.14991137 0.086978495
0.056833923 0.033119023 0.20684749 0.12414569 0.029990017 0.1537956 0.22980267 -0.005824566
0.21876237 -0.16959688 -0.23104501 0.14273438 -0.1889604 -0.13396037 0.24482334 -0.12677732
0.09279841 0.1906128 -0.054392815 -0.15099373 -0.15253097 0.048626333 0.19327527 0.1561541
-0.1557751 -0.19313687 -0.11478451 -0.09536955 0.07816434 -0.11581564 0.08044252 -0.15962258
0.22769505 -0.20569497 -0.014465332 0.10157895 0.20372522 -0.24744919 -0.21922395 0.19285873
-0.014630586 0.10005933 0.17259207 0.1981911 -0.18901205 -0.06905711 -0.19004613 -0.1568563
0.13943419 0.16802782 0.058154166 -0.09839946 -0.13174662 -0.05222565 0.0575611 0.14390057
0.08756712 0.12297821 0.119045645 0.08110711 0.0018916726 0.06173274 -0.104589194 0.055360794
-0.1763438 -0.19460863 -0.09221125 -0.17532203 -0.030966014 0.24582827 0.14134485 0.03222996
-0.07678637 -0.106916666 0.016092926 -0.0563502 -0.040290385 -0.20109174 0.15199226 0.021095634
-0.09366095 0.03232047 -0.07875231 -0.19777554 -0.041414052 -0.24973139 -0.08086559 0.08213776
-0.19629765 0.09398359 0.24889216 0.06343484 -0.17091453 -0.08637786 -0.06492475 -0.022063702
-0.18193159 -0.06555274 0.07466051 -0.2297681 -0.1836316 0.11832991 -0.054555327 -0.13166755
0.0017271936 0.13458595 0.1265209 -0.040403098 -0.031623155 0.119362235 0.2374152 -0.123592764
0.083058745 -0.048105597 0.17705444 0.1309098 -0.20656863 -0.07716161 0.07366902 -0.18233594
-0.22265252 0.030659199 -0.16207364 0.010923743 -0.18701199 -0.24601296 0.24706045 0.18442887
-0.24191386 0.23715189 -0.07529181 0.12089494 0.18231452 0.02947554 -0.14331084 0.18278116
0.035541296 -0.046215057 0.0035843253 -0.1342029 -0.1678923 -0.2161003 -0.20542365 -0.094405025
0.1622591 0.0593296 -0.074231 -0.24118021 -0.17379114 -0.24897152 -0.20393142 0.12762019

bias f4 [28]
00000000: c493 24be 2c7a 13be c443 f53d 5808 f8bd
00000010: d0ea 41be 8685 063e 88ef 193d 6443 4d3e
00000020: 30cc 9e3d 8c07 a33d 0849 f0bd 028d 44be
00000030: fa0b 0b3e 70f5 cbbc 10f0 eebd 96c8 4dbe
00000040: c0c9 fcbc f89a e4bd 9e86 413e 4e94 33be
00000050: 3286 3abe e056 6c3c 681a afbd dce5 62be
00000060: 5a1f 3a3e 1cbf 253e c2ff 7ebe 5858 a742
-0.16071993 -0.14402074 0.11975816 -0.121109664 -0.1893723 0.13136873 0.03758195 0.20045239
0.077537894 0.07960424 -0.117326796 -0.19194415 0.13578787 -0.024897307 -0.11666882 -0.20096049
-0.03085792 -0.111623704 0.18899009 -0.17537042 -0.18215254 0.0144250095 -0.085499585 -0.22157997
0.18176022 0.16186184 -0.24902251 83.67255
