js_park/saved_models/best_AF_6.pt (torch, 455911 bytes, 5 tensors)

weight f4 [168, 336]
000000 1d 44 86 be e6 bd 6e be 1a 1d 55 be 4c 03 19 be
       -0.2622384 -0.23314628 -0.20811883 -0.14942664
000010 23 fb e5 bd 84 fa 1d be 3b 21 24 be ef 4a 40 be
       -0.11229541 -0.15427595 -0.16028301 -0.18778585
000020 ef 7f 52 be 83 52 3f be 40 41 28 be 09 44 63 be
       -0.20556615 -0.1868382 -0.16431141 -0.22193922
000030 02 3f 5e be 2e 07 a7 be b5 ce 82 be 41 5a a2 be
       -0.21703723 -0.32622665 -0.2554833 -0.31709483
000040 1a cb 92 be 10 db 99 be 2e a5 97 be 3a 94 60 be
       -0.2867058 -0.30049944 -0.2961821 -0.21931544
000050 3d bd 8d be 70 b5 54 be 61 f2 67 be 41 00 76 be
       -0.2768344 -0.20772338 -0.22651054 -0.24023534
000060 a5 07 0f be 0d 15 14 be 65 9a a5 bd de ab f6 bd
       -0.1396776 -0.14461155 -0.08086089 -0.120445
000070 0a 8b b3 bd b6 ea da bd f6 8d 1d be 4d b3 df bd
       -0.08766754 -0.10689299 -0.15386185 -0.10922871
000080 c9 09 52 be 64 76 44 be f9 ea 34 be 2d e2 71 be
       -0.20511545 -0.19185787 -0.1766776 -0.23621435
000090 b9 63 71 be 9c 74 8d be b3 bf 95 be 7c e9 b1 be
       -0.23573197 -0.27628028 -0.29247817 -0.34748447
0000a0 ee 69 90 be 5c a0 8a be 14 6c a3 be c9 42 88 be
       -0.28205818 -0.2707547 -0.31918395 -0.26613453
0000b0 a0 d9 41 be 09 32 66 be 00 18 23 be f2 5d 9f bd
       -0.18930674 -0.22480024 -0.15927124 -0.077815905
0000c0 53 3b 5b bd 31 11 6b 3b 6b c2 b6 bd 14 11 cc bc
       -0.053523373 0.0035868401 -0.08923801 -0.024910487
0000d0 a4 ab 5c bd 0f b4 a4 bd ea bd e1 bd 05 50 f7 bd
       -0.053874627 -0.08042156 -0.11022551 -0.120758094
0000e0 b1 31 27 be 98 21 31 be 62 2c 10 be ca a2 4f be
       -0.1632755 -0.17297971 -0.1407943 -0.20276943
0000f0 df 9a 55 be 1e 7c 43 be 80 96 2d be 01 85 43 be
       -0.2085986 -0.19090316 -0.16951942 -0.19093706
000100 54 9f 39 be 76 66 72 be ce 27 3a be 96 ec 78 be
       -0.18127185 -0.23671898 -0.18179247 -0.24309
000110 70 76 74 be 04 f4 1d be 2f 90 fa bd 94 14 d3 bd
       -0.23873305 -0.15425116 -0.12234532 -0.10306659
000120 d9 bf 17 be 7f 82 22 be b7 94 fd bd c6 06 22 be
       -0.14819278 -0.15870093 -0.12381881 -0.15822896
000130 2c e1 a9 bd 41 5e 0c be 2e ca 83 bd 9f 56 74 bd
       -0.08294901 -0.1370783 -0.06435047 -0.05965292
000140 4b 29 fb bd ca 41 80 bd 55 71 00 be 32 6c 29 be
       -0.122637354 -0.06262548 -0.12543233 -0.1654518
000150 d8 05 2b be b0 a6 37 be 8f 82 45 be d0 2e 7d be
       -0.16701448 -0.1793468 -0.19288085 -0.24724889
000160 ef 3e 73 be 4b 79 8a be 3c 04 73 be 1f 3f 8f be
       -0.23754476 -0.27045664 -0.23732084 -0.27977845
000170 cf 0e 8a be 4d b4 2a be 44 7b 5d be 86 39 16 be
       -0.26964423 -0.16670342 -0.21629053 -0.14670381
000180 e2 2b 47 be 80 71 24 be 7a 6a dd bd 2d e3 b3 bd
       -0.19450334 -0.16058922 -0.108113244 -0.08783565
000190 ad 8c 29 bd 91 1f 8b bc 68 5c c3 bd 22 d9 71 bd
       -0.041393925 -0.016982825 -0.095391095 -0.059044965
0001a0 fd 31 9d bd f4 f4 77 bd d8 a7 e6 bd 81 91 5f bd
       -0.0767555 -0.06053634 -0.112624824 -0.054582123
0001b0 03 54 12 be 82 35 db bd a6 31 00 be 9a fd 6a be
       -0.1428986 -0.10703565 -0.1251894 -0.22948304
0001c0 49 d3 32 be df 96 89 be cf ed 65 be f8 d1 4c be
       -0.17463411 -0.26872918 -0.22453998 -0.20001972
0001d0 cc f9 88 be 79 22 61 be ad 38 1e be cd 06 a2 bd
       -0.2675308 -0.21985807 -0.15451308 -0.079114534
0001e0 c4 80 d1 bd 3b 62 e8 bc 7a 1f 71 bd d5 51 b6 3d
       -0.10229638 -0.028367152 -0.05886791 0.08902327
0001f0 47 43 a0 3d 8e 07 2b 3d 95 e7 22 3e 6f 34 fc 3d
       0.07825332 0.04175525 0.15908654 0.123146884
000200 ea cd 50 3e b7 3f 2b 3e ff d4 31 3e 02 b1 3b 3e
       0.2039105 0.16723524 0.17366408 0.18329242
000210 b2 1e 0a 3e d2 b4 bc 3d d7 77 0e 3d b1 cc 12 bc
       0.13488272 0.09214176 0.034782257 -0.008959935
000220 7b 88 25 bd 7f 45 21 bd 96 d1 e5 bd 7f c1 12 be
       -0.04041336 -0.039372917 -0.11221616 -0.14331625
000230 98 f5 fe bd b0 89 4e bd 44 73 28 bd 2b 12 15 bc
       -0.12449187 -0.050424278 -0.04112555 -0.00909857
000240 d6 9d 5c 3d d0 14 11 3c e3 a2 58 3d 54 78 84 3d
       0.05386146 0.00885506 0.052889716 0.06468263
000250 65 f4 77 3d bd 4b c7 3d d0 a6 a5 3d ee 42 cb 3d
       0.060535807 0.09731243 0.080884576 0.09924875
000260 74 8d c9 3d d8 fa 69 3d 71 62 cb 3d 19 21 f3 3d
       0.09841433 0.05712399 0.099308856 0.11871547
000270 86 89 fc 3d 5b 92 e7 3d a6 ea 60 3d 26 ee f3 3c
       0.12330918 0.11307212 0.05491128 0.029776644
000280 90 f7 bb 3d 9a 11 f7 3d a4 ae 03 3e e8 2d fe 3d
       0.09178078 0.12063904 0.12859589 0.124111
000290 40 bc f0 3d 52 16 0b 3e 30 62 58 3e b1 1f 72 3e
       0.11754656 0.13582733 0.21131206 0.23644902
0002a0 07 e7 88 3e 47 22 aa 3e f5 7f bd 3e 0e 6e d3 3e
       0.2673876 0.33229277 0.37011686 0.41294903
0002b0 37 c3 c5 3e 5a 50 c2 3e 25 21 bb 3e a3 43 cf 3e
       0.386255 0.37951928 0.36548725 0.4048129
0002c0 80 b8 ca 3e 0f 23 d0 3e 84 1e cb 3e 18 14 d5 3e
       0.39593887 0.40651748 0.3967172 0.41616893
0002d0 cd 60 d9 3e 94 97 9c 3e 60 64 89 3e 50 f3 54 3e
       0.42456666 0.30584395 0.26834393 0.20795941
0002e0 1b 85 3a 3e 8c 66 4a 3e a9 42 1c 3e 11 ea 09 3e
       0.18214838 0.19765681 0.15259804 0.13468195
0002f0 66 97 c5 3d 9a 55 90 3d 2b 2e 2d 3e 9a c6 22 3e
       0.096480176 0.07047577 0.16912143 0.15896073
000300 e4 21 69 3e 9f 52 83 3e fb ed 95 3e 2a ec b0 3e
       0.22766834 0.25648972 0.29283127 0.3455518
000310 9e 9c ab 3e 1b c4 d0 3e e1 4e fc 3e 89 f4 00 3f
       0.33517927 0.40774617 0.4927893 0.5037313
000320 02 42 f3 3e 61 e9 e2 3e ae 52 b5 3e 27 c3 e8 3e
       0.47511297 0.4431868 0.35414642 0.4546139
000330 28 85 cb 3e 30 70 c0 3e b1 f1 cf 3e 9d 38 de 3e
       0.39750028 0.37585592 0.40614083 0.43402568
000340 20 d7 a8 3e 8f 1d b8 3e 33 aa 9a 3e 13 a4 8c 3e
       0.32976627 0.3596005 0.30207977 0.2746893
000350 72 22 8c 3e 4d 4f c0 3e ba cd bd 3e ea 3a ae 3e
       0.2737003 0.37560502 0.3707102 0.34029323
000360 d8 ff b5 3e ed b2 b4 3e 63 ca b6 3e 41 85 cb 3e
       0.35546756 0.3529276 0.35701284 0.39750102
000370 7e 30 c7 3e cc 20 b0 3e e1 89 af 3e 98 ba 9e 3e
       0.38904184 0.34400022 0.3428488 0.31001735
000380 ac ee 9c 3e bb 27 b2 3e 33 6e 9a 3e 25 3f 8f 3e
       0.30650842 0.34795937 0.301622 0.27977863
000390 c0 6d 76 3e 88 3d 74 3e ab 47 a4 3e 48 df 9d 3e
       0.24065304 0.23851597 0.32085928 0.30834413
0003a0 ff 0a 87 3e d2 1f 93 3e 6e 1a 78 3e 3c 0d 7d 3e
       0.26375577 0.28735214 0.24228832 0.2471208
0003b0 66 3a 87 3e fe 34 94 3e 51 09 83 3e 30 b6 92 3e
       0.26411742 0.2894668 0.25593045 0.28654623
0003c0 f0 f9 c1 3e 36 f8 98 3e e0 83 c2 3e 5f d0 b6 3e
       0.37886 0.2987687 0.37991238 0.3570585
0003d0 92 22 d5 3e a2 88 c9 3e 74 bd e0 3e b3 84 de 3e
       0.41627938 0.39362055 0.4389454 0.43460616
0003e0 29 3b c9 3e f2 c5 da 3e 5c 96 dc 3e 28 d4 da 3e
       0.39302948 0.42729145 0.43083465 0.42739987
0003f0 50 bc b5 3e d0 28 98 3e 95 d4 a3 3e 7b 2e 9f 3e
       0.35495234 0.29718637 0.31998125 0.3109015

bias f4 [168]
000000 70 24 00 bf 9b 21 2d bf 17 40 5f bf 03 c8 7f bf
       -0.500556 -0.676294 -0.8720717 -0.9991457
000010 58 10 9b be 70 51 10 be f7 85 b7 be 4b d9 00 bf
       -0.30285907 -0.14093566 -0.35844395 -0.5033156
000020 42 60 71 be 1a 94 5c bf cf ec 8a bf a7 96 80 bf
       -0.23571876 -0.86163485 -1.0853518 -1.0045975
000030 85 68 69 bf ba 4c be be 35 95 f1 bd de 35 e6 be
       -0.9117511 -0.37167913 -0.11796037 -0.44962972
000040 38 3c 72 be 3c a1 2d bf cf df cc be cc 88 f2 be
       -0.23655784 -0.6782415 -0.40014502 -0.47369993
000050 7a f8 fc bd 03 a7 86 be a2 63 39 bf f1 59 f1 bd
       -0.12352081 -0.26299295 -0.7241765 -0.11784733
000060 7c f9 ac bd b9 d1 44 bf 7e 1e 91 be b6 f5 97 bf
       -0.08446023 -0.7688251 -0.28343576 -1.187186
000070 dd 8b c8 bd 08 91 9a bf 38 c3 a6 be 7d e5 61 be
       -0.09792302 -1.207551 -0.32570815 -0.22060199
000080 c6 8f ca be 2e 0d 57 bf 0b 3e 90 bf 2c e2 ae be
       -0.39562815 -0.84004486 -1.1268934 -0.3415693
000090 2f 77 32 bf 7c 9a 19 bf 14 4b 2b bf 09 e5 15 bf
       -0.6971311 -0.6000135 -0.66911435 -0.58552605
0000a0 e9 3b 40 be 0e 8b d1 be 8c bd 1b bf 84 70 1c bf
       -0.18772854 -0.40926403 -0.608361 -0.61109185
0000b0 92 6e b2 be 50 28 13 bf 2e 95 00 bf c3 0a a1 be
       -0.34849983 -0.57483387 -0.5022763 -0.31453523
0000c0 50 59 a4 be 82 2e 86 be 06 da bd be ac cb 36 bf
       -0.3209939 -0.26207358 -0.370804 -0.7140453
0000d0 54 40 83 be 1f f4 59 be e0 0e b8 be cc 2d 80 bd
       -0.25635016 -0.21284531 -0.3594885 -0.06258735
0000e0 05 63 8e be 13 5b 47 be 0d fe 7e bf 44 db 88 be
       -0.2780992 -0.19468336 -0.996064 -0.26729786
0000f0 77 49 f0 be f2 93 a6 be 71 79 f9 be ee db 88 bf
       -0.4693105 -0.32534748 -0.48725465 -1.0692117
000100 5e 89 76 bc 61 9b 1f be e2 d3 75 be d7 92 e1 be
       -0.015047399 -0.15586616 -0.24006608 -0.44057342
000110 0b b5 22 be 8c 5c 91 be a7 4b c5 be d0 4a 1e be
       -0.15889375 -0.2839092 -0.3853428 -0.15458226
000120 3a c9 e1 be ce 8a 7a be f3 6f 28 bf 3a 18 de be
       -0.44098836 -0.24467012 -0.6579582 -0.43377858
000130 9d a0 3c 3e 4c c9 0e be 83 c5 95 be f4 5a 45 bf
       0.18420644 -0.13943976 -0.29252252 -0.7709191
000140 4a 76 e5 bd db 1b 97 bf 5c 98 f3 be f1 55 90 be
       -0.112042025 -1.1805376 -0.47577178 -0.28190568
000150 76 1b 49 bf af fd 34 bf d9 63 86 be 87 dc 41 bf
       -0.7855753 -0.7069959 -0.26248053 -0.75727123
000160 b2 57 98 bd bf 97 38 bf cd e9 4b be 80 20 9a be
       -0.074386016 -0.72106546 -0.19913407 -0.3010292
000170 b0 a1 cb bd c0 a2 d5 be 65 d4 ef bc 71 b0 21 bf
       -0.09942949 -0.4172573 -0.029276082 -0.63159853
000180 75 88 0b bf 04 f0 0f be ca a4 a1 be 4c d1 a9 be
       -0.5450509 -0.14056402 -0.31571037 -0.33167493
000190 b5 92 25 be ab ce 72 be 0a 83 67 be 0b 36 92 be
       -0.16169246 -0.2371165 -0.22608581 -0.28556857
0001a0 de 09 61 bd 92 f7 d6 bd 36 01 57 be d7 40 a2 be
       -0.05494105 -0.10496439 -0.20996556 -0.31690094
0001b0 8b 12 24 be 07 1b 3d bf cb 36 95 be 65 e9 95 be
       -0.16022699 -0.73869365 -0.29143366 -0.29279628
0001c0 fc 80 b1 bc 1f 99 29 bf 5d d9 83 bf 76 85 8f bf
       -0.02166795 -0.6624927 -1.0300709 -1.1212604
0001d0 2b 55 d3 bd 96 d5 73 be 91 17 41 bd 1c 5c 38 bd
       -0.10318979 -0.23811945 -0.047141615 -0.045009717
0001e0 ea 8d aa be 71 20 1b be 9d b8 25 bf e0 d3 d5 bd
       -0.33311397 -0.15149094 -0.6473482 -0.104408026
0001f0 b0 c2 c7 bd 11 56 99 bd 4b 90 04 be 99 94 5b bd
       -0.097539306 -0.07487119 -0.12945668 -0.05360851
000200 f2 8d 26 bf 2f 85 7d 3d e1 56 95 be c9 90 a1 be
       -0.6506034 0.061894592 -0.29167846 -0.31555775
000210 40 20 3e 3b 08 26 86 be 53 26 0c bf 19 c0 07 bf
       0.0029010922 -0.2620089 -0.5474598 -0.5302749
000220 62 e8 42 be 55 e5 f4 bd 92 1b 31 bf c8 32 77 bf
       -0.1903396 -0.11957804 -0.69182694 -0.9656186
000230 d0 95 04 bf d7 b5 dc be ed 19 bb bd 5a 27 32 bf
       -0.51791096 -0.43107483 -0.09135804 -0.69591296
000240 36 60 94 3c b9 cb 13 be d5 d9 87 3d ce 14 47 be
       0.018112283 -0.14433183 0.06633345 -0.1944153
000250 75 d2 28 bf 1f 08 af be f3 12 51 bd c9 33 4d 3c
       -0.6594613 -0.34185883 -0.051043462 0.012524554
000260 86 8a d2 3d e7 1a 52 be fe 38 b4 bd 91 95 dd bd
       0.102803275 -0.20518075 -0.08799933 -0.10819543
000270 40 26 a6 3d c7 74 61 be bc ee 34 3e ac 9c ba 3d
       0.08112764 -0.22017203 0.17669195 0.09111914
000280 e0 30 fd be 89 1d 71 bd 31 18 44 bf 21 a6 48 bf
       -0.4945135 -0.058866058 -0.76599413 -0.7837849
000290 49 79 6a 3d 30 b8 1f be 18 6d c1 bd 3a 14 59 be
       0.057244573 -0.15597606 -0.09444636 -0.21199122

weight f4 [168, 336]
000000 dc 68 14 c0 2e c0 8e bf d1 a2 7f bf d3 82 80 bf
       -2.3189 -1.1152399 -0.99857813 -1.0039924
000010 9f 9d 31 bf 40 03 7e be 02 f0 b6 3d c4 6a 92 be
       -0.69381136 -0.24805927 0.089324966 -0.2859708
000020 55 ff a1 be 77 36 53 3d 6d 67 23 bd 33 92 1c 3e
       -0.31640115 0.051565614 -0.039893556 0.15290146
000030 9b 90 e6 3e 9c bc 18 3f ee e0 4f 3f a8 85 46 3f
       0.450322 0.59662795 0.8120259 0.77547693
000040 cc 09 1a 3f 9e 97 c8 3e 88 d3 23 3f 34 b6 90 3e
       0.601712 0.39178175 0.63994646 0.2826401
000050 0d e7 01 be 1f 05 4c bf b6 94 97 bf a0 d2 a0 bf
       -0.12685795 -0.79695314 -1.1842258 -1.2564278
000060 44 7e 6b bf d0 ff 0b bf 7a 72 48 bf a9 33 52 bf
       -0.9198954 -0.54687214 -0.7829968 -0.8211008
000070 dc dd 13 3e 2e 16 99 3d c8 03 89 3f 03 6e 7a bd
       0.14440101 0.074749336 1.0704279 -0.06114007
000080 03 ef b5 bd 8c 0e 82 3d 69 1a 3a 3f ad b1 12 3e
       -0.088834785 0.06350431 0.7269655 0.1432559
000090 99 6e 1b 3f 43 fe 55 3e ed 01 4e bb 1f ee 01 3f
       0.60715634 0.20897774 -0.0031434253 0.5075397
0000a0 71 d7 49 3f 5b 34 27 3f 9b 79 96 3f 52 2b 51 3f
       0.7884436 0.65314263 1.1755861 0.81706727
0000b0 07 62 1c be 1e d2 15 bf dd 64 ac bf 74 55 62 bf
       -0.1527177 -0.5852374 -1.3468281 -0.8841164
0000c0 87 7f 1c be 74 56 d7 3e a8 79 ba 3e 01 eb b9 3e
       -0.15283023 0.42058146 0.3642094 0.36312106
0000d0 ab 9e 1f 3d c2 89 6c be 10 c9 14 3f 2c ba 44 bd
       0.038969677 -0.23099425 0.581193 -0.04802911
0000e0 ec b2 4d 3e fb db 94 3a 54 52 d1 3e b9 1e 86 3e
       0.20087785 0.0011357063 0.40883124 0.26195315
0000f0 04 31 97 bc 8c dc a2 3e 94 35 a3 3d 85 9f 19 3f
       -0.01845599 0.3180889 0.079692036 0.6000903
000100 8f 50 14 3f ce 96 22 3f 6b 48 88 3f 8a c9 17 3f
       0.5793542 0.6351136 1.06471 0.592919
000110 f1 58 ba bd 1a aa 97 be 37 75 41 bf 47 98 41 bf
       -0.090989955 -0.29621965 -0.7556948 -0.7562298
000120 68 68 a7 bd 44 4f 2a bf 11 c5 97 be e3 c0 28 be
       -0.08174211 -0.665272 -0.29642537 -0.1647983
000130 ac a9 e1 3d 61 ff 22 be 0a b7 f9 3e 9c 17 38 bd
       0.110186905 -0.15917732 0.4877246 -0.04494439
000140 74 e5 d4 3d 82 96 ba 3e db 78 8d 3e 93 ca 0c 3e
       0.10395327 0.36442953 0.27631268 0.13749151
000150 71 78 ab 3e 34 9e 8f 3e 96 a6 54 3e d8 02 9e ba
       0.33490327 0.28050387 0.20766672 -0.0012055291
000160 ce c7 ad 3e 3f 96 06 3f fb 4f b0 3f b4 1e 52 3f
       0.339415 0.5257301 1.3774408 0.820781
000170 69 e1 93 be cf de 2b bf ab a2 b7 bf e6 02 f1 be
       -0.28882912 -0.67136854 -1.4346517 -0.47072524
000180 84 07 30 be ff c8 1d bf 11 b6 6c bf 49 83 53 bf
       -0.17190367 -0.6163482 -0.9246531 -0.826222
000190 e5 3d ea be 22 85 50 be 1f 4e b9 3d ab 90 46 bf
       -0.45750347 -0.20363286 0.090481035 -0.77564496
0001a0 3d bb 27 be 96 7d 8d 3e 19 f7 8d 3d 07 bf 59 3e
       -0.1638002 0.27634877 0.06931896 0.21264277
0001b0 4a 1d 19 3f 68 dc 25 3f 58 6f 4b 3f 87 75 89 3f
       0.59810317 0.6478944 0.7946677 1.0738991
0001c0 c0 b1 32 3f ba 25 86 3f bb 45 ac 3f 03 9b 18 3f
       0.69802475 1.0480263 1.345878 0.5961153
0001d0 df 64 c5 bd 9b 9b 47 bf 99 5b 9e bf 55 31 92 bf
       -0.0963838 -0.7797181 -1.2371703 -1.1421305
0001e0 31 b0 c0 3d 98 56 f8 be df a5 75 bf 06 31 9a bf
       0.09408606 -0.48503566 -0.95956224 -1.2046211
0001f0 67 9a 2d 3e 85 9c dd be 7e d6 92 3d 5c 59 82 be
       0.16953431 -0.43283477 0.071698174 -0.254588
000200 30 53 08 bf 1d 58 10 3f 1a 15 9c 3e 5f a4 fb 3e
       -0.53251934 0.5638445 0.3048485 0.49148843
000210 ab 6a f1 3e e5 25 16 3f 1d df 8e bd e2 5f 1d 3f
       0.47151694 0.5865157 -0.06976149 0.6147443
000220 2f 20 82 3e c1 54 6f be 53 cd be 3f 89 c3 3c 3f
       0.2541518 -0.23372175 1.490641 0.7373586
000230 93 f0 cd 3e c7 88 71 be 1d 47 39 bf d5 64 b4 be
       0.40222606 -0.23587333 -0.72374135 -0.3523318
000240 ca b7 d5 be 96 e3 3f bf 78 b2 d8 be 7f 8e 3c bf
       -0.41741782 -0.74956644 -0.4232366 -0.7365493
000250 69 f7 29 3e eb a6 5f 3d fe 46 00 3f 04 38 81 be
       0.16598286 0.054602545 0.50108325 -0.2523805
000260 68 1b 9b bd 11 30 68 3e 89 ba 36 3e fd c1 f3 3e
       -0.07573587 0.22674586 0.17844595 0.4760894
000270 a5 54 c6 bd 76 1d 46 3e f7 7a 8c 3e 67 ea 16 bd
       -0.096841134 0.19347176 0.27437565 -0.036844637
000280 a0 a6 ce 3e e0 91 87 3d 6b 12 36 3f 9c 92 09 3e
       0.403615 0.0661962 0.71121854 0.13434833
000290 2a f2 0d bd 4c 6c 09 bf b4 7f fd be 39 a0 40 3d
       -0.034654774 -0.5368087 -0.49511492 0.0470278
0002a0 32 5d bc 3d a2 4e 03 bf 5b df cf bc 3a a6 5d be
       0.09197463 -0.5129186 -0.025375059 -0.21645442
0002b0 8f 91 b7 be 45 e2 e4 3e 74 56 6d 3e 3a 3a 95 be
       -0.3585324 0.4470388 0.2317751 -0.29145986
0002c0 12 a2 70 3e a1 9b a8 be e2 15 13 be ee e1 2b 3e
       0.23499325 -0.32931235 -0.14363816 0.16785404
0002d0 5c e5 91 bd 3c 50 11 be be ba 3b be 2a cd d3 3e
       -0.07123825 -0.14190763 -0.18332955 0.41367465
0002e0 5d 92 1c bd 83 d1 c9 3e 70 05 2d 3f f7 fe dc 3e
       -0.03822552 0.39417657 0.6758642 0.43163273
0002f0 b7 84 c7 bd a8 bb a3 bc 28 4e 0c bf 6d c2 2e 3f
       -0.0974211 -0.019986942 -0.54806757 0.6826542
000300 8b 91 a0 3e 8e fe 17 bf e6 fd a3 bd 42 e8 da 3e
       0.3136104 -0.59372795 -0.08007412 0.42755324
000310 a1 8d 33 bf 0e 6b de be 92 2d 51 3e de ca 34 bf
       -0.70137984 -0.4344105 0.2042754 -0.7062205
000320 a3 fb 9e 3e 38 78 6f 3e 5e b1 c6 be 6c d8 d5 bd
       0.3105136 0.23385704 -0.38807195 -0.1044167
000330 59 dd 94 3e 4d cb 82 3e 98 0c a4 3e a1 7f 57 3f
       0.29075125 0.2554573 0.32040858 0.8417912
000340 34 fc c8 3e 05 14 b7 be 32 fa 59 3e b9 34 52 3d
       0.39254916 -0.3575746 0.21286848 0.05131981
000350 b4 10 37 3e e5 46 9f bd 77 47 29 3e f2 95 2b be
       0.17877465 -0.07777194 0.16531168 -0.16756418
000360 5e f9 13 3f cd 20 8d 3d da 7a 03 3f 49 79 35 3f
       0.5780238 0.06891022 0.5135933 0.7088819
000370 99 74 9d 3e b8 87 ee be 7e 9d 58 bd 4d bc 74 be
       0.3075302 -0.4658792 -0.05288457 -0.23899956
000380 d6 d2 bd be 0a 31 4d 3e 92 d5 9d 3e fd 98 0c 3e
       -0.37074918 0.20038238 0.30827004 0.13730235
000390 13 99 34 3e 5e 8d da 3e 5d 50 e8 3e 6f 26 87 3e
       0.17636518 0.4268598 0.45373812 0.2639651
0003a0 8b 45 d9 3e 75 ef 5f be ae 24 1c 3d cc 31 9c be
       0.4243587 -0.2186869 0.038120918 -0.30506742
0003b0 01 c1 cb 3e 41 69 7a 3e f2 ff d1 bc fb 94 83 be
       0.39795688 0.24454214 -0.02563474 -0.256996
0003c0 90 61 a2 be 64 41 b6 3e c8 81 44 bd e0 25 b7 be
       -0.3171506 0.35596764 -0.04797533 -0.35771084
0003d0 16 cd dd 3e bf 18 81 3e 46 f9 26 3f f2 bd 7a 3e
       0.4332053 0.25214192 0.6522411 0.24486521
0003e0 ce bb 25 3f f8 f6 3b be 90 f2 94 3e 55 0c 83 3e
       0.6473969 -0.1835593 0.2909131 0.25595346
0003f0 57 17 00 3f 3d 53 84 bd ec ca 09 3e bf cf dc 3d
       0.50035614 -0.06461189 0.13456315 0.10781812

bias f4 [168]
000000 3c 53 27 bf 88 52 1d bf 39 58 b3 be dd 51 93 be
       -0.6536138 -0.6145406 -0.35028246 -0.28773394
000010 a0 28 20 bf 4b 74 8f be 12 9f dc be 23 25 62 be
       -0.6256199 -0.28018412 -0.4309011 -0.22084479
000020 fe f2 1a bf 9a 2b 18 bf d1 15 68 be 21 57 c1 be
       -0.60527027 -0.5944153 -0.22664572 -0.37761787
000030 9d ca 1f bf 9b ef 98 be 83 ae c1 be 01 9e 24 bf
       -0.6241854 -0.29870304 -0.37828454 -0.64303595
000040 b7 60 cf be 71 fd cb be 61 40 97 be 7a a0 25 bf
       -0.40503475 -0.39841798 -0.29541305 -0.6469799
000050 66 f2 c7 be b6 e5 8e be 03 7b e1 be 51 46 8e be
       -0.39052123 -0.2790963 -0.44039163 -0.27788022
000060 09 25 8f be 4b 53 13 bf d5 1b c2 be aa bf ae be
       -0.27957943 -0.5754897 -0.3791186 -0.34130603
000070 0e 23 a3 be 1c 94 4d be 0f 44 a8 be 9b a7 a9 be
       -0.31862682 -0.2007603 -0.32864425 -0.33135685
000080 99 12 3e bf 8a 8b 0d bf 51 cf e1 be ca 77 b3 be
       -0.7424713 -0.55291045 -0.44103482 -0.3505233
000090 54 87 2c bf ca c1 95 be 8d 79 08 bf 69 d5 9f be
       -0.67393994 -0.29249412 -0.5331047 -0.31217507
0000a0 01 6f 9a be 6f fa bb be d2 16 9c be c5 77 a5 be
       -0.30162814 -0.36714503 -0.3048616 -0.3231794
0000b0 8d 70 08 bf e4 b5 87 be 61 03 96 be a1 03 8a be
       -0.5329674 -0.2650596 -0.29299453 -0.26955894
0000c0 b1 02 78 be af d2 9d be dd ea 57 be 28 a2 07 bf
       -0.24219777 -0.308248 -0.21085687 -0.52981806
0000d0 76 fd 85 be f5 b3 9d be e7 8f 0c bf 4e 31 6d be
       -0.26169938 -0.3080136 -0.5490708 -0.2316334
0000e0 bf 70 87 be 27 43 8e be 6e 53 9b be fa 22 4b be
       -0.26453206 -0.27785608 -0.3033709 -0.19837561
0000f0 22 fc 08 bf 67 59 0a bf 89 9a 6b be c5 4b 03 bf
       -0.53509724 -0.5404267 -0.23008169 -0.5128749
000100 e9 10 96 be 18 62 82 be ec dd 67 be 7a 96 84 be
       -0.29309776 -0.25465465 -0.2264325 -0.25896055
000110 ee bd 91 be 69 a5 a6 be 52 1c 65 be 0b 39 a4 be
       -0.28465217 -0.32548073 -0.22374085 -0.3207477
000120 55 cb 5d be 6a fc df be 77 f9 38 be 7a ef 8e be
       -0.21659596 -0.43747264 -0.18063913 -0.2791708
000130 8c 03 87 be d0 1a 81 be 65 12 bc be 8a 91 84 be
       -0.26369894 -0.2521577 -0.36732784 -0.25892287
000140 b1 8d 86 be 70 7a c1 be 68 23 ea be dc 0f 9b be
       -0.26279977 -0.37788725 -0.45730138 -0.30285537
000150 95 f0 0d bf 14 b2 75 be 01 dc 96 be 4f 25 7d be
       -0.55445224 -0.23993713 -0.29464725 -0.24721263
000160 2a f7 5c be fe 73 95 be 33 58 07 bf 52 f0 82 be
       -0.2157866 -0.29190058 -0.52868956 -0.25573975
000170 43 dc 87 be fc 97 84 be 14 ae 96 be c0 f0 79 be
       -0.26535234 -0.25897205 -0.29429686 -0.24408245
000180 12 f3 2b be f1 c2 4e be af e8 78 be da 23 4c be
       -0.16791943 -0.20191552 -0.24307512 -0.19935551
000190 d6 bd 7a be f4 42 93 be b7 50 bf be 25 7a 48 be
       -0.24486479 -0.2876202 -0.37366268 -0.19577844
0001a0 a0 1c 63 be 33 8b 4d be 27 d6 44 be 48 a9 6e be
       -0.22178888 -0.20072632 -0.19222318 -0.23306763
0001b0 56 47 77 be 60 88 05 bf 7e 19 dc be 28 a7 a6 be
       -0.24148306 -0.52161217 -0.429882 -0.32549405
0001c0 6f 2c f1 be 5b e0 35 bf f1 45 59 be 17 66 e9 be
       -0.47104213 -0.71045464 -0.21218087 -0.455857
0001d0 be ac 56 be 61 4f 5c be 63 8f 76 be 92 28 fe be
       -0.20964333 -0.21514656 -0.24078135 -0.49640328
0001e0 d0 bf 9e be e4 45 ab be 5e 43 7b be 79 35 66 be
       -0.31005716 -0.3345176 -0.24537417 -0.22481336
0001f0 20 81 90 be 0e 27 80 be 89 58 6b be 78 38 32 be
       -0.28223515 -0.25029796 -0.22982992 -0.17404354
000200 d0 3d 8c be 76 60 9d be b3 2c 59 be 7d e7 0b bf
       -0.2739091 -0.30737656 -0.21208458 -0.546501
000210 8b 79 6f be db 89 b6 be 71 0b b3 be a5 33 89 be
       -0.23386209 -0.3565205 -0.34969667 -0.26797214
000220 f4 5f 7a be 8a 4d 9a be 30 08 4e be c4 e7 61 be
       -0.24450666 -0.30137283 -0.20120311 -0.22061068
000230 fb 50 41 be 35 ce 0f be 84 2f 46 be 72 d2 53 be
       -0.18878548 -0.14043505 -0.19354063 -0.20685747
000240 cc 0f 48 bf 04 76 61 be dd c7 85 be ec a0 81 be
       -0.78149104 -0.22017676 -0.26129046 -0.25318086
000250 71 fc 5d be 4d 87 9a be 8f a8 51 be ca 08 85 be
       -0.2167833 -0.3018135 -0.20474456 -0.25983268
000260 ec 5a 81 be 58 ee 9b be c4 8c 60 be 99 cc 6e be
       -0.2526468 -0.3045528 -0.21928698 -0.23320235
000270 b8 a4 8e be 1a db 67 be 61 26 4c be 5f f7 4d be
       -0.27860045 -0.22642174 -0.19936515 -0.20113896
000280 5d 53 70 be 53 9f 6c be 8e fd 50 be cc 4e 65 be
       -0.234693 -0.23107652 -0.20409223 -0.2239334
000290 a9 97 4c bf a7 2b 7d be 9b 79 51 be 6a 64 d5 be
       -0.79918915 -0.24723683 -0.20456545 -0.41678172

weight f4 [1, 11]
000000 0b e6 fe 3c 74 00 f4 3d 1d f5 81 3d 0e 35 0e be
       0.031115552 0.11914149 0.0634558 -0.13887426
000010 33 da 59 3d 0a f7 14 3e b9 f3 55 3d e7 a4 e0 3d
       0.053186607 0.14547363 0.052234385 0.109689526
000020 6a 3b ee 3d 96 40 17 3f 09 c3 61 3e
       0.11632426 0.59082925 0.22047056
