js_park/saved_models/best_AF_N.pth (torch, 230183 bytes, 5 tensors)

weight f4 [168, 168]
000000 20 ca 66 bd 6f 88 90 bd 92 b2 ad bd 11 f0 e0 bc
       -0.056345105 -0.07057273 -0.08481325 -0.027458223
000010 45 8e 5b bd e9 ee 65 bc 96 9e 5e bd a8 11 04 bd
       -0.053602476 -0.014034011 -0.054350458 -0.0322434
000020 24 33 bd b8 fd cf 2e 3d 6f 02 32 3d 31 de 96 3c
       -9.021748e-05 0.04267882 0.043459352 0.018416496
000030 51 40 9f bd dc a1 78 bd 56 d0 99 bd 06 ca b7 bd
       -0.07775939 -0.060701236 -0.0751044 -0.0897408
000040 df 89 8b bc 70 f5 00 3c 8f 85 0d bd 04 05 70 3d
       -0.017033515 0.007871017 -0.0345512 0.058598533
000050 d7 b2 ec bc 71 d1 18 bc 38 74 a1 bd 01 dd a9 bc
       -0.028893871 -0.0093272785 -0.07883495 -0.020735266
000060 ba ed 64 bd 2f 2c 14 bd a9 ed 55 3d c4 f2 5b 3c
       -0.055890776 -0.03617495 0.052228604 0.013424579
000070 40 98 58 3d 0a 12 45 3d 5e 56 61 bd 06 52 82 3d
       0.052879572 0.048112907 -0.055014007 0.06363301
000080 43 72 6c 3d 86 98 8a bd e6 3d a4 3c 36 e8 82 bd
       0.057726156 -0.06767373 0.020049047 -0.06391947
000090 34 76 99 bb 18 56 72 bc aa 2d 22 bd 57 07 a8 bd
       -0.0046832804 -0.014791034 -0.03959433 -0.08204525
0000a0 10 f4 57 bc ba 90 32 bd 91 dc a8 bd e8 49 99 3c
       -0.013180748 -0.043595053 -0.08245195 0.018711999
0000b0 4d 79 9a bd d2 46 24 3d 4b 0b 50 bd 87 51 b9 3c
       -0.075426675 0.040106602 -0.05079202 0.022621883
0000c0 b5 13 ab bd ec 78 a6 bd 5f 58 83 3d 93 75 73 bd
       -0.08353368 -0.08128533 0.0641334 -0.0594383
0000d0 6f a7 6b bb 47 d7 06 3d 42 2d 53 3d ba d8 a7 3c
       -0.0035957952 0.03292015 0.051556833 0.020489085
0000e0 4c 56 74 bd bf 40 90 bd cb 5d 38 bc c3 9c cf bc
       -0.05965261 -0.07043599 -0.011252831 -0.025343304
0000f0 ba 07 9a 3c 6e 9c 1b 3d ad 31 69 bd 4b d0 6f bd
       0.018802512 0.03799098 -0.05693214 -0.058548253
000100 a2 6a 37 bc ff 2e 8c bd 63 0f a0 bd 8e 8e 10 3d
       -0.011194857 -0.06844901 -0.07815435 0.0352922
000110 e6 84 20 3c e7 65 a5 bd 8f 76 46 bd 6a 02 47 3c
       0.00979731 -0.08076077 -0.04845291 0.012146572
000120 62 48 29 bc 64 72 14 ba 65 87 00 3d ac ea 92 3c
       -0.010332199 -0.00056627975 0.031379122 0.017934166
000130 c4 39 4a bd 22 ef 0a 3c 67 08 f3 3c d1 83 7c 3d
       -0.049371496 0.008479865 0.029667092 0.061649147
000140 b7 32 59 bd a4 4d fd 3c 34 73 0a bd 1c a3 8c bc
       -0.05302688 0.030920811 -0.033801273 -0.01716762
000150 5f f8 2f bc 5a 2b 04 bd 61 e7 17 3c 49 65 1d 3d
       -0.010740369 -0.032267906 0.009271474 0.03842667
000160 35 59 71 3d 92 7f f4 3c 0a a0 1e bc 06 d1 53 3d
       0.058922965 0.029845987 -0.009681711 0.051713012
000170 30 a9 77 bb 1a 86 55 bd 0a 98 66 3d d4 21 85 3d
       -0.0037790053 -0.052129842 0.05629734 0.06500593
000180 cc bf 7f 3b fc f1 17 bd c2 5b f9 bc 86 03 87 bd
       0.0039024232 -0.03709601 -0.030439261 -0.06592469
000190 f7 a7 d7 3c c4 5f 71 3d 47 d3 24 bd cc 45 5a bd
       0.026325209 0.05892922 -0.040240552 -0.05328922
0001a0 0e 43 ec 3c 6b f5 61 bd ff e3 4c bd b8 f1 8e bd
       0.028840568 -0.05516569 -0.05002212 -0.06979698
0001b0 c5 8c 26 3d c5 68 1f 3d 81 31 53 bd 40 0d 2c bd
       0.040661592 0.038918275 -0.051560882 -0.042004824
0001c0 19 fc 50 bd a7 0a 6c bd 0b 59 9b bd 33 34 e9 3c
       -0.05102167 -0.057627346 -0.07585343 0.028467273
0001d0 91 11 7e 3d 12 f8 ac bd d6 cf d9 bc 10 cf 27 3d
       0.06202847 -0.08445753 -0.026588362 0.040968955
0001e0 8d 88 49 bd ac 2c a5 bd 38 be 2a bd fa f3 7d bd
       -0.04920249 -0.08065161 -0.041685313 -0.062000252
0001f0 92 d6 67 3d 03 e0 b6 3c ed 70 ca 3c ba 08 cc 3c
       0.056601115 0.022323614 0.02471205 0.024906505
000200 20 66 c9 bc ef 98 13 3d 46 7c 7a 3c 62 4f f8 bb
       -0.02458483 0.03603452 0.015288418 -0.0075778225
000210 55 9c 9d bd a2 1b 8f bd 7d ed 1c bd 81 9f 7c bd
       -0.076958336 -0.069876924 -0.038312424 -0.061675552
000220 1f 2b 43 3c 66 f5 79 3c 32 fd 35 3d a8 59 1c bd
       0.011912136 0.015256261 0.04443092 -0.03817144
000230 dc 52 58 bd 86 3b 6c bd ad 9a e4 3c 53 0a 66 3d
       -0.052813396 -0.057673953 0.027905786 0.05616219
000240 8e 1b 44 bd b1 d1 99 bd 47 8d a8 bd 24 0d 76 3d
       -0.04787784 -0.075106986 -0.082300715 0.060071126
000250 59 c1 3b bd db fe 42 3d fc ed 29 bd 3c fa 4c bb
       -0.045838688 0.04760633 -0.041486725 -0.003127708
000260 d7 fb 2e bd 21 11 61 3d b4 4a 97 3c 9e a1 6e 3c
       -0.042720642 0.054947976 0.018468238 0.0145649
000270 e6 3a 9c bd 7b b4 4c bc b4 b9 81 bd ae 58 aa bd
       -0.076284215 -0.012494202 -0.06334248 -0.083176956
000280 19 0e f7 bb eb 95 04 3d 2f fb 5f 3c f2 97 43 bd
       -0.0075395224 0.032369535 0.013670727 -0.04775233
000290 8a b3 2e 3b 5c c3 b9 bb 0c c5 aa bd b0 49 05 3d
       0.0026657307 -0.0056690406 -0.08338365 0.032540977
0002a0 83 6a b6 bc bf 3e 6c 3d ba 96 23 bd 9f df 92 3c
       -0.022267586 0.057677027 -0.039938666 0.017928896
0002b0 09 2f 0b bd b1 52 5a bc 9f 61 3d bc 0b 0d f3 bc
       -0.033980403 -0.013325379 -0.011558919 -0.029669305
0002c0 98 fd 92 bd 02 1e fd bc 20 40 fa 3b b4 bd d9 3c
       -0.071772754 -0.030898098 0.007637039 0.026579715
0002d0 cf 7f 32 bd fd 99 39 bb 30 20 a3 bd 68 e7 3c 3d
       -0.04357892 -0.0028320544 -0.07965124 0.046119124
0002e0 f8 d9 f1 bc 80 e5 0e 3d 84 63 92 bc 27 c1 b9 bd
       -0.02952288 0.034886837 -0.017869718 -0.09070044
0002f0 e6 40 4a 3c 10 a7 03 bd 5c 91 90 bd d2 b4 ff bc
       0.012344575 -0.032141745 -0.07058975 -0.031214152
000300 d0 8d 45 bd c1 d2 ed 3c 85 9d af bd f3 41 2c 3d
       -0.048230946 0.02903116 -0.08574966 0.04205508
000310 04 10 6c bd 1d 7c 56 bd 1a 2b ef bc c3 5c 11 3c
       -0.05763246 -0.052364457 -0.029195357 0.008872214
000320 c1 b1 72 3a 52 1f ae 3c ae 0d a9 bd d7 55 81 bd
       0.0009258055 0.021255169 -0.08254562 -0.06315201
000330 fa 35 da 3b ac c9 94 bd dc 44 14 3d 4b f6 91 bd
       0.0066592665 -0.07265028 0.036198482 -0.07127055
000340 02 a4 90 3c be ba 69 bd b8 ab b0 bd 89 61 e9 3b
       0.01765633 -0.057062857 -0.08626503 0.007122223
000350 fa 3d 85 3d f6 da 6e 3a 8f 8e ca 3c 81 1a 7c bc
       0.06505962 0.0009111607 0.02472618 -0.015387178
000360 19 ba cf bc 8c 9e 45 3a 90 32 98 3c 24 c0 d2 3c
       -0.025357293 0.0007538579 0.018578798 0.025726385
000370 3c ca 9f bd 72 ba 69 bd e8 72 26 bc a7 6f ac 3c
       -0.07802245 -0.057062574 -0.010159232 0.021049334
000380 83 46 c7 3c e2 06 9e bd 77 9d 90 bd f1 2f a3 bd
       0.024325615 -0.077161565 -0.07061284 -0.079681285
000390 4c e7 b2 3c 45 63 10 3c b0 10 96 bd f6 f3 c1 bc
       0.021838807 0.00881273 -0.07327402 -0.0236759
0003a0 b2 67 38 3d 1e 6e 03 bd d3 9e 79 3d cf 03 17 bc
       0.045020767 -0.032087438 0.060942482 -0.009217217
0003b0 f3 f4 6a 3c 6c 8c 11 bb 9a 1c c5 3c 91 fe ab 3c
       0.014340627 -0.0022208942 0.02406149 0.02099541
0003c0 cc a3 a0 bb 0a f3 71 3c ec 0d 80 bd 36 bc 0b bd
       -0.0049023386 0.014767418 -0.062526554 -0.03411504
0003d0 74 d1 79 3d 18 04 a7 ba f0 29 47 bd c6 63 0b 3d
       0.060990766 -0.0012742309 -0.04862398 0.0340307
0003e0 76 67 b2 3c 60 85 75 bd c5 ab 77 3d 7d b7 00 bd
       0.02177785 -0.05994165 0.060466547 -0.031424988
0003f0 51 bb 92 bc c4 38 34 bc be 8e 5d 3d 45 55 ad bc
       -0.017911585 -0.010999862 0.054091208 -0.021158824

bias f4 [168]
000000 3a 93 00 bb 9a b1 19 bd 85 ba 4c bc dc 42 0b 3d
       -0.0019619004 -0.03752289 -0.012495642 0.03399931
000010 ae d3 73 3d 13 ba 81 3c 67 2c 5e 3d 55 c0 88 bd
       0.059528045 0.015835797 0.054241564 -0.066773094
000020 54 dd 47 bd a3 83 25 3d ef e8 94 bd b7 fe 5e bd
       -0.04879506 0.04040874 -0.07270991 -0.054442134
000030 0d 21 13 bd 80 e6 22 bd 78 a1 74 3c a8 88 e5 bc
       -0.03592019 -0.039770603 0.014931075 -0.028019264
000040 39 06 59 3d 07 b7 90 bd 66 64 99 bb c8 e2 d5 3b
       0.05298445 -0.0706616 -0.004681158 0.0065272786
000050 a1 e6 a5 bd 8c 6f a0 bd 0e 07 8c bb ae 6d 84 3c
       -0.081006296 -0.07833776 -0.004273302 0.01616558
000060 4b 79 b9 bd 97 83 78 bd 9b be 1b bd ee 38 98 3c
       -0.09056338 -0.06067237 -0.038023572 0.018581834
000070 26 38 3b bb 34 19 cf bc 51 2a a3 bd 58 b3 ed bc
       -0.0028567403 -0.025280572 -0.079670556 -0.029016182
000080 d9 f9 b6 bd 09 a3 8b bd 14 8b ed bc 4a c3 37 3c
       -0.089343734 -0.06818206 -0.028996982 0.011215994
000090 3b 83 bd bd 02 ac cf 3c 5e 77 ac bd 1f 26 98 bc
       -0.09253546 0.025350574 -0.08421205 -0.018572865
0000a0 f0 8e 08 bd ba 9a 01 bd ed b7 09 3d 4c de 8e 3c
       -0.03333944 -0.0316417 0.03362267 0.017439984
0000b0 46 09 bd 3c c1 85 a5 bd e6 e8 57 3d f0 1c d4 bc
       0.023075711 -0.08082152 0.052712344 -0.025892705
0000c0 1b 8b 27 bc e1 f6 b1 bd d7 da 23 bd 06 bd e4 bb
       -0.010226036 -0.086896665 -0.040003624 -0.006980541
0000d0 10 60 3e 3d 1f e7 40 3d 74 b1 81 bd 61 a0 77 3c
       0.04647833 0.047095414 -0.063326746 0.015113921
0000e0 d4 59 fa bc 6f 96 c1 bc c2 82 32 bd 3c 3c 61 bc
       -0.030560412 -0.023631303 -0.04358173 -0.013747271
0000f0 7c 6d e6 3c 16 f6 94 bd 0b 16 ba bd 71 fa 92 3c
       0.028128378 -0.072735 -0.090862356 0.017941685
000100 cb 27 0b 3d 64 cc 18 3c b9 68 b7 bc fb 0b 76 bd
       0.033973496 0.009326074 -0.022388803 -0.06007002
000110 cd ff 47 bc 13 7b c0 3c 9b d8 19 bd b5 b2 18 bd
       -0.012206984 0.023496186 -0.037560087 -0.037279803
000120 38 02 ee 39 8b 48 4d bd 1b 8e ac bd 48 38 56 bd
       0.0004539655 -0.05011801 -0.08425542 -0.052299768
000130 e1 ad d7 bc 21 b3 06 bd 3e 8d 81 bc a2 bf 18 bc
       -0.02632803 -0.032885674 -0.01581442 -0.009323033
000140 8f 59 f8 bc e5 1e a6 3b 42 48 bd bd 74 7a 5e 3c
       -0.030316142 0.005069601 -0.09242298 0.013579
000150 2e 4a 43 3d e5 07 20 bc f4 f8 49 bb 94 92 67 bd
       0.047678165 -0.009767507 -0.0030818554 -0.056536272
000160 6a 25 c6 bc 65 c5 b2 bd ea c4 e5 3b 85 d9 0c 3d
       -0.024187762 -0.08729056 0.0070119994 0.03438713
000170 34 0a 84 bd 69 72 53 3d 12 2c c2 bb 4c 88 88 bd
       -0.064472586 0.051622782 -0.0059256637 -0.066666216
000180 a2 43 ae bb 1b 9a 77 bd 5e 03 98 b9 ca cd 1a 3a
       -0.005318121 -0.0604497 -0.00028994208 0.0005905299
000190 fb a4 aa bd 79 64 ab bd 72 80 3c 3d 72 d1 0c bd
       -0.08332249 -0.08368773 0.046020932 -0.03437943
0001a0 4e ad 0b bd 36 c8 fd 3c ab bb a9 bd 04 86 29 bd
       -0.034100823 0.030979257 -0.08287748 -0.041387573
0001b0 a1 be 11 3d 7f ad cf bc 49 d2 25 3d c8 e7 a7 bd
       0.03558219 -0.025351284 0.040483747 -0.08198506
0001c0 12 ac 42 3d 81 bf d7 3c bc 6d 53 3d eb 06 f8 3c
       0.04752738 0.026336433 0.051618323 0.030276736
0001d0 80 61 90 bb 2b d1 19 3d 37 93 b8 3c 20 7a ab 3b
       -0.004406154 0.037552994 0.022531135 0.0052330643
0001e0 37 d2 42 3d d6 ab 36 bd ce ba 9f bd b0 1f 63 3d
       0.047563758 -0.04459747 -0.07799302 0.05545014
0001f0 a0 16 d6 3a 5d 29 80 bd 7a 22 fb 3c 1b d2 a9 3b
       0.0016333647 -0.062578894 0.030656088 0.005182517
000200 07 b5 59 bd 3d 5e e4 bc 15 d7 02 3c eb a3 05 3d
       -0.053151157 -0.027876968 0.00798585 0.032627027
000210 59 c2 b4 3c 2d cf 9c 3c f3 60 9d bd b8 d8 5e 3d
       0.022065328 0.019141758 -0.07684507 0.054405898
000220 21 6e 5e 3d 4a c7 83 bd 3a 6b 76 bd ff 3b 83 3c
       0.054304246 -0.06434496 -0.060160853 0.01601982
000230 17 4a 83 bd 9b 72 46 3d b8 4f 7c bd 57 8f b7 bc
       -0.06410616 0.04844914 -0.061599463 -0.022407217
000240 66 a1 17 bd 1c e5 67 bd f5 c1 9a bd cf 3c c1 bd
       -0.037019156 -0.05661498 -0.075565256 -0.094354264
000250 54 6b e6 3b ef ca 66 3d d7 6a 80 3c 78 81 a3 bd
       0.0070318375 0.056345876 0.015675945 -0.079836786
000260 65 c1 51 bd 2c b7 aa bd 61 c7 40 3d ee cb 40 bd
       -0.051209826 -0.083357185 0.047065143 -0.047069483
000270 a6 e8 08 bd 1a a7 59 3b 70 75 81 bd 05 0f a7 bd
       -0.033424996 0.0033211173 -0.063212276 -0.081571616
000280 23 c4 2e 3c f3 f4 60 bd 46 e6 12 bd 7a d3 60 3d
       0.01066688 -0.0549211 -0.035864137 0.05488918
000290 85 8c 11 3d 8b 70 27 3d 1e e7 82 3a 02 54 94 bd
       0.0355344 0.040878814 0.0009987091 -0.07242586

weight f4 [168, 168]
000000 f7 79 0a bd b8 d8 5e bd 1f 01 8b bd c7 25 86 bd
       -0.03380772 -0.054405898 -0.06787323 -0.06550174
000010 74 02 41 bd 58 cf f5 3c fc 7f 6b 3d cc da 04 bd
       -0.04712148 0.030006096 0.057495102 -0.032435223
000020 3e bc 95 3d 1d 14 98 bc c1 6f cd bb a6 a8 4c 3d
       0.07311295 -0.018564278 -0.0062694256 0.049965523
000030 c5 4e f4 bc 8a 54 cd bc 7d d6 77 3d 39 62 1e 3c
       -0.029822716 -0.025064725 0.060507286 0.009666973
000040 c1 2b 6a bd b4 8d b3 bd e9 09 86 3c a2 80 66 b8
       -0.057170633 -0.08767262 0.016362147 -5.4956072e-05
000050 e7 dc 86 3d 9d a5 89 bd 03 fc 96 bd 77 80 57 bd
       0.065851025 -0.06721041 -0.07372286 -0.052612748
000060 36 ef 98 3d 0f 38 37 3c b5 3d 02 bb 25 24 58 3d
       0.07467501 0.011182799 -0.0019873206 0.052768845
000070 88 99 f4 3c c5 a3 e6 bb 56 8a 5e bc 00 a9 42 bc
       0.029858366 -0.007038566 -0.013582787 -0.011881113
000080 23 5a 08 bd a9 8b ac 3c df cf 53 bd 66 a8 be bc
       -0.033289086 0.021062689 -0.051711913 -0.023273658
000090 99 76 39 3c d6 34 d4 3b 39 76 3b bd 83 1f 79 3b
       0.01131978 0.006476025 -0.045767043 0.0038013167
0000a0 f1 f7 56 bd 2d dd 45 bd 89 7c 82 3d 4c 47 3f bc
       -0.05248255 -0.048306633 0.063714094 -0.011674713
0000b0 26 df 52 bd ed e9 6e 3d 4b 9c a5 3d 7c 0d 96 3d
       -0.051482342 0.058328558 0.08086451 0.07326791
0000c0 fc 52 4b bd b8 a6 af 3c ff df bd bc f6 2c f9 3b
       -0.049639687 0.021441802 -0.023178099 0.0076042367
0000d0 2f 07 ad 3d 66 81 82 3d da 92 35 bd 9a fb 8b 3d
       0.08448636 0.06372337 -0.0443295 0.068350986
0000e0 c5 be 5d bc 80 54 74 3d 9c 1d 48 bd 3a 7c 88 3d
       -0.0135342525 0.059650898 -0.048856363 0.06664319
0000f0 a4 f2 cb 3c 69 2c 83 3d 3b 54 25 3c 8d 6c 8c bc
       0.024895974 0.06404955 0.010090883 -0.017141605
000100 3c b0 da bb 62 ec 0d 3d 71 f3 bb bc 31 fb 74 3d
       -0.006673841 0.03464926 -0.02294323 0.059809867
000110 a1 6a 5f 3d a4 81 67 3d 90 e0 49 3b 9d 53 5d 3c
       0.05454505 0.05652012 0.0030804016 0.0135087045
000120 8d 19 a3 3d d7 ed 1f bd 1f 62 8f bc 94 1c 8a 3d
       0.07963858 -0.03904518 -0.017502842 0.06743732
000130 5e e4 0d 3d 0a 67 35 bd 38 87 dd bc 20 d4 f4 3c
       0.034641616 -0.04428772 -0.027042016 0.029886305
000140 5e 2b 88 bd c4 4f 29 3d c8 25 9e bc 32 56 50 3c
       -0.06648897 0.041335836 -0.019305125 0.012715863
000150 92 43 8a bc 47 65 8c bd fe 2f ce bc 1d 41 84 bd
       -0.016877923 -0.068552546 -0.025169369 -0.06457732
000160 04 82 22 3d 66 4b 6a bc 68 7e 7a 3d c8 a2 de bb
       0.039674774 -0.014300203 0.061155707 -0.0067943074
000170 0a 93 40 3d 4a 8b 96 3c c4 1e 3f 3d 5c 4b 9a 3d
       0.047015227 0.018376965 0.0466602 0.07533905
000180 6e 18 78 3d c4 8f 5a 3d 4b 00 8e 3d c8 58 b4 bc
       0.060570173 0.05335976 0.0693365 -0.02201499
000190 bd 27 c4 bc 21 00 8c 3d 3d 82 ac bb dc 43 9b 3d
       -0.02394473 0.06835962 -0.005264549 0.075813025
0001a0 de ee 88 b8 5f 5c 96 bc f8 65 fe bc f2 8c 80 3d
       -6.529478e-05 -0.018354593 -0.031054482 0.06276883
0001b0 13 dc 1e 3c 6d 03 e9 bc e5 de fd 3c ea a6 4d 3c
       0.0096960245 -0.028444016 0.030990073 0.012552002
0001c0 62 65 50 bc 45 9d 28 bd 8d c8 eb 38 1d cc 7f bd
       -0.012719484 -0.04116561 0.00011243029 -0.062450517
0001d0 b3 0e 4e 3d 80 82 df 36 69 45 1c 3d cc 96 f1 3a
       0.050306987 6.66111e-06 0.038152132 0.0018431782
0001e0 32 4f bd 3a d4 0d 38 3b bf 08 4d 3b 01 cd b2 3c
       0.0014443158 0.0028084414 0.003128573 0.02182627
0001f0 f2 9f 29 3d 16 0f 3b 3d e6 ba 8d 3d 59 d0 fd bb
       0.0414123 0.045668684 0.06920414 -0.0077457842
000200 42 4f 08 3d e3 8c 3e 3d 71 5b 5d bd e4 36 a9 bb
       0.03327871 0.04652108 -0.054042283 -0.005164014
000210 22 9b 2a bd 93 aa 28 3d 3c cd 6f bc 94 87 0b 3d
       -0.041651852 0.041178297 -0.014636334 0.034064844
000220 b2 1e 45 bd b1 8c 6a 3c de d0 89 bd e8 b0 09 bd
       -0.048124976 0.01431577 -0.067292914 -0.033615977
000230 37 e2 88 3d 1e ec 05 bd 7d 09 17 bd f3 6b 95 3c
       0.06683772 -0.032695882 -0.036874283 0.01823995
000240 51 1a 50 3c 84 59 89 bd e2 b3 82 3d 80 18 68 3d
       0.012701587 -0.06706527 0.06381966 0.05666399
000250 30 4d 14 bd 69 a6 8c 3d af b0 d4 bc 68 50 ae bc
       -0.036206424 0.06867678 -0.025963156 -0.021278575
000260 57 36 08 3d 1a b1 e6 bc 62 34 38 bd 25 9c 8f 3d
       0.033254948 -0.02816062 -0.04497183 0.07012204
000270 5c c2 66 bb a0 34 45 bd d9 64 01 bd 19 ad a6 bd
       -0.0035211062 -0.04814589 -0.031590316 -0.081384845
000280 a5 10 46 bd 56 4a 22 3d 1d 32 b2 3c fd 50 15 bd
       -0.048355717 0.039621674 0.021752411 -0.03645419
000290 61 bf 23 bc f3 57 ea b9 7d 27 8a 3d 9b 64 5e bd
       -0.009994359 -0.00044697485 0.06745813 -0.054295164
0002a0 13 b0 83 bd fe 6a 19 39 43 45 53 bb 99 1c 90 3d
       -0.06430068 0.00014631075 -0.0032237328 0.070367046
0002b0 28 e2 d4 bc 85 f9 5a bd 59 87 2a 3d ea c6 4a bd
       -0.025986746 -0.053460617 0.041632984 -0.049506105
0002c0 ed 4b ee 3c ff 46 63 bc 8f 71 1a 3c 21 f1 d0 bc
       0.029088939 -0.013871907 0.009426489 -0.025505604
0002d0 3e 98 0d 3d 33 1c 1a 3d ad bd 68 3d d0 1b 75 bd
       0.034569018 0.03762455 0.056821514 -0.059840977
0002e0 8f 9f e7 3c 26 1e 01 3d c5 66 09 3d b3 79 9a bd
       0.028274326 0.031522892 0.033545274 -0.075427435
0002f0 97 ab b1 3c 1c 8e 7b bd 4e f4 0d 3d 7f b5 43 3d
       0.021688266 -0.061414823 0.034656815 0.04778051
000300 69 1c 23 bd 7c 74 0a bd fa 2a 33 bc e8 8d 62 3d
       -0.039822016 -0.033802494 -0.010935539 0.055311114
000310 e0 89 f5 3c 55 b7 74 bd 4c 87 e1 ba 8c 16 80 3d
       0.02997297 -0.05974515 -0.0017206459 0.062543005
000320 68 2c af 3c 7e 6d ff bb 94 4f 80 bb b2 43 22 bd
       0.02138348 -0.007795035 -0.0039157365 -0.03961534
000330 79 9a a8 bd e2 55 65 3d b5 a9 30 3d 91 34 2b bc
       -0.08232588 0.055990107 0.043130595 -0.0104495445
000340 a5 21 d7 bc ad 32 03 3d e2 52 21 3d c9 7d 82 3d
       -0.02626116 0.03203075 0.039385684 0.06371648
000350 cf 91 f9 3c 32 12 a2 3c c0 06 43 3d 53 7b 92 3d
       0.030465035 0.019784067 0.04761386 0.071524285
000360 d4 7e 47 3d ee ab 36 3b 2c 24 5f 3c 98 e7 bc 3d
       0.048704937 0.0027873474 0.013619464 0.092238605
000370 d0 63 1f 39 ac 16 e6 3c e7 02 70 3c 4d b2 e3 bb
       0.00015200605 0.028086983 0.0146491295 -0.0069487453
000380 17 67 55 bd 8b 89 72 3d b2 54 85 3d 76 c5 6d 3c
       -0.052100267 0.059213202 0.06510295 0.01451241
000390 1a 28 83 bc 62 fe ac bd 9d 02 bb bd 50 c1 aa bd
       -0.016010333 -0.08446957 -0.09131358 -0.08337653
0003a0 73 19 06 3d 78 15 19 3d 39 79 8c bc 63 73 c7 3c
       0.032739114 0.03737399 -0.017147647 0.024347013
0003b0 ec a0 83 3d f9 ac 9a 3c d8 7c 99 bc 6a 3a 8d 3d
       0.06427178 0.018881308 -0.018736288 0.06895907
0003c0 17 d1 17 3c 4e 15 cb 3c 71 21 2a bd 6c e7 4c 3d
       0.0092661595 0.024790432 -0.0415358 0.05002539
0003d0 d9 65 93 3d ba 0f ab 3d e7 43 19 bd f0 b6 6c 3d
       0.0719716 0.08352609 -0.037418272 0.05779165
0003e0 bd d1 a6 3d 14 d2 a3 3d 27 06 95 3d d2 8b 5a bd
       0.08145473 0.079990536 0.07276564 -0.053356
0003f0 5e 8b 1d bc c9 71 10 3d 14 2c 4b 3d 4a 61 aa bd
       -0.009615747 0.035264764 0.049602583 -0.08319338

bias f4 [168]
000000 e5 23 61 3d 9a 82 83 3c 06 01 ef bc 94 e8 95 bc
       0.054965872 0.016053487 -0.029175293 -0.018299378
000010 3a 27 13 bd 26 66 be 3c 81 ec fe bc 00 86 78 bc
       -0.03592608 0.023242068 -0.031118633 -0.015168667
000020 1b e8 92 bc 44 3d 33 bd 57 1f f1 bc a3 e9 58 bd
       -0.017932942 -0.0437596 -0.02943389 -0.05295719
000030 24 01 d9 38 dc 1c 4a bd 6a e2 9e bd 34 bb 18 bd
       0.00010347579 -0.04934393 -0.07758029 -0.037287906
000040 87 23 05 3d db 9f 96 3c 58 e0 c4 bc 70 3f 3b bd
       0.032504585 0.018386772 -0.024032757 -0.045714796
000050 67 39 6d bd f4 e5 5f bd b1 16 19 bd d4 01 e4 3c
       -0.05791607 -0.05466266 -0.037375156 0.027832903
000060 48 b1 68 bd 16 85 1c 3d 05 4c 9f bb df ec 08 bc
       -0.056809694 0.03821286 -0.004861357 -0.008357256
000070 cb 15 53 3c fc f8 d4 3c 25 53 65 3c 9d c8 e1 ba
       0.012883614 0.025997631 0.013996874 -0.0017225925
000080 c0 97 b5 bd 22 c0 79 bd e3 5b c3 bc 8a 39 bc bc
       -0.08866835 -0.060974248 -0.023847526 -0.022976656
000090 ca 77 cd 3c ad e2 a9 bd be 23 fb 3c 2c 00 55 3d
       0.025081534 -0.08295188 0.030656692 0.052002117
0000a0 1f b9 6f 3d e0 dd 45 3c b5 77 62 3d 58 59 e2 bc
       0.058526155 0.012076825 0.055289943 -0.027630493
0000b0 88 78 2a 3d 09 c1 4b 3d be aa 2a bd 24 6c dd 3b
       0.041618854 0.04974464 -0.04166674 0.006757276
0000c0 6e 54 08 bd 70 94 f1 bc 27 58 53 bc 76 8c 49 3d
       -0.033283643 -0.029489726 -0.012899435 0.04920622
0000d0 ce 6a 53 3d 74 23 dc 3c 64 76 69 3d 3b c8 01 3d
       0.05161553 0.026872374 0.05699767 0.031685095
0000e0 de 19 9f bd 98 54 8c bd 3e f5 c9 bc 37 82 1f 3d
       -0.07768606 -0.068520725 -0.024653073 0.038942542
0000f0 f5 16 25 bd 48 4a 5b 3d fe fb b4 bc 0b b6 1b bd
       -0.040305097 0.053537637 -0.022092815 -0.038015407
000100 56 cc 38 3d 2a 81 a2 bd e0 dd 6e bd 4d 94 b3 bd
       0.045116745 -0.07934792 -0.058317065 -0.087685205
000110 2c 6f c7 3c dd 43 64 bd b9 da b6 bd 00 dc 3f 3d
       0.024345003 -0.055728782 -0.08928437 0.046840668
000120 00 01 d8 bb d6 aa 83 bd 54 9c 54 bc c6 06 0d bd
       -0.006591916 -0.06429069 -0.012976725 -0.034430288
000130 99 28 74 3c 24 dc 27 bd ee 66 b3 bd f2 59 77 bd
       0.014902257 -0.040981427 -0.08759867 -0.060388513
000140 bf 80 af 3c 32 af 87 bd 56 d5 9d 3c e4 00 56 3c
       0.021423696 -0.06625213 0.019266766 0.013061736
000150 98 46 8d bd b9 e2 e9 3a 17 4a b9 3b 38 d1 31 3d
       -0.0689823 0.0017844058 0.005654584 0.043412417
000160 28 68 25 bd cf bb b7 bd 76 41 a6 3c ff c0 be bd
       -0.040382534 -0.089713685 0.020294886 -0.09314155
000170 51 ee 47 bd 0e e0 53 bc 0a a6 c5 3c 1e fb 53 3c
       -0.04881126 -0.012931837 0.024127025 0.012938289
000180 da 26 f7 bc c0 13 b9 bd c2 b2 20 3c 38 41 ad bd
       -0.030169893 -0.0903697 0.009808244 -0.08459705
000190 07 ae 86 bd 4b 91 a1 bd 64 67 0f bd 6c be c7 ba
       -0.06576162 -0.078890406 -0.03501071 -0.0015239245
0001a0 e0 9e 39 bd 70 ad 62 3c de 1c b3 3c 32 0a 85 3b
       -0.04531753 0.013835296 0.02186435 0.0040600533
0001b0 8d 00 60 bb 94 c2 64 3d 55 18 13 3d db 92 40 bd
       -0.0034180016 0.055849627 0.035911877 -0.047015052
0001c0 19 1e 3c bd a4 56 a2 bc 70 03 15 bd 8b 6b f8 3c
       -0.04592714 -0.019816704 -0.03638023 0.030324718
0001d0 43 b4 85 3c b8 80 aa 3b 55 5b 75 bd 81 7a 86 bc
       0.016321307 0.0052033328 -0.059901554 -0.016415836
0001e0 26 dc 7d 3c b6 ce 8f 3c 60 5b 49 3d 8a 28 1e 3d
       0.015494382 0.017554622 0.049159408 0.03861288
0001f0 97 12 cd 3c aa 75 aa 3c b4 dd d9 3c f9 0a b0 bd
       0.025033278 0.02080806 0.026594974 -0.08595843
000200 c5 fc af bb b4 8d 8c bd 0a 45 f0 bc 4a 54 93 bd
       -0.0053707086 -0.06862965 -0.029329795 -0.07193811
000210 52 37 1b bd 30 40 52 3d f9 b1 8f ba 02 ca e5 3b
       -0.037894554 0.051330745 -0.0010963074 0.0070126066
000220 53 d0 92 bd a7 e4 6c bd c4 b6 4d 3d cf 07 3e 3d
       -0.07168641 -0.057835247 0.050223127 0.046394166
000230 8b 5d db bc fa a5 a7 bd 0f ae 53 3d 68 de ab bd
       -0.026778003 -0.081859544 0.051679667 -0.0839203
000240 d9 7a b8 3b 4f 14 e8 3c 9e 45 36 3d 32 b7 3f 39
       0.005629879 0.028329996 0.044499986 0.00018283425
000250 e0 8d 41 bd 3a 5c 0c 3c 9b b1 9f bc cd 80 23 bd
       -0.047254443 0.00856691 -0.019493869 -0.039917756
000260 d3 ea 95 ba 5a 12 1f 3d ff da 55 3d d1 09 b2 bd
       -0.0011437781 0.03883586 0.052210804 -0.086932786
000270 95 fc 3f 3d bf 4a 6f 3c 33 90 6f 3c 73 51 39 bd
       0.04687174 0.014605223 0.014621782 -0.04524369
000280 70 04 22 ba f8 97 3c 3b 8c 96 ab bd be 0a 51 bd
       -0.0006180471 0.0028777104 -0.08378324 -0.051035635
000290 30 84 37 3b 4a 38 02 3c 5b 47 f4 3c a0 d5 1a 3b
       0.0028002374 0.007947991 0.029819181 0.0023625866

weight f4 [1, 27]
000000 9e 43 10 be 9a d2 72 3d c7 c1 2b be 03 99 3b bd
       -0.14088294 0.059282877 -0.16773139 -0.04580022
000010 5f 35 8d bd 1c 82 39 3e 2e 53 0d 3e 01 83 27 be
       -0.06894945 0.18116039 0.13801262 -0.16358568
000020 d7 d7 1d bd f2 86 8f bd e2 a5 6e bd c2 d5 83 bd
       -0.03853592 -0.07008161 -0.058263667 -0.064372554
000030 ca a0 33 be 30 9e f7 bc 55 93 f3 bd 32 90 21 3e
       -0.17541805 -0.030226797 -0.11893336 0.15777662
000040 74 b3 e0 3a 05 98 6b bb 86 6c 16 bb ba b4 c9 bd
       0.0017143325 -0.0035948765 -0.0022952869 -0.09848924
000050 0a 71 34 be 31 e9 ce bd c6 52 22 3e d9 a4 4c 3e
       -0.17621246 -0.101030715 0.15851888 0.1998476
000060 82 b9 1f 3e 2b af 17 bd 4d 67 f7 bc
       0.1559811 -0.037032288 -0.030200625
