js_park/saved_models/best_AF_8.pt (torch, 455911 bytes, 5 tensors)

weight f4 [168, 336]
-0.011822433 -0.07055204 -0.054376643 0.02993721 -0.002670466 -0.016433287 0.034002054 -0.02350051
-0.034246497 -0.009197817 -0.04702609 0.024811331 0.03688454 -0.00021380359 0.011863481 -0.03039492
-0.0016715031 -0.029844651 0.01923073 -0.009772188 -0.025001649 0.03266075 -0.03994421 -0.07000899
0.000864263 0.029210398 -0.04464979 -0.044604897 -0.029253192 -0.0001713775 0.015864957 0.009711253
-0.012855975 2.0638869e-05 -0.02866221 -0.033784863 -0.045286216 0.026248425 0.02920382 0.023435617
-0.009561006 -0.051757183 0.0030508672 -0.0051020333 0.026782857 -0.06956973 0.014065011 -0.06377145
0.02358371 0.004231968 0.03349998 -0.028261993 -0.0022760276 -0.039094336 0.049378853 0.03843929
-0.005726808 0.055049777 0.06127762 -0.010903233 -0.010108411 0.06544637 0.045863423 0.060568936
-0.040377956 0.04487887 0.036892224 -0.0308291 0.0038288604 -0.0040589245 -0.005624844 0.03043916
-0.036659352 0.0147526935 -0.04487045 -0.037614126 0.018805152 0.0062794243 -0.015327285 -0.0287316
-0.0509173 0.028528268 0.033838626 0.014885752 -0.0484835 0.053215668 -0.028463136 0.007506009
0.022302482 -0.038419902 -0.029279456 0.03512925 -0.0027185853 -0.027848953 0.02156996 0.03287832
-0.030401377 -0.038575426 -0.02632247 0.033357516 -0.026902998 -0.02004 0.030664945 -0.02766248
0.02832078 -0.0004434779 -0.020606223 -0.038513776 0.011395589 -0.026410833 0.056143392 0.002116299
-0.03549504 0.042118564 -0.016546192 0.035144135 0.009832947 -0.018265858 -0.055024706 -0.011524883
-0.046378642 -0.00056614523 0.02907335 0.026363771 0.04829398 0.0011708429 -0.050977387 -0.038409915
-0.056578483 0.012527063 0.02239709 0.021663828 0.041407857 -0.0021948833 -0.027126847 0.046678286
-0.027349131 -0.03085944 0.024889147 -0.026371194 -0.056035835 0.0035323086 -0.0045824447 -0.03805757
-0.04102355 0.006079052 -0.060170107 0.016981518 0.040575806 -0.018677505 0.038396157 0.015417501
-0.038888853 0.012618557 0.04233788 -0.027552094 -0.023499303 -0.019906085 -0.030976338 0.05011931
-0.017770818 0.008194777 0.0016498468 -0.022406511 -0.046739135 -0.046764527 0.0056625586 -0.058625545
-0.031930976 -0.04166419 -0.009845811 -0.013638591 -0.028246624 -0.024779674 0.054567352 0.036844596
0.028793225 -0.010692557 0.023506409 0.024048477 -0.03540119 0.008085396 -0.0035882986 0.026428128
0.034968 0.040951233 -0.05051735 0.029914217 0.013994282 -0.016863864 -0.030967345 0.01729109
0.02102983 -0.042804662 -0.007954192 -0.053199347 -0.0019281234 0.021674972 -0.0064474433 0.014535068
-0.004646056 0.009021886 -0.036044516 -0.0013059624 -0.0031937724 0.014666274 -0.050463513 -0.014394667
0.04197605 0.007256809 0.04040595 -0.022497501 -0.034891237 -0.019232558 0.0097334245 0.010277069
0.050533548 0.038194705 0.05391 0.022317974 0.014410985 0.013062863 0.0024740896 -0.011735013
-0.009752759 0.046464954 0.019357232 0.020180766 0.030046422 0.028386945 -0.044815022 -0.035595898
0.0026261702 -0.0022171284 -0.041006632 0.0004069653 -0.028780544 0.037405893 0.043573353 0.038462292
0.020699728 0.007917079 -0.019551445 -0.01191443 0.05142126 -0.047700267 0.029405091 -0.021273807
0.0028370814 -0.05238014 -0.060940586 -0.0051331455 0.036072873 0.029157987 0.03125226 -0.009482779
00000000: e1b2 41bc 977d 90bd 0bba 5ebd e13e f53c
00000010: fc02 2fbb 1a9f 86bc bd45 0b3d 2484 c0bc
00000020: 0e46 0cbd 71b2 16bc 6e9e 40bd 2241 cb3c
00000030: 3e14 173d 7730 60b9 0c5f 423c c4fe f8bc
00000040: 5616 dbba c57c f4bc c489 9d3c 871b 20bc
00000050: 42d0 ccbc 47c7 053d 8a9c 23bd e060 8fbd
00000060: b58f 623a a54a ef3c b3e2 36bd a0b3 36bd
00000070: 64a4 efbc ccb3 33b9 3af7 813c f31b 1f3c
00000080: dea1 52bc a221 ad37 03cd eabc ff61 0abd
00000090: 0a7e 39bd f006 d73c d93c ef3c 0dfc bf3c
000000a0: c4a5 1cbc 57ff 53bd 0ff1 473b f52e a7bb
000000b0: b967 db3c 937a 8ebd ef70 663c 9b9a 82bd
000000c0: a032 c13c 52ac 8a3b 4637 093d b285 e7bc
000000d0: 6829 15bb 6221 20bd 7b41 4a3d 8472 1d3d
000000e0: f3a7 bbbb e07b 613d 3efe 7a3d 79a3 32bc
000000f0: c09d 25bc bf08 863d 49db 3b3d 2217 783d
00000100: 5b63 25bd e8d2 373d 4d1c 173d 4f8d fcbc
00000110: 9eed 7a3b ba00 85bb 9d50 b8bb 8c5b f93c
00000120: 1e28 16bd 48b5 713c 14ca 37bd 4511 1abd
00000130: 430d 9a3c a1c3 cd3b 4b1f 7bbc 885e ebbc
00000140: a98e 50bd 1db4 e93c 5f9a 0a3d 5fe3 733c
00000150: a296 46bd acf8 593d 862b e9bc f8f4 f53b
00000160: b2b3 b63c 305e 1dbd 78db efbc b0e3 0f3d
00000170: 4b2a 32bb 7d23 e4bc 7cb3 b03c 6bab 063d
00000180: 4f0c f9bc 4401 1ebd 38a2 d7bc e4a1 083d
00000190: ad63 dcbc ed2a a4bc 0d35 fb3c 6d9c e2bc
000001a0: fb00 e83c 9982 e8b9 62ce a8bc 9fc0 1dbd
000001b0: 91b4 3a3c 885b d8bc 9df6 653d 9bb1 0a3b
000001c0: 3f63 11bd 8484 2c3d e18b 87bc 4cf3 0f3d
000001d0: 5e1a 213c 48a2 95bc 9661 61bd ddd2 3cbc
000001e0: 88f7 3dbd 5d69 14ba 3c2b ee3c d6f8 d73c
000001f0: e9cf 453d f876 993a aacd 50bd b753 1dbd
00000200: d7be 67bd 4f3e 4d3c 1a7a b73c 5778 b13c
00000210: 499b 293d 08d8 0fbb 1f39 debc bb31 3f3d
00000220: 490b e0bc f0cc fcbc 53e4 cb3c 6708 d8bc
00000230: d585 65bd 4e7e 673b 5528 96bb 41e2 1bbd
00000240: 4f08 28bd c932 c73b ee74 76bd d31c 8b3c
00000250: d132 263d 9101 99bc 4a45 1d3d b099 7c3c
00000260: eb49 1fbd 10be 4e3c 7c6a 2d3d eeb4 e1bc
00000270: 9c81 c0bc 1612 a3bc 17c2 fdbc e849 4d3d
00000280: 1b94 91bc 6343 063c ac3f d83a dc8d b7bc
00000290: 8971 3fbd 298c 3fbd fc8c b93b 5721 70bd
000002a0: 0eca 02bd 12a8 2abd 5350 21bc 6674 5fbc
000002b0: 7765 e7bc befe cabc 0482 5f3d 5cea 163d
000002c0: c5df eb3c d62f 2fbc 8390 c03c 5001 c53c
000002d0: d700 11bd 9c78 043c a929 6bbb cd7f d83c
000002e0: 9b3a 0f3d 7bbc 273d 48eb 4ebd a90e f53c
000002f0: 4648 653c 1626 8abc 3baf fdbc 0ba6 8d3c
00000300: c046 ac3c f153 2fbd 4d52 02bc 8fe7 59bd
00000310: 16b9 fcba b68f b13c 1345 d3bb 7e24 6e3c
00000320: f13d 98bb 88d0 133c 6aa3 13bd d42c abba
00000330: 9c4e 51bb d04a 703c d4b2 4ebd 9cd7 6bbc
00000340: 14ef 2b3d 87ca ed3b b680 253d ae4c b8bc
00000350: 1dea 0ebd 998d 9dbc f178 1f3c 2761 283c
00000360: 44fc 4e3d 0d72 1c3d bbd0 5c3d 2fd4 b63c
00000370: 0d1c 6c3c 9e05 563c 5624 223b 3644 40bc
00000380: 09ca 1fbc 0952 3e3d 0f93 9e3c 2252 a53c
00000390: ea23 f63c bd8b e83c f58f 37bd 01cd 11bd
000003a0: d31b 2c3b 3e4d 11bb 92f6 27bd f55d d539
000003b0: 2dc5 ebbc ec36 193d f979 323d a38a 1d3d
000003c0: 7a92 a93c a3b6 013c 5a2a a0bc be34 43bc
000003d0: 199f 523d 5b61 43bd f2e2 f03c 6846 aebc
000003e0: 54ee 393b 8f8c 56bd d69c 79bd f233 a8bb
000003f0: 26c1 133d bbdc ee3c 5f02 003d a85d 1bbc

bias f4 [168]
-0.1591511 -0.15355231 -0.17857899 -0.1509256 -0.17822191 -0.18605953 -0.21850576 -0.18017402
-0.18806675 -0.18877004 -0.21291769 -0.17909573 -0.16862392 -0.15376744 -0.1411036 -0.19994988
-0.21903284 -0.22353658 -0.1605294 -0.20697394 -0.18142737 -0.19070075 -0.20553955 -0.1977622
-0.21228278 -0.16526812 -0.18792936 -0.13990663 -0.22752085 -0.14959669 -0.23515621 -0.21097246
-0.19658622 -0.2427336 -0.18902993 -0.18630761 -0.1981786 -0.19268766 -0.20909554 -0.19079421
-0.1966843 -0.15050355 -0.17691912 -0.23347868 -0.1741047 -0.2398007 -0.23799384 -0.22400248
-0.16624361 -0.21945095 -0.20509939 -0.15743986 -0.23017949 -0.19415693 -0.22880937 -0.25646466
-0.18109542 -0.21311648 -0.2523812 -0.1728528 -0.1565176 -0.22265656 -0.19644073 -0.17810924
-0.19335774 -0.20940953 -0.17655417 -0.19091861 -0.20805871 -0.21913475 -0.21092793 -0.20333873
-0.2002911 -0.1987784 -0.17902155 -0.1975314 -0.23244417 -0.19717725 -0.16639097 -0.23386809
-0.19535424 -0.20783572 -0.17447053 -0.1570154 -0.18264693 -0.22221601 -0.17670965 -0.1500427
-0.23251502 -0.179986 -0.23692288 -0.22203106 -0.19978154 -0.23729277 -0.23322958 -0.2513467
-0.24791692 -0.2537274 -0.18138413 -0.16191767 -0.2121182 -0.16042519 -0.19431357 -0.17781366
-0.16477944 -0.18204728 -0.2258269 -0.1759534 -0.19857721 -0.16641529 -0.22735962 -0.21891357
-0.17388573 -0.17636739 -0.18013959 -0.25015718 -0.17690977 -0.23064895 -0.2520173 -0.22664535
-0.1622246 -0.20504905 -0.19665654 -0.20092705 -0.23683146 -0.23794734 -0.24332312 -0.20175691
-0.1733137 -0.2575564 -0.22446053 -0.21565403 -0.20577694 -0.19570771 -0.21844476 -0.20367487
-0.18161984 -0.2144908 -0.18205675 -0.24726765 -0.2853237 -0.2367801 -0.297879 -0.22246286
-0.18585314 -0.14971101 -0.19590546 -0.2727472 -0.2196038 -0.21994083 -0.22435337 -0.20769186
-0.21292078 -0.22401498 -0.17356434 -0.24677475 -0.25348258 -0.19999216 -0.16237381 -0.17529093
-0.21752115 -0.24381642 -0.2278964 -0.2125157 -0.22513722 -0.20966367 -0.25466853 -0.2152942
00000000: 82f8 22be d13c 1dbe 69dd 36be 3e8c 1abe
00000010: ce7f 36be 6486 3ebe f9bf 5fbe 8a7f 38be
00000020: 9294 40be ef4c 41be 1807 5abe df64 37be
00000030: c0ab 2cbe 3675 1dbe 767d 10be a9bf 4cbe
00000040: 254a 60be c6e6 64be d261 24be faf0 53be
00000050: 19c8 39be 0f47 43be f678 52be 2d82 4abe
00000060: a860 59be 0c3c 29be 8e70 40be af43 0fbe
00000070: 3afb 68be e02f 19be cacc 70be 2a09 58be
00000080: e64d 49be 288f 78be 1091 41be 6cc7 3ebe
00000090: 55ef 4abe ea4f 45be 241d 56be 8f5f 43be
000000a0: 9c67 49be 9a1d 1abe 492a 35be 0915 6fbe
000000b0: 8148 32be 518e 75be a8b4 73be e860 65be
000000c0: c43b 2abe c0b7 60be 9305 52be ea37 21be
000000d0: 2cb4 6bbe 13d1 46be 014d 6abe 564f 83be
000000e0: 1471 39be 353b 5abe 1c38 81be 5300 31be
000000f0: 2646 20be 1500 64be c227 49be 4562 36be
00000100: 92ff 45be 746f 56be 9eca 34be 2b80 43be
00000110: 580d 55be dc64 60be 7efd 57be 0738 50be
00000120: 1c19 4dbe 918c 4bbe 6d51 37be ac45 4abe
00000130: d805 6ebe d5e8 49be 6562 2abe 1e7b 6fbe
00000140: f10a 48be e3d2 54be 67a8 32be a5c8 20be
00000150: cc07 3bbe 988c 63be 60f3 34be cba4 19be
00000160: 6b18 6ebe 404e 38be e99b 72be 1c5c 63be
00000170: 8893 4cbe e0fc 72be bcd3 6ebe 84b0 80be
00000180: efdd 7dbe 8fe8 81be c3bc 39be bfcd 25be
00000190: 8335 59be 8046 24be 23fa 46be c914 36be
000001a0: f1bb 28be 9a6a 3abe 2b3f 67be 212d 34be
000001b0: d357 4bbe c568 2abe f6d0 68be e12a 60be
000001c0: 1a0f 32be a799 34be 8376 38be 9a14 80be
000001d0: d627 35be 3d2f 6cbe 6908 81be b815 68be
000001e0: 351e 26be 61f8 51be 5560 49be d2bf 4dbe
000001f0: f283 72be 78a8 73be b229 79be 5d99 4ebe
00000200: 2679 31be 6fde 83be fbd8 65be 69d4 5cbe
00000210: 31b7 52be 9a67 48be fcaf 5fbe 2590 50be
00000220: 8dfa 39be 7aa3 5bbe 166d 3abe bb33 7dbe
00000230: f315 92be 7c76 72be 9983 98be 4ecd 63be
00000240: 4950 3ebe d84d 19be 719b 48be 85a5 8bbe
00000250: d2df 60be 2b38 61be e4bc 65be 2dad 54be
00000260: e807 5abe 2f64 65be daba 31be 85b2 7cbe
00000270: 78c8 81be bfca 4cbe 5245 26be 777f 33be
00000280: ddbd 5ebe 03ab 79be ad5d 69be b79d 59be
00000290: 5f8a 66be 13b2 56be ea63 82be 1576 5cbe

weight f4 [168, 336]
0.018210597 0.022113653 -0.028753815 -0.06489486 0.031923935 -0.037063245 -0.0541666 -0.021582773
0.006369521 0.039125964 0.038901616 0.06450865 -0.010651456 0.07698652 -0.008852143 0.039008226
-0.0005710455 0.015543415 0.025029676 -2.120348e-05 -7.220305e-05 -0.02067408 -0.058091342 -0.06301918
-0.02557697 -0.07020922 -0.033770755 -0.05708709 -0.011489273 -0.033719193 -0.02473981 0.018593337
-0.038994264 -0.038976185 0.011129795 -0.023317758 -0.0023732772 -0.0058294614 0.038661595 -0.016143728
-0.015478957 -0.051994078 0.05652874 -0.026994083 0.06272157 -0.054717574 0.043315623 -0.029307377
0.009160409 -0.06518657 -0.025466543 0.0008537656 -0.031112958 -0.041458827 -0.03708891 0.036581878
0.039691236 0.018210031 0.005461201 0.038809665 0.028653586 0.05404789 -0.031243477 -0.03295126
0.017822681 -0.0020442621 -0.0051187044 -0.04377755 -0.025526764 0.03366751 0.009515971 0.0029826257
-0.010439286 -0.044346455 -0.02103255 -0.008954862 0.04970276 0.035250437 0.04689116 0.07357173
-0.009594297 0.026555423 -0.014879223 0.0454714 0.008149837 -0.01891531 -0.036614332 -0.029120954
-0.05001464 0.013355883 0.0018588697 -0.0007136547 0.03868626 0.0085126255 -0.032620188 0.021159375
-0.04684815 -0.0058985227 -0.056726918 0.006389306 -0.07747989 0.0045619756 0.053420197 -0.033636123
-0.03119356 0.004294648 0.0035735767 0.0205365 0.057624433 0.00979762 0.060822677 0.007958972
0.06551266 -0.024053458 0.037760373 0.028516637 -0.007458147 0.010058446 -0.059621442 -0.032663334
-0.08096297 0.009845739 -0.035479072 0.036197454 0.041797597 0.05187348 0.03298063 0.017713217
0.0065888786 0.04223068 0.042551722 0.019938465 0.007464124 0.052931327 0.0040420997 0.050770454
0.020031609 0.02848714 0.0053611095 0.03951652 0.07013645 0.0016718368 -0.01703553 -0.028283061
-0.011499059 -0.04593743 -0.022394594 0.0064063836 0.035287593 0.022481434 0.037853174 0.03857691
0.017513415 0.023549352 0.053040594 0.027403606 0.030983618 0.036295876 0.0023515108 0.05098401
0.011920058 0.010390209 -0.024678128 0.0038777702 0.0025205126 -0.020507967 -0.06787085 -0.07608518
-0.07792892 -0.050348014 -0.06500842 -0.044657644 -0.029132687 0.013528116 0.058380093 0.0668816
-0.015750004 0.007970125 -0.0039088796 0.04957127 0.023580283 0.07531694 -0.054933816 -0.050136484
0.021516869 0.030264126 0.053484272 0.042302445 -0.018108338 0.029403606 0.024518859 0.009056951
-0.018375421 -0.0074682925 -0.03751093 -0.054449536 -0.018875595 -0.035798542 0.020576956 0.01704711
0.06999409 -0.0046197404 0.047249667 -0.02870643 -0.0008345234 0.020768091 0.00771315 0.013565214
-0.004627548 0.053793307 0.06267135 -0.0045234757 -0.025088146 -0.011718775 -0.036620677 -0.01729362
-0.04562493 -0.050539058 -0.028017461 -0.03524238 -0.005837132 -0.06999735 0.008840408 -0.011314317
-0.05747457 -0.0231541 -0.009221303 -0.01425477 0.067892075 -0.026229631 0.004007555 0.0018882668
-0.011658624 0.051959343 0.018379014 -0.02712398 0.002184773 -0.014568573 -0.012688004 0.02387117
-0.040980615 -0.0011484507 -0.00614585 -0.0057826512 -0.0371225 -0.0027505597 -0.032752242 -0.025921524
-0.04016907 0.0794387 0.09832455 -0.0077364747 0.029312946 0.02528847 -0.028625315 0.0021522203
00000000: 642e 953c b127 b53c 1f8d ebbc 99e7 84bd
00000010: acc2 023d a1cf 17bd ccdd 5dbd 5bce b0bc
00000020: 6ab7 d03b 8c42 203d 4d57 1f3d 1c1d 843d
00000030: 7283 2ebc 1cab 9d3d 9408 11bc 17c7 1f3d
00000040: 37b2 15ba cfa9 7e3c 090b cd3c 20de b1b7
00000050: b86b 97b8 b05c a9bc 30f1 6dbd 3310 81bd
00000060: cb86 d1bc dac9 8fbd 3453 0abd 27d4 69bd
00000070: 813d 3cbc 231d 0abd 24ab cabc 0e51 983c
00000080: 73b8 1fbd 7ea5 1fbd be59 363c e204 bfbc
00000090: fc88 1bbb 1105 bfbb 9f5b 1e3d da3f 84bc
000000a0: 749b 7dbc bef7 54bd ae8a 673d b222 ddbc
000000b0: 2b74 803d 891f 60bd b96b 313d 0616 f0bc
000000c0: 8a15 163c 8980 85bd 369f d0bc 3dcf 5f3a
000000d0: 9ae0 febc bbd0 29bd 8aea 17bd e1d6 153d
000000e0: 4793 223d 342d 953c e0f3 b23b e2f6 1e3d
000000f0: edba ea3c 5261 5d3d 52f2 ffbc e7f7 06bd
00000100: df00 923c 07f9 05bb ceba a7bb 1750 33bd
00000110: 811d d1bc f1e6 093d e0e8 1b3c 2878 433b
00000120: 8a09 2bbc a1a4 35bd 744c acbc 6ab7 12bc
00000130: 1f95 4b3d c362 103d f210 403d c6ac 963d
00000140: 6631 1dbc c28a d93c fcc7 73bc 3840 3a3d
00000150: e586 053c 48f4 9abc e9f8 15bd 118f eebc
00000160: 27dc 4cbd a2d2 5a3c 51a5 f33a 8e14 3bba
00000170: 7c75 1e3d 8a78 0b3c bf9c 05bd 6d56 ad3c
00000180: d9e3 3fbd 6548 c1bb 7c5a 68bd 625d d13b
00000190: c7ad 9ebd a07c 953b 23cf 5a3d 08c6 09bd
000001a0: a389 ffbc 1eba 8c3b ab32 6a3b 293c a83c
000001b0: 9907 6c3d 3286 203c 3321 793d 5966 023c
000001c0: 802b 863d c20b c5bc 9faa 1a3d b99b e93c
000001d0: 7963 f4bb 2ecc 243c 9d35 74bd fdc9 05bd
000001e0: eacf a5bd 0650 213c 8152 11bd c843 143d
000001f0: f533 2b3d 4979 543d b216 073d 4f1b 913c
00000200: 85e7 d73b 14fa 2c3d b74a 2e3d fe55 a33c
00000210: 9c95 f43b 85ce 583d 9773 843b aef4 4f3d
00000220: 5419 a43c dd5d e93c 3fac af3b 13dc 213d
00000230: b3a3 8f3d 8921 db3a 198e 8bbc e1b1 e7bc
00000240: 8d66 3cbc e328 3cbd de74 b7bc a4ec d13b
00000250: b989 103d fc2a b83c ee0b 1b3d d202 1e3d
00000260: 4b78 8f3c 92ea c03c 1841 593d 877d e03c
00000270: 5bd1 fd3c fcaa 143d ce1b 1a3b 9cd4 503d
00000280: 594c 433c b23b 2a3c c929 cabc 3022 7e3b
00000290: 2f2f 253b 5300 a8bc dfff 8abd 8cd2 9bbd
000002a0: 3399 9fbd b839 4ebd 2223 85bd efea 36bd
000002b0: aca7 eebc 08a5 5d3c f71f 6f3d 38f9 883d
000002c0: 2706 81bc 2195 023c 0f16 80bb 3e0b 4b3d
000002d0: 702b c13c c53f 9a3d 4802 61bd ea5b 4dbd
000002e0: 2544 b03c 79ec f73c 5312 5b3d 5445 2d3d
000002f0: f057 94bc d5df f03c c6db c83c 9b63 143c
00000300: 0d88 96bc 94b8 f4bb 10a5 19bd 7a06 5fbd
00000310: fea0 9abc 7ea1 12bd 0191 a83c 61a6 8b3c
00000320: 1059 8f3d 3161 97bb de88 413d bf29 ebbc
00000330: ebc3 5aba d821 aa3c 97be fc3b a240 5e3c
00000340: b0a2 97bb 5f56 5c3d d659 803d aa39 94bb
00000350: a885 cdbc 1b00 40bc 90ff 15bd 5aab 8dbc
00000360: 35e1 3abd 0b02 4fbd e084 e5bc 505a 10bd
00000370: 6a45 bfbb c55a 8fbd 5cd7 103c af5f 39bc
00000380: 746a 6bbd abad bdbc f314 17bc d78c 69bc
00000390: 000b 8b3d 86df d6bc cf51 833b b87f f73a
000003a0: d003 3fbc 52d3 543d 968f 963c 1c33 debc
000003b0: 692e 0f3b 06b1 6ebc 59e1 4fbc 798d c33c
000003c0: 4adb 27bd 9c87 96ba 2063 c9bb 657c bdbb
000003d0: c30d 18bd bc42 34bb 3727 06bd 6059 d4bc
000003e0: 5388 24bd c2b0 a23d 625e c93d 4182 fdbb
000003f0: b421 f03c c429 cf3c a37f eabc 440c 0d3b

bias f4 [168]
-0.2307122 -0.220452 -0.17901048 -0.20144019 -0.15974678 -0.17412074 -0.16676968 -0.1584344
-0.18021978 -0.18789397 -0.12239519 -0.15104978 -0.14525421 -0.15771732 -0.1853844 -0.15983155
-0.12892626 -0.1609913 -0.15862794 -0.1540801 -0.22662534 -0.15698245 -0.210876 -0.17686205
-0.16817482 -0.1639128 -0.15594803 -0.207162 -0.1679508 -0.2516717 -0.16543971 -0.19251843
-0.16938779 -0.16018422 -0.1724674 -0.14303663 -0.15585773 -0.17094758 -0.14297314 -0.18888403
-0.13431028 -0.20392746 -0.15474172 -0.14157727 -0.20643082 -0.14735682 -0.17736273 -0.17260852
-0.17208128 -0.15212879 -0.19821133 -0.15978293 -0.1480108 -0.1925821 -0.13107815 -0.12969719
-0.20304225 -0.16530567 -0.16656338 -0.14870071 -0.16247249 -0.16129406 -0.12268842 -0.16279884
-0.17662457 -0.17673282 -0.21928006 -0.16462156 -0.15180331 -0.24242643 -0.16518486 -0.13888453
-0.15083124 -0.18229522 -0.1695693 -0.16836818 -0.16667491 -0.23726495 -0.17717685 -0.19498064
-0.14990692 -0.1721111 -0.1413143 -0.19642979 -0.15842229 -0.12645333 -0.15989 -0.17942178
-0.14090364 -0.17488289 -0.16160673 -0.1360832 -0.13837756 -0.16730472 -0.20729569 -0.15426397
-0.15234548 -0.18517976 -0.2239606 -0.21218261 -0.16686952 -0.22721651 -0.16819167 -0.18810716
-0.20546396 -0.13570113 -0.15383299 -0.19202267 -0.11746603 -0.23083332 -0.18347195 -0.21121189
-0.17637081 -0.17846295 -0.19245434 -0.11755068 -0.17585601 -0.1446938 -0.12938894 -0.16636412
-0.20388468 -0.2097689 -0.1429018 -0.1499173 -0.15655346 -0.1530369 -0.12798192 -0.1686419
-0.2037426 -0.22955547 -0.14335503 -0.1300944 -0.15340036 -0.21053398 -0.12799662 -0.15037006
-0.16487929 -0.1988181 -0.20034221 -0.17395699 -0.14613837 -0.18014061 -0.21010824 -0.17820545
-0.24490185 -0.2043302 -0.16770655 -0.17158401 -0.17732114 -0.1859455 -0.17409696 -0.16461578
-0.19684757 -0.15905032 -0.19451426 -0.18261138 -0.16051953 -0.18217985 -0.2076277 -0.15809718
-0.1874359 -0.17009477 -0.17863657 -0.19441955 -0.21353188 -0.16964154 -0.18372911 -0.21153207
00000000: d23f 6cbe 2bbe 61be 864e 37be 5646 4ebe
00000010: a994 23be b54c 32be acc5 2abe a13c 22be
00000020: 898b 38be 4767 40be 54aa fabd cbac 1abe
00000030: 85bd 14be a680 21be 68d5 3dbe e2aa 23be
00000040: 3f05 04be e7da 24be 5d6f 22be 2cc7 1dbe
00000050: 7910 68be 02c0 20be e1ef 57be 531b 35be
00000060: 0536 2cbe c2d8 27be d7b0 1fbe 4622 54be
00000070: 4bfb 2bbe 1ddb 80be 0769 29be 8d23 45be
00000080: fe73 2dbe 5507 24be 4b9b 30be 3278 12be
00000090: 2b99 1fbe e20c 2fbe 8d67 12be d16a 41be
000000a0: a288 09be 5cd2 50be 9d74 1ebe a2f9 10be
000000b0: 9a62 53be b5e4 16be 939e 35be 4ac0 30be
000000c0: 1336 30be a6c7 1bbe e9f7 4abe 239e 23be
000000d0: 2590 17be 3e34 45be 5a39 06be 57cf 04be
000000e0: 4fea 4fbe e445 29be 978f 2abe 0045 18be
000000f0: 305f 26be 452a 25be 1144 fbbd bdb4 26be
00000100: 12dd 34be 73f9 34be f48a 60be 8e92 28be
00000110: 5472 1bbe a23e 78be 3826 29be bf37 0ebe
00000120: 8173 1abe 99ab 3abe 93a3 2dbe b568 2cbe
00000130: d4ac 2abe 95f5 72be d96d 35be 01a9 47be
00000140: 3381 19be e43d 30be b2b4 10be e424 49be
00000150: 7439 22be fb7c 01be 34ba 23be 58ba 37be
00000160: 0b49 10be 8014 33be 3c7c 25be 6559 0bbe
00000170: d9b2 0dbe ee51 2bbe 5245 54be 60f7 1dbe
00000180: 7400 1cbe c39f 3dbe ed55 65be 6646 59be
00000190: d8df 2abe 72ab 68be 703a 2cbe 2a9f 40be
000001a0: 2565 52be 3df5 0abe 6586 1dbe 97a1 44be
000001b0: 0892 f0bd 925f 6cbe 12e0 3bbe ee47 58be
000001c0: 8d9a 34be febe 36be c012 45be 69be f0bd
000001d0: 9913 34be 9d2a 14be 897e 04be 5b5b 2abe
000001e0: 25c7 50be a9cd 56be d954 12be ec83 19be
000001f0: 8d4f 20be b5b5 1cbe b10d 03be 76b0 2cbe
00000200: e6a1 50be 9710 6bbe a9cb 12be 7737 05be
00000210: fc14 1dbe 3896 57be 8c11 03be 9cfa 19be
00000220: 1ed6 28be f996 4bbe 8226 4dbe c821 32be
00000230: 4ca5 15be c876 38be 9d26 57be 7d7b 36be
00000240: 8dc7 7abe f03b 51be 44bb 2bbe b8b3 2fbe
00000250: ac93 35be 7f68 3ebe 7946 32be 0a91 28be
00000260: 6992 49be 16de 22be bf2e 47be 7afe 3abe
00000270: 3b5f 24be 5b8d 3abe 5b9c 54be 3ae4 21be
00000280: 32ef 3fbe 532d 2ebe 81ec 36be eb15 47be
00000290: 1aa8 5abe 83b6 2dbe 7c23 3cbe dd9b 58be

weight f4 [1, 11]
-0.08393728 -0.14282185 0.23423773 -0.13308257 0.023392623 0.046524096 -0.10939407 -0.22701307
-0.22330536 0.011882529 -0.022273948
00000000: 4fe7 abbd e43f 12be 04dc 6f3e cc46 08be
00000010: e3a1 bf3c 0d90 3e3d 000a e0bd 1d76 68be
00000020: 29aa 64be f0ae 423c db77 b6bc
