js_park/saved_models/best_AF_3.pt (torch, 455911 bytes, 5 tensors)

weight f4 [168, 336]
0.0012446247 -0.06283777 -0.06337553 -0.025270762 -0.04915038 0.011533763 0.01582821 0.015207539
-0.025021859 0.0030353582 -0.05480601 -0.013821112 0.01957525 -0.04508612 0.0005296692 0.040068388
-0.046444397 -0.00677011 -0.021371664 0.049915582 -0.016189381 -0.04739749 -0.016288174 0.018939417
-0.052211974 -0.030153483 -0.037869018 -0.0036553591 -0.014871775 0.021504752 -0.013186516 -0.04851308
-0.029763062 0.02844554 0.0047360486 0.035875026 -0.0024865153 0.046905007 -0.012188472 -0.0035620208
-0.01924285 0.029601598 -0.018725347 -0.024805406 -0.050697014 -0.053845275 -0.033994026 0.01505495
0.027062247 0.03749845 -0.058972035 0.04218241 -0.019744966 -0.056072854 -0.05417839 -0.050587986
-0.054876063 -0.031176597 0.029345788 0.015844958 0.0006080644 0.038363386 -0.042167302 0.012981303
0.016129525 0.007029373 0.036425296 -0.005242372 0.029129859 0.04087676 0.036152422 -0.047810245
-0.023067394 0.03410376 0.010498958 0.00018035134 -0.05553477 0.018421577 -0.056935918 -0.01710967
-0.032636523 0.028879393 0.0019986236 -0.04964998 0.029395752 -0.024283133 -0.036113713 0.05375434
0.029083263 0.0147047285 -0.02982731 0.058976654 0.043217577 -0.040591765 0.0059603653 -0.007872584
-0.020387404 -0.031964816 -0.04905 0.02858193 -0.012157763 -0.00844215 -0.020978319 -0.028156549
-0.026116585 -0.035589438 0.032147218 0.05271967 0.038018633 -0.0442034 -0.026124898 0.021360848
-0.040293068 -0.0010635636 0.043136694 -0.034414712 -0.024902923 0.02823065 0.03828496 0.024048993
0.0533917 -0.035956603 -0.05588512 0.0058765123 -0.014189356 -0.052484937 0.05113637 -0.047212522
0.05186392 0.0039345077 0.0006942394 0.009875397 -0.04402024 0.024374664 -0.026081117 0.021380667
0.0367978 0.02424777 0.053531036 0.058234368 0.009179229 -0.031827826 -0.0006080282 0.02831988
-0.020685833 -0.046761863 0.029113824 -0.011353976 -0.042537287 -0.036339097 -0.016052002 0.042529948
-0.013187585 -0.031726465 0.003517649 0.044960838 0.051119663 0.017343286 0.058903035 -0.0044634948
0.05943745 0.023205185 0.04728993 -0.03443307 0.010943807 0.03203579 0.029449986 0.03761316
0.009548108 -0.028401619 -0.031189783 -0.029381275 -0.017357599 -0.0012528803 0.025815427 -0.0011103627
-0.029500932 -0.04601055 -0.027779186 0.031957872 -0.018599275 -0.01375597 0.029540595 0.023876349
-0.036762208 -0.0010069868 -0.015581458 0.055681057 -0.006739055 -0.0031879137 0.019623438 0.011372103
-0.04567429 0.043202125 0.045538798 -0.054589514 -0.05084083 0.03885022 -0.03371187 0.03586134
-0.0022969295 -0.0070514246 -0.008913252 0.0535273 -0.0104976725 0.03729108 -0.04311366 -0.009881137
0.046780944 0.018738912 0.05180924 0.045121796 -0.034172624 0.050714523 0.022274096 0.00012163128
0.028010564 -0.048248548 -0.03192593 -0.030914262 -0.037872735 -0.053261604 -0.000291575 -0.0048296116
0.022030069 -0.04002834 0.032011107 0.006692161 -0.012232026 -0.035965767 -0.0077646105 0.041402403
-3.1702293e-06 0.00021262735 0.018173393 0.040625542 0.04744585 0.045274463 0.009487925 0.03918374
-0.01655681 -0.026119092 -0.051279962 0.04787257 -0.018774461 0.008468617 -0.01916233 -0.0053194845
0.04319847 -0.025802437 -0.037374288 0.010918126 0.01913732 0.03785009 0.037412938 0.025920382
00000000: ad22 a33a 17b1 80bd 08cb 81bd a104 cfbc
00000010: e951 49bd 1cf8 3c3c 2aaa 813c 0b29 793c
00000020: a4fa ccbc dcec 463b 447c 60bd f271 62bc
00000030: 465c a03c 39ac 38bd 80d9 0a3a c01e 243d
00000040: 7b3c 3ebd cdd7 ddbb a113 afbc 4874 4c3d
00000050: 989f 84bc df23 42bd c76e 85bc d626 9b3c
00000060: 39dc 55bd 7004 f7bc 8b1c 1bbd c08e 6fbb
00000070: bfa8 73bc bc2a b03c 420c 58bc a7b5 46bd
00000080: aad1 f3bc 9f06 e93c db30 9b3b b1f1 123d
00000090: cef4 22bb 771f 403d 28b2 47bc cb70 69bb
000000a0: 2ea3 9dbc 0d7f f23c e665 99bc b534 cbbc
000000b0: aca7 4fbd dd8c 5cbd 523d 0bbd 09a9 763c
000000c0: a5b1 dd3c fa97 193d a98c 71bd 76c7 2c3d
000000d0: 32c0 a1bc a6ac 65bd 29ea 5dbd 5935 4fbd
000000e0: b9c5 60bd 1066 ffbc 9466 f03c 49cd 813c
000000f0: 8366 1f3a ed22 1d3d 9fb7 2cbd 88af 543c
00000100: 1122 843c a856 e63b b132 153d 34c8 abbb
00000110: bea1 ee3c 646e 273d 9014 143d add4 43bd
00000120: d5f7 bcbc 62b0 0b3d d203 2c3c b21c 3d39
00000130: 6d78 63bd d9e8 963c a335 69bd 9429 8cbc
00000140: e0ad 05bd 7a94 ec3c 57fb 023b c75d 4bbd
00000150: 5ccf f03c 6ced c6bc f9eb 13bd 832d 5c3d
00000160: 0640 ee3c 1aec 703c 6758 f4bc 8191 713d
00000170: ea04 313d 8d43 26bd 2b4f c33b 03fc 00bc
00000180: 7c03 a7bc 8aed 02bd a7e8 48bd a724 ea3c
00000190: 5b31 47bc f250 0abc b9da abbc 90a8 e6bc
000001a0: 73f2 d5bc 3bc6 11bd cdac 033d 95f0 573d
000001b0: 6db9 1b3d a00e 35bd e203 d6bc f2fc ae3c
000001c0: 580a 25bd 4667 8bba 1ab0 303d 71f6 0cbd
000001d0: 3701 ccbc f743 e73c b1d0 1c3d 6502 c53c
000001e0: 41b1 5a3d 3b47 13bd cce7 64bd c28f c03b
000001f0: 797a 68bc 72fa 56bd 5f74 513d eb61 41bd
00000200: 436f 543d 0bed 803b 9efd 353a 6bcc 213c
00000210: 914e 34bd 60ad c73c 11a8 d5bc 8226 af3c
00000220: 4ab9 163d 42a3 c63c 5c43 5b3d 2987 6e3d
00000230: 7a64 163c e55d 02bd 1564 1fba 18ff e73c
00000240: 5675 a9bc 5e89 3fbd 1d80 ee3c 0706 3abc
00000250: 943b 2ebd 4ed8 14bd 7d7f 83bc e233 2e3d
00000260: be10 58bc 9cf3 01bd 5b88 663b db28 383d
00000270: da62 513d 8213 8e3c 4f44 713d 8242 92bb
00000280: af74 733d cd18 be3c 16b3 413d b109 0dbd
00000290: a74d 333c f637 033d 1941 f13c 4210 1a3d
000002a0: ab6f 1c3c 83aa e8bc b781 ffbc 00b1 f0bc
000002b0: 8631 8ebc b037 a4ba e07a d33c 9789 91ba
000002c0: f0ab f1bc 8f75 3cbd 2d91 e3bc 42e6 023d
000002d0: 825d 98bc b860 61bc 1eff f13c 5598 c33c
000002e0: f893 16bd dffc 83ba 5f49 7fbc d211 643d
000002f0: 4ad3 dcbb 51ec 50bb 55c1 a03c 0f52 3a3c
00000300: f714 3bbd b6f4 303d e486 3a3d 4199 5fbd
00000310: 793e 50bd 6921 1f3d 7515 0abd 57e3 123d
00000320: 1588 16bb a30f e7bb e308 12bc 713f 5b3d
00000330: 6efe 2bbc 88be 183d f397 30bd 7ee4 21bc
00000340: 609d 3f3d 5982 993c ed35 543d a2d1 383d
00000350: 98f8 0bbd 08ba 4f3d 2a78 b63c 4c14 ff38
00000360: 6976 e53c 45a0 45bd c4c4 02bd e83f fdbc
00000370: 7120 1bbd d728 5abd 89de 98b9 b841 9ebb
00000380: 6778 b43c c2f4 23bd 141e 033d ea49 db3b
00000390: d668 48bc d750 13bd 466e febb 9195 293d
000003a0: 20c0 54b6 b8f4 5e39 5ee0 943c f866 263d
000003b0: 9456 423d b771 393d 3e73 1b3c 217f 203d
000003c0: 26a2 87bc b5f7 d5bc f00a 52bd 0716 443d
000003d0: e6cc 99bc f4bf 0a3c 52fa 9cbc 124f aebb
000003e0: e1f0 303d a25f d3bc c815 19bd f1e1 323c
000003f0: dec5 9c3c b208 1b3d 4f3e 193d fb56 d43c

bias f4 [168]
-0.053356696 0.023014955 -0.06485901 0.0029796578 -0.027265728 -0.013030681 -0.024865733 -0.03210893
0.0031954963 -0.013499645 -0.04264353 -0.049075264 0.015500226 0.013169145 -0.026215741 -0.0064195073
-0.009852963 0.016144773 -0.013730831 0.015442341 0.038723364 -0.003997199 0.025975363 -0.019356744
0.032701585 0.013601283 -0.04500252 -0.038815662 -0.059244636 0.04066669 -0.03115893 0.04127455
0.005636226 0.02799273 -0.023571119 -0.0150832115 0.005063515 0.018052524 0.034993175 -0.033552106
0.040824212 -0.017079953 0.0147434985 -0.04796263 -0.0061865277 -0.02682347 0.013072074 -0.02959542
-0.028425222 -0.055573903 -0.0047388566 -0.034307256 0.010241442 0.02422754 0.0076335417 0.0048660776
0.047451187 0.019015348 0.02953424 -0.04866739 -0.013271106 -0.0024384977 0.04689251 0.03154851
0.006162839 -0.007291304 0.03623713 0.03629992 -0.03645486 0.030383477 -0.036456257 -0.050783794
0.04271173 -0.021710904 -0.020893112 -0.043149758 -0.05764047 -0.04229484 -0.03000929 0.0011103745
0.012019404 0.028947106 -0.025080044 0.035000436 -0.028562304 0.045169443 -0.03828835 0.014927337
-0.031700104 -0.04118349 0.03555994 0.02141067 -0.014983285 -0.011885368 -0.02590905 0.035029523
-0.04947113 -0.04530946 -0.0073483735 -0.019567335 0.042027667 -0.038872987 0.014375126 -0.03544833
-0.006096753 -0.037109863 0.005817434 -0.054970346 0.041615997 0.008032888 -0.028814148 -0.0015059365
0.037053384 0.010674744 -0.027142804 0.021698412 0.0041359668 0.02921394 0.0063100057 0.0016590022
-0.010563965 -0.05246355 0.01215797 0.019417783 0.039150994 -0.040209394 0.040665362 0.00050026155
-0.033360828 -0.03344635 -0.031011632 -0.045995843 0.0050389967 -0.0018077587 0.022122357 -0.035229363
0.025959892 0.037423942 -0.023080165 -0.06526291 0.030906336 -0.015143996 0.02355093 -0.04372413
-0.04289846 0.008567903 -0.0045874906 0.03255082 -0.017297117 0.006474663 -0.04466791 -0.029444234
-0.01077201 0.017893663 -0.033689305 0.012766356 -0.0037596342 -0.0016514118 0.03522744 0.020047933
-0.03388262 -0.052600376 0.008405043 -0.0015053293 -0.005010674 -0.017532408 -0.044476457 0.03513267
00000000: 8d8c 5abd dc89 bc3c cdd4 84bd 5d46 433b
00000010: 605c dfbc a37e 55bc 39b3 cbbc a784 03bd
00000020: 886b 513b 9d2d 5dbc fbaa 2ebd 2503 49bd
00000030: a9f4 7d3c 66c3 573c 65c2 d6bc bb5a d2bb
00000040: 526e 21bc 0b42 843c 48f7 60bc df01 7d3c
00000050: 649c 1e3d effa 82bb 49ca d43c 0992 9ebc
00000060: 19f2 053d ead7 5e3c 9054 38bd 2cfd 1ebd
00000070: 81aa 72bd 1d92 263d 0341 ffbc 810f 293d
00000080: 17b0 b83b 0251 e53c 3818 c1bc 931f 77bc
00000090: d8eb a53b e3e2 933c 0155 0f3d ef6d 09bd
000000a0: 4a37 273d 42eb 8bbc b78e 713c 7674 44bd
000000b0: 5bb8 cabb e5bc dbbc 412c 563c 1872 f2bc
000000c0: 03dc e8bc 76a1 63bd 6948 9bbb c485 0cbd
000000d0: b9cb 273c d578 c63c ca22 fa3b 9e73 9f3b
000000e0: 2d5c 423d 13c6 9b3c caf1 f13c 7557 47bd
000000f0: 0e6f 59bc 34cf 1fbb 5c12 403d 0339 013d
00000100: a4f1 c93b e4eb eebb 636d 143d 3aaf 143d
00000110: b151 15bd c5e6 f83c 2853 15bd ab02 50bd
00000120: 7ff2 2e3d 11db b1bc 0828 abbc cdbd 30bd
00000130: 6a18 6cbd 5b3d 2dbd 0bd6 f5bc fc89 913a
00000140: 09ed 443c 7b22 ed3c aa74 cdbc 9e5c 0f3d
00000150: 7efb e9bc 9803 393d 3fd4 1cbd ca91 743c
00000160: f8d7 01bd 05b0 28bd 4da7 113d 6e65 af3c
00000170: 747c 75bc d9ba 42bc 373f d4bc 1e7b 0f3d
00000180: 3da2 4abd 6a96 39bd a0ca f0bb ad4b a0bc
00000190: 3425 2c3d 4839 1fbd a685 6b3c 4532 11bd
000001a0: 45c7 c7bb 8300 18bd 2ca0 be3b 9628 61bd
000001b0: 8975 2a3d 609c 033c a60b ecbc d862 c5ba
000001c0: 4ac5 173d 1fe5 2e3c 965a debc dec0 b13c
000001d0: 0187 873b 1352 ef3c 2ac4 ce3b e072 d93a
000001e0: 7b14 2dbc 05e4 56bd 3932 473c 0b12 9f3c
000001f0: cb5c 203d 9bb2 24bd b990 263d fc23 033a
00000200: 5da5 08bd 0aff 08bd 1b0c febc 2366 3cbd
00000210: 2b1e a53b 51f2 ecba f239 b53c aa4c 10bd
00000220: d7a9 d43c d949 193d 9d12 bdbc 90a8 85bd
00000230: 492f fd3c 861e 78bc e1ed c03c 1318 33bd
00000240: 4cb6 2fbd 6460 0c3c a952 96bb 0254 053d
00000250: afb2 8dbc 6929 d43b b3f5 36bd 0935 f1bc
00000260: 167d 30bc bb95 923c ccfd 09bd fa29 513c
00000270: 3264 76bb 2f74 d8ba a64a 103d 903b a43c
00000280: 81c8 0abd 7e73 57bd 4eb5 093c 784e c5ba
00000290: 9430 a4bb 20a0 8fbc f22c 36bd 46e7 0f3d

weight f4 [168, 336]
0.04660202 0.001732647 -0.032293595 -0.013720456 -0.08165259 0.0012825049 -0.012607649 -0.008212372
-0.0060815774 -0.06814812 0.011828164 0.027900297 -0.010673138 -0.0077415025 -0.0071597435 0.068773255
0.044048823 0.04192708 0.048088122 -0.006519119 -0.0005872119 0.045356974 0.02291665 0.020948816
0.015856136 -0.059914615 -0.077742696 0.00036631824 -0.056912612 -0.004161583 -0.014608268 0.0072327335
-0.029125547 0.012901144 0.017635481 -0.011999505 -0.03568925 -0.03142828 0.035500698 0.052595265
0.0054077595 0.040966146 0.035129268 0.0389061 -0.004596931 0.006804498 0.03809064 -0.0037390706
-0.015445469 -0.048372615 -0.0171147 -0.04076176 -0.024713978 -0.018351749 -0.06424073 0.025998032
-0.07553886 -0.015238415 -0.050018787 0.04443038 0.048869647 0.025938746 -0.0008210546 0.027124353
0.040644027 0.041178122 0.02652822 0.08698442 0.04242216 0.006215631 0.033791825 0.0444968
0.010847661 0.030358654 -0.034587212 0.0042773164 -0.06566071 -0.0002756303 -0.06520402 0.0003826542
0.004146484 -0.020103604 -0.06573657 0.019153798 -0.023436751 0.05397913 0.026029475 0.061471723
0.045524433 0.018964734 0.0013306747 -0.0058036703 0.015530098 0.023608726 0.030035226 -0.013980861
-0.027850568 -0.00040255423 -0.010178987 -0.0036004265 -0.020746673 -0.06814319 0.010358523 -0.06899156
-0.016932689 -0.0482208 -0.009079398 0.027580151 -0.010198607 0.00061817456 0.02732214 0.03305573
-0.0064462908 0.05317359 -0.0062550684 0.026401594 0.0055258074 0.02910467 -0.010288134 -0.03567948
-0.015847944 -0.0042849425 0.003533538 -0.07302272 -0.068292014 -0.09513062 -0.0087211775 -0.039296806
-0.0010878723 0.03374549 0.03504535 -0.03633107 -0.005289038 0.04993601 -0.0021105432 0.06467708
0.067687705 0.06861939 0.052405495 0.073014535 0.06940302 0.0052646264 0.036418434 -0.017674144
-0.0011608896 -0.026119817 0.03465763 -0.055219263 -0.0013137885 -0.03158289 -0.0011851037 -0.019476263
-0.030438382 0.031019455 -0.047358193 -0.015042089 -0.03357476 0.0012253555 -0.0015866192 0.068521895
0.07172405 0.01021466 0.051529173 0.057793174 0.07584009 -0.02133383 0.0040779836 -0.054501515
-0.06773262 -0.03341931 -0.05596746 -0.022490224 0.00864417 -0.0120196715 -0.07500064 0.03207069
0.014284054 -0.059557535 -0.006090448 0.025068633 -0.020702165 0.01919194 0.0627371 -0.0020507413
0.06607113 0.043403137 0.049714807 0.093030654 -0.020893889 -0.025953416 0.036265586 -0.022921568
-0.07840345 -0.05475792 -0.010661013 0.018791186 0.007554982 0.03585413 -0.009769419 -0.02972656
-0.01493659 -0.044323616 -0.028748434 0.018541936 -0.028135922 -0.021620361 -0.0014872852 0.046488382
-0.0054364265 0.02862419 0.08056637 0.015807398 0.004742939 -0.015665796 0.0068299714 -0.071167395
-0.016000826 -0.039742228 -0.019663682 -0.02129434 0.017990394 -0.059795428 -0.020592922 -0.049526554
0.03803063 -0.05702913 -0.049486984 0.043141212 -0.024970427 0.007893664 -0.020731509 0.0009360647
0.07030182 0.017010843 0.0067541646 0.0852836 0.0021750852 0.056898553 -0.017579718 -0.0055150953
-0.039767765 -0.075730346 -0.036003593 0.018942097 0.0421102 -0.02134221 0.028332412 0.01061489
-0.031102387 0.02367278 -0.0060587684 -0.004593581 -0.031542756 -0.0020965456 0.03395931 0.029456804
00000000: c2e1 3e3d fc19 e33a 4a46 04bd c3cb 60bc
00000010: 7939 a7bd b919 a83a 5090 4ebc 2f8d 06bc
00000020: f847 c7bb 3e91 8bbd eaca 413c 2a8f e43c
00000030: 63de 2ebc 6eac fdbb 489c eabb fed8 8c3d
00000040: 8a6c 343d bbbb 2b3d 0df8 443d 559e d5bb
00000050: 20ef 19ba 3cc8 393d b3bb bb3c da9c ab3c
00000060: bae4 813c 0769 75bd 9037 9fbd 670e c039
00000070: 331d 69bd e35d 88bb 8457 6fbc 9100 ed3b
00000080: b398 eebc 525f 533c 4978 903c 9299 44bc
00000090: e42e 12bd f1ba 00bd 2e69 113d 226e 573d
000000a0: 9333 b13b 1ecc 273d b5e3 0f3d 015c 1f3d
000000b0: daa1 96bb 44f8 de3b ee04 1c3d 320b 75bb
000000c0: fe0e 7dbc 5d22 46bd 2134 8cbc cef5 26bd
000000d0: f874 cabc 6856 96bc a590 83bd d3f9 d43c
000000e0: 1eb4 9abd 8caa 79bc 80e0 4cbd a1fc 353d
000000f0: 8a2b 483d 7e7d d43c 0b3c 57ba e433 de3c
00000100: 5a7a 263d 64aa 283d b651 d93c e324 b23d
00000110: dcc2 2d3d 7eac cb3b 4c69 0a3d 4742 363d
00000120: 63ba 313c b6b2 f83c 52ab 0dbd bb28 8c3b
00000130: 1f79 86bd 7982 90b9 af89 85bd fa9e c839
00000140: 3bdf 873b 50b0 a4bc e5a0 86bd 6de8 9c3c
00000150: 6efe bfbc 3819 5d3d c43b d53c c6c9 7b3d
00000160: d477 3a3d ee5b 9b3c 096a ae3a b72c bebb
00000170: f471 7e3c 1667 c13c 6f0c f63c fb0f 65bc
00000180: e026 e4bc ea0d d3b9 c4c5 26bc 22f5 6bbb
00000190: edf4 a9bc a88e 8bbd cbb6 293c 724b 8dbd
000001a0: 6cb6 8abc 2c83 45bd c1c1 14bc c5ef e13c
000001b0: 0f18 27bc fe0c 223a aed2 df3c 7265 073d
000001c0: 683b d3bb 8dcc 593d 51f7 ccbb 2848 d83c
000001d0: d511 b53b eb6c ee3c 908f 28bc a524 12bd
000001e0: 8cd3 81bc b468 8cbb ee92 673b f08c 95bd
000001f0: afdc 8bbd d8d3 c2bd 45e3 0ebc b0f5 20bd
00000200: f096 8eba b638 0a3d b78b 0f3d e3cf 14bd
00000210: ab4f adbb b489 4c3d 0a51 0abb 6b75 843d
00000220: da9f 8a3d 5388 8c3d 25a7 563d a588 953d
00000230: 2c23 8e3d e382 ac3b 7f2b 153d 5ec9 90bc
00000240: fe28 98ba 3af9 d5bc 29f5 0d3d 982d 62bd
00000250: 6d33 acba 0f5d 01bd 7b55 9bba af8c 9fbc
00000260: ea59 f9bc 831c fe3c aafa 41bd 1873 76bc
00000270: b085 09bd 1c9c a03a 1bf6 cfba 3555 8c3d
00000280: 0fe4 923d 645b 273c 4110 533d 89b8 6c3d
00000290: 0d52 9b3d 49c4 aebc 9ba0 853b fb3c 5fbd
000002a0: 66b7 8abd b0e2 08bd 233e 65bd 6b3d b8bc
000002b0: 47a0 0d3c 28ee 44bc ef99 99bd 8e5c 033d
000002c0: aa07 6a3c 9af2 73bd 6192 c7bb bc5c cd3c
000002d0: 9697 a9bc 6a38 9d3c 4f7c 803d bb65 06bb
000002e0: 4d50 873d 7dc7 313d c1a1 4b3d db86 be3d
000002f0: a929 abbc 429c d4bc 398b 143d 03c6 bbbc
00000300: fd91 a0bd d749 60bd 88ab 2ebc f9ef 993c
00000310: c88f f73b c8db 123d ea0f 20bc 1d85 f3bc
00000320: 99b8 74bc ae8c 35bd d681 ebbc 42e5 973c
00000330: 4e7d e6bc 2f1d b1bc 03f1 c2ba 9a6a 3e3d
00000340: 0d24 b2bb 477d ea3c fbff a43d 847e 813c
00000350: a86a 9b3b 8e55 80bc f4cd df3b 36c0 91bd
00000360: 2a14 83bc bfc8 22bd bb15 a1bc 7871 aebc
00000370: 9760 933c 0dec 74bd 7db2 a8bc 5bdc 4abd
00000380: 02c6 1b3d 6197 69bd ddb2 4abd d7b4 303d
00000390: c88e ccbc 6d54 013c 20d5 a9bc 3d62 753a
000003a0: 67fa 8f3d 535a 8b3c 0a52 dd3b 2ba9 ae3d
000003b0: e08b 0e3b 750e 693d 5703 90bc f9b7 b4bb
000003c0: 86e3 22bd 8318 9bbd 8178 13bd 752c 9b3c
000003d0: bf7b 2c3d dcd5 aebc 6019 e83c 13ea 2d3c
000003e0: 6fca febc 6bed c13c a288 c6bb c085 96bb
000003f0: fa32 01bd 3366 09bb eb18 0b3d 654f f13c

bias f4 [168]
0.015142817 -0.047968633 -0.0035537279 0.011893921 -0.01670563 -0.03433952 -0.029084282 0.007915876
-0.029739313 0.06395168 -0.013979551 -0.039579522 0.031306874 0.020453973 -0.008793399 -0.03131639
-0.06014664 -0.031641167 -0.030786214 -0.045196358 -0.022856304 0.005246507 -0.009504375 -0.04773325
0.04333466 0.044993658 -0.05664067 -0.040172882 -0.019628953 0.039065737 -0.0002643112 0.007408731
0.02952987 0.03328233 0.037626833 -0.041246008 0.029772019 0.00497946 0.036426667 0.041841853
-0.055943336 -0.042102132 -0.011940836 -0.029857108 0.006028272 0.02842761 0.023750668 0.008696602
-0.05153477 -0.045327242 0.017761283 0.02625584 0.029625675 0.016732676 0.008945583 0.02597828
-0.02861647 -0.022302339 -0.024273792 -0.04385909 -0.0073592104 0.023957876 -0.00115629 -0.049971316
-0.03168458 0.005867641 -0.005561395 0.023926426 0.0071910643 -0.011284137 0.011953719 -0.053807855
0.044163905 0.017804224 0.041350476 -0.019894073 -0.05542857 0.0011688073 0.05094756 0.005996794
-0.032458484 -0.060410563 0.052821707 -0.04964786 -0.005148259 0.026876053 0.011892557 -0.03890041
-0.01616957 0.021965243 -0.011986941 0.014955025 -0.06339064 -0.032771636 -0.05808348 -0.016666982
-0.056981843 0.009245112 0.04894884 -0.015174317 0.02079283 0.01217934 -0.06404718 -0.013499868
-0.030998565 -0.004709682 -0.04248371 0.038999677 0.023785507 -0.029069465 0.043278817 -0.019392239
-0.05482898 -0.05346879 0.02987703 -0.05758922 -0.034737464 0.0063370992 0.038271267 0.026947442
-0.06085203 0.044429578 -0.04018683 0.01953032 -0.028055014 -0.010074439 -0.05581297 0.013752625
-0.057024583 0.0325687 -0.050540965 -0.007766611 0.008093988 -0.049217414 0.048946694 -0.009977835
-0.023367327 -0.0041069374 0.027699074 -0.056519754 -0.016867662 0.03997244 -0.02593979 -0.04906412
-0.043422192 0.0010472852 -0.012284779 -0.035411764 -0.0068901987 -0.056513816 0.009773733 -0.008965373
-0.0023098497 0.04811296 0.04564002 0.02597479 0.025339656 -0.048883103 -0.013938523 0.008945141
-0.0035311608 -0.033121906 0.0014888351 -0.006245924 0.00017015653 0.044239104 -0.009827848 -0.061324116
00000000: 9419 783c c27a 44bd a9e5 68bb b8de 423c
00000010: 3fda 88bc 99a7 0cbd 2942 eebc 97b1 013c
00000020: dc9f f3bc 19f9 823d 7d0a 65bc 231e 22bd
00000030: a33b 003d 178f a73c 3012 10bc 9d45 00bd
00000040: 535c 76bd 2b9a 01bd 5f33 fcbc d11f 39bd
00000050: 253d bbbc e4ea ab3b 3db8 1bbc f183 43bd
00000060: af7f 313d 454b 383d 0c00 68bd 528c 24bd
00000070: e6cc a0bc 6503 203d 4093 8ab9 f1c4 f23b
00000080: a0e8 f13c 0d53 083d 981e 1a3d 93f1 28bd
00000090: 73e4 f33c bd2a a33b 2134 153d 5d62 2b3d
000000a0: d724 65bd 4973 2cbd 7fa3 43bc e596 f4bc
000000b0: d088 c53b 05e1 e83c c390 c23c 317c 0e3c
000000c0: 1f16 53bd 0fa9 39bd 1c80 913c 7d16 d73c
000000d0: 8bb1 f23c f712 893c 7f90 123c 67d0 d43c
000000e0: 166d eabc 65b3 b6bc d5d9 c6bc 97a5 33bd
000000f0: 8825 f1bb 4f43 c43c a78e 97ba b9ae 4cbd
00000100: b1c7 01bd 5745 c03b 5d3c b6bb 5a01 c43c
00000110: 05a3 eb3b 1ae1 38bc 88d9 433c a065 5cbd
00000120: 36e5 343d 2ada 913c 1e5f 293d e5f8 a2bc
00000130: 1109 63bd aa32 993a 64ae 503d c180 c43b
00000140: 30f3 04bd 1171 77bd 935b 583d 8e5b 4bbd
00000150: bab2 a8bb 2b2b dc3c 00d9 423c 0956 1fbd
00000160: 0c76 84bc 74f0 b33c e064 44bc ec05 753c
00000170: f4d2 81bd 8d3b 06bd f1e8 6dbd 3289 88bc
00000180: cb65 69bd cf78 173c 947e 483d b39d 78bc
00000190: ba55 aa3c db8b 473c 2b2b 83bd 8d2e 5dbc
000001a0: b4f0 fdbc ad53 9abb 6603 2ebd 20be 1f3d
000001b0: d3d9 c23c 1623 eebc 2145 313d 79dc 9ebc
000001c0: 5a94 60bd 1702 5bbd acc0 f43c ade2 6bbd
000001d0: df48 0ebd 71a7 cf3b 55c2 1c3d e2c0 dc3c
000001e0: fa3f 79bd cafb 353d f29a 24bd 0dfe 9f3c
000001f0: a1d3 e5bc 430f 25bc 249c 64bd b152 613c
00000200: 9c92 69bd c266 053d 0b04 4fbd 0e7f febb
00000210: a59c 043c 3398 49bd 547c 483d 137a 23bc
00000220: d66c bfbc 7d93 86bb 2be9 e23c 4281 67bd
00000230: 0d2e 8abc 24ba 233d af7f d4bc 75f7 48bd
00000240: 78db 31bd 0f45 893a 1946 49bc ed0b 11bd
00000250: 2dc7 e1bb 087b 67bd 0222 203c 80e3 12bc
00000260: d960 17bb 1812 453d 08f1 3a3d 15c9 d43c
00000270: 1c95 cf3c a639 48bd 675e 64bc a48e 123c
00000280: 0c6b 67bb d6aa 07bd 0425 c33a 9caa ccbb
00000290: 0c6c 3239 1034 353d fb04 21bc ff2e 7bbd

weight f4 [1, 11]
0.030391151 -0.087229595 -0.07362706 -0.17774753 0.25484338 0.15282987 -0.031448573 -0.20854136
0.051276475 0.106286444 0.17832789
00000000: ddf6 f83c 6ea5 b2bd c9c9 96bd 7303 36be
00000010: d57a 823e 6f7f 1c3e 38d0 00bd de8b 55be
00000020: 4807 523d b5ac d93d 969b 363e
