js_park/saved_models/best_AF.pth (torch, 455831 bytes, 5 tensors)

weight f4 [168, 336]
0	0xbcef5541	-0.029215457
1	0xbc52cf3a	-0.0128667895
2	0xbc973731	-0.018458935
3	0x3d576237	0.0525839
4	0xbd3143de	-0.043277614
5	0x3d372ebc	0.044722304
6	0x3c070249	0.008240291
7	0xbd360d01	-0.044445995
8	0xbbbdf95f	-0.0057975496
9	0xbc81875b	-0.015811613
10	0x3d0f9027	0.035049584
11	0x3d48d61f	0.049032327
12	0x3cd037ae	0.025417175
13	0xbcfec2f1	-0.031098815
14	0xbd39222e	-0.045198612
15	0x3b8fe2f2	0.0043910677
16	0xbca506e3	-0.020144885
17	0x3c8fd971	0.017559739
18	0x3cf8c0ef	0.030365435
19	0xbd56a35c	-0.052401885
20	0x3d1fd0e8	0.039017588
21	0x3d08e934	0.033425525
22	0xbcfe2174	-0.031021811
23	0xbcfc1d57	-0.03077571
24	0x3b2df851	0.0026545713
25	0xbcf4b446	-0.029871117
26	0x3cd6c9a1	0.026219191
27	0xbd628166	-0.055299185
28	0x3d43f396	0.047839724
29	0xbd2645f7	-0.040594067
30	0x3c588110	0.013214365
31	0x3bfb6431	0.007671856
32	0xbcdf1295	-0.02723054
33	0x3c9acde5	0.018897006
34	0xbd59156b	-0.05299894
35	0xbd3a7209	-0.04551891
36	0xbcdd533b	-0.027017226
37	0x3a2c5856	0.00065744424
38	0x3cd8d05b	0.02646654
39	0x3d4a9bb5	0.0494649
40	0x3ad1bb00	0.0016001165
41	0x3cde3f74	0.027129866
42	0x3cd7a80a	0.026325244
43	0x3cf20a1f	0.029545842
44	0x3d3328cd	0.043740083
45	0xbd11307f	-0.03544664
46	0xbc031314	-0.008000154
47	0xbc21093f	-0.009828865
48	0x3d2f6b42	0.0428269
49	0xbd795643	-0.06087328
50	0x3c9527b6	0.018207412
51	0x3c3d44b7	0.011552027
52	0xbc246251	-0.010033206
53	0xbc9f6460	-0.019457042
54	0x3d34ea6b	0.04416887
55	0x3ce3678f	0.027759342
56	0xbc9fa565	-0.019488046
57	0xbd314520	-0.043278813
58	0xbd21e160	-0.039521575
59	0xbc679916	-0.01413562
60	0x3cea4264	0.02859611
61	0x3d354d41	0.04426313
62	0x3c0c1912	0.008550899
63	0x3d61d62c	0.05513589
64	0x3d2e1f1d	0.04251014
65	0xbd4bc5cc	-0.04974918
66	0xbd604750	-0.05475551
67	0xbca6fd21	-0.020384373
68	0xbd1b5d5a	-0.037930824
69	0xbc9c95dc	-0.019114427
70	0xbad9d64d	-0.0016619653
71	0xbc0bb2a4	-0.008526478
72	0x3b8a6179	0.0042230454
73	0x3d4c4df5	0.049879033
74	0xbd2e8327	-0.042605545
75	0xbcb7fa2c	-0.022458158
76	0x3d3df639	0.046377394
77	0xbc4c00d6	-0.012451371
78	0xbc0e7cf6	-0.008696785
79	0x3c5326ec	0.012887698
80	0xbd26daab	-0.04073588
81	0x3d506632	0.05087871
82	0xbc99b209	-0.018761652
83	0xbac1e274	-0.001479222
84	0x3d501de7	0.050809767
85	0xbd189811	-0.037254397
86	0xbcffe6d2	-0.031237993
87	0xbcd057b3	-0.025432443
88	0xbcc15e57	-0.023604555
89	0x3d5a7e3b	0.05334304
90	0xbd1218d9	-0.035668228
91	0xbcb74b3b	-0.02237474
92	0xbb7ad221	-0.003827222
93	0x3cf731f8	0.030175194
94	0xbd3adf98	-0.045623392
95	0xbd1a462b	-0.037664574
96	0xbc12b202	-0.008953573
97	0x3d27425e	0.040834777
98	0x3bcfce57	0.0063417363
99	0x3cf9fa5e	0.030514892
100	0xbb17517a	-0.0023089335
101	0x3c1b1e99	0.009467744
102	0xbc0e3900	-0.008680582
103	0xbce1e6fa	-0.027575959
104	0xbcb02572	-0.02150223
105	0xbc3069c7	-0.010767407
106	0xbd1643ab	-0.036685627
107	0xbd33fcc9	-0.043942247
108	0xbc4dc16a	-0.012558321
109	0x3c8bd0c1	0.017067315
110	0xbca0fd35	-0.019651989
111	0x3cc63e6e	0.02419969
112	0xbd107c95	-0.03527506
113	0x3d3b9faf	0.045806583
114	0x3cdfd706	0.02732421
115	0x3c8b010f	0.016968278
116	0xbcc9f86b	-0.024654588
117	0x3cb59470	0.022165507
118	0x3d82bf24	0.063841134
119	0x3d1e9056	0.03871187
120	0x3d149316	0.036273085
121	0x3d790170	0.060792387
122	0xbd1301c1	-0.035890345
123	0x3d455c75	0.048183877
124	0x3cbc0e65	0.022956083
125	0xbb6b0041	-0.0035858306
126	0x3c78a7b8	0.015176706
127	0x3c221e68	0.009894945
128	0xbc25a77d	-0.010110733
129	0x3cf2bd13	0.029631173
130	0xbcc9d4a7	-0.024637533
131	0xbd00e211	-0.031465594
132	0xbd0b44f8	-0.03400132
133	0x3d5b4bc7	0.053539064
134	0xbcacdb2d	-0.021100605
135	0xbc75e546	-0.015008276
136	0xbd20273d	-0.03909992
137	0x3d2637d8	0.0405806
138	0xbd01b745	-0.03166892
139	0xbd301854	-0.04299195
140	0x3d7c46f3	0.0615911
141	0x3d00b33e	0.03142094
142	0xbca7919f	-0.02045518
143	0xbd114fd2	-0.035476513
144	0x3bcc00bc	0.0062256735
145	0x3cd027a7	0.025409533
146	0xbd20c68b	-0.039251845
147	0xbbec3fad	-0.007209739
148	0x3d4544c4	0.048161283
149	0xbc9be5fb	-0.019030562
150	0x3c7d5ea6	0.0154644605
151	0x3b9668e7	0.004590142
152	0xbc47e4ce	-0.012200547
153	0x3d426be5	0.047466177
154	0x3d161ad1	0.036646668
155	0x3cac3fab	0.021026453
156	0xbd2f390b	-0.04277901
157	0x3d1d7ad0	0.0384472
158	0xbd28eda5	-0.04124226
159	0xbd337f7a	-0.043822743
160	0x3d1a9ad8	0.037745327
161	0x3ce01c47	0.027357234
162	0x3d579bde	0.05263888
163	0x3c916444	0.017748006
164	0xbc0b47a8	-0.008500971
165	0xbd165606	-0.036703132
166	0x3d1d2359	0.03836379
167	0x3d493695	0.04912432
168	0xbd5ed8d0	-0.054405987
169	0x3d35b547	0.044362333
170	0xbd09c890	-0.033638537
171	0x3a1c3e88	0.00059602456
172	0xbd175e47	-0.036955144
173	0x3d0a355a	0.033742286
174	0x3cec508a	0.028846998
175	0xbb831587	-0.004000369
176	0xbd412211	-0.04715163
177	0x3a4da22a	0.0007844294
178	0x3d2ffd9a	0.042966463
179	0x3cdaa4cb	0.026689908
180	0x3ca1c748	0.019748345
181	0xbd30a617	-0.043127146
182	0x3c06dbe6	0.008231139
183	0xbd3dfcd6	-0.0463837
184	0x3d2f06f5	0.042731244
185	0xbd0042de	-0.03131377
186	0xbcbd9862	-0.02314395
187	0x3c1d00e3	0.009582731
188	0xbd3039a2	-0.043023713
189	0x3bbef5c4	0.0058276374
190	0xbd11750d	-0.03551202
191	0x3d363956	0.044488274
192	0xbcb1a8e5	-0.02168698
193	0x3c01bcbc	0.007918533
194	0xbd2c27a0	-0.042029977
195	0x3b149e02	0.0022677188
196	0xbd27b018	-0.04093942
197	0x3cb7a149	0.022415774
198	0xbc1ee905	-0.009699111
199	0xbd57ff66	-0.0527338
200	0x3d3f9f61	0.046782855
201	0x3d5969d7	0.053079452
202	0x3d15bba6	0.03655591
203	0xbd4f0fad	-0.05055206
204	0x3c331253	0.010929662
205	0xbd2eb5d1	-0.042653862
206	0x3d10e27e	0.03537225
207	0x3cabbc78	0.020963892
208	0xbd1b0504	-0.03784658
209	0x3beb836e	0.0071872985
210	0xbcd71f1a	-0.026259948
211	0xbd19d2d3	-0.037554573
212	0xbce4a9c8	-0.02791299
213	0x3d4182e8	0.047243983
214	0x3d381c5c	0.04494892
215	0xbd493936	-0.049126826
216	0xbb2a2ad8	-0.0025965478
217	0xbd25e589	-0.040502105
218	0xbd7605dc	-0.06006418
219	0xbcb7435b	-0.022370985
220	0x3d1bcb9e	0.03803598
221	0x3d0a4963	0.033761393
222	0xbc841f96	-0.016128343
223	0xbce16886	-0.027515661
224	0xbd132c2c	-0.035930797
225	0x3d087a2c	0.033319637
226	0xbd4aa2c1	-0.04947162
227	0x3d1e3dc6	0.03863313
228	0x3c9029c0	0.017598033
229	0x3b21f17c	0.0024710586
230	0xbd553a95	-0.05205782
231	0xbcea0ce2	-0.028570596
232	0x3c252eac	0.010081928
233	0xbc0c947b	-0.008580322
234	0xbac307c3	-0.0014879633
235	0xbc7a4f9f	-0.015277772
236	0x3d27900f	0.04090887
237	0x3d20078c	0.039069697
238	0x3cdf6732	0.027270887
239	0x3ce55dbc	0.027998798
240	0xbcb1f441	-0.021722915
241	0x3d0976aa	0.033560432
242	0x3b881f10	0.0041540936
243	0x3b2b12b7	0.0026103684
244	0xbcb3dc6c	-0.021955691
245	0x3ca938e2	0.020657007
246	0xbd602e80	-0.054731846
247	0xbb9d99cc	-0.004809594
248	0xbd397d12	-0.045285292
249	0xbd72981c	-0.059227094
250	0x3d36234d	0.04446726
251	0x3cd90524	0.026491709
252	0xbbb2cdb3	-0.00545665
253	0x3c5c165b	0.013433064
254	0xbccff219	-0.025383996
255	0x3bce1a2c	0.006289741

bias f4 [168]
0	0x3cdebb12	0.027188811
1	0x3d78a94e	0.060708337
2	0x3d399a99	0.04531345
3	0x3d9b805a	0.075928405
4	0x3cdebf2b	0.027190765
5	0x3c8611d3	0.016365921
6	0x3d7779db	0.060418945
7	0x3dad0a65	0.08449248
8	0x3dbc1b2d	0.09184871
9	0x3cb9398f	0.022610454
10	0x3d97c6f4	0.07410994
11	0x3d2f4872	0.0427937
12	0x3ce5b46d	0.028040135
13	0x3d956d8e	0.072962865
14	0x3d886c24	0.06661251
15	0x3cd66697	0.026171966
16	0x3d7c5151	0.061600987
17	0x3d92fa49	0.07176644
18	0x3d1feb4d	0.03904276
19	0x3d30c0b2	0.04315252
20	0x3d8fe474	0.07025996
21	0x3d7a31be	0.061082594
22	0x3d20966f	0.039205965
23	0x3d830515	0.06397454
24	0x3d59bdac	0.0531594
25	0x3dad852c	0.08472666
26	0x3d84d24b	0.06485423
27	0x3d6ef7fa	0.058341958
28	0x3d85a77e	0.06526087
29	0x3d91bc35	0.07115976
30	0x3d0b2c98	0.033978075
31	0x3db9b969	0.09068567
32	0x3d835a0b	0.06413659
33	0x3db80b34	0.08986512
34	0x3d798a8d	0.060923148
35	0x3d4468f6	0.04795166
36	0x3d874d9e	0.06606601
37	0x3d30e38a	0.04318575
38	0x3db7f7ad	0.08982787
39	0x3d8280b5	0.06372205
40	0x3d9856c0	0.07438421
41	0x3db8b0e1	0.09018112
42	0x3d64c92c	0.055855915
43	0x3dad613c	0.084658116
44	0x3da74f49	0.08169419
45	0x3d3152ed	0.043291975
46	0x3d5e3b7c	0.054255947
47	0x3d7dc144	0.06195189
48	0x3c91bbdc	0.017789774
49	0x3d557355	0.052111942
50	0x3dd3555f	0.103190176
51	0x3db82ed3	0.08993306
52	0x3de92758	0.11384457
53	0x3dbf3159	0.09335584
54	0x3db6bfdf	0.08923315
55	0x3db9e452	0.09076752
56	0x3d868bda	0.06569643
57	0x3d8b760a	0.068096235
58	0x3d7b684d	0.061378766
59	0x3d9a94dc	0.07547924
60	0x3d856d39	0.06514973
61	0x3d977355	0.07395045
62	0x3dae64c8	0.08515316
63	0x3d5e428a	0.054262675
64	0x3dc8b666	0.09800415
65	0x3d49e077	0.049286332
66	0x3d886245	0.066593684
67	0x3d1d05c6	0.038335584
68	0x3d6ae89f	0.05735075
69	0x3d40ffcc	0.047118947
70	0x3d96ee7f	0.07369708
71	0x3d84080f	0.064468496
72	0x3d688b3e	0.056773417
73	0x3da6cba2	0.081443086
74	0x3d10fd9f	0.035398122
75	0x3dc34fb9	0.0953669
76	0x3d406ac7	0.04697683
77	0x3db71183	0.08938887
78	0x3db93e81	0.09045125
79	0x3dc7d9c1	0.0975833
80	0x3d9345d1	0.07191051
81	0x3ca33e4e	0.01992717
82	0x3d7c879d	0.06165277
83	0x3dbfab47	0.093588404
84	0x3d6cb324	0.05778803
85	0x3d546cc5	0.051861543
86	0x3d8382b6	0.064214155
87	0x3dc08bcc	0.09401664
88	0x3d3f1c91	0.046658102
89	0x3d6c2d02	0.05766011
90	0x3dc1b37f	0.09458064
91	0x3dc78a10	0.0974313
92	0x3ddd1682	0.10795309
93	0x3d94dff4	0.07269278
94	0x3d96ee0a	0.07369621
95	0x3d91becd	0.071164705
96	0x3da4a6e9	0.08039648
97	0x3ddc0864	0.10743788
98	0x3ce8c006	0.028411876
99	0x3d8103ab	0.06299528
100	0x3d49ad54	0.049237564
101	0x3d45db39	0.04830477
102	0x3d323165	0.043504138
103	0x3d493445	0.049122114
104	0x3d1791ae	0.037004165
105	0x3daa7736	0.08323519
106	0x3d9e9fa2	0.07745291
107	0x3da515e7	0.08060818
108	0x3d879f9a	0.066222385
109	0x3d7db925	0.061944146
110	0x3dab9e77	0.08379834
111	0x3d58d228	0.052934796
112	0x3d8a099b	0.06740113
113	0x3daa5250	0.08316481
114	0x3d8858ff	0.066576
115	0x3dc5d84e	0.096603975
116	0x3d74e6d7	0.05979046
117	0x3d965c99	0.0734188
118	0x3da59d25	0.080866136
119	0x3db9ec84	0.09078315
120	0x3d21935f	0.039447185
121	0x3d9dd664	0.077069074
122	0x3d538bc2	0.051646955
123	0x3dbaef7c	0.09127709
124	0x3d3385e6	0.043828867
125	0x3d871147	0.06595092
126	0x3dba08a6	0.09083681
127	0x3d37893a	0.044808604
128	0x3dc0fffb	0.094238244
129	0x3d866102	0.065614715
130	0x3d22ac39	0.039715026
131	0x3d870186	0.065920874
132	0x3d2f60a3	0.04281677
133	0x3ccdb0c2	0.025108699
134	0x3da54c55	0.080712
135	0x3d7e35fa	0.062063195
136	0x3de54b0f	0.11195957
137	0x3d3d8d3b	0.046277266
138	0x3d8883ba	0.0666575
139	0x3d88ede2	0.066859975
140	0x3de0b9b1	0.10972918
141	0x3d7c8903	0.061654102
142	0x3dbb503f	0.09146165
143	0x3db613cb	0.08890494
144	0x3d7c4cb9	0.061596606
145	0x3d9fb8f4	0.07798949
146	0x3d8907a0	0.066909075
147	0x3caa0504	0.020754345
148	0x3d3b2f8e	0.04569965
149	0x3d9e70c4	0.07736352
150	0x3d313a0f	0.04326826
151	0x3d9a8ca6	0.07546358
152	0x3dd7664b	0.10517558
153	0x3db6ac0e	0.089195356
154	0x3d9cf718	0.07664317
155	0x3d855c4c	0.06511745
156	0x3d5da176	0.05410906
157	0x3d749b96	0.05971869
158	0x3da0dde9	0.07854826
159	0x3d8bc743	0.068251155
160	0x3da18f5a	0.0788867
161	0x3dcc170d	0.09965334
162	0x3d3e54cf	0.0464676
163	0x3dae8d3d	0.08523033
164	0x3d9e0359	0.07715482
165	0x3de4e3a4	0.111762315
166	0x3dae9acc	0.08525619
167	0x3d59ee6d	0.053205896

weight f4 [168, 336]
0	0x3d3b31f1	0.045701925
1	0xbd6395da	-0.05556283
2	0xbc34b375	-0.011029114
3	0xbc637180	-0.013882041
4	0x3aa168d4	0.0012314566
5	0x3cfb85a0	0.030703366
6	0xbbd1c376	-0.0064014746
7	0xb9847917	-0.0002526722
8	0xbd77627e	-0.060396664
9	0xbca7f758	-0.020503685
10	0xbd7a276d	-0.061072756
11	0x3ce3d125	0.027809689
12	0xbc778281	-0.015106798
13	0xbd51dc1f	-0.051235314
14	0xbca87e39	-0.020568
15	0x3d15118a	0.03639368
16	0x3c8b2f9d	0.016990477
17	0xbcc1314c	-0.023583077
18	0x3d8ae07a	0.06781097
19	0x3d5bd551	0.05367023
20	0x3d2349f5	0.039865453
21	0xbc175155	-0.0092357
22	0xbbf8220e	-0.007572419
23	0xbd129748	-0.035788804
24	0x3d0050b9	0.031326983
25	0x3d095bc1	0.03353477
26	0x3d65ae4b	0.05607442
27	0x3d009a4d	0.031397153
28	0x3cba1cc8	0.022718802
29	0xbd44c35b	-0.048037868
30	0xbc5974af	-0.013272448
31	0xbdb9270d	-0.090406515
32	0xbd0d0b55	-0.034434635
33	0xbd6ab988	-0.057305843
34	0x3cfbdf74	0.0307462
35	0xbd16a114	-0.03677471
36	0x3cbc35dd	0.022974903
37	0x3cd87281	0.026421787
38	0xbbc1d8c7	-0.0059157345
39	0x3bbd1970	0.0057708547
40	0xbd1ebd02	-0.03875447
41	0x3d6b8a70	0.05750507
42	0xbaa5308f	-0.0012602973
43	0x3d8cbde3	0.068721555
44	0x3d4e199b	0.050317388
45	0x3d6b02a2	0.057375558
46	0xbbde6eb8	-0.006788101
47	0xbca6f159	-0.020378755
48	0x3d83a8fd	0.06428716
49	0xbd3a881a	-0.045539953
50	0xbd1c6d2c	-0.038190052
51	0x3ccbaba4	0.024862118
52	0x3c7808c1	0.015138806
53	0xbd6e02e1	-0.058108214
54	0xbc1958df	-0.009359567
55	0xbd83fb6d	-0.0644444
56	0xbbe444e3	-0.0069662197
57	0xbd6c3acd	-0.057673264
58	0xbd7670fc	-0.060166344
59	0x3cc06a3a	0.023488153
60	0xbc8cc25c	-0.017182522
61	0xbc7541da	-0.0149693135
62	0x3d2edaca	0.042689122
63	0xbd0dd47a	-0.03462646
64	0x3c994f5c	0.0187146
65	0xbc7eed1d	-0.015559462
66	0x3d73ac8f	0.059490737
67	0x3c1d539b	0.009602453
68	0x3d8f0aed	0.06984506
69	0x3d82891d	0.063738085
70	0xbd32b132	-0.043626018
71	0x3c63da00	0.013906956
72	0x3d9fc3f2	0.078010455
73	0x3d83f114	0.064424664
74	0xbd1515bb	-0.036397677
75	0xbc5a248a	-0.013314376
76	0x3d64a547	0.055821683
77	0xbb6ef1ce	-0.0036460045
78	0xbd0098cf	-0.03139573
79	0xbd8f1590	-0.069865346
80	0xbcb3e04e	-0.021957543
81	0xbb0fdc92	-0.0021951539
82	0xbd52f402	-0.051502235
83	0xbd4ebc89	-0.05047277
84	0xbc0f2eca	-0.008739183
85	0x3bbb15fd	0.0057094083
86	0x3c991dbf	0.018690942
87	0xbcbea4ce	-0.023271944
88	0xbc45ea72	-0.012079822
89	0x3d73fcf6	0.059567414
90	0xbb87e1a7	-0.004146773
91	0x3c2a849d	0.010407594
92	0xbc3e08ab	-0.011598746
93	0xbce57cc9	-0.028013604
94	0x3d4003c7	0.046878602
95	0xbb63e620	-0.0034774616
96	0x3d6cabf3	0.05778117
97	0xbd199048	-0.037491113
98	0xbcb25e47	-0.02177347
99	0xbd08ccd6	-0.03339847
100	0x3c36ecb0	0.011164829
101	0xbd9a3c72	-0.0753106
102	0xbcd67606	-0.026179325
103	0xbce33646	-0.02773584
104	0xbce38b3c	-0.027776353
105	0xbdb8e00e	-0.0902711
106	0xbd81eb55	-0.06343714
107	0xbd228995	-0.03968199
108	0x3cc8e0b1	0.024521204
109	0xbcad35e5	-0.021143863
110	0x3d277691	0.040884558
111	0xbcd071e4	-0.025444932
112	0x3cc9eb63	0.024648374
113	0x3d15689e	0.036476724
114	0x3d860eb4	0.06545773
115	0x3ce6ccd8	0.028173849
116	0x3d69c40e	0.057071738
117	0x3bfff2cd	0.0078109265
118	0xbd059fe3	-0.032623183
119	0xbc66e37b	-0.0140923215
120	0x3c904242	0.01760972
121	0xbbae84b4	-0.005325878
122	0xbbfe24b2	-0.0077558393
123	0x3cde34ac	0.027124725
124	0x3d05057d	0.032475937
125	0x3a203250	0.0006111013
126	0xbcb99ab0	-0.022656769
127	0x3d166fb8	0.036727637
128	0xbc2e849b	-0.010651733
129	0x3c9b207c	0.018936388
130	0x3c13fc86	0.009032374
131	0xbc869d5e	-0.01643246
132	0x3d35c105	0.04437353
133	0xbd1261c4	-0.035737768
134	0xbd664600	-0.0562191
135	0xbc5ffc94	-0.013671059
136	0xbc9f3836	-0.019435983
137	0x3ca58873	0.020206666
138	0x3d4481ea	0.04797546
139	0x3d79d81f	0.060997125
140	0x3d6de481	0.058079246
141	0x3c179a5b	0.00925311
142	0xbd0ae0f0	-0.033905923
143	0x3cb702f1	0.02234027
144	0x3c234c63	0.0099669425
145	0x3d46d3b1	0.04854173
146	0x3cfb4ecd	0.030677224
147	0x3c6123b5	0.013741423
148	0x3bf056ca	0.007334565
149	0x3d024731	0.031806175
150	0x3d24335e	0.04008805
151	0xbc4cbf9c	-0.012496855
152	0x3ca39e08	0.019972816
153	0x3c215ad8	0.009848319
154	0xbca97e3a	-0.020690072
155	0x3b26d8e1	0.002545886
156	0xbd3488b1	-0.04407567
157	0xbc9f7c94	-0.019468583
158	0xbd6a6919	-0.057229135
159	0xbca9289a	-0.020649243
160	0x3c3f329a	0.011669779
161	0x3c9048df	0.017612873
162	0xbc9cf472	-0.01915953
163	0xbd6180c4	-0.05505444
164	0xbcb7e061	-0.02244586
165	0x3d149724	0.03627695
166	0xbceb748b	-0.028742095
167	0x3d0eb83a	0.03484366
168	0x3990aa4f	0.0002759271
169	0xbc0c0f1b	-0.008548523
170	0xbd1c55f7	-0.03816792
171	0x3d8046c4	0.062634975
172	0x3d4c321e	0.049852483
173	0x3d53218c	0.051545665
174	0x3ce5fe6f	0.028075425
175	0x3d067fd4	0.03283675
176	0x3d2ce933	0.042214584
177	0xbccd3780	-0.025050879
178	0xbcdf674f	-0.027270941
179	0xbb8276c2	-0.003981442
180	0xbca9e2aa	-0.020737965
181	0xbd9d59ab	-0.076831184
182	0x3bbd1168	0.0057698973
183	0xbd9577f7	-0.07298272
184	0xbd0ced67	-0.034406092
185	0xbd2bd08f	-0.041946944
186	0x3d3d286e	0.046181135
187	0x3d4875c1	0.048940424
188	0x3d2f2e23	0.04276861
189	0x3bad8ced	0.0052963407
190	0x3d0526ad	0.032507587
191	0x3cad2cf2	0.021139596
192	0x3d914cf1	0.070947535
193	0x3c2277fb	0.009916301
194	0x3cddfad9	0.027097153
195	0x3cf27241	0.029595496
196	0x3ce92223	0.02845866
197	0x3d4207ca	0.04737071
198	0x3cdae13f	0.026718734
199	0xbc875a7e	-0.016522642
200	0x3d08d3cd	0.033405114
201	0x3d095be2	0.033534892
202	0x3c481532	0.012212085
203	0x3ceb374e	0.028712895
204	0x3b390120	0.002822943
205	0xbd2c930f	-0.042132434
206	0xbaaac97b	-0.0013030017
207	0xbbf149b7	-0.007363524
208	0xbb266a98	-0.0025393125
209	0xbd48a075	-0.04898115
210	0x3c5c214a	0.013435671
211	0xbc0f4d91	-0.008746521
212	0xbb5a5d09	-0.0033319613
213	0xbc0436a1	-0.008069665
214	0xbd2316c2	-0.039816625
215	0xbd2cf99d	-0.042230237
216	0xbc22821e	-0.009918718
217	0x3da22bb4	0.07918492
218	0x3b0229d1	0.001986135
219	0x3ca0bbb0	0.019620746
220	0x3c834355	0.016023317
221	0x3d11d6b8	0.035605162
222	0xbd6f704d	-0.058456708
223	0x3cadefb2	0.02123246
224	0xbc9938d5	-0.018703857
225	0x3cbad6ed	0.022807563
226	0xbcd8b2d2	-0.026452456
227	0x3c5e81a2	0.013580712
228	0xbd9919b7	-0.07475608
229	0x3c155c65	0.009116267
230	0xbd21cb3a	-0.039500453
231	0xbd8afe56	-0.06786792
232	0x3ce8aba1	0.028402152
233	0xbcd3f4dd	-0.025873596
234	0x3c7383ee	0.014862997
235	0xbcd3ea9a	-0.025868703
236	0xbca2a9b7	-0.019856317
237	0x3c645e6a	0.013938526
238	0xbd3cac32	-0.046062656
239	0x3c4c3fde	0.012466399
240	0x3d26ec35	0.04075261
241	0x3d6a273d	0.057166327
242	0x3b83a573	0.004017526
243	0xbc08cfb6	-0.008350303
244	0x3cdb3e5f	0.02676314
245	0xbd1dc2bf	-0.038515802
246	0x3cdc53fe	0.02689552
247	0xbca93dcd	-0.020659352
248	0x3cbd0783	0.02307487
249	0x3c94f3bc	0.018182628
250	0xbd7ec0dc	-0.062195644
251	0xbd100d54	-0.03516896
252	0xbce6568e	-0.028117444
253	0xbca444ed	-0.020052398
254	0xbd0aaa6a	-0.033853926
255	0x3c8f78a4	0.01751358

bias f4 [168]
0	0x3dde3db5	0.108516134
1	0x3d98b56f	0.07456481
2	0x3db5fefb	0.08886524
3	0x3d6884e6	0.056767367
4	0x3dd4cfd9	0.10391206
5	0x3de85723	0.11344745
6	0x3d8f480a	0.06996162
7	0x3d35deee	0.044402055
8	0x3d1af8d9	0.037834976
9	0x3dda35b4	0.10654774
10	0x3d65da41	0.056116346
11	0x3db67433	0.08908882
12	0x3dd30502	0.103036895
13	0x3d6cc0cd	0.057801057
14	0x3d85161a	0.06498356
15	0x3dd8970f	0.10575687
16	0x3d94c080	0.07263279
17	0x3d7edc8b	0.062222045
18	0x3dbb53a8	0.091468155
19	0x3db4e351	0.0883242
20	0x3d800b50	0.06252158
21	0x3d91d794	0.071211964
22	0x3dbc3920	0.09190583
23	0x3d92c85b	0.07167121
24	0x3dab9abc	0.083791226
25	0x3d527b81	0.051387314
26	0x3d8f1a5f	0.06987452
27	0x3d99e0c7	0.07513576
28	0x3d885f04	0.06658748
29	0x3d77a970	0.060464323
30	0x3dc5522a	0.09634812
31	0x3d1f177e	0.038840763
32	0x3d874936	0.06605761
33	0x3d275bff	0.04085922
34	0x3d9466ba	0.07246156
35	0x3db13245	0.08652166
36	0x3d8b2048	0.067932665
37	0x3dbad12e	0.09121929
38	0x3d357593	0.04430158
39	0x3d9154a7	0.07096224
40	0x3d7b0e18	0.061292738
41	0x3d39908e	0.045303874
42	0x3d9a694d	0.07539616
43	0x3d470fd3	0.048599076
44	0x3d5456e3	0.051840674
45	0x3db675ad	0.089091636
46	0x3d9d6215	0.07684723
47	0x3d92f09f	0.07174801
48	0x3deec6e2	0.11659028
49	0x3da80c70	0.08205497
50	0x3cf63d77	0.030058606
51	0x3d2ac00f	0.041687068
52	0x3c8e73c4	0.017389186
53	0x3d17ae97	0.037031736
54	0x3d239182	0.03993369
55	0x3d20dc32	0.039272495
56	0x3d838daa	0.06423505
57	0x3d7ecad9	0.06220517
58	0x3d90a608	0.07062918
59	0x3d6c0a30	0.057626903
60	0x3d89cccf	0.06728517
61	0x3d727b50	0.05919963
62	0x3d485802	0.048912056
63	0x3da31a7a	0.079640344
64	0x3d168383	0.036746513
65	0x3db06269	0.0861252
66	0x3d8577b7	0.065169744
67	0x3dc1aaaa	0.0945638
68	0x3d9da958	0.076983154
69	0x3daeeb36	0.08540957
70	0x3d6b2ebd	0.05741762
71	0x3d91b01f	0.071136706
72	0x3da124f8	0.07868379
73	0x3d5e8ea9	0.05433527
74	0x3dcc0644	0.099621326
75	0x3d18ab82	0.037272938
76	0x3dae3508	0.08506209
77	0x3d315236	0.043291293
78	0x3d22cdcc	0.039747044
79	0x3d03b182	0.032151707
80	0x3d6f1ab0	0.05837506
81	0x3dde46e4	0.10853365
82	0x3d8a2086	0.067444846
83	0x3d17e472	0.037083097
84	0x3d943ee9	0.07238562
85	0x3d9f8ceb	0.0779055
86	0x3d879d9c	0.066218585
87	0x3d194f2d	0.037429024
88	0x3db0cdb4	0.08632985
89	0x3d9a4842	0.07533313
90	0x3d169a88	0.036768466
91	0x3d0dbb04	0.03460218
92	0x3cd4177c	0.025890104
93	0x3d7a4036	0.061096393
94	0x3d6a5d61	0.05721796
95	0x3d84ce1d	0.064846255
96	0x3d67c5ea	0.05658523
97	0x3cebb039	0.028770553
98	0x3ddac939	0.106829114
99	0x3d904a5d	0.07045434
100	0x3da8d233	0.08243217
101	0x3dabe5bd	0.083934285
102	0x3db39711	0.08769048
103	0x3da4dc9a	0.08049889
104	0x3dc20157	0.09472912
105	0x3d4dd41c	0.05025111
106	0x3d7520b7	0.059845652
107	0x3d5f2b75	0.054484803
108	0x3d8eb1ce	0.06967507
109	0x3d960de5	0.07326869
110	0x3d546162	0.051850684
111	0x3da908df	0.08253645
112	0x3d8f5721	0.069990404
113	0x3d4cfbf5	0.050044972
114	0x3d8ba52f	0.06818616
115	0x3d15603c	0.03646873
116	0x3d9abf63	0.07556035
117	0x3d7b0d94	0.061292246
118	0x3d515a55	0.051111538
119	0x3d427f2b	0.047484558
120	0x3dc8d454	0.098061234
121	0x3d77b531	0.060475532
122	0x3dad6c48	0.08467919
123	0x3d309467	0.043110278
124	0x3db5c93a	0.088762715
125	0x3d85237b	0.06500908
126	0x3d254748	0.040351182
127	0x3daf23b9	0.085517354
128	0x3d151aee	0.036402635
129	0x3d8d3f05	0.06896786
130	0x3dc61cd3	0.096734665
131	0x3d8edcd8	0.06975716
132	0x3dbb4e0d	0.091457464
133	0x3de00741	0.109388836
134	0x3d5f9445	0.05458476
135	0x3d96f1af	0.07370316
136	0x3cd73099	0.02626829
137	0x3dbad386	0.09122376
138	0x3d8ca133	0.06866684
139	0x3d92449e	0.07141994
140	0x3ce81878	0.02833198
141	0x3d965d50	0.07342017
142	0x3d26a8c6	0.0406883
143	0x3d494fe6	0.049148463
144	0x3d9e7bd2	0.077384606
145	0x3d788fba	0.060683943
146	0x3d8df4e2	0.06931473
147	0x3de86150	0.11346686
148	0x3db3f37b	0.087866746
149	0x3d65315b	0.055955272
150	0x3db3992e	0.08769451
151	0x3d65add8	0.056073993
152	0x3ce778dc	0.028255872
153	0x3d2e45d4	0.042547062
154	0x3d68c33d	0.05682682
155	0x3d8fb3f4	0.07016745
156	0x3daa22e8	0.08307439
157	0x3d9f2b7e	0.07771967
158	0x3d71748d	0.058949042
159	0x3d8f4b8f	0.069968335
160	0x3d7f3309	0.06230453
161	0x3d1bc8e4	0.03803338
162	0x3db4a492	0.08820452
163	0x3d4bd5bb	0.049764376
164	0x3d6fff18	0.058592886
165	0x3cbc2cdd	0.022970611
166	0x3d45a85c	0.048256263
167	0x3dae0e9b	0.084988795

weight f4 [1, 27]
0	0xbdd4e3eb	-0.103950344
1	0x3d8de53d	0.06928489
2	0x3d08df98	0.03341636
3	0x3da7a98f	0.081866376
4	0xbb340325	-0.0027467695
5	0x3e83957f	0.25699994
6	0x3e2841bb	0.16431324
7	0x3d9d3674	0.07676402
8	0x3de0a082	0.109681144
9	0x3d032a36	0.032022677
10	0x3e650a91	0.22367312
11	0x3e4c9813	0.19979887
12	0x3e82431b	0.25441822
13	0x3cec4216	0.028840106
14	0x3e1fbea9	0.15600075
15	0x3e1b6393	0.15174703
16	0x3e82c26d	0.2553896
17	0xbca91211	-0.020638498
18	0x3e598589	0.21242346
19	0x3a2356ac	0.00062308717
20	0xbdd1b9e9	-0.10240538
21	0x3c2e9d49	0.010657617
22	0x3ddbb621	0.10728098
23	0xbd55e945	-0.052224416
24	0x3dfafff3	0.1225585
25	0xbd86cdeb	-0.065822445
26	0xbde9ce40	-0.11416292
