js_park/saved_models/best_AF_3.pt (torch, 455975 bytes, 5 tensors)

weight f4 [168, 336]
0	0xbcc5b408	-0.024133697
1	0x3c5d1889	0.013494619
2	0xbc9d89b2	-0.019230697
3	0xbaa713c3	-0.0012746978
4	0x3cb2964b	0.02180018
5	0xbc55ca63	-0.013048741
6	0xbd154540	-0.036442995
7	0xbc2c2b68	-0.010508396
8	0x3d0d6250	0.034517586
9	0x3cd333a8	0.025781468
10	0xbcb18bb7	-0.021673067
11	0xbd2dfd7f	-0.04247808
12	0xbba532ba	-0.0050414475
13	0xbbb51ba3	-0.005526976
14	0xbd56d8e0	-0.052452922
15	0xbc6cbbc4	-0.014449064
16	0x3cf41dd5	0.029799381
17	0xbcf712fb	-0.030160418
18	0x3ba1a8bd	0.0049334452
19	0x3caab736	0.020839315
20	0xbc4d20fd	-0.012520072
21	0xbcdfa918	-0.02730231
22	0x3d3422c8	0.043978482
23	0x3d088b8c	0.033336207
24	0xbcd2124b	-0.025643488
25	0xbd0905ca	-0.033452787
26	0x3d4bbca4	0.04974045
27	0x3caebc2b	0.02132996
28	0x3c833a8f	0.016019134
29	0xbcb4e68c	-0.02208259
30	0x3d10e0b5	0.035370547
31	0xbc438843	-0.011934343
32	0x3d1f1955	0.038842518
33	0xbca107c7	-0.019657029
34	0xbd4c731c	-0.049914464
35	0xbca748c2	-0.020420436
36	0x3cab539a	0.020913888
37	0xbd68d267	-0.05684128
38	0x3d035e1e	0.03207218
39	0x3d1f7abf	0.03893542
40	0xbc7a9a3f	-0.015295564
41	0xbced7ed1	-0.028991135
42	0xbb0db4fc	-0.0021622768
43	0x3c092f9f	0.00837317
44	0xbcd18359	-0.025575327
45	0xbd5d5b4e	-0.054042153
46	0x3b3fc69f	0.0029262675
47	0xbd26bb32	-0.040705867
48	0x3b77bb74	0.003780094
49	0x3c8819f8	0.016613945
50	0xb9ecd7a5	-0.00045174095
51	0x3d067087	0.03282216
52	0x3c3f7ba5	0.011687194
53	0x3cdc5b8a	0.026899118
54	0x3b508047	0.003181474
55	0xba1083de	-0.0005512814
56	0xbd093536	-0.03349801
57	0xbc6180f5	-0.013763656
58	0x3cba6e18	0.022757575
59	0x3d06d4d6	0.03291782
60	0x3ca7436e	0.020417895
61	0xbce8333b	-0.028344741
62	0xbc0714d8	-0.008244716
63	0xbbb98886	-0.005662027
64	0xbd0d7dbd	-0.03454374
65	0x3d081905	0.033226985
66	0xbd472405	-0.048618335
67	0xbca1384d	-0.019680167
68	0xbc79a225	-0.015236412
69	0x3d137790	0.036002696
70	0xbc31460f	-0.010819926
71	0xbd4b06a7	-0.04956689
72	0x3cce8c57	0.025213404
73	0x3baf697c	0.005353151
74	0xbcba3c3c	-0.0227338
75	0xbd037d83	-0.03210212
76	0xbce7fdc6	-0.02831925
77	0x3d11df02	0.035613067
78	0x3a8eee53	0.0010904766
79	0xbd2f0752	-0.04273159
80	0x3d38c961	0.045113925
81	0xbd55ec0b	-0.05222706
82	0x3aeba202	0.0017977359
83	0x3ce56b00	0.028005123
84	0x3c5d7bf4	0.013518322
85	0xbc892440	-0.016740918
86	0xbd47b0fd	-0.048752774
87	0x3bf17566	0.0073687313
88	0xbd385c19	-0.045009706
89	0xbcec97f0	-0.028881043
90	0xbd02edec	-0.03196518
91	0xbd4e8f71	-0.050429765
92	0xbc67bb0a	-0.014143715
93	0xbd5ee170	-0.054414213
94	0xbb6e05be	-0.003631934
95	0xbd0c12f1	-0.03419775
96	0x3b838487	0.004013601
97	0x3d48adae	0.04899376
98	0xbcef0187	-0.029175533
99	0x3d2c2f15	0.04203709
100	0x3d1eb003	0.038742077
101	0x3d4730a9	0.04863039
102	0x3cfbcebd	0.030738229
103	0x3ce921fd	0.02845859
104	0x3d04d17b	0.03242634
105	0x3cdd2114	0.026993312
106	0xbd149963	-0.036279093
107	0xbd49f931	-0.049309913
108	0xbd463c15	-0.048397142
109	0xbd10b350	-0.035327256
110	0xbc16bd89	-0.009200462
111	0xbce175de	-0.027522024
112	0xbcbd2c46	-0.0230924
113	0xbd4ed66a	-0.05049745
114	0x3d2c41f0	0.04205507
115	0xbd00aa88	-0.03141263
116	0xbccd03a1	-0.025026144
117	0xbd01d67d	-0.031698693
118	0xbc8cc8cd	-0.017185593
119	0xbc69cb88	-0.014269717
120	0x3cdde969	0.027088838
121	0x3d07a5c9	0.03311709
122	0xbca2592e	-0.019817915
123	0x3ca332c0	0.01992166
124	0xbb9502bc	-0.004547445
125	0x3bb343d6	0.005470733
126	0xbd11ad4d	-0.035565663
127	0xbd6690b7	-0.056290355
128	0x3d0e4a69	0.03473893
129	0x3d396d29	0.04527012
130	0x3d0b35c6	0.03398683
131	0x3d1dff57	0.03857359
132	0x3c88521d	0.016640717
133	0x3cc94c55	0.02457253
134	0x3d3fd78f	0.046836432
135	0xbd50b626	-0.05095496
136	0x3d425927	0.047448304
137	0xbd091ad0	-0.033472836
138	0x3c5cd216	0.013477823
139	0xbca92663	-0.020648187
140	0x3d50cfd6	0.050979458
141	0xbd5f69a7	-0.054544117
142	0x3c3d9b63	0.011572692
143	0x3ba30c81	0.004975856
144	0x3d392eff	0.045210835
145	0x3c429c4b	0.011878083
146	0x3bb058ea	0.005381693
147	0xbd02b5ea	-0.031911768
148	0x3d0591a0	0.032609582
149	0x3c0e9bb3	0.008704114
150	0xbd11b8ee	-0.035576753
151	0x3cdad12a	0.026711065
152	0xbbed64de	-0.0072446903
153	0xbd64fdcc	-0.055906102
154	0x3d12bb53	0.035823178
155	0xbd235154	-0.039872482
156	0x3c3ff8cc	0.011717033
157	0x3b5a01fd	0.0033265345
158	0x3b8a143b	0.0042138374
159	0xba614aa0	-0.0008594189
160	0xbcfd3ed8	-0.030913755
161	0x3c8a5c87	0.016889824
162	0xbc37896d	-0.011202198
163	0x3d4abaae	0.049494438
164	0xbcacecb4	-0.021108963
165	0xbcfb3bb9	-0.030668126
166	0xbc90af22	-0.017661635
167	0x3cb625ac	0.02223476
168	0x3c52214b	0.0128253205
169	0x3d2d3702	0.042288788
170	0xbd66bc22	-0.05633176
171	0x3d43c41e	0.047794454
172	0xbd555d47	-0.05209091
173	0xbcabed65	-0.020987222
174	0x3cf7a7cd	0.03023138
175	0x3cc4be33	0.024016475
176	0xbd65357c	-0.05595921
177	0x3d10e9cc	0.035379216
178	0x3d4fe41d	0.050754655
179	0x3d22abae	0.039714508
180	0x3d082a55	0.033243496
181	0x3d1f2a84	0.038858905
182	0xbcb7c97d	-0.022434944
183	0xbb309241	-0.0026942643
184	0xbbff8601	-0.007797957
185	0x3cba7cb6	0.022764545
186	0xbc30e6d8	-0.010797225
187	0x3b90a220	0.004413858
188	0x3c44ddf4	0.012015808
189	0x3a0f0b08	0.0005456661
190	0xbcb9d3b4	-0.022683956
191	0x3d1cb038	0.038253993
192	0x3ce1ec17	0.027578397
193	0x3ccbee3c	0.024893872
194	0xbcff98ce	-0.031200793
195	0x3d523ce0	0.051327586
196	0xbaf32e80	-0.0018553287
197	0xbc521555	-0.012822469
198	0xbcb64797	-0.022250934
199	0x3ce1935c	0.027536087
200	0xbd44440f	-0.04791647
201	0xbd18406a	-0.037170805
202	0x3ca75b87	0.020429386
203	0x3b2e1eb2	0.0026568589
204	0xbd648772	-0.055793233
205	0xbcb450fa	-0.022011269
206	0xbd3f9768	-0.04677525
207	0x3d4db341	0.050219778
208	0xbd445cc1	-0.04794002
209	0x3cd9c3b2	0.026582573
210	0x3b1f7532	0.0024331328
211	0x3d3d33bc	0.046191916
212	0xbd3e1df6	-0.04641529
213	0x3cc8531b	0.02445369
214	0x3d3fcadf	0.046824332
215	0x3cdaa934	0.02669201
216	0xbcf4aef9	-0.02986859
217	0xbc8b609f	-0.017013846
218	0x3c47631b	0.012169625
219	0x3c70cb59	0.014696919
220	0x3cf17a89	0.029477375
221	0x3b50b546	0.0031846329
222	0xbd1c10fd	-0.03810214
223	0x3d0d4b2f	0.03449553
224	0xbcd863b0	-0.026414722
225	0xbce99243	-0.028512126
226	0xbd454bee	-0.048168115
227	0xbd231d2a	-0.039822735
228	0xbce5c70a	-0.02804901
229	0xbd21551d	-0.03938781
230	0xbd3c738f	-0.046008643
231	0x3d42dfc3	0.047576677
232	0x3c804285	0.015656719
233	0x3c976ceb	0.018484553
234	0x3cb8334c	0.022485398
235	0x3ca2de84	0.019881494
236	0x3d4b622e	0.04965418
237	0x3c4dbc4c	0.0125571005
238	0x3bfb4d4a	0.0076691257
239	0x3c0b7fb2	0.008514332
240	0xbc40a199	-0.011757278
241	0xbd40b881	-0.047050957
242	0x3cb5661c	0.022143416
243	0xbcf1464f	-0.029452471
244	0x3d3ad643	0.045614492
245	0xbd58b952	-0.05291111
246	0xbce42fc5	-0.02785481
247	0x3c698e49	0.014255115
248	0xbc02e250	-0.007988527
249	0x38fa1e58	0.00011926581
250	0xbcb78763	-0.022403425
251	0x3ce2cdc1	0.027686002
252	0xbd181924	-0.03713335
253	0xbd66d3d2	-0.05635435
254	0xbd5912ff	-0.05299663
255	0xbd0dc1d7	-0.03460869

bias f4 [168]
0	0x3c625b74	0.013815749
1	0xbcda825b	-0.026673486
2	0x3d0e099b	0.03467713
3	0x3c5b4ab5	0.013384511
4	0x3c8f2c51	0.017477186
5	0xbd4c7fc1	-0.049926523
6	0x3cf5d565	0.030008981
7	0xbd4465bd	-0.047948588
8	0x3cd4de1b	0.025984814
9	0x3d1e807c	0.03869675
10	0xbcd75b33	-0.026288604
11	0x3d46595e	0.04842507
12	0x3d2b2661	0.041784648
13	0x3cfd7adf	0.030942379
14	0x3cb4b6ec	0.02205988
15	0x3d0f8e6d	0.035047937
16	0x3c274a88	0.010210641
17	0xbd33a7ba	-0.04386113
18	0x3cfc1fff	0.030776976
19	0xbd152977	-0.036416497
20	0x3ce4c1b1	0.02792439
21	0x3d290fdd	0.041274894
22	0xbc9e60fe	-0.019333359
23	0x3d23a90b	0.039956134
24	0x3b9fa24f	0.0048716436
25	0xbb33884e	-0.0027394476
26	0xbc7b6e64	-0.015346143
27	0xbc7d58e4	-0.015463088
28	0x3d33257e	0.043736927
29	0xbd1f894f	-0.038949307
30	0x3d2b4f4b	0.041823667
31	0x3c37a01e	0.0112076085
32	0xbb8fc212	-0.0043871487
33	0xbc8839c6	-0.016629111
34	0x3d221569	0.0395712
35	0xbd5af9c0	-0.053460836
36	0x3c83ac87	0.016073478
37	0x3b9408de	0.0045176586
38	0xbbe01176	-0.006838019
39	0x3b4fb63e	0.0031694318
40	0xbc36356e	-0.011121137
41	0xbd54887e	-0.05188798
42	0x3c212afa	0.009836907
43	0xbd3db84b	-0.046318334
44	0x3d326f1a	0.043562986
45	0x3d59f765	0.05321445
46	0x3d588060	0.052856803
47	0x3b8e5593	0.0043436973
48	0xbd214b35	-0.039378364
49	0xbd14db29	-0.03634182
50	0x3d256446	0.04037883
51	0xbc8738e2	-0.016506616
52	0x3d578998	0.052621454
53	0x3d0b38da	0.033989765
54	0xbd457722	-0.048209317
55	0x3d511ca0	0.05105269
56	0x3c176182	0.009239556
57	0x3d3ea004	0.04653932
58	0x3c1e159f	0.00964871
59	0x3d06a619	0.032873247
60	0x3d29408d	0.041321326
61	0x3d36fc3a	0.044674136
62	0x3d5a8ffc	0.05335997
63	0x3ac9af04	0.0015387242
64	0x3c9c46c6	0.019076716
65	0xbce5fa69	-0.028073506
66	0x3d24731b	0.040148836
67	0xbd1a2baa	-0.037639298
68	0xbd3731b1	-0.044725124
69	0xbd189d44	-0.037259355
70	0x3d132ea2	0.035933144
71	0x3d339780	0.043845654
72	0x3caa4637	0.020785434
73	0xbd0886af	-0.03333157
74	0x3bd5a8dc	0.0065203737
75	0xbd27811b	-0.04089461
76	0xbd4f7f83	-0.050658714
77	0xbcaf1846	-0.02137388
78	0xbbd7abcd	-0.0065817595
79	0xbd5c61b2	-0.053804107
80	0xbca59660	-0.020213306
81	0x3d0af577	0.0339255
82	0x3d07219f	0.032991048
83	0x3ca7a386	0.020463716
84	0x3d4aea44	0.04953982
85	0x3bcc6b96	0.006238411
86	0xbb927167	-0.004469085
87	0xbcf29b68	-0.02961512
88	0xbce55615	-0.027995149
89	0xbb03bc3a	-0.0020101205
90	0x3b60c321	0.0034295993
91	0xbcc82e00	-0.024435997
92	0xbd1cb2bb	-0.03825639
93	0x3ce77569	0.028254228
94	0x3d195e03	0.037443172
95	0xbd05b1b8	-0.03264019
96	0xbc8cb23d	-0.017174834
97	0xbd414293	-0.04718263
98	0xbcf98246	-0.030457627
99	0x3d26b7f6	0.040702783
100	0x3d000e6b	0.03126375
101	0xbd50037f	-0.050784584
102	0xbb3415a4	-0.002747872
103	0xbc567ddf	-0.013091533
104	0xbd4def4a	-0.050277032
105	0x3d0493b1	0.032367412
106	0x3cb454b3	0.022013044
107	0x3a580939	0.00082411204
108	0xbd243ba7	-0.04009595
109	0x3d179470	0.037006795
110	0xbc90af59	-0.017661737
111	0x3d36d80a	0.044639625
112	0xbbbfaa77	-0.0058491784
113	0x3d05570c	0.032553717
114	0xbd30cd58	-0.04316458
115	0x3d27e24f	0.04098731
116	0xbd27a68c	-0.040930316
117	0x3ab1cc62	0.0013564939
118	0x3c9c6b30	0.01909408
119	0xba8616b5	-0.0010230156
120	0xbca6761a	-0.020319987
121	0xbcffd2e3	-0.031228488
122	0x3cee4b90	0.029088765
123	0xbd45f5df	-0.048330184
124	0xbd461828	-0.04836288
125	0x3d3849b4	0.044992164
126	0x3d2df4b3	0.04246969
127	0x3c58f80a	0.013242731
128	0x3b9b4e32	0.004739546
129	0xbcb45c62	-0.022016708
130	0xbd17f0fc	-0.037095055
131	0xbd5c2841	-0.053749327
132	0x3c8daae0	0.017293394
133	0x3d04710d	0.032334376
134	0xbc645e6b	-0.013938527
135	0xbd53d050	-0.051712334
136	0x3cf21133	0.029549217
137	0x3c3b3866	0.011427021
138	0xba3872d2	-0.00070361525
139	0xbcca93e0	-0.024728715
140	0x3bee1d0d	0.0072666467
141	0xbceece20	-0.029151022
142	0xbd4cdcd0	-0.05001527
143	0xbc07a468	-0.008278944
144	0x3d57334f	0.052539166
145	0x3b6605b2	0.003509861
146	0xbc9a3978	-0.018826231
147	0x3cac9f1d	0.021071965
148	0x3c356739	0.0110719735
149	0x3cac0489	0.020998256
150	0x3d0824f3	0.033238363
151	0xbb94333b	-0.0045227087
152	0x3d028b69	0.031871233
153	0xbcfa8dcf	-0.030585198
154	0xbc8323e1	-0.01600832
155	0x3d55e98d	0.052224685
156	0xbce2f826	-0.027706217
157	0x3c2fc9e8	0.010729291
158	0x3caa9fed	0.020828212
159	0x3d185849	0.03719357
160	0xbc293eb7	-0.010329894
161	0x3c086912	0.008325832
162	0x3c4bf536	0.0124486
163	0x3bead812	0.007166871
164	0x3d27041b	0.0407754
165	0xbb73f23d	-0.0037223243
166	0x3acc820c	0.0015602722
167	0xbcfc46bc	-0.030795448

weight f4 [168, 336]
0	0xbd5e9b65	-0.054347415
1	0x3c847e48	0.016173497
2	0x3c5dad79	0.013530129
3	0x3d3efbaf	0.046626743
4	0xbd644703	-0.055731785
5	0x3ae40e82	0.0017399343
6	0x3d07e864	0.03318061
7	0x3d4af63f	0.049551245
8	0xbd4a50d9	-0.04939351
9	0xbccb9bbd	-0.024854535
10	0xbd3dc59c	-0.046331033
11	0xbd3e238d	-0.046420623
12	0xbce4eed7	-0.027945919
13	0x3d06d417	0.03291711
14	0xbd194ba8	-0.037425667
15	0xbc58ee0f	-0.013240351
16	0xbc43b30c	-0.011944544
17	0xb964473a	-0.00021770308
18	0xbba8611a	-0.0051385285
19	0x3cd1767c	0.025569193
20	0x3d074a7f	0.03303003
21	0xbc6c91bc	-0.014439043
22	0xbd0a67e6	-0.03379049
23	0xbd409c6c	-0.047024176
24	0x3cb5c2db	0.02218764
25	0xbbadd4fa	-0.00530493
26	0x3cff119c	0.031136326
27	0xbd58e0d3	-0.052948784
28	0xbd45ef55	-0.048323948
29	0x3c96b233	0.018395519
30	0x3c57667a	0.013146991
31	0xbc0cd889	-0.008596548
32	0x3d310071	0.04321331
33	0x3c286ab5	0.010279347
34	0x3d362487	0.04446843
35	0xbc21bf57	-0.009872279
36	0x3d5d28c7	0.053993966
37	0x3c23357e	0.009961484
38	0x3d43a578	0.047765225
39	0x3c907528	0.01763399
40	0x3d481592	0.048848696
41	0x3c732750	0.014840916
42	0xbd16af4d	-0.036788274
43	0xbc9aa244	-0.018876202
44	0xbd2f2488	-0.04275945
45	0x3c5f8242	0.013641896
46	0x3cd70cc4	0.026251204
47	0xbcd96dda	-0.02654164
48	0xbcc51f71	-0.024062844
49	0xbc62b2ac	-0.013836544
50	0x3cb1030a	0.021607894
51	0x3c0da3f1	0.008645044
52	0x3c09466d	0.008378607
53	0x3ca326b3	0.019915914
54	0xbbecc288	-0.0072253384
55	0x3cd0810b	0.025452157
56	0xbca1a251	-0.019730719
57	0x3b880d78	0.004151996
58	0xbcebbcde	-0.028776582
59	0x3d638aaf	0.05555218
60	0xbd57dc30	-0.05270022
61	0xbbc32f02	-0.0059565315
62	0x3d0eab87	0.03483155
63	0xbcc906c3	-0.024539357
64	0xbc02428d	-0.007950437
65	0xbd15c08c	-0.03656058
66	0x3c2d774a	0.010587523
67	0x3c40d76f	0.011770113
68	0xbd01f55c	-0.031728134
69	0x3d1458a7	0.036217358
70	0xbd15d7ce	-0.03658276
71	0x3cc195f7	0.02363108
72	0xbd45fddb	-0.0483378
73	0xbc0d087a	-0.008607978
74	0xbcbff2ec	-0.023431264
75	0x3bd59a6c	0.0065186527
76	0x3cad91b3	0.021187639
77	0x3be84529	0.0070883227
78	0xbd310ad7	-0.04322323
79	0xbd4bfd60	-0.049802184
80	0x3d040af5	0.032237012
81	0x3a6b05b2	0.0008965387
82	0xbd13cb0d	-0.036082316
83	0xbd452ca9	-0.048138294
84	0xbcac01b8	-0.020996913
85	0xbc89496f	-0.016758649
86	0x3c2d6abd	0.01058453
87	0x3cea1cd2	0.028578196
88	0x3bbffeda	0.005859238
89	0x3b5584c5	0.0032580358
90	0xbd327411	-0.04356772
91	0x3b9cd824	0.004786508
92	0xbd03d8bd	-0.03218912
93	0x3c384d20	0.011248857
94	0xbcb38c63	-0.021917528
95	0xbd20753e	-0.03917431
96	0xbd315bea	-0.043300547
97	0x3d33a119	0.043854807
98	0x3d57db36	0.05269929
99	0xbcb7a885	-0.022419224
100	0xbd257231	-0.040392105
101	0x3d68cb61	0.056834582
102	0xbd21ec82	-0.039532192
103	0xbb9ae4d9	-0.004726988
104	0x3d1082e0	0.035281062
105	0x3cab8899	0.020939158
106	0xb867db6e	-5.527905e-05
107	0x3d80f1d5	0.06296126
108	0x3c7ca72d	0.015420717
109	0xbd2f18d1	-0.042748276
110	0xbd0e691f	-0.03476822
111	0x3cf124c2	0.029436473
112	0x3d15758f	0.036489066
113	0x3ccc6d20	0.024954379
114	0xbcd6ad50	-0.026205689
115	0x3d33ee07	0.043928172
116	0x3cfadfea	0.030624349
117	0xbd3975c1	-0.045278315
118	0xbd7bef6e	-0.061507635
119	0xbd6e0c1a	-0.05811701
120	0x3d2d360f	0.042287882
121	0x3c8de3ce	0.01732054
122	0xbb4c0c6b	-0.0031135331
123	0xbd4dcecf	-0.050246056
124	0x3d108e45	0.03529193
125	0xbd33abc5	-0.043864984
126	0x3ce73595	0.028223792
127	0xbc9eecc3	-0.019400006
128	0xbcf7e463	-0.03026027
129	0x3d37d819	0.04488382
130	0x3c8b2595	0.016985694
131	0xbc3e3c36	-0.011611035
132	0x3c9cfcd9	0.019163536
133	0xbc83fb1b	-0.016110947
134	0x3d16ca45	0.036813993
135	0xbcc11f72	-0.023574565
136	0xbcba4c8e	-0.022741582
137	0xbcd25f88	-0.025680318
138	0xbd46edc7	-0.048566606
139	0x3d34ace6	0.0441102
140	0xbc301499	-0.010747098
141	0x3d044398	0.032291025
142	0x3d1c04e9	0.03809062
143	0xbd29a6f9	-0.041419003
144	0xbd0d79c2	-0.034539945
145	0x3d2f928c	0.042864367
146	0x3c427a0f	0.011869921
147	0x3c47a50b	0.012185345
148	0x3c95a39b	0.01826649
149	0xbc36d9bd	-0.011160311
150	0x3d6d257c	0.057897076
151	0xbcecde69	-0.028914647
152	0xbcf93113	-0.030418908
153	0xbcb9f174	-0.022698142
154	0xbbeefa60	-0.0072930306
155	0x3d80d068	0.0628975
156	0x3c0885b1	0.008332656
157	0x3c30fe64	0.010802839
158	0xbcbbd075	-0.022926548
159	0xbd15323a	-0.036424853
160	0xba1a8721	-0.00058947696
161	0xbcbdd706	-0.02317382
162	0xbb549884	-0.003243954
163	0x3acb2b23	0.0015500527
164	0xbad89e26	-0.0016526624
165	0xbcf37828	-0.02972038
166	0xbd5d8724	-0.05408396
167	0x3d1f576d	0.038901735
168	0xbd5615f6	-0.052267037
169	0x3ceb369d	0.028712565
170	0xbc930c3d	-0.017950172
171	0x3ac59407	0.0015074023
172	0xbcc8bb34	-0.024503328
173	0xbd48e871	-0.0490498
174	0xbcdc30bc	-0.026878707
175	0x3d06e79f	0.032935735
176	0x3c61fa01	0.013792516
177	0xbb04bfe4	-0.0020255977
178	0xbd2af786	-0.041739963
179	0x3d30f43e	0.043201678
180	0xbd3e0086	-0.046387218
181	0xbbd58ec6	-0.006517264
182	0x3c842952	0.016132984
183	0x3ba4ea9b	0.00503285
184	0x3cf7e07c	0.03025841
185	0xbd4b1469	-0.04958001
186	0x3d14ccf2	0.036328264
187	0xbc520665	-0.012818907
188	0xbd028a46	-0.03187015
189	0x3c9895ae	0.01862606
190	0xbd559747	-0.052146222
191	0x3c17b931	0.009260462
192	0x3cc0e8ae	0.02354845
193	0x3cabd13e	0.020973798
194	0x3bea6062	0.007152603
195	0xbd12e31a	-0.035861112
196	0xbc9d0ad9	-0.019170212
197	0x3d2967f3	0.0413589
198	0xbd3a2ce3	-0.045452964
199	0xbbbcaec2	-0.0057581374
200	0xbd45ba67	-0.04827347
201	0xbc7ad95e	-0.015310613
202	0xbce124ef	-0.027483432
203	0x3d4077e1	0.046989325
204	0xbd3b617c	-0.045747265
205	0xbcc05e76	-0.023482542
206	0x3bf7308c	0.007543629
207	0x3ca48d0f	0.020086793
208	0x3d0066f5	0.031348187
209	0xbbaa8f42	-0.005205066
210	0x3c5fb888	0.0136548355
211	0xbd126e74	-0.035749868
212	0x3ca76338	0.020433053
213	0xbd525278	-0.05134818
214	0xbd05e851	-0.032692257
215	0xbd39245b	-0.045200687
216	0x3c2adf99	0.010429286
217	0xbd6d4a74	-0.057932332
218	0xbd04b2ee	-0.032397203
219	0x3d228a7e	0.039682858
220	0xbc60e1ee	-0.013725741
221	0x3d35681e	0.044288747
222	0xbcbb7337	-0.022882087
223	0x3c07de37	0.008292726
224	0x3d417657	0.047232
225	0x3d4185bf	0.04724669
226	0xbcfa0153	-0.03051821
227	0xbbfcab60	-0.007710859
228	0xbd2ec2d3	-0.042666268
229	0xbcc2eacd	-0.023793602
230	0xbd18b2fe	-0.037280075
231	0xbab9adbe	-0.0014166159
232	0xbca9b27b	-0.020714989
233	0xbcad928b	-0.021188041
234	0x3d191cfc	0.037381157
235	0x3cd48a8a	0.025944967
236	0xbc733eed	-0.014846546
237	0xbca47970	-0.020077437
238	0xbd4f2cc9	-0.05057982
239	0x3d35a6ef	0.044348653
240	0x3d0d9339	0.03456423
241	0xbd554d7a	-0.05207584
242	0x3cd74957	0.026280088
243	0x3d3617aa	0.04445616
244	0xbc91390d	-0.0177274
245	0x3c90e5c7	0.017687691
246	0xbd392274	-0.045198873
247	0xbc1a73ef	-0.009427055
248	0x3bd1e16e	0.006405047
249	0x3c0e05db	0.008668388
250	0x3c03ebbc	0.008051809
251	0x3d345f3f	0.044036146
252	0x3caa9c16	0.02082638
253	0x3ce469a6	0.027882408
254	0xbd1ff75f	-0.03905427
255	0x3c97f08f	0.018547324

bias f4 [168]
0	0x3c6761cb	0.014122437
1	0x3d4343a9	0.047671948
2	0x3cc01bcc	0.023450755
3	0x3c802734	0.015643694
4	0xbb42014e	-0.0029602828
5	0x3b47cf90	0.0030488707
6	0xbd3373ea	-0.043811716
7	0xbd4f6465	-0.050632853
8	0xbced2d0b	-0.028952142
9	0xbd12481b	-0.035713296
10	0xbd1cc535	-0.03827401
11	0x3a228c37	0.0006200703
12	0x3cadf1b2	0.021233413
13	0xbce34ed9	-0.027747558
14	0x3c9b1900	0.01893282
15	0x3cb3f404	0.021966942
16	0x3d21822c	0.039430782
17	0xb8b6c520	-8.715154e-05
18	0x3d129348	0.03578499
19	0x3d589276	0.05287405
20	0xbcf62dbb	-0.030051103
21	0x3d129973	0.03579087
22	0x3c8294c4	0.015940078
23	0xbd016642	-0.03159166
24	0x3ce0cb0c	0.02744057
25	0x3d5bf55f	0.0537008
26	0xbc6255be	-0.013814388
27	0xbb93d95f	-0.0045119966
28	0xbd02bee7	-0.03192034
29	0xbd46b792	-0.04851491
30	0x3c1e2263	0.009651753
31	0xbccfaf45	-0.02535213
32	0x3d58e24d	0.052950192
33	0xbcafd01e	-0.021461543
34	0xbd2c47c9	-0.042060647
35	0x3d17a93b	0.037026625
36	0x3d27e3f9	0.040988896
37	0x3c6c2e4e	0.014415337
38	0x3d61314f	0.054978665
39	0xbd2ff6c7	-0.042959955
40	0xbc2d8fbe	-0.010593353
41	0x3d3edf26	0.04659953
42	0x3d391ee0	0.04519546
43	0xbd1b6178	-0.03793475
44	0x3cc3a5fe	0.023882862
45	0xbd35ca91	-0.044382636
46	0x3c186871	0.0093022445
47	0xbc1ff1ef	-0.009762271
48	0x3d1a2173	0.037629556
49	0xbcb213a0	-0.021737874
50	0x3a21a092	0.00061655894
51	0xbccdc540	-0.02511847
52	0xbc0ea11b	-0.008705403
53	0x3c1549c4	0.009111825
54	0x3d025b84	0.031825557
55	0x3bf8a931	0.0075885286
56	0xbc8eb1dc	-0.017418794
57	0xbc83f3eb	-0.01610752
58	0x3d592e2f	0.05302256
59	0x3d04c37f	0.032413002
60	0xbbbc924b	-0.005754744
61	0xbd36c27a	-0.04461906
62	0xbd0e0afc	-0.034678444
63	0xbad5f3b8	-0.0016323244
64	0x3c4a912a	0.012363711
65	0x3d19fd86	0.037595294
66	0x3d074fc1	0.033035044
67	0x3d4045fa	0.046941735
68	0xbd24566b	-0.040121477
69	0xbd42337e	-0.047412388
70	0xbcca988d	-0.024730945
71	0xbc8d5f02	-0.017257217
72	0xb9a175b4	-0.0003079601
73	0x3d366aae	0.04453533
74	0x3d19144b	0.03737287
75	0x3c9f492b	0.019444069
76	0x3ba45d7e	0.005016028
77	0xbd4e47cc	-0.05036144
78	0xbce2ae18	-0.027670905
79	0xbd179272	-0.037004896
80	0x3c9d43ca	0.019197363
81	0xbc23ebf8	-0.01000499
82	0x3c1d6de9	0.009608724
83	0x3cc43d56	0.023955029
84	0x3ca057bb	0.019573083
85	0x3c075cbf	0.0082618585
86	0xbcc0c39a	-0.02353077
87	0x3b31fd60	0.002715908
88	0x3d05bc4b	0.032650273
89	0xbd4c05e2	-0.049810298
90	0xbd03d2c0	-0.03218341
91	0x3d605ffc	0.054779038
92	0x3c693e72	0.0142360795
93	0x3ccd3749	0.025050776
94	0x3b0efb32	0.0021817205
95	0x3c281032	0.0102577675
96	0xbcf44fc1	-0.029823186
97	0xbcf0e4fc	-0.029406063
98	0x3cb6e660	0.022326648
99	0xbd34abed	-0.044109274
100	0x3ba136fa	0.004919884
101	0x3c2c6c33	0.010523844
102	0x3d1e8f7d	0.03871106
103	0x3d40dc4f	0.047085103
104	0xbc29a8ab	-0.010355155
105	0xbd25fb3a	-0.04052279
106	0x3cfc830a	0.030824203
107	0xbd28ed63	-0.041242015
108	0x3cf66841	0.030079009
109	0xbcd09ed9	-0.02546637
110	0x3cf93917	0.03042273
111	0xbd2f5c44	-0.0428126
112	0xbc64121c	-0.013920333
113	0xbd087699	-0.03331623
114	0x3a793fa4	0.00095080794
115	0xbd2be072	-0.041962095
116	0xbbf68d4f	-0.0075241695
117	0x392952fa	0.00016148007
118	0x3ce3405c	0.02774065
119	0xbd1e80bf	-0.038697
120	0xbc8c1654	-0.01710049
121	0xbbb9446a	-0.0056539075
122	0xbd4fbf3e	-0.050719492
123	0xbcee7453	-0.029108202
124	0xbd2e2900	-0.04251957
125	0x3d24bc5e	0.040218703
126	0xbcaa1467	-0.020761682
127	0x3c751c1a	0.014960313
128	0x3bc82d86	0.0061089424
129	0x3d1514ff	0.036396977
130	0xbd287235	-0.04112454
131	0xbceb7fdc	-0.028747492
132	0x3d24fd96	0.0402809
133	0x3d5874bb	0.052845698
134	0xbd3d325e	-0.046190612
135	0xbd23e33c	-0.04001163
136	0xbc120249	-0.008911678
137	0x3c97bbec	0.018522225
138	0x3c83097b	0.015995732
139	0xbcb370e9	-0.021904426
140	0x3ccf3dc9	0.025298016
141	0x3d3cf8b9	0.046135638
142	0x3c35f274	0.011105169
143	0x3ce82bbb	0.028341165
144	0xbcf827d6	-0.030292433
145	0x3c2a5e7e	0.010398505
146	0x3c709057	0.014682851
147	0x3d2beaf6	0.041972123
148	0xbd5502c8	-0.052004606
149	0xbcbb895a	-0.022892643
150	0xbc0fa84b	-0.0087681515
151	0x3b8aaa9d	0.0042317645
152	0x3d1706e9	0.036871824
153	0x3c8575b3	0.016291475
154	0x3cd60b11	0.026128324
155	0x3cae8dce	0.021307852
156	0xbd402a5e	-0.046915404
157	0x3c2d96d8	0.010595046
158	0xbd19d699	-0.037558172
159	0x3c257643	0.010098997
160	0xbce285de	-0.027651723
161	0x39cb9c87	0.000388358
162	0x3d26449e	0.040592782
163	0xbcb13ef1	-0.021636458
164	0x3ce0b9ff	0.02743244
165	0x3b8f481b	0.0043726093
166	0x3d370e53	0.044691395
167	0xbc9329e8	-0.017964318

weight f4 [1, 27]
0	0xbcb81ae4	-0.02247376
1	0xbda8b941	-0.082384594
2	0xbdac4ae3	-0.08412721
3	0x3d8e2b88	0.06941897
4	0x3e14603e	0.14489838
5	0xbded1c48	-0.1157766
6	0xbdb491a5	-0.08816842
7	0x3c30e7dd	0.010797468
8	0x3d8ef10a	0.06979568
9	0x3d07dd08	0.033169776
10	0x3e290285	0.16504867
11	0xbe15bdac	-0.14623135
12	0x3df84c7a	0.12123962
13	0x3e213393	0.1574233
14	0xbd9dc277	-0.07703107
15	0xbd22b1db	-0.039720397
16	0xbda6b46a	-0.0813988
17	0x3c39e3dd	0.011345831
18	0x3d28492e	0.041085415
19	0xbdaf957d	-0.085734345
20	0xbd495bf9	-0.049159978
21	0xbd767b47	-0.06017616
22	0x3d51b9c9	0.05120257
23	0xbd857b27	-0.0651763
24	0x3e0255fe	0.12728116
25	0x3e0b76a8	0.13619483
26	0x3ddc9ff6	0.10772698
