js_park/saved_models/best_AF_3.pt (torch, 455911 bytes, 5 tensors)

weight f4 [168, 336]
000000 8f 34 aa 3d 3f b6 7b 3c f5 6c 55 3d c4 2b 87 3d
       0.08310806 0.015363275 0.052105863 0.066001445
000010 c6 41 65 3d 81 84 d7 3b f6 5f b0 3c f2 56 50 bc
       0.05597093 0.006577075 0.021530133 -0.012716042
000020 26 17 40 3b b9 30 c1 bc 03 f8 0d bd b6 47 d8 bb
       0.0029310673 -0.023582803 -0.03466035 -0.0066003455
000030 5d f5 2f bd 9d 98 6d bd d3 5f b0 bc bb 9b ba bd
       -0.042958606 -0.05800687 -0.021530068 -0.091117345
000040 5c bc b6 bd 7f 65 bc bd f4 d6 8e bd a9 34 c4 bd
       -0.089226454 -0.09199046 -0.06974593 -0.09580357
000050 38 c4 01 be 44 9e fa bd 9b d9 8b bd 3a ee 91 bd
       -0.12672508 -0.12237218 -0.06828614 -0.07125516
000060 82 80 2c bd ff 30 cf bd d0 e1 8e bd 81 25 97 bd
       -0.042114742 -0.10116767 -0.06976664 -0.073802
000070 35 b4 04 3b 49 c0 3a 3c 0e 89 e6 bc a8 9c 25 bd
       0.0020249013 0.011398383 -0.028141525 -0.040432602
000080 67 4f b8 bd 67 c6 40 bd 80 ae 38 bd 78 0e ad bb
       -0.0899952 -0.04706421 -0.04508829 -0.005281266
000090 87 85 bf bd e2 37 85 bd 44 3d d3 bd fb 2b 80 bd
       -0.0935164 -0.065047994 -0.1031442 -0.062583886
0000a0 82 05 c2 bc 87 62 df bc 00 5f 01 be 69 50 9a bd
       -0.023684267 -0.027268661 -0.12633896 -0.07534868
0000b0 d7 b1 c7 bd 1d f3 fc bd 8a e4 53 bd b2 71 96 bd
       -0.09750717 -0.12351058 -0.051731624 -0.073459044
0000c0 73 16 89 bd fe 68 7a bd 25 a2 e2 bd 57 24 be bd
       -0.06693735 -0.061135285 -0.11066083 -0.09284275
0000d0 51 92 05 bc d5 ad b5 bd 2e a6 66 bd 40 61 ee bc
       -0.00815256 -0.088710465 -0.056310825 -0.029099107
0000e0 3a 6d 9e bd 37 d7 3a bd 4e 43 96 bd 87 bd 4e bd
       -0.07735677 -0.0456154 -0.07337056 -0.050473716
0000f0 03 9a 7b bd c4 af 98 bd 26 54 2c bc 75 3d 06 bd
       -0.061426174 -0.074554 -0.010518109 -0.032773454
000100 ef 4c b5 bd 36 f9 ed bc db 1e ac bd 47 7a 03 be
       -0.088525645 -0.029049497 -0.08404323 -0.12839614
000110 1a c8 d6 bd 5e 2e 93 bd 55 69 11 be 94 a7 66 bd
       -0.10487385 -0.07186578 -0.14200337 -0.05631216
000120 4e 47 c5 bd 61 41 00 be b6 e4 2a bd d7 ff c1 bd
       -0.09632741 -0.1252494 -0.041722022 -0.09472626
000130 aa 6a 8b bc e4 3b 0e bd ca c2 a3 39 d6 3f 88 bc
       -0.017018635 -0.034725085 0.00031234912 -0.016632002
000140 12 76 4b bd 13 89 11 bd e8 c5 b8 bc 1d 29 2d bc
       -0.049673147 -0.035531115 -0.022555307 -0.010568884
000150 2b 70 34 bc 07 5a da bc 2c bf b9 bc e5 f0 d1 bd
       -0.011013071 -0.026654257 -0.022674166 -0.10251025
000160 3a 6a 36 bd 72 2c 10 be 3e 19 77 bd 59 e0 90 bd
       -0.0445349 -0.14079455 -0.060326807 -0.07074041
000170 54 4c 01 be c2 b5 2f bd ba ac cf 3a 6d 0a 7a bb
       -0.12626773 -0.042897947 0.0015844323 -0.0038153187
000180 34 e0 3d bc e6 18 62 3d c1 55 c9 3d dd 01 35 3d
       -0.011589099 0.055199526 0.098308094 0.04419123
000190 23 1a 0d 3c 89 34 f1 3c 28 f4 bf 3d ee 67 77 3c
       0.0086121885 0.029443996 0.09372741 0.015100462
0001a0 45 c5 fd 3d 96 61 5f 3c 71 d7 b5 3d 4b 85 d8 bc
       0.12391142 0.013634106 0.08878983 -0.026430747
0001b0 d5 f1 c4 bd ed f8 a4 bd c9 99 82 bd c5 97 32 bd
       -0.09616438 -0.08055291 -0.063769884 -0.04360177
0001c0 38 c7 f5 bd c6 05 f7 bd 5b 14 ae bd 2c 1e f1 bc
       -0.120008886 -0.12061648 -0.08499976 -0.029433332
0001d0 d1 ac 9d 3b d1 d1 ae 3c 54 77 4b 3c f7 ea 58 3d
       0.004811861 0.021340283 0.012418587 0.052958455
0001e0 35 03 82 3d 24 26 90 3d 37 2c 9c 3d fa fc fb 3d
       0.06348268 0.07038525 0.07625621 0.12304111
0001f0 25 dd a6 3c d7 47 af 3d cd 64 80 3d 18 31 83 3d
       0.020369122 0.08558624 0.06269226 0.06405848
000200 5f e7 bc 3d b0 33 07 3e 8e 97 d4 3d b7 f6 03 3d
       0.09223818 0.13203311 0.10380469 0.032217707
000210 18 6b a3 bc 7f d1 18 bd 59 7b e2 bd 53 82 c8 bc
       -0.019948527 -0.037309166 -0.11058683 -0.024476206
000220 6f b1 f8 bd 9d cf fd bc 49 1f 64 bd 4b a4 1f bd
       -0.12143218 -0.030982787 -0.0556939 -0.03897504
000230 71 70 8c bd 7c 08 e6 bc 05 f6 c0 bb 28 ee 98 3c
       -0.06857384 -0.028080218 -0.005888703 0.01866825
000240 b6 95 61 3d 31 bc fb 3c c9 50 9c 3d c1 fb 03 3e
       0.055074416 0.030729385 0.07632596 0.12889005
000250 a2 12 09 3e cd 66 e1 3d 2c 30 94 3d 3c 96 e9 3c
       0.13386014 0.11005936 0.072357506 0.02851402
000260 2b 9c 28 3d 84 c1 6d 3c 76 68 b9 b9 0a 75 82 bd
       0.04116456 0.01451147 -0.0003536378 -0.0636998
000270 33 2a 6b bd ac 01 e3 bc 0f b1 24 bc 0c 83 5a bd
       -0.05741329 -0.027710758 -0.01005198 -0.053347632
000280 b9 0a cf bd 8b c5 ed bc ff d6 ae bd c1 42 75 bd
       -0.10109467 -0.02902486 -0.08537101 -0.059878115
000290 74 4a 3a bd 11 a1 46 bd 96 16 f0 bc b7 f7 d6 bd
       -0.04548116 -0.04849345 -0.029307645 -0.104964666
0002a0 07 8b 9d bd ab e3 77 3c 4d d5 23 3d 5d 4c b9 3c
       -0.07692533 0.015129964 0.03999834 0.02261942
0002b0 d0 bd 30 3d e5 9e 28 bc cd a8 9c 3d 1b d9 6a 3d
       0.04314977 -0.01029179 0.07649384 0.057335954
0002c0 3e 4a 3a 3c 2d 3a a6 bc 5b b2 bf 3b 45 b8 b7 bd
       0.01137024 -0.020291412 0.005850119 -0.089706935
0002d0 3b b8 7f bc de 2e 40 bd 5c f0 18 bc 79 5c 8a bd
       -0.015607889 -0.046919696 -0.00933465 -0.06755919
0002e0 8b 4c ae bd 97 71 c4 bd af 59 d2 bd ea 11 8f bd
       -0.08510693 -0.09591978 -0.10271012 -0.06985839
0002f0 0c a9 fd bd 3d 7a 61 bd 8f c2 6b bd 1e 63 42 bd
       -0.12385759 -0.055048216 -0.057558592 -0.047457807
000300 55 06 63 bc 99 3f b1 bd a7 6c 7c bb 00 06 0c 3c
       -0.01385649 -0.086547084 -0.003851691 0.008546352
000310 1f c6 d6 bc a5 35 88 3b be 00 b2 3a 70 61 dc 39
       -0.026217518 0.0041567856 0.0013580543 0.00042034267
000320 0e c6 2d 3c b7 ef 92 bc ee 0e 8e bd 99 91 58 bd
       0.010606302 -0.01793657 -0.06936441 -0.052873228
000330 4c c5 b2 bd 2e 03 88 bc fe a9 84 bd 67 5b df bc
       -0.08729038 -0.016603079 -0.06477736 -0.027265264
000340 9d 54 fb bc f6 f7 58 bd 87 db 8e bd 41 17 8e bd
       -0.030679995 -0.05297085 -0.06975465 -0.06938029
000350 b9 69 ce bd 39 29 b1 bd a7 bb 44 bd e6 56 0f bd
       -0.10078759 -0.08650441 -0.04803052 -0.034994982
000360 78 92 e1 bd 61 da a2 bd 11 1a dc bd a9 5e f9 bc
       -0.11014265 -0.07951809 -0.10747159 -0.030440645
000370 30 fc 8a bc 83 59 ae bb 6f 67 41 bd a8 df 9c bd
       -0.016965955 -0.005320729 -0.047217783 -0.076598465
000380 75 8d 6c bc 39 a2 76 bd e0 cb 1f 3c 00 c1 0d bd
       -0.014438023 -0.0602133 0.009753197 -0.034607887
000390 f3 73 a1 bd 1c 5f 85 bd a6 2c c6 bd 39 98 89 bd
       -0.07883444 -0.06512281 -0.09676485 -0.06718487
0003a0 1a ad 27 bd ff 37 7e bd 8d a3 71 bd 24 42 72 bd
       -0.040936567 -0.06206512 -0.058993865 -0.059145108
0003b0 3e 4b d2 bd ce fb b7 bd 21 7a e8 bd 94 09 03 be
       -0.102682576 -0.08983575 -0.11351419 -0.12796623
0003c0 d9 03 09 be c8 b9 b1 bd d5 e2 53 bd 20 2b 8c bc
       -0.13380374 -0.08678013 -0.051729996 -0.017110407
0003d0 f4 98 50 b9 14 1f 3a bc 57 59 5e bd dd 61 16 3d
       -0.00019893405 -0.011359949 -0.05428442 0.036714423
0003e0 29 e6 07 3d f5 f2 52 bd 7f be 34 bd 08 12 73 bd
       0.033178482 -0.051501233 -0.044126984 -0.059343368
0003f0 64 39 ca bd 56 a7 c3 bd 76 af 15 bc 5d 98 99 bd
       -0.09874228 -0.09553401 -0.009136071 -0.07499764

bias f4 [168]
000000 27 1a 63 bd a2 76 82 bd 36 5e ba bd 27 29 1c be
       -0.055444863 -0.06370284 -0.091000006 -0.15250073
000010 f3 fc fd bd d4 78 cc bd 89 de 19 be c2 0a 89 bd
       -0.12401762 -0.09983984 -0.15026297 -0.06691505
000020 98 2b 86 bd 61 1a 0c be 6f 56 33 3c 48 a2 7a bd
       -0.065512836 -0.13681938 0.0109459 -0.06118992
000030 c9 80 26 be 51 2a f5 bd ff 50 ce bc e8 37 22 bd
       -0.16260065 -0.11970962 -0.025185106 -0.039604098
000040 fe bf 9b bd 88 8d fa bd df 0b 00 be 27 56 0f bd
       -0.07604979 -0.12234026 -0.12504528 -0.03499427
000050 50 c0 ff bd a9 77 ee bc 70 32 04 be 57 36 0a 3c
       -0.124878526 -0.029109793 -0.12909865 0.008435807
000060 eb 16 a7 bd dd c5 ed bd 78 2d 12 be f3 67 d7 bd
       -0.08158668 -0.11610005 -0.14275157 -0.105178736
000070 50 80 80 bd 74 6b b1 bd 06 42 14 be b7 24 bd bd
       -0.06274474 -0.08663073 -0.14478311 -0.092355184
000080 d8 7f e0 bd 70 4c f3 bd f9 3c 1a be de 90 c9 bd
       -0.10961884 -0.11879814 -0.15062322 -0.09842084
000090 ef dc 8e bd 9b 88 51 bd 1f 95 22 be 00 53 ef bd
       -0.069757335 -0.051155668 -0.15877198 -0.11685753
0000a0 ac 8e 49 bc 14 f9 91 bd 57 04 26 3c 7f e8 08 be
       -0.012302082 -0.07127586 0.010132871 -0.1336994
0000b0 c6 d9 08 bd 44 6d f5 bc 22 60 14 be 04 45 05 be
       -0.03341081 -0.029959328 -0.14489797 -0.13014609
0000c0 f6 2e 3d bd f5 f8 2d be bf 5e 66 bd f6 b7 99 3d
       -0.046187364 -0.16989501 -0.0562427 0.07505791
0000d0 a7 17 16 be bb 31 c1 bc 25 99 55 bd 69 e1 14 be
       -0.1465746 -0.023583284 -0.052148003 -0.14539112
0000e0 09 6e cf bd 58 26 7a bd 1f 17 42 bd cd 94 e2 bd
       -0.101284094 -0.061071724 -0.04738533 -0.11063538
0000f0 2c ad fe 3a 74 2d 01 be d2 09 d5 bd 28 6f 2c be
       0.0019430271 -0.12614995 -0.10402264 -0.16839278
000100 e7 44 0c 3c 9d 6d d1 bd b2 54 ba bd 3c 4a 9d bd
       0.0085613495 -0.10225985 -0.090981856 -0.07680175
000110 d3 61 07 bd a7 b0 77 bd e1 a0 8d 3c 68 42 f8 bd
       -0.033052277 -0.060471203 0.017288627 -0.12122041
000120 df de 01 be 3c f5 37 be 48 3c 52 bd 5b 8c ce bc
       -0.12682675 -0.17964643 -0.05132702 -0.025213411
000130 35 3c b2 bd a1 75 86 bd 2f 75 f9 bd ad 32 42 bd
       -0.0870289 -0.06565405 -0.12180554 -0.04741161
000140 8f e4 f4 bd d3 61 1c be 62 a5 1b bd ff 74 cb bd
       -0.119576566 -0.15271692 -0.03799952 -0.099344246
000150 36 65 08 be fd d7 cf bd 5e 68 26 be d0 2e 9d bd
       -0.13319859 -0.10148618 -0.1625075 -0.076749444
000160 f8 5b d8 bd 1a da 03 be 9d 70 2a be 94 f8 23 be
       -0.10564417 -0.12876168 -0.16644521 -0.16012794
000170 13 4c aa bb 4b 7e c6 bd 6a aa 8b bd 1b ef 97 bd
       -0.005197057 -0.09692057 -0.06819613 -0.074186526
000180 d7 09 30 bd b7 83 d9 bd cd 3a ba bd 27 6d ac bd
       -0.042978134 -0.10620826 -0.090932466 -0.08419257
000190 52 8c eb bd 9e c2 b6 bd f4 9d c0 bd 80 44 00 be
       -0.11501373 -0.08923839 -0.09405127 -0.1252613
0001a0 1a ce c8 bd a6 51 c6 bd 10 ac 26 be f0 6b 35 3c
       -0.09804936 -0.09683542 -0.16276574 0.011073098
0001b0 04 5c 7b bd 88 7d 63 bd 78 79 94 bd 21 9d 6d bd
       -0.06136705 -0.055539638 -0.07249731 -0.058011178
0001c0 45 d8 61 bd 7e 28 de bd 5e 0d 24 be 4e e4 2b bd
       -0.05513789 -0.10847567 -0.16020724 -0.041965775
0001d0 9d aa 12 be 0b c0 9f bd 43 d5 ff bd 43 2e 8d 3d
       -0.14322896 -0.07800301 -0.12491848 0.06893589
0001e0 4a cd d5 bd 99 d2 89 bd c1 c2 31 bd 23 92 38 be
       -0.104395464 -0.067296214 -0.043398622 -0.18024497
0001f0 a9 93 d5 bc 4b 94 ae bd 2c 17 f6 bc 3f 4a c0 bd
       -0.026071386 -0.085243784 -0.030040346 -0.09389161
000200 f8 76 a0 bd 36 d4 66 bd fe 5b 03 be 5b 06 0d be
       -0.078351915 -0.056354724 -0.12828061 -0.13771956
000210 39 3b f2 bd 11 ec a6 bc 47 df 2f bd a6 5a 84 bd
       -0.11827702 -0.020376237 -0.042937543 -0.06462602
000220 3a f4 68 bd 42 38 84 bd 72 82 06 be 69 01 c9 bb
       -0.056873538 -0.06456043 -0.13135698 -0.0061342013
000230 3d c7 b5 bd 77 ea 83 bd 33 bb 87 bc 1f 48 87 bd
       -0.08875892 -0.06441205 -0.016568756 -0.06605553
000240 af 09 00 be 8c 8f d5 bd ed 0c 5e bc 9c 7b 23 bd
       -0.12503694 -0.1042777 -0.013552886 -0.039912805
000250 79 56 33 bd 1c 68 8d bd 45 bb 13 be 2b 62 42 be
       -0.04378364 -0.06904623 -0.14426906 -0.1898276
000260 0c ad eb bd 71 fd 26 bd 3d ee 9b bd ad bb e9 bd
       -0.115076154 -0.040769044 -0.076138 -0.114127494
000270 f6 1d 88 bd 35 20 55 bc ac 48 c5 bc f0 16 04 be
       -0.066463396 -0.013008167 -0.024082504 -0.12899375
000280 50 0c 9f bc c4 26 97 bd 31 b8 7f 3d 94 e3 47 bd
       -0.01941505 -0.07380441 0.062431518 -0.04880102
000290 f5 f6 7d bd ae 9d f7 bd 06 81 fd bd 30 fe 91 bd
       -0.062003095 -0.12090622 -0.12378125 -0.071285605

weight f4 [168, 336]
000000 f7 94 78 3d 3e 5d 80 3d 0e 9c 5d bd 37 67 35 bd
       0.06068894 0.062677845 -0.054103903 -0.044287886
000010 05 ba 25 bd de a3 fa bc cf e7 6d bc cb 20 90 bd
       -0.040460605 -0.030595716 -0.0145205995 -0.07037505
000020 f8 01 96 bd 1b a9 84 3c ba d8 55 3c 76 85 ee 3d
       -0.07324594 0.016193917 0.01305216 0.116465494
000030 9b a1 cb 3c e0 cf 99 3d 9a b0 b3 3d 24 f2 bc 3d
       0.024857333 0.07510352 0.087739184 0.09225872
000040 47 94 91 3c 1a 18 52 3d cb b1 40 3c 8e 90 1d bd
       0.0177709 0.051292516 0.011761139 -0.038467936
000050 f7 bb e7 3c bb 6f 2c 3d 49 68 83 3d 67 48 b3 3d
       0.02828787 0.042098742 0.06416375 0.08754044
000060 3d b4 de 3d cb b0 be bd de b1 63 bd 99 df 1d bd
       0.108742215 -0.09311064 -0.05558955 -0.038543317
000070 24 46 ac 3c f9 b7 33 bd cb 10 90 bd 59 00 0d bd
       0.02102954 -0.043876622 -0.07034453 -0.03442416
000080 21 72 0b bd 46 f7 35 bd 4f 42 09 bd 39 53 cb bc
       -0.03404439 -0.04442527 -0.033510502 -0.024819957
000090 bd 25 a5 3d 07 92 98 3d 25 a0 cd 3d 76 dc b8 3b
       0.08063839 0.074497275 0.10040311 0.0056415154
0000a0 8e de 4b 3c 73 51 b9 bc 3d c1 eb bc da b1 2d 3d
       0.012443198 -0.022621846 -0.028778667 0.04240594
0000b0 56 76 e1 bc 97 23 8f 3c f7 ee 4c 3d 30 b0 d0 3d
       -0.027522247 0.017473025 0.050032582 0.10189855
0000c0 bf 18 b0 3d 8e f3 bc 3d f4 df d4 3c ad 81 d5 bd
       0.0859847 0.09226142 0.025985695 -0.10425124
0000d0 75 9e a2 bd 15 7b 83 bc e8 4e ca bd 7f f2 b9 bc
       -0.079403795 -0.016049901 -0.098783314 -0.022698639
0000e0 4b e1 96 bb 60 8d c8 3a b9 cd ef bc 67 97 92 bd
       -0.0046044937 0.0015300922 -0.0292729 -0.07157784
0000f0 f2 9d 85 bc a5 ec 1b bd e7 e2 0d 3e 38 62 23 bd
       -0.016310666 -0.03806748 0.13856088 -0.03988859
000100 8f 66 d8 3d 33 d2 92 3d ea 6c c6 3d d6 7d af 3d
       0.105664365 0.071689986 0.096887425 0.08568923
000110 bc 50 33 3d 12 34 94 3d c2 52 56 3d cd 83 e4 3c
       0.043778166 0.07236494 0.052325018 0.027894879
000120 c6 bb 84 3c ae c6 52 3d ad 65 c6 bd 2a 94 ca bd
       0.016202819 0.051459007 -0.09687362 -0.09891541
000130 e9 86 f2 bd e9 88 d9 bd fa cd f0 bd 71 78 20 be
       -0.11842138 -0.10621817 -0.11758037 -0.15670945
000140 0d 59 43 be b4 6a 14 be 8f 0f ee bd 15 1c cb bd
       -0.19076939 -0.14493829 -0.11624061 -0.099174656
000150 ba 4a 81 bd b7 47 7c bd a6 9c 0e 3d a4 2d e0 3d
       -0.06313081 -0.06159183 0.03481736 0.10946205
000160 ec 4e 1b 3e 3e 5b 33 3e bd 8f 22 3e 04 35 4a 3e
       0.15166825 0.17515275 0.15875144 0.19746786
000170 cd cc a1 3d 55 16 10 3d 5c d5 b0 3d 0a 94 95 3c
       0.07900391 0.035177547 0.08634445 0.018259067
000180 56 59 cc 3c 51 2e 44 bd 62 af b4 bd 66 1f e6 bd
       0.024944942 -0.047895733 -0.08822514 -0.112364575
000190 4d e1 04 be 8a f5 25 be 7e 5f 2d be 3f a6 22 be
       -0.1297657 -0.16206947 -0.16930959 -0.1588373
0001a0 44 4c 88 bd b7 c9 e7 bc f1 ca 6d bd 67 5a 8a bd
       -0.066551715 -0.028294427 -0.058054868 -0.06755524
0001b0 22 ba 31 3c 3a 6c 13 3e 58 f2 f0 3d d4 b8 68 3d
       0.0108476 0.14396754 0.117649734 0.05681689
0001c0 e0 6a f5 3d f0 cf 2d 3e ef 7b 05 3e c0 ec f2 3d
       0.119832754 0.16973853 0.13035558 0.11861563
0001d0 4e ba 9b 3d 91 e5 6e 3d 68 01 c6 3d fb a1 e3 3c
       0.07603894 0.0583244 0.09668237 0.0277872
0001e0 8e ca 95 3d e2 d3 8a bc 8b d0 83 ba 38 83 2c be
       0.07314025 -0.016946737 -0.0010056657 -0.16846931
0001f0 3e b7 08 be 12 04 db bd 3a c7 1f bd 69 69 a1 bd
       -0.13351151 -0.10694136 -0.039008357 -0.078814335
000200 50 b2 e5 bd 28 38 47 bd 17 a0 a4 bd 17 8a ce bc
       -0.11215651 -0.04863754 -0.08038347 -0.02521233
000210 50 a7 20 bd 27 03 80 bd 6e ad 97 3c 96 96 ec 3d
       -0.03922206 -0.06250601 0.018515315 0.115521595
000220 fd 19 df 3c 29 06 2c 3d 7f be b4 3c 24 ba f1 3c
       0.027234072 0.041998062 0.022063492 0.029507704
000230 d4 fc 82 3c 85 93 12 3c 86 84 ed 3c c5 d4 2d bb
       0.015989698 0.008946304 0.028993856 -0.0026524526
000240 34 5e 03 3d 5b 10 82 ba cb 2d 9d bd 0d 2d 86 bd
       0.03207226 -0.0009923087 -0.0767475 -0.065515615
000250 5e 48 d2 3b be b8 18 3d a6 6b 14 bd 79 7b a5 bd
       0.0064173182 0.03728556 -0.036235474 -0.08080191
000260 71 06 43 bd 04 e0 13 bd 67 3f 96 bd b5 21 94 bd
       -0.047613565 -0.03610231 -0.07336312 -0.072329916
000270 ab 5e 09 be 0a 07 ad 3b 0c e7 96 3c 4e 6c fb 3c
       -0.13415019 0.00528038 0.018420719 0.030691292
000280 34 60 a1 3d a9 a6 2b bd b4 f5 5d bd 65 ae 8e bd
       0.078796774 -0.041906986 -0.0541894 -0.06966857
000290 30 26 0c 3c 30 ae 92 3d 6f 01 a6 3c c6 75 48 3d
       0.0085540265 0.0716213 0.020264355 0.048940443
0002a0 78 cf 00 bd 2c 98 5c bd 8d ed 25 bc 24 2b 56 3e
       -0.031447858 -0.05385606 -0.010127437 0.20914894
0002b0 c5 a7 de 3c 65 c5 2e 3d b8 72 5c 3d 9e 2e 4f bd
       0.027179608 0.04266872 0.05382034 -0.050581567
0002c0 2a c6 d3 3c 68 22 0a bd 51 94 58 bd 9a 99 a5 bc
       0.025851328 -0.03372422 -0.05287582 -0.020214844
0002d0 07 c6 f3 3b 6f 39 9a bc d5 32 74 3d f4 da 88 bc
       0.007439378 -0.018826215 0.05961879 -0.016705967
0002e0 0b 7f 13 bd c3 ed 00 bd ab 50 10 bc 81 d9 82 3d
       -0.03600983 -0.031476747 -0.008808295 0.06389142
0002f0 88 a5 79 b9 27 c4 d1 bb b8 c9 23 bd 9d 54 98 bd
       -0.00023808156 -0.006401557 -0.039987296 -0.07438014
000300 30 e4 0c bc 21 76 b0 bd 8b da 60 3e 94 fb 29 3e
       -0.008599326 -0.08616281 0.21958368 0.16599876
000310 7a f1 a7 3d 19 fc a8 bc d1 fc 7b 3d 2f 77 67 bd
       0.08200355 -0.020628022 0.0615204 -0.056510147
000320 1a cd d0 bc 10 e6 ad bd c8 3d b9 bd 42 b1 c7 bd
       -0.025488425 -0.084911466 -0.09044987 -0.09750606
000330 30 35 67 bd 33 c6 d9 3c d8 85 ab 3d ea 7e 25 3d
       -0.056447208 0.026583767 0.08375138 0.040404238
000340 d3 7f b2 3d 11 92 41 3d ac b3 82 3c e1 91 5e 3d
       0.08715787 0.04725844 0.015954815 0.05433834
000350 ea 1f 9a 3d 93 75 3f 3d 4a 10 7c 3b f4 c9 10 3d
       0.075256184 0.046742987 0.0038461857 0.035348848
000360 d1 65 3d 3d 45 75 3d bb 66 25 45 bc c7 64 d6 bd
       0.046239678 -0.002890901 -0.012032842 -0.104684405
000370 57 ff 55 bc 01 85 4e bd e3 37 9c bc 79 1b aa bd
       -0.013061366 -0.05041981 -0.019069618 -0.08306021
000380 da 16 dc bd 3b a5 ba bc 5d 0b 9f bd 2c 92 c8 bc
       -0.10746546 -0.022783866 -0.07765839 -0.024483763
000390 5e 50 90 bd 5f 0b 13 bc 5e 79 39 3d bb 28 95 3c
       -0.07046579 -0.008974879 0.04528176 0.018207898
0003a0 95 d6 fb 3d 0e bf c7 3d 92 ee 94 3d b3 8d 6a 3d
       0.12296788 0.09753238 0.07272066 0.05726404
0003b0 af 80 4a 3d 9e b3 b2 3d 83 a4 b2 3d 92 9e a3 3d
       0.04943913 0.087256655 0.08722784 0.07989229
0003c0 fc 3e c6 3d cf ba a9 3d d0 ce d2 bd 9f 80 2a bd
       0.09679982 0.08287584 -0.102933526 -0.04162657
0003d0 f1 bf df bd e6 d4 82 bd 65 6c c8 bd 71 b3 03 be
       -0.10925282 -0.063882634 -0.097862996 -0.1286142
0003e0 bf c5 c1 bd 08 5e 92 bd 58 1a be bd 8d ae a6 bd
       -0.09461545 -0.07146841 -0.092823684 -0.08138762
0003f0 51 7c c3 bc 9f a3 07 3e fc c1 a6 3d d7 84 4e 3d
       -0.02386299 0.1324601 0.08142468 0.050419655

bias f4 [168]
000000 0d 41 37 3d 17 40 3a be 96 58 10 3d 28 cb 96 bc
       0.04473977 -0.18188511 0.035240732 -0.01840742
000010 b1 92 11 be b6 e4 11 be 41 ad 2a 3d c2 dc 03 be
       -0.14216115 -0.14247403 0.041669134 -0.12877181
000020 63 8a 15 be a1 8c 19 be 44 c2 2f bd df db 3f bd
       -0.14603572 -0.14995052 -0.042909876 -0.046840545
000030 d6 08 db bd ff e5 44 be 02 87 42 bd a9 85 78 3d
       -0.10695045 -0.19228362 -0.047492035 0.060674343
000040 eb f4 23 bd 5d 0c 1b 3d 2a 95 89 3c ee 4d 0c bd
       -0.040028494 0.037853587 0.01679476 -0.034254007
000050 88 eb 1a be 9d 8d 50 be ed 1f 6f bd e3 57 21 be
       -0.1512891 -0.20366521 -0.058380056 -0.15756182
000060 3e 73 8c 3b 6a 62 06 be fe 61 42 3d 0e 6e e2 bd
       0.004286199 -0.1312348 0.047456734 -0.110561475
000070 57 ed 32 bd 16 49 f9 bd 7a 57 28 bc fc 52 5b bd
       -0.043683376 -0.12172143 -0.010274762 -0.053545937
000080 6f e6 81 3d 12 fb 16 be e5 5d 36 be e4 15 ab bc
       0.0634278 -0.14744213 -0.17809255 -0.020884462
000090 77 b9 5c bd 61 75 c3 bd 7b 9c cd bd cd 27 19 be
       -0.05388781 -0.095438726 -0.10039612 -0.14956589
0000a0 7b dd 15 bd 95 f8 f4 bd 7c e8 ad bc 3e c6 45 be
       -0.036588173 -0.11961476 -0.021229021 -0.19313905
0000b0 15 14 c0 3c f7 34 36 bd 0b 7a 45 be 0b e8 03 be
       0.023447076 -0.044484105 -0.19284837 -0.12881486
0000c0 ae 06 43 bd 38 d4 2d be 76 5f 0a be 31 9b 3d bd
       -0.047613792 -0.16975486 -0.13512978 -0.04629058
0000d0 bc aa 17 be 1a cb eb bd 94 8e 09 be e9 5c 4a be
       -0.14811224 -0.11513348 -0.13433295 -0.19762005
0000e0 34 43 08 bd dc bf 96 bc 37 d0 dd bb a3 5d 9a bd
       -0.033267215 -0.018402033 -0.006769206 -0.07537391
0000f0 6c 36 10 be 46 08 1c be 2b b3 10 bc 53 22 21 be
       -0.1408326 -0.15237531 -0.0088317795 -0.1573575
000100 3e f9 20 3d 93 88 7c 3d 9f 1b 26 3d 1e e7 7a 3d
       0.039300196 0.061653685 0.040553685 0.061255567
000110 9e 55 44 3d f0 a4 52 bc 0f 1d 37 be 34 c4 48 3d
       0.047933213 -0.012856707 -0.17882179 0.04901524
000120 f0 87 3c 3d 18 7a e3 bd d8 95 55 be a1 d9 f3 bd
       0.046028078 -0.11107272 -0.20857942 -0.11906744
000130 7f cf 43 3d 4d b4 7d bd 48 13 20 be 24 c0 49 bd
       0.047805306 -0.061939526 -0.15632355 -0.049255505
000140 f8 5d 6f 3d 14 6a 1f 3d 66 4e 97 bc 62 46 77 bd
       0.058439225 0.038919523 -0.01847 -0.060369857
000150 e5 c8 f9 bd 11 ab 87 3d 1d ae 33 bd 04 77 50 bc
       -0.12196521 0.06624425 -0.04386722 -0.012723688
000160 f6 6d 0f be ce c3 8d bc 7a 39 b6 bd 65 12 07 be
       -0.1400679 -0.017305281 -0.088976815 -0.1319061
000170 8c c1 cd bd cf fd 4a 3d d5 60 3d be 0c f2 7c 3d
       -0.10046682 0.049558457 -0.1849397 0.06175427
000180 5f c7 a6 bc 66 2b c0 bd 8a fb bb bd 9d ee 08 be
       -0.02035874 -0.093832776 -0.09178837 -0.13372274
000190 50 df 20 bc a9 ed 5b be 59 1f 37 3d fc a4 22 be
       -0.009818867 -0.21477379 0.04470763 -0.15883249
0001a0 88 b5 f9 3c cf 02 42 3d bf c7 94 bd 3c dc 2e bd
       0.030482069 0.04736596 -0.07264661 -0.0426905
0001b0 5a 6e fa bd ba df 16 be 4d 5b 20 be 2c 4c 80 3d
       -0.12228079 -0.14733782 -0.15659828 0.06264529
0001c0 96 a3 f6 bd 96 48 3e bd 7e c6 33 be 18 0c 95 bc
       -0.1204292 -0.046455942 -0.17556188 -0.018194243
0001d0 e4 ed f9 bc 93 df 27 be eb 3b 91 3c e5 ee e3 3d
       -0.030508943 -0.1639388 0.017728766 0.1112955
0001e0 0c 0a d6 bd 16 86 e8 3a 73 1d 1a bc e2 e4 be 3d
       -0.10451135 0.0017740156 -0.009406435 0.09321
0001f0 fa 00 f3 bb 7d 60 94 bc d1 e7 0e bd be 45 11 3d
       -0.007415888 -0.018112415 -0.034889046 0.035466902
000200 6c d9 56 3d e4 62 e1 b9 a6 94 99 3d 5a c3 9d bd
       0.052453443 -0.00042989023 0.074990556 -0.07703276
000210 f8 3a 4d 3d b9 21 f1 bd 96 b7 3b 3c b6 da 0d be
       0.050105065 -0.1177401 0.0114573445 -0.13852963
000220 74 b7 f5 bc e0 4c ec bd 91 99 94 3c 14 21 12 be
       -0.029994704 -0.115381 0.018139632 -0.14270431
000230 87 a0 0e be 25 2e d4 bd a5 c8 ea bc a7 54 bb 3d
       -0.13928424 -0.10360364 -0.028660128 0.091470055
000240 46 ac 03 be 59 d5 bb 3d fb 2e 1a be d1 68 c0 bd
       -0.12858686 0.09171552 -0.15056984 -0.09394992
000250 5d a7 ac 3d 63 34 52 bd d8 b8 f7 bd d6 f3 ad bd
       0.084303595 -0.05131949 -0.12095803 -0.08493774
000260 63 f8 d5 3d 3e 40 23 bc af fb 82 bb be 9e d1 3d
       0.10447767 -0.009964047 -0.003997288 0.10235356
000270 9c 8f d4 3d 33 47 d3 3d e9 90 06 be 08 3e aa 3d
       0.10378954 0.103163145 -0.13141216 0.08312613
000280 7b df 47 bc 6f 76 b9 3d 4d 09 a6 3d d2 c0 d5 bd
       -0.012199278 0.090557925 0.08107243 -0.10437168
000290 b5 e0 1d be 2e 71 a6 bd e1 14 86 bc 12 8e 91 3d
       -0.1541775 -0.08127056 -0.016367378 0.07107176

weight f4 [1, 11]
000000 8d 67 34 be 38 92 8b bc 1b 10 e7 3d 63 b2 ef bd
       -0.17617626 -0.017037496 0.11282369 -0.117039464
000010 d7 82 81 3e 13 9a 56 3d d6 58 98 bd a2 f9 b0 3e
       0.25295135 0.05239303 -0.07438819 0.34565455
000020 46 a7 ae 3e f2 9d 75 bb e1 2b da 3d
       0.34111995 -0.0037478176 0.106529005
