js_park/saved_models/best_AF_ND.pth (torch, 455983 bytes, 5 tensors)

weight f4 [168, 336]
000000 ff 6a 97 bd 17 01 8e bd 86 59 6b bd 3d 9f 8b bc
       -0.07393455 -0.069338016 -0.057458423 -0.017043704
000010 24 54 85 bc a4 1a 4f bd 70 6f 97 bd 83 c6 8d bc
       -0.016275473 -0.050562516 -0.07394302 -0.017306572
000020 8b 21 a7 bd 38 49 8e bd 69 a1 13 bd 0a 0f b9 bc
       -0.08160695 -0.06947559 -0.036042605 -0.022590179
000030 e7 2b 72 3b c2 9a 29 bd 75 72 b3 bd ac 74 88 bc
       0.0036952437 -0.041407354 -0.08762065 -0.016657196
000040 de ef 0a 3c 69 17 fd bc 59 24 87 bd 0e b2 9b bc
       0.00848004 -0.030894952 -0.0659873 -0.019005802
000050 bc ad 4a 3c 96 91 95 bd e5 1a 81 3c b6 ed b1 bb
       0.012370523 -0.07303159 0.015759895 -0.0054299487
000060 5d 14 0e bb 43 8e 06 bc d9 c8 00 3d 04 a3 06 bd
       -0.0021679618 -0.008212629 0.031441543 -0.032870308
000070 20 6e fb bc 25 24 fc 3c 12 99 39 3b e3 b9 2e 3c
       -0.03069216 0.030778954 0.0028319997 0.010664436
000080 4b 82 d3 bc 02 c9 86 3c 64 fa 02 3b 24 25 39 3c
       -0.025818964 0.01645327 0.001998567 0.011300359
000090 b2 30 2e bd a3 40 07 bd 0a c0 3d bd 04 b2 9e bb
       -0.04252691 -0.033020627 -0.04632572 -0.0048429985
0000a0 0c 8b 4a bd cc bb 42 3c ca f7 a8 ba fe 48 3c b8
       -0.04944901 0.011885595 -0.001289123 -4.4890672e-05
0000b0 82 6b 86 bd da e3 a6 3c 43 69 ed 3c 3f 44 15 3d
       -0.06563474 0.02037232 0.028980857 0.036442038
0000c0 9c 02 6f 39 99 75 45 bd b9 25 a8 bc 72 78 16 3d
       0.00022793788 -0.048207853 -0.0205258 0.03673596
0000d0 f7 4a 16 bd 65 3b 80 bd ac 65 91 3c 5d bf 16 3d
       -0.036692586 -0.062613286 0.017748676 0.036803592
0000e0 28 73 f4 3c 81 16 90 3c d9 5e 4a bd 6f 32 13 bc
       0.029840067 0.017588856 -0.04940686 -0.008984192
0000f0 da 7c c5 bb 64 5c 56 bd aa 95 24 3d 55 33 83 bc
       -0.0060268464 -0.052334204 0.040181793 -0.016015688
000100 6d a3 10 3d 05 0a 05 bd e8 29 a8 bc ae 7f 0a 3d
       0.035312105 -0.03248026 -0.020527795 0.03381317
000110 ff cf dd bc 6d 01 2a 3c 85 8b 0d bd 05 c6 1c bd
       -0.02707672 0.0103763165 -0.034556884 -0.038274784
000120 1c 1c 56 3d 4d 3e 14 3c 81 dd c3 bc 52 35 18 3d
       0.0522729 0.009048057 -0.023909332 0.037160225
000130 32 16 7d bc 25 b2 7e bd ab d0 ad 3b 32 c7 36 bd
       -0.015447186 -0.06218161 0.005304416 -0.04462356
000140 32 e1 5d bd a8 ff 1d bc f6 f2 d3 3c 40 d2 8c bd
       -0.05416984 -0.009643473 0.025872689 -0.068760395
000150 a4 04 42 bd a3 33 ab ba af 5a 7a 3c 4a f8 a2 bc
       -0.047367707 -0.0013061654 0.01528041 -0.019893784
000160 97 95 9a bd 47 35 ee 3c 05 e5 43 bd 5c 70 85 bd
       -0.07548063 0.029078139 -0.047825832 -0.065155715
000170 7a 14 5f bd d0 21 9a 3b 47 42 44 3c db eb 13 3c
       -0.054462887 0.004703738 0.011978692 0.0090284
000180 48 87 06 3d 79 24 d0 3c 28 5c 05 bd 5f 6f 15 bc
       0.032843858 0.025408017 -0.03255859 -0.009120791
000190 a8 49 3f bd e3 a6 16 3d 27 e1 9e 3c da 03 08 3d
       -0.046701103 0.03678025 0.01939447 0.033206798
0001a0 75 57 4e 3d 38 d9 5c 3d e4 28 8d 3c a3 56 e9 3c
       0.050376374 0.053918093 0.017231412 0.028483694
0001b0 5d c0 00 3c fa 05 cf bc 9e 8f 5c 3d cd b9 41 3b
       0.007858363 -0.025271405 0.0538479 0.0029560209
0001c0 ac 78 3f 3c 96 57 ff bc c0 bc a1 3b 68 24 da 3c
       0.011686485 -0.031169694 0.004935831 0.026628688
0001d0 d0 61 a1 3b 0e 18 e8 bb 6a f7 6e 3d 7a d6 00 bd
       0.0049249902 -0.0070829457 0.05834142 -0.03145454
0001e0 a5 01 89 3d 44 d4 8c 3c 4a 1c 04 3d 93 78 0b 3d
       0.06689767 0.01719106 0.03225354 0.034050535
0001f0 8b 24 ff 3b 8a 6f 4e 3c 0a 7a 1c 3d 96 26 0a 3d
       0.0077863387 0.012599835 0.038202323 0.033728205
000200 77 98 25 bc 6a 47 90 3d 66 67 db bc 22 a2 78 bc
       -0.010107151 0.07044871 -0.026782703 -0.015175374
000210 d1 29 49 3d cf 58 ed 3c a6 a0 a1 bc 21 03 fb bb
       0.049112145 0.028973011 -0.019729923 -0.007660285
000220 d7 85 02 3d 7b cd 0f 3d 48 e2 28 bd 43 a5 40 3c
       0.03186592 0.03510807 -0.041231424 0.011758151
000230 0d 19 21 3d 49 2d 8f 3c a1 d6 6a bb a0 d5 83 bb
       0.03933053 0.017477648 -0.0035833495 -0.004023269
000240 5d a3 39 bc d8 8f 31 bd 5f 97 59 3d 72 90 b6 bc
       -0.011330453 -0.04335007 0.053122874 -0.022285674
000250 ad 9b de bb 9d 4f 15 bc 6f da 39 bd 87 21 15 3c
       -0.0067934603 -0.00911322 -0.04537433 0.009102232
000260 c0 08 13 bc 84 a1 25 3d fc b7 33 3d 75 93 69 bc
       -0.008974254 0.040437236 0.043876633 -0.014256348
000270 2e 56 74 bc 97 e2 21 3d 5f 7e 01 bb 48 9a 62 3d
       -0.014913125 0.039522734 -0.001975916 0.055322915
000280 f2 21 89 bc 3b c2 a5 bb f9 cf 26 bd c6 35 17 bd
       -0.01673982 -0.0050585545 -0.040725682 -0.036916517
000290 af 5b 55 3d e6 b8 ae bb cd ad 0b 3d 97 d3 03 3d
       0.05208939 -0.0053321 0.034101296 0.03218421
0002a0 be 56 d4 bc 36 42 dc 3c 29 d3 cc bc c9 5b 44 bc
       -0.025920268 0.02688704 -0.025003033 -0.011984774
0002b0 f2 e5 08 bd b2 dd 5a 3d 37 74 46 bd 60 af 39 3d
       -0.033422418 0.05343408 -0.048450675 0.045333266
0002c0 8c 89 29 bd 56 21 ff bc c8 db e1 bc ce 3b 14 3d
       -0.04139094 -0.031143826 -0.02757062 0.036189847
0002d0 3b 48 bc 3b 96 0e d8 3c bb fa ad 3c 78 1c d7 3b
       0.005745915 0.026374143 0.021237722 0.006564673
0002e0 01 01 90 bc b5 08 4f 3d a2 ab 4a 3d 78 f4 7c 3d
       -0.017578604 0.050545413 0.049480088 0.06175658
0002f0 af 73 48 3d a6 f9 15 3d 68 74 5d 3d c4 3c c0 bc
       0.04893845 0.036615036 0.05406609 -0.023466475
000300 69 72 16 3d 3b da c6 3b 09 99 c1 bc fa d1 06 3d
       0.036730204 0.0060684956 -0.023632543 0.032915093
000310 a7 a9 fd bb 5e 8b 13 3d ec a5 8e 3d ed 86 21 3b
       -0.0077411714 0.036021583 0.06965241 0.0024647072
000320 fd d9 e5 3c 39 21 b4 bc 4a 84 04 3c b1 8b 72 bc
       0.028058046 -0.021988498 0.008088181 -0.014803813
000330 48 fa 8f 3d 2a 19 37 3d 5a b9 85 3d c9 98 81 bc
       0.07030159 0.044701733 0.06529494 -0.015819924
000340 a0 e8 c0 bc 97 5b 3f 3d 54 ba 5e 3d a7 e7 69 3c
       -0.023548424 0.046718206 0.054376915 0.014276422
000350 ce cf 06 3d 23 49 e3 bc f1 7c b4 3c 6d 12 34 3d
       0.03291302 -0.027744835 0.022032233 0.043962885
000360 5a dc 3e bc f2 30 2e 3b 20 9e 73 3c 61 87 67 3d
       -0.011649216 0.0026579467 0.014869243 0.05652559
000370 3a 5c e7 3c 32 49 14 bd 22 03 61 3d 5d c9 bc bc
       0.02824222 -0.036202617 0.05493463 -0.023045236
000380 35 32 2e bd 90 89 2f bd 80 32 11 3d 64 d0 50 bd
       -0.04252835 -0.0428558 0.03544855 -0.050979987
000390 e4 d3 99 3b 66 c7 05 bc fb 45 51 bd ec 24 f1 39
       0.004694449 -0.008165216 -0.05109213 0.0004599461
0003a0 2f 99 25 3d d3 a2 4c bd 90 12 18 bd 93 aa 1a bd
       0.04042929 -0.04995997 -0.037127078 -0.03776033
0003b0 56 7e 16 3d 2d eb ec 3c 73 ca 21 bd be 76 bd 3b
       0.036741577 0.028920734 -0.03949971 0.0057819774
0003c0 a0 04 05 bd ce 83 36 3d 4c 18 37 3d 59 35 a0 bc
       -0.032475114 0.044559292 0.044700906 -0.019556688
0003d0 be ba 11 3d 71 f7 0f bd 19 40 33 3d 6e ab 19 3d
       0.03557848 -0.035148088 0.0437623 0.037517004
0003e0 b4 2c 8d b9 a4 9d 11 3c 82 f9 6f bd 4f fb ca 3c
       -0.00026926922 0.008887682 -0.05858756 0.024778036
0003f0 9a 49 c6 bc 7f 24 b1 bc a6 5b e6 3c f4 58 74 bc
       -0.024205018 -0.021623848 0.028119873 -0.014913786

bias f4 [168]
000000 f1 33 c7 3d 30 94 ca 3d 37 9f b8 3d 65 f1 bf 3d
       0.09726704 0.09891546 0.09014743 0.09372214
000010 a6 91 d4 3d 47 38 83 3d 79 24 09 3e ce da d1 3d
       0.10379343 0.064072184 0.1339282 0.10246812
000020 9e 74 0b 3e 4d 7a 81 3d 9c 9c e5 3d f3 f6 d6 3d
       0.13618705 0.06322155 0.112115115 0.104963206
000030 2f f5 da 3d 9c 33 f2 3d 26 d6 d3 3d 95 86 72 3d
       0.10691296 0.1182625 0.1034358 0.05921038
000040 45 59 d5 3d 2f fc 87 3d 1d ad ce 3d 45 f5 03 3e
       0.104174174 0.06639897 0.100916125 0.12886532
000050 44 ca b1 3d e1 6a 0b 3e e1 84 fc 3d 40 0f 94 3d
       0.08681157 0.1361499 0.12330032 0.07229471
000060 e9 b8 54 3d 78 84 d3 3d a5 66 b5 3d 7b 3f 9d 3d
       0.051934157 0.10328001 0.088574685 0.076781236
000070 b9 64 5b 3d bd dc bb 3d 21 f5 9d 3d e2 2d 00 3e
       0.053562853 0.09172962 0.0771277 0.12517503
000080 ea 9a 98 3d 17 75 f7 3d a5 fd af 3d d6 22 a6 3d
       0.074514225 0.1208288 0.08593301 0.08112113
000090 ea 15 d1 3d a5 4d eb 3d 6f 48 b0 3d 95 79 61 3d
       0.10209258 0.11489419 0.086075656 0.05504759
0000a0 22 e2 fa 3d 15 24 bd 3d 42 4c a1 3d 21 e2 f3 3d
       0.12250163 0.09235398 0.07875873 0.11908365
0000b0 2d e5 9c 3d 03 82 d5 3d 12 4d b3 3d b2 3a 0c 3e
       0.07660899 0.104251884 0.08754934 0.13694265
0000c0 95 d5 9c 3d f6 ab bb 3d dc eb db 3d 99 b3 75 3d
       0.07657925 0.09163658 0.10738346 0.05998573
0000d0 02 d6 a3 3d d5 84 99 3d 94 41 a8 3d 57 ae db 3d
       0.07999803 0.07496039 0.08215633 0.10726612
0000e0 0e bd c2 3d 06 89 dc 3d ec 16 cf 3d 38 74 ac 3d
       0.095087156 0.10768323 0.10111794 0.084206045
0000f0 2b db b9 3d a0 ec cc 3d 05 6c 04 3e 08 52 a0 3d
       0.09075006 0.1000607 0.12931831 0.07828146
000100 03 af b0 3d 7b e1 0b 3e 28 6e ca 3d 16 96 fa 3d
       0.08627131 0.13660233 0.09884292 0.12235658
000110 9e e8 88 3d 5b 8e ce 3d 6a e0 e2 3d c4 e3 ce 3d
       0.06684993 0.10085746 0.1107796 0.101020366
000120 06 8d ec 3d d9 47 14 3e aa 3d c4 3d 84 83 10 3e
       0.115503356 0.14480533 0.09582074 0.14112669
000130 d9 f1 19 3e 5a 0a f3 3d eb 0e 09 3e 9c aa d7 3d
       0.15033664 0.11867209 0.13384597 0.10530588
000140 ee 19 c7 3d 10 11 17 3e 1f d1 d2 3d aa 65 08 3e
       0.097217426 0.14752603 0.10293793 0.13320032
000150 f8 0b c7 3d 8c eb 16 3e 1c b6 91 3d 93 ff 15 3e
       0.0971908 0.14738292 0.07114813 0.14648275
000160 2d 6f 07 3e 68 8c ff 3d 54 0f 16 3e 92 91 0e 3e
       0.13226004 0.12477952 0.14654285 0.13922718
000170 33 c5 c6 3d e6 12 cf 3d f4 e1 16 3e 52 64 eb 3d
       0.097055815 0.101110265 0.14734632 0.11493744
000180 94 9e bb 3d e3 7d 9f 3d 3b dc 7b 3d 0e 2e ef 3d
       0.09161106 0.07787683 0.061489325 0.11678706
000190 c3 2d 0c 3e c6 b1 b2 3d 82 83 ce 3d 0a b7 d0 3d
       0.13689332 0.08725314 0.10083677 0.10191162
0001a0 e0 cc a8 3d 3b f6 8e 3d 4f 0a 7d 3d 9f 08 e0 3d
       0.08242202 0.069805585 0.06177741 0.10939144
0001b0 a7 ce d7 3d cb 19 fc 3d 79 0c 07 3e 63 16 b5 3d
       0.10537463 0.12309607 0.13188352 0.088421606
0001c0 68 9f fd 3d 00 76 c4 3d 68 97 f0 3d 9f d4 a2 3d
       0.1238392 0.09592819 0.117476285 0.079507105
0001d0 c1 d0 0a 3e 8b ff e3 3d 91 6b e3 3d eb 5a 89 3d
       0.13556196 0.11132725 0.11104501 0.06706794
0001e0 72 3e d0 3d 44 e5 c9 3d a1 30 c9 3d 31 36 e3 3d
       0.101681605 0.09858182 0.09823728 0.110943206
0001f0 dd 37 cb 3d 34 c3 fe 3d 6d 48 94 3d 8c 96 e6 3d
       0.099227645 0.12439576 0.072403766 0.11259183
000200 23 6b c4 3d 95 d0 cf 3d 18 79 c6 3d 37 bd 99 3d
       0.09590747 0.10147206 0.096910655 0.07506793
000210 5f 98 07 3e 52 16 bd 3d d0 05 9e 3d 2d 95 ba 3d
       0.13241719 0.09232773 0.077159524 0.09110484
000220 59 f3 07 3e 12 c8 bd 3d 39 cd b8 3d d7 c1 d4 3d
       0.13276424 0.09266676 0.09023518 0.103885345
000230 e6 3f fd 3d 52 32 d6 3d bd be dd 3d 6b c7 86 3d
       0.12365703 0.104588166 0.10827396 0.06581005
000240 1d 50 c8 3d 77 70 f9 3d 86 fb c5 3d c9 17 89 3d
       0.097809054 0.12179654 0.09667115 0.0669399
000250 d9 e0 f4 3d 49 4c 82 3d 68 73 c8 3d e0 77 01 3e
       0.11956949 0.063622065 0.09787637 0.12643385
000260 df 11 c5 3d e4 8d dd 3d a2 fd d1 3d d6 e1 da 3d
       0.09622549 0.10818079 0.10253455 0.10687606
000270 de 60 b3 3d fd 32 a8 3d d3 e4 12 3e 0b c8 ec 3d
       0.0875871 0.0821285 0.14345102 0.11561593
000280 f1 62 dc 3d e1 ef bb 3d aa b2 f9 3d 20 d2 cd 3d
       0.10761059 0.09176613 0.121922806 0.10049844
000290 ab 8a be 3d d1 fa 1f 3e 2b d9 d5 3d 9a a5 e7 3d
       0.093037926 0.15623023 0.10441812 0.11310883

weight f4 [168, 336]
000000 cd 85 02 3d 1d 6e c5 3d 7c 88 4f 3c f7 e4 93 3b
       0.031865884 0.09640143 0.012666818 0.0045133787
000010 f3 db ed bc 3e 8e 9a bd d7 d0 02 be e4 c1 09 be
       -0.029035544 -0.07546662 -0.12774979 -0.1345287
000020 17 a6 c2 bd 13 77 43 bd 2e cf 16 bd cf d7 19 bd
       -0.095043354 -0.04772098 -0.036818676 -0.037559327
000030 72 47 9d 3d 85 93 6e 3c 51 29 f0 3c f9 8d 05 bc
       0.07679643 0.014561539 0.029316576 -0.008151525
000040 25 c6 2b 3d d3 4b 87 3d f0 9d a5 b9 dd c6 b7 bd
       0.041937012 0.06606259 -0.00031588925 -0.08973477
000050 5e 0a b6 bd 33 a4 07 3d be 43 54 3d 5a 77 a4 3d
       -0.08888696 0.033115577 0.051822416 0.08030577
000060 b2 f2 3e 3d 50 38 0e 3d 76 b8 3d 3a e9 44 4c 3d
       0.04661817 0.034721673 0.00072372647 0.049870405
000070 a3 1f cd bb 85 85 3f bd c9 7b a1 bd ee 77 50 bc
       -0.006259875 -0.046758194 -0.07884938 -0.012723906
000080 d7 8f 6e bd 5a d6 13 3d 05 44 c0 3c ea 3a 06 3b
       -0.058242645 0.036093093 0.023469934 0.0020481893
000090 1d 5b 0e 3d cc 87 32 3d 8c 32 21 3d 0a 8d 6b 3d
       0.03475486 0.043586537 0.039354846 0.057507552
0000a0 63 bd 85 3d 2d 20 b3 bc b7 40 f6 bc 61 68 84 bd
       0.06530263 -0.021865929 -0.030060155 -0.06465221
0000b0 a5 0a fa bd 5c b3 9b bc 42 1a fa bc 2c c3 e7 3c
       -0.122090615 -0.019006424 -0.030530099 0.028291307
0000c0 5f 15 23 3c d6 d5 d3 3b fd 53 3c 3d bf 27 57 bd
       0.009953826 0.0064647 0.045978535 -0.05252814
0000d0 ce 7c 77 bd cc 3c b4 bd 9c 40 a7 bd 43 07 96 bd
       -0.060421757 -0.088006586 -0.0816662 -0.07325604
0000e0 67 53 66 3c e0 42 14 39 d1 ae 0c 3d 24 1b 6c 3d
       0.014057971 0.00014139293 0.034346405 0.05764307
0000f0 ce 72 d4 3d 4e 70 1d 3d aa 23 2c 3c f3 a2 b9 3c
       0.1037346 0.03843718 0.01050655 0.022660708
000100 28 50 bc 3d 41 cf ff 3c b7 d6 19 3b e5 58 80 3d
       0.09194976 0.031226756 0.0023473927 0.06266955
000110 fe e1 4d 3d c9 2d b8 3c 6f 1e 70 3d d5 72 c1 3d
       0.05026435 0.02248277 0.058622774 0.094457306
000120 1f 5f 40 ba 3d 5f 92 3d c1 cd 98 bc 09 ad a0 bd
       -0.0007338393 0.071470715 -0.018652799 -0.07845504
000130 f4 97 9f bd 82 8d 92 bd ae f5 f3 bd d9 a0 ba bd
       -0.07792655 -0.07155897 -0.11912094 -0.091127105
000140 01 e0 8e bc 30 fe a1 bd cf d8 49 3d d5 cb 1d 3d
       -0.017440798 -0.079098105 0.04927903 0.038524467
000150 e4 a9 11 3d 24 8c ba 3d 86 d9 25 3d d9 c4 01 3d
       0.03556241 0.09108761 0.04049065 0.03168187
000160 d9 fc 1e 3d f9 f9 2e bd a7 ef 98 bd 39 15 04 be
       0.038815353 -0.04271886 -0.07467585 -0.12898721
000170 a8 66 f9 bd 8f 8b 84 bd 87 28 97 3d d9 9d ab 3d
       -0.12177783 -0.06471931 0.07380777 0.083797164
000180 53 95 8d bd 81 0e 91 bc 17 ce 0b 3d c0 1d 28 ba
       -0.06913247 -0.017707111 0.03413209 -0.00064131245
000190 f8 20 8f bd c8 23 06 bd 9c e2 96 bc 71 fd 52 bd
       -0.0698871 -0.032748967 -0.018418603 -0.05151123
0001a0 f0 a6 3b bc 50 8e 75 3c 26 05 8a 3d c3 b8 92 3c
       -0.011453375 0.014987543 0.06739263 0.017910367
0001b0 ae b5 a6 3d dd b7 80 3d b3 d5 50 bb 4c 6f 32 3c
       0.081401214 0.06285069 -0.0031865656 0.010890793
0001c0 44 ea bd 3b 0c f3 74 bb d7 96 9d bd eb 75 a7 bc
       0.005795749 -0.0037376313 -0.07694786 -0.02044197
0001d0 57 f3 cf bc 5d 91 a1 3c 00 f9 54 3d df 39 f1 3d
       -0.025384588 0.019722635 0.051995277 0.11778616
0001e0 e7 47 c0 3c fa 89 d9 3c af fc 67 3d b1 37 25 bd
       0.023471786 0.02655505 0.056637462 -0.040336315
0001f0 8e dd 1e bd e8 7a ce bd b8 16 82 bd 33 7f 95 bd
       -0.03878551 -0.10082036 -0.063519895 -0.07299652
000200 fc aa 86 bd ae e2 2d bd 05 f0 93 3c 84 bd df 3c
       -0.065755814 -0.042452507 0.018058786 0.027312048
000210 5a 16 67 3d 7d 35 8d 3b de 90 d3 3c 7d 09 93 bc
       0.0564178 0.004309355 0.025825914 -0.01794886
000220 02 38 c6 bc ca 6c f8 bb 4d 3a 16 3c 46 a0 be 3c
       -0.024196628 -0.007581328 0.009169173 0.023269784
000230 23 53 43 bc 2d d2 32 bd 77 bd c3 3a dd 70 4b bd
       -0.011921677 -0.04365747 0.0014933784 -0.04966818
000240 86 59 3a bc 82 03 0e 3d b9 76 4d 3d f7 af 88 3c
       -0.011373883 0.034671314 0.05016205 0.01668547
000250 0d 47 da bd ad 8d 9e bd 70 bb 0b be 14 8e cf bd
       -0.10658083 -0.07741866 -0.1364572 -0.10134521
000260 88 b5 e5 bd 60 71 b7 bd 49 bb df 3c 6c 67 a3 3d
       -0.11216265 -0.089571714 0.027310984 0.079787105
000270 43 9e 2f 3c 55 ed a2 3d c6 16 88 3d e1 31 d6 3d
       0.010718885 0.07955424 0.06644969 0.104587324
000280 fb d9 c6 3a e2 cb fa bb b8 98 ce 3c 81 9a ee 3c
       0.0015171164 -0.0076536993 0.025219306 0.029126408
000290 58 94 c4 bc 69 3d f0 3c d8 4c c5 3b f9 55 b5 bd
       -0.023996517 0.029326158 0.0060211234 -0.088542886
0002a0 64 a4 de 3c 0f ba 3c bb 34 10 f6 3b eb 5b 02 bc
       0.027177997 -0.0028797423 0.007509256 -0.007956485
0002b0 e6 b6 b0 bd e3 8c 8e bd 11 e6 15 be 9c 6c 03 bd
       -0.08628635 -0.06960466 -0.14638545 -0.032086
0002c0 8b e9 e6 bd e7 76 c4 bd 4e 08 73 3c 22 5e 8c 3c
       -0.112750135 -0.09592991 0.014833523 0.01713473
0002d0 ef 3d b2 3d 16 57 af 3d ee 72 07 3d 76 a4 52 3d
       0.08703219 0.08561532 0.03306859 0.051426373
0002e0 d1 0d f3 3c 1a 2c 50 bd e5 c9 28 bd 03 d0 8d bd
       0.029669674 -0.05082331 -0.041208167 -0.06924441
0002f0 29 50 d2 bd c9 46 4b bd 09 9b 5a bd 60 d0 d4 3b
       -0.102691956 -0.049628053 -0.05337051 0.006494567
000300 0f fd 27 3d 1e ba 62 3c 79 16 69 3c 4c a7 e3 bb
       0.04101282 0.013838319 0.014226549 -0.0069474336
000310 2b c7 28 bd da a6 8f bd e2 ad f1 bc 09 38 d3 bd
       -0.041205566 -0.07014246 -0.02950186 -0.10313422
000320 33 f2 9d bb bf 92 3b 3d 93 a4 8d 3d 12 a0 52 3d
       -0.004820132 0.045794245 0.06916156 0.051422186
000330 ff 28 95 3d de ef 71 3d 80 64 8d 3d 99 d7 0f 3d
       0.0728321 0.059066646 0.069039345 0.03511772
000340 bc e0 f7 3b 25 53 a9 3d 2a 13 ba bc aa bf 04 bd
       0.007564632 0.08267812 -0.022714216 -0.032409348
000350 e0 05 59 3c 1d cc 96 bd aa ee 76 bd 10 db 48 39
       0.01324603 -0.0736315 -0.0602862 0.00019155093
000360 26 85 a8 bd df 85 6c bd bf 85 fd bb 0f 58 d0 bb
       -0.08228521 -0.057744857 -0.007736891 -0.0063581537
000370 00 b8 12 be 47 04 21 be a1 1a 0d be fd 06 b8 bd
       -0.14328003 -0.15724288 -0.1377969 -0.08985708
000380 81 f7 dc bd fd d4 91 bd b4 b0 99 bc d8 08 ac bb
       -0.10789395 -0.071207024 -0.018761016 -0.0052500777
000390 ca 2f fd 3d 3d 3c 8f 3d 0a 8b b6 3b 94 7d b9 3c
       0.12362631 0.069939114 0.005570774 0.022642888
0003a0 72 8e 8e bc 12 82 0a bd cf 19 37 3c bb bf 81 bb
       -0.017401908 -0.03381545 0.011175587 -0.0039596236
0003b0 1e da 13 3c 44 6b a2 bc 85 4d c3 3d 22 28 dc 3d
       0.009024171 -0.019826539 0.0953627 0.10749842
0003c0 a2 c0 91 bd 18 7f 14 bc f5 68 48 3b 43 43 15 bd
       -0.0711682 -0.009063505 0.0030580137 -0.0364411
0003d0 4f 53 07 bd 05 d8 93 3b d0 cd 3a bc 44 24 8e 3d
       -0.033038434 0.0045118355 -0.011401609 0.06940511
0003e0 b8 b0 0b 3c 8e 98 a1 3c e7 de 4f 3d 0e 33 ae 3d
       0.00852602 0.019726064 0.050749686 0.08505832
0003f0 e2 5a 96 3d 00 e2 95 3c 06 da c2 bc f2 23 93 b9
       0.07341553 0.018296242 -0.023785602 -0.00028064806

bias f4 [168]
000000 57 b2 a8 3d 08 b2 a4 3d cf 8a b7 3d ed fa b0 3d
       0.082371406 0.08041769 0.089620225 0.0864161
000010 8a de 9d 3d de b1 ef 3d 7b 72 43 3d 84 33 a0 3d
       0.077084616 0.11703847 0.0477166 0.07822326
000020 cd b9 38 3d ce b0 f1 3d 2f 29 8e 3d 3f ca 9a 3d
       0.04509907 0.11801301 0.06941449 0.07558107
000030 86 e7 98 3d ee 96 82 3d 3a 4d a4 3d 46 15 ff 3d
       0.074660346 0.06376444 0.08022542 0.124552295
000040 bb 0b a3 3d 85 4c f0 3d 29 85 b0 3d b9 70 6e 3d
       0.07961222 0.11733345 0.08619148 0.05821297
000050 ca ec ce 3d 72 df 55 3d e1 ed 86 3d 74 57 ea 3d
       0.10103758 0.052215047 0.065883406 0.114424616
000060 26 f8 09 3e 56 51 ab 3d 1d 59 cc 3d e9 6f e5 3d
       0.13473567 0.08365123 0.099779345 0.11202986
000070 9e 99 0b 3e c3 06 ca 3d fd db e9 3d 65 9f 86 3d
       0.13632819 0.09864571 0.114189126 0.06573371
000080 5c 36 ed 3d 85 bd 8f 3d 49 5f d5 3d 44 4e df 3d
       0.11582634 0.0701857 0.10418565 0.109036
000090 38 c0 b3 3d 9b 50 9b 3d e7 2d d7 3d dd 09 0c 3e
       0.08776897 0.07583734 0.10506802 0.13675638
0000a0 8e cb 8b 3d fb 99 ca 3d 12 bf ee 3d 85 b1 9c 3d
       0.06825934 0.09892651 0.116575375 0.07651047
0000b0 07 13 f5 3d 2f d9 bb 3d fc ec e1 3d 57 62 6a 3d
       0.1196652 0.09172284 0.11031529 0.05722269
0000c0 67 c3 f1 3d 90 aa d3 3d 7a b8 b4 3d a7 7b 0b 3e
       0.11804848 0.103352666 0.088242486 0.13621388
0000d0 90 7f f0 3d 1f a8 fb 3d a4 4f ed 3d ad d0 b7 3d
       0.117430806 0.12287926 0.11587456 0.089753486
0000e0 08 9f d2 3d 46 21 b9 3d fc 00 c5 3d 14 36 e5 3d
       0.10284239 0.090395495 0.096193284 0.11191955
0000f0 03 fd d9 3d 8a 64 c6 3d 4d 6c 8c 3d d8 2a f6 3d
       0.10643961 0.09687145 0.06856594 0.120198905
000100 b7 9b e5 3d ef 2c 7d 3d c4 c4 d3 3d 48 8f a4 3d
       0.11211341 0.06181043 0.103402644 0.08035141
000110 cc 3d 0a 3e 77 93 ce 3d da 8d bc 3d f6 3f cb 3d
       0.13500136 0.100867204 0.092067435 0.09924309
000120 c4 a7 af 3d 95 4e 68 3d 3e a2 d9 3d 5b 7a 7d 3d
       0.08576921 0.056715567 0.10626648 0.061884265
000130 da 4c 60 3d 96 46 b2 3d 68 47 95 3d 9a 2d d1 3d
       0.05476079 0.087048694 0.0728901 0.10213776
000140 02 d5 e2 3d 96 07 7b 3d 0f c8 d8 3d 12 27 99 3d
       0.11075784 0.06128653 0.10585033 0.07478155
000150 34 92 e3 3d ba ee 7a 3d 74 25 0d 3e bc db 7d 3d
       0.111118704 0.061262824 0.13783818 0.061977133
000160 43 15 9b 3d a2 79 a9 3d ce 77 80 3d 34 c1 8f 3d
       0.07572415 0.08275153 0.06272851 0.070192724
000170 3f 32 e5 3d 2e 11 dc 3d 57 b2 7e 3d f2 bd ba 3d
       0.11191224 0.10745464 0.062181797 0.091182604
000180 dc 18 e9 3d 6d 8c 02 3e 22 85 14 3e 6b 6c b8 3d
       0.11381695 0.1274888 0.14503911 0.09005054
000190 80 0a 91 3d f6 bf f6 3d 34 c5 dc 3d cc 0e dd 3d
       0.07082081 0.120483324 0.10779801 0.10793838
0001a0 31 f3 01 3e e7 fe 0d 3e 1a a6 15 3e f5 f2 c5 3d
       0.12690426 0.13866769 0.14614144 0.09665481
0001b0 d3 71 cf 3d 83 4f ab 3d ae 09 9b 3d bf 2b f4 3d
       0.10129132 0.08364775 0.07570206 0.119224064
0001c0 34 c8 ac 3d 3c 2b ec 3d 9c 3e c1 3d 86 cc 07 3e
       0.08436623 0.11531684 0.0943577 0.13261613
0001d0 cf 96 9b 3d 49 ca cb 3d b5 68 cf 3d 0b db 14 3e
       0.07597124 0.09950692 0.10127393 0.14536683
0001e0 9a cd dc 3d fe 67 e3 3d a3 a0 e5 3d 29 51 cf 3d
       0.10781403 0.11103819 0.1121228 0.10122902
0001f0 59 90 e9 3d 1a 49 b8 3d ed ae 13 3e 08 db d1 3d
       0.11404485 0.08998318 0.14422198 0.10246855
000200 91 0b f1 3d 21 2c e5 3d b2 96 ec 3d bb c6 0b 3e
       0.11769784 0.111900575 0.1155218 0.13650028
000210 b7 cc a2 3d 4e 95 f4 3d ae a8 09 3e 95 aa f6 3d
       0.079492025 0.1194254 0.13443252 0.12044255
000220 59 e5 9e 3d e8 b9 f0 3d f7 3e fc 3d 65 d7 e0 3d
       0.07758588 0.11754209 0.12316697 0.10978583
000230 77 f3 b8 3d 9c db e1 3d f7 5a dc 3d 29 94 15 3e
       0.09030812 0.11028215 0.10759538 0.146073
000240 97 f8 e8 3d 35 50 b8 3d 4e c0 ed 3d 67 8d 15 3e
       0.1137554 0.08999673 0.11608945 0.14604722
000250 d3 61 c2 3d 4e d1 1b 3e 36 32 f9 3d 90 47 ba 3d
       0.09491315 0.15216562 0.1216778 0.09095681
000260 f1 09 f7 3d dc 48 df 3d 3c 45 e8 3d fa 41 df 3d
       0.12062443 0.10902569 0.113413304 0.10901256
000270 17 05 04 3e 35 b4 09 3e 66 c5 96 3d 5b d9 d0 3d
       0.12892567 0.1344765 0.073618695 0.10197707
000280 13 eb e0 3d 4e 62 01 3e e6 fc cb 3d 94 8b f8 3d
       0.10982337 0.12635157 0.09960346 0.121359974
000290 d3 ad 03 3e e8 f7 88 3d db 47 f4 3d 7c 9f e0 3d
       0.12859277 0.06687909 0.11927768 0.10967919

weight f4 [1, 27]
000000 5d 90 9d bd 45 6f 07 3d 48 81 66 3d f5 fc 2f be
       -0.07693551 0.0330651 0.056275636 -0.17186339
000010 d4 71 25 be 77 b0 88 3e 5f 27 7c bd 4d 67 02 3e
       -0.16156703 0.26697132 -0.061560985 0.12734719
000020 ed 4a a3 bd 01 8c 15 3e 35 45 ef bc 27 48 00 3e
       -0.07973275 0.14604189 -0.029207805 0.12527524
000030 3c b6 56 3e 53 8a 0b 3d 30 26 6c 3e 58 ae 60 3d
       0.20967954 0.034067463 0.23061442 0.054853767
000040 76 4e 28 3e 68 b2 d9 3c c6 9d 7f bb 13 90 a1 3d
       0.1643618 0.026574329 -0.0039003952 0.07888808
000050 5b bf 00 3d 8a 41 8e bd 27 69 92 bd cf 66 f1 3c
       0.03143249 -0.06946094 -0.071489625 0.029467968
000060 08 79 e1 3d f5 c2 01 3e ae a6 1b 3d
       0.11009413 0.12672026 0.038000755
