js_park/saved_models/best_seq1.pth (torch, 189771 bytes, 14 tensors)

weight_ih_l0 f4 [256, 10]
-0.069667906 -0.08764064 -0.05379398 0.0069652647 -0.11837654 -0.10420799 0.07789691 0.1107105
0.065635175 0.10390617 0.12233876 -0.097652465 0.09122628 0.043756753 0.02847518 -0.025476456
0.09921871 -0.06804654 -0.006404534 -0.02361627 -0.07090393 0.10218541 0.07833573 0.12495229
-0.120574936 -0.113623306 0.052083313 0.09213039 -0.11641936 -0.015449911 -0.008570686 0.0974635
-0.013371304 0.0042713434 0.11031145 -0.11191483 -0.008860543 -0.0053788275 0.048596382 -0.010964751
-0.06942092 -0.06540786 -0.08580741 0.04381834 0.07544437 -0.117410645 0.11765237 0.0682621
0.053776592 -0.095984444 -0.110945135 -0.11729896 0.06886758 -0.009354234 0.04892488 0.07609561
-0.05151552 -0.011291951 -0.09740417 -0.04777932 -0.064755544 0.008376971 0.05293207 -0.04764007
-0.11884126 0.003407523 0.051894262 -0.027002692 0.013109237 0.007846147 -0.037864402 0.12099312
-0.112272635 -0.109801754 -0.024461582 0.06325725 -0.038329452 -0.09181617 0.015254408 -0.061738074
0.015271977 -0.052851617 -0.05987723 0.049919143 0.01168482 -0.021797627 0.009895101 0.07499811
-0.07822177 0.06502752 -0.05824195 0.026188537 -0.048254505 -0.026697427 0.021336824 -0.009260207
0.06365007 0.029102579 0.03577259 0.05360432 0.06699528 0.11275849 0.05938129 0.037096158
0.0763206 0.08843404 0.084448025 -0.10698488 -0.10112135 -0.11931969 -0.108560786 0.09559634
-0.06923188 0.047548875 -0.11192818 -0.0828418 0.08888872 -0.07648301 0.09303926 -0.041459113
-0.00071170926 -0.07569189 -0.07142639 0.09762342 0.04861641 -0.09280865 -0.119130984 0.06522375
0.0003552884 0.012904882 -0.043846622 0.101326436 0.059156552 0.08999932 -0.044741556 -0.102772534
0.0986772 0.11172198 -0.051830843 -0.02920416 0.051458538 0.10087533 0.049286827 0.07782109
0.109371185 0.09674062 0.042118773 0.06891662 -0.053750604 -0.09168327 0.06732297 -0.029835775
0.09963128 -0.0007086396 -0.115858555 0.10771102 0.014984176 0.11489463 -0.057459846 0.07623044
-0.04440318 -0.09156723 0.06105353 0.066464454 -0.09080854 0.058295116 -0.039990023 -0.11192
0.09409244 -0.07585052 -0.010394841 0.009573281 0.018421352 0.022275597 -0.11630818 0.03617315
0.114329025 0.011058837 0.11279191 0.08146632 0.0109158605 -0.017409116 -0.0966938 0.0057454705
0.078657016 -0.09575014 0.10150127 -0.044452623 -0.014917061 0.037664667 -0.071560904 -0.054377645
-0.10818471 0.024501026 0.06790492 0.113625094 -0.12366821 0.08760275 0.06304629 0.04586284
0.11750676 -0.043467417 -0.11352822 0.09812492 -0.11406793 -0.09107877 -0.025847241 -0.052792758
-0.060891822 0.038954526 0.018182084 0.06888878 -0.11413556 0.055841297 0.08328487 -0.106224075
-0.0029412508 0.08086024 0.017959759 -0.116715506 -0.005172223 0.022751406 0.06931847 0.010488987
0.05310133 -0.061692894 -0.053412348 -0.024574995 -0.06192261 -0.10049304 -0.07842851 0.026734456
0.06353547 0.110735565 0.099199235 -0.08300884 0.07887679 0.04762119 0.11942713 0.000813216
0.07128161 -0.05019188 0.04038821 0.008752689 -0.0068880767 -0.09780905 -0.064595565 0.028152317
-0.07972665 -0.01966396 0.029594168 0.0028541684 -0.018725783 0.009058759 -0.03135228 0.021223426
00000000: 0cae 8ebd f07c b3bd 1457 5cbd e03c e43b
00000010: 666f f2bd 006b d5bd 6a88 9f3d 30bc e23d
00000020: bc6b 863d c2cc d43d be8c fa3d 04fe c7bd
00000030: d8d4 ba3d 483a 333d c844 e93c 00b4 d0bc
00000040: 2e33 cb3d fc5b 8bbd 20dd d1bb e876 c1bc
00000050: 1436 91bd 9646 d13d 7c6e a03d fce6 ff3d
00000060: feef f6bd 56b3 e8bd 5055 553d dcae bc3d
00000070: 466d eebd a021 7dbc 106c 0cbc f29a c73d
00000080: 5013 5bbc a0f6 8b3b f8ea e13d 9a33 e5bd
00000090: d02b 11bc e040 b0bb 000d 473d 80a5 33bc
000000a0: 8e2c 8ebd 8ef4 85bd ccbb afbd dc7a 333d
000000b0: 9482 9a3d fe74 f0bd baf3 f03d 00cd 8b3d
000000c0: d844 5c3d 7e93 c4bd 3437 e3bd 703a f0bd
000000d0: 720a 8d3d 8042 19bc 7465 483d 04d8 9b3d
000000e0: f001 53bd e001 39bc d67b c7bd 40b4 43bd
000000f0: 8e9e 84bd 903f 093c 4ccf 583d 3c22 43bd
00000100: 0c63 f3bd c050 5f3b 148f 543d c034 ddbc
00000110: 20c8 563c 208d 003c b417 1bbd 3ecb f73d
00000120: 32ef e5bd bedf e0bd a863 c8bc 048d 813d
00000130: 58ff 1cbd 1e0a bcbd a0ed 793c 10e1 7cbd
00000140: 5037 7a3c f07a 58bd d441 75bd 0478 4c3d
00000150: b071 3f3c f090 b2bc 101f 223c 9c98 993d
00000160: bc32 a0bd 262d 853d 1c8f 6ebd 5889 d63c
00000170: 84a6 45bd 90b4 dabc 90ca ae3c 20b8 17bc
00000180: f85a 823d 8868 ee3c 4886 123d 3490 5b3d
00000190: d234 893d eced e63d cc39 733d 24f2 173d
000001a0: fa4d 9c3d e81c b53d 16f3 ac3d e41a dbbd
000001b0: b618 cfbd e25d f4bd 1e55 debd 04c8 c33d
000001c0: 72c9 8dbd 9cc2 423d 9a3a e5bd f6a8 a9bd
000001d0: 4a0b b63d 20a3 9cbd 5e8b be3d 08d1 29bd
000001e0: 0092 3aba 5a04 9bbd 0048 92bd caee c73d
000001f0: 0022 473d 7612 bebd f2fa f3bd 0894 853d
00000200: 0046 ba39 006f 533c 8498 33bd 3c84 cf3d
00000210: 244e 723d 9051 b83d ec42 37bd 687a d2bd
00000220: 4617 ca3d 7ece e43d 944c 54bd 903d efbc
00000230: 30c6 523d ba97 ce3d fce0 493d aa60 9f3d
00000240: 00fe df3d f21f c63d bc84 2c3d 2824 8d3d
00000250: 9829 5cbd 70c4 bbbd a0e0 893d 286a f4bc
00000260: 7c0b cc3d 00c4 39ba 4047 edbd 9897 dc3d
00000270: 3080 753c e04d eb3d 045b 6bbd b41e 9c3d
00000280: 1ce0 35bd 9a87 bbbd 4413 7a3d 841e 883d
00000290: d4f9 b9bd dcc6 6e3d 94cc 23bd 5036 e5bd
000002a0: 8ab3 c03d 8457 9bbd 204f 2abc 40d9 1c3c
000002b0: 60e8 963c 507b b63c fc32 eebd 4c2a 143d
000002c0: 5625 ea3d 2030 353c 72ff e63d d0d7 a63d
000002d0: 70d8 323c 909d 8ebc 6607 c6bd 8044 bc3b
000002e0: ee16 a13d a618 c4bd e6df cf3d f413 36bd
000002f0: b066 74bc 4446 1a3d 868e 92bd 18bb 5ebd
00000300: f28f ddbd 60b6 c83c bc11 8b3d 46b4 e83d
00000310: c245 fdbd 1269 b33d 6a1e 813d acda 3b3d
00000320: 62a7 f03d e40a 32bd 7c81 e8bd b8f5 c83d
00000330: 729c e9bd 8287 babd 98bd d3bc 383d 58bd
00000340: b469 79bd c88e 1f3d 98f2 943c 9015 8d3d
00000350: e8bf e9bd d8b9 643d 4291 aa3d 028c d9bd
00000360: 00c2 40bb 0e9a a53d 5820 933c 8a08 efbd
00000370: c07b a9bb 2861 ba3c d8f6 8d3d 00da 2b3c
00000380: c880 593d b0b1 7cbd e8c6 5abd 8051 c9bc
00000390: 90a2 7dbd 4ccf cdbd 209f a0bd 3802 db3c
000003a0: e21e 823d 54c9 e23d f828 cb3d 8a00 aabd
000003b0: 288a a13d 700e 433d 3696 f43d 002e 553a
000003c0: 18fc 913d 0096 4dbd 1c6e 253d 7067 0f3c
000003d0: 60b5 e1bb 1c50 c8bd ae4a 84bd b09f e63c
000003e0: ba47 a3bd 5016 a1bc 786f f23c 000d 3b3b
000003f0: d066 99bc 306b 143c 406b 00bd c0dc ad3c

weight_hh_l0 f4 [256, 64]
0.026267424 0.021390587 -0.07093565 0.04854147 -0.09987341 0.012605146 -0.041064873 -0.022662535
-0.050251603 -0.027309284 -0.031800956 -0.02723676 -0.12478763 0.060443595 0.07950297 -0.10310128
-0.04742539 0.12306635 -0.096753284 0.114849895 -0.03703791 0.06043294 0.062119335 0.087566435
0.075558156 -0.029567331 0.1141471 0.001929462 -0.09092535 -0.090480655 -0.08967814 -0.08132823
-0.05115713 -0.04139343 0.012356877 -0.074415684 -0.060006455 0.11938642 0.1088372 -0.123870835
-0.025665551 0.118083864 -0.03556995 0.10274479 -0.053478956 -0.087756395 0.08279763 -0.09076895
-0.064313725 0.09430434 0.07919745 -0.12320793 0.019867301 0.023279354 -0.07159296 -0.0990528
-0.065461725 0.007842675 0.11329594 0.097068 -0.08042309 0.010183498 -0.0681251 -0.053138614
-0.105812356 0.10267234 0.108350605 -0.111427456 0.026873395 -0.053857952 -0.093089685 0.05951111
0.09458955 0.0102202445 -0.10631096 -0.10957654 0.050169796 0.12203689 0.11774041 0.110664845
-0.08189568 0.09795131 -0.02048646 0.10390143 -0.08543752 -0.09621659 0.02389495 0.09279409
0.12459046 -0.114980415 0.019228145 -0.05198136 -0.048848286 -0.026493967 0.08641943 0.07100169
0.036963746 0.058632568 -0.06116289 0.00020229816 -0.06427583 0.08751398 -0.023402542 -0.12260322
-0.019576445 -0.0333537 -0.06597464 0.017131105 0.04648067 0.09112023 0.030949414 -0.11669333
-0.007025838 -0.03762789 0.08509581 0.038729146 -0.023961514 0.07392055 -0.015017405 -0.045317978
0.07417886 0.013960257 0.104718044 0.051236182 0.10172939 0.014536485 -0.023614883 -0.04684925
0.07664506 0.06261267 0.01852557 0.0055423975 -0.12322383 0.0614924 -0.06789321 0.104763
-0.01311627 0.004342079 -0.07529993 -0.04326184 -0.10454334 -0.034542903 -0.039719865 -0.09527835
0.025003329 0.03451246 -0.055761307 0.006849915 -0.098796666 0.12388489 0.120929986 0.06784204
0.010020912 0.0073687136 -0.092614084 -0.007682264 -0.05826938 0.044913694 -0.054589167 -0.12288098
0.09324661 -0.034723178 0.09572077 0.09938443 0.12375282 -0.05471544 -0.03000231 0.11392775
0.11466405 -0.019664854 -0.06971969 -0.071582034 -0.09723878 -0.04989195 -0.047615558 0.0058837086
-0.04679878 -0.040786937 0.07068537 -0.10011183 0.101309136 0.059840962 -0.11697495 0.0029298663
-0.10878861 0.019175127 -0.010762155 0.039513618 0.013011068 -0.047337517 0.09710851 -0.116977066
-0.08850007 0.08375183 0.07710904 -0.048298985 -0.015936315 0.049864084 -0.0046282113 0.06513253
-0.10055739 0.019279227 0.012019232 0.036881804 -0.02900751 0.046802282 -0.041712254 -0.075100124
-0.09093483 -0.10070211 0.07266754 0.086359754 -0.069586724 0.076383546 0.04709448 -0.08773504
-0.07496591 0.026297718 0.07362606 0.09085941 -0.0051605254 0.015630066 -0.114860654 0.066018134
-0.036557958 0.07392821 -0.023341551 -0.09471485 0.11481126 0.10046582 -0.11223814 -0.093004
0.087842464 -0.024885893 -0.111741036 0.064920336 -0.002248451 -0.038728237 0.002782166 -0.056070223
0.038979992 0.03079985 -0.017420664 0.056924 0.101471856 -0.11970623 -0.0067684054 -0.07255949
0.021932527 -0.11784755 0.036244288 0.033352897 -0.0910836 -0.027130514 -0.046054527 0.028798968
00000000: c82e d73c 503b af3c b646 91bd 6cd3 463d
00000010: 6e8a ccbd d085 4e3c a433 28bd c8a6 b9bc
00000020: a0d4 4dbd b8b7 dfbc b841 02bd a01f dfbc
00000030: a890 ffbd b493 773d 74d2 a23d c426 d3bd
00000040: 2041 42bd 360a fc3d 9626 c6bd 6c36 eb3d
00000050: 10b5 17bd 8888 773d d870 7e3d 0856 b33d
00000060: 3cbe 9a3d 3037 f2bc f4c5 e93d 00e6 fc3a
00000070: 1237 babd ec4d b9bd 2ca9 b7bd 6a8f a6bd
00000080: 248a 51bd 288c 29bd 8074 4a3c 4067 98bd
00000090: 54c9 75bd de80 f43d 0ae6 de3d feaf fdbd
000000a0: 9040 d2bc f4d5 f13d ccb1 11bd dc6b d23d
000000b0: c00c 5bbd a0b9 b3bd ce91 a93d 12e5 b9bd
000000c0: eab6 83bd a222 c13d 4632 a23d 7054 fcbd
000000d0: c0c0 a23c 58b4 be3c 549f 92bd 32dc cabd
000000e0: cc10 86bd 907e 003c b407 e83d 96cb c63d
000000f0: dcb4 a4bd b0d8 263c 2c85 8bbd e0a7 59bd
00000100: 26b4 d8bd e045 d23d ece6 dd3d 1434 e4bd
00000110: 9825 dc3c 289a 5cbd cea5 bebd ecc1 733d
00000120: 2ab8 c13d d072 273c 90b9 d9bd aa69 e0bd
00000130: d87e 4d3d 7aee f93d e221 f13d 40a4 e23d
00000140: ecb8 a7bd b29a c83d 38d3 a7bc 46ca d43d
00000150: def9 aebd 340d c5bd 58bf c33c d40a be3d
00000160: 4829 ff3d da7a ebbd 5884 9d3c 68ea 54bd
00000170: 2415 48bd e009 d9bc acfc b03d 5669 913d
00000180: 4c67 173d b428 703d f085 7abd 0020 5439
00000190: 0ca3 83bd 883a b33d b0b6 bfbc 6617 fbbd
000001a0: c85e a0bc e49d 08bd b61d 87bd 8856 8c3c
000001b0: 8462 3e3d 3e9d ba3d a089 fd3c eafc eebd
000001c0: 0039 e6bb b41f 1abd b646 ae3d 74a2 1e3d
000001d0: f04a c4bc a863 973d 900b 76bc 589f 39bd
000001e0: 16eb 973d 90b9 643c 6a76 d63d 08dd 513d
000001f0: 8057 d03d 702a 6e3c 0074 c1bc 00e5 3fbd
00000200: 16f8 9c3d 123b 803d f0c2 973c 009d b53b
00000210: c65c fcbd 74df 7b3d 980b 8bbd fc8d d63d
00000220: a0e5 56bc 0048 8e3b da36 9abd 5433 31bd
00000230: d21a d6bd dc7c 0dbd 4cb1 22bd 4c21 c3bd
00000240: c8d3 cc3c f05c 0d3d f865 64bd 4075 e03b
00000250: e855 cabd 5cb7 fd3d 24aa f73d c4f0 8a3d
00000260: c02e 243c 4075 f13b 74ac bdbd 80bb fbbb
00000270: e0ab 6ebd 6cf7 373d e498 5fbd 06a9 fbbd
00000280: 14f8 be3d e439 0ebd 4009 c43d 108a cb3d
00000290: 1e72 fd3d 4c1d 60bd 68c7 f5bc f452 e93d
000002a0: fcd4 ea3d 3018 a1bc 32c9 8ebd 9a99 92bd
000002b0: 2025 c7bd 805b 4cbd 8808 43bd 20cc c03b
000002c0: 14b0 3fbd 3410 27bd 7ec3 903d 6e07 cdbd
000002d0: 2a7b cf3d cc1b 753d 9090 efbd 0003 403b
000002e0: 90cc debd 2815 9d3c c053 30bc 08d9 213d
000002f0: 602c 553c fce4 41bd d4e0 c63d ac91 efbd
00000300: 863f b5bd 1486 ab3d 58eb 9d3d 28d5 45bd
00000310: e08c 82bc 483e 4c3d 40a8 97bb 3464 853d
00000320: 08f1 cdbd 78ef 9d3c 50ec 443c 6011 173d
00000330: 28a1 edbc c0b3 3f3d 78da 2abd 18ce 99bd
00000340: 0a3c babd e83c cebd b8d2 943d 62dd b03d
00000350: 7c83 8ebd fa6e 9c3d 24e6 403d 6eae b3bd
00000360: ba87 99bd 506e d73c 42c9 963d 8014 ba3d
00000370: a019 a9bb a00a 803c 103c ebbd 8434 873d
00000380: ccbd 15bd ac67 973d c836 bfbc dcf9 c1bd
00000390: 2a22 eb3d 06c1 cd3d 1cdd e5bd e278 bebd
000003a0: c0e6 b33d 80dd cbbc 7cd8 e4bd f4f4 843d
000003b0: c05a 13bb 80a1 1ebd 0055 363b e4a9 65bd
000003c0: 7ca9 1f3d f84f fc3c c8b5 8ebc 2429 693d
000003d0: 7ad0 cf3d 8a28 f5bd 80c9 ddbb 129a 94bd
000003e0: d8ab b33c 0e5a f1bd e474 143d 0c9d 083d
000003f0: 0a8a babd d040 debc aca3 3cbd d0eb eb3c

bias_ih_l0 f4 [256]
0.11495033 -0.076909006 -0.032140777 -0.047762737 0.009601012 -0.06035112 0.09119411 -0.038279146
0.041673183 -0.045226827 -0.11446585 -0.09598434 -0.08648555 0.082344666 -0.059604317 0.12331504
-0.11874114 0.023998722 -0.08249003 0.07072435 -0.022925451 -0.020199671 0.120774075 0.06781782
0.08403687 0.057927817 0.10192819 0.11782844 -0.086978614 -0.08045113 -0.019861668 0.06701505
0.09880261 0.10462715 0.036505163 0.0777498 0.11755985 0.10282211 -0.008894712 -0.052004516
0.05025035 -0.071073934 0.05959761 -0.1041169 0.07686812 0.014021784 0.09603897 0.05155669
-0.053242832 -0.0045912564 -0.08406368 -0.026356757 -0.021815881 -0.016920313 0.10726866 0.09310289
-0.0913104 0.12190163 -0.004250437 0.08704348 -0.037038356 -0.10914864 0.119729295 0.05231552
0.1028792 -0.056201115 -0.0044251084 0.074037686 0.043954536 0.0085591525 0.026498422 -0.07401234
0.06741287 0.08618024 -0.024542034 0.086025506 -0.074500546 -0.116078064 -0.04406956 -0.022824556
0.031478614 0.033072427 -0.052241474 -0.004805863 0.040685862 -0.12133084 0.0015850216 -0.048346415
-0.10566111 -0.016612321 -0.038385198 -0.09919003 -0.11499128 0.10561754 -0.047687232 -0.045545056
0.116364256 0.07575366 -0.0148123205 -0.06458074 0.048378974 -0.08121884 0.04602562 0.08599824
0.11061674 0.076357156 0.0856362 -0.0055284053 0.0056008548 -0.10891898 -0.11585088 -0.020766273
0.037196353 0.023784041 -0.04762052 -0.010656193 0.01922512 -0.10298903 0.10314992 -0.046607032
-0.07157485 0.075981855 0.019770384 0.081369355 -0.07229781 0.04987517 -0.021284625 -0.099180594
-0.1235888 0.024246976 -0.11813994 0.018885732 -0.034082994 -0.120507896 0.049428225 -0.027794585
0.106087625 0.03967589 0.007634312 -0.07497886 0.038532242 -0.044296607 -0.0764333 0.056351975
0.07042213 -0.11474757 -0.0276791 0.09023704 -0.04264146 -0.0384496 0.067832276 -0.011312529
0.010859862 -0.045600414 -0.0552997 0.049431637 0.011458784 -0.09202959 0.104014456 -0.009722769
-0.08238602 -0.118434235 0.09510772 -0.1060749 0.07990304 0.0019144267 -0.04356034 -0.018180862
0.06553495 -0.040447727 0.09734589 -0.044740364 0.096281216 0.028712794 0.050633267 -0.039522335
0.0753437 0.0040902346 -0.017533109 -0.09993197 0.10920401 -0.0048725754 0.11540802 0.029693216
-0.10287933 -0.009580955 -0.020516291 0.032932848 -0.109693795 0.057112426 0.08534269 0.07384199
0.07172942 0.037463874 -0.055767834 -0.080121845 -0.05171123 0.120755956 0.066092655 -0.09382707
0.123039454 -0.030517384 0.11044134 -0.045743182 -0.07890506 -0.082239136 -0.009259716 0.0045466274
-0.06289855 -0.09168415 -0.0792142 0.07607578 0.010831103 -0.089391425 -0.1028595 0.018593028
-0.030772507 -0.09321025 -0.016090736 -0.057119653 0.08044575 0.06686708 0.03979297 0.101405844
0.076087475 0.040373355 0.10281631 0.036906958 -0.024487406 -0.05626318 0.041150123 0.048498556
-0.11278437 -0.07965852 0.104880884 0.112877116 0.039024398 -0.1128753 0.025585055 -0.035470262
-0.061231613 -0.04576893 -0.07675353 -0.12300263 0.051150307 -0.0017614067 0.08314592 -0.120195895
0.027021661 -0.05286312 0.12328926 0.00785552 -0.009959653 0.0007376671 0.0015249103 0.010712504
00000000: 146b eb3d 7882 9dbd 0ca6 03bd dca2 43bd
00000010: 904d 1d3c bc32 77bd fac3 ba3d 98ca 1cbd
00000020: 80b1 2a3d c43f 39bd 126d eabd 7093 c4bd
00000030: 561f b1bd 52a4 a83d a823 74bd 988c fc3d
00000040: 8e2e f3bd f898 c43c 88f0 a8bd eed7 903d
00000050: 28ce bbbc c879 a5bc 6658 f73d 12e4 8a3d
00000060: 861b ac3d b845 6d3d babf d03d 0a50 f13d
00000070: d821 b2bd 90c3 a4bd f0b4 a2bc 303f 893d
00000080: 0659 ca3d c246 d63d 7086 153d 4a3b 9f3d
00000090: 38c3 f03d 6694 d23d 20bb 11bc b002 55bd
000000a0: 50d3 4d3d 368f 91bd a01c 743d 3e3b d5bd
000000b0: 086d 9d3d a0bb 653c 14b0 c43d 1c2d 533d
000000c0: 2815 5abd 4072 96bb 9429 acbd 20ea d7bc
000000d0: 38b7 b2bc 789c 8abc acaf db3d baac be3d
000000e0: f200 bbbd 90a7 f93d 4047 8bbb da43 b23d
000000f0: 88b5 17bd 5289 dfbd a234 f53d cc48 563d
00000100: 54b2 d23d 2433 66bd 8000 91bb 12a1 973d
00000110: ac09 343d b03b 0c3c 3813 d93c c893 97bd
00000120: c20f 8a3d 447f b03d 600c c9bc 242e b03d
00000130: be93 98bd 56ba edbd 4882 34bd 90fa babc
00000140: b8ef 003d f476 073d 28fb 55bd 807a 9dbb
00000150: 38a6 263d 4e7c f8bd 80c0 cf3a e406 46bd
00000160: da64 d8bd 9016 88bc cc39 1dbd 2424 cbbd
00000170: 8c80 ebbd 024e d83d b053 43bd 748d 3abd
00000180: 6250 ee3d bc24 9b3d 60af 72bc e842 84bd
00000190: 0829 463d 1056 a6bd 5c85 3c3d d81f b03d
000001a0: 088b e23d 2461 9c3d 0862 af3d a027 b5bb
000001b0: 6087 b73b ea10 dfbd 3a43 edbd 081e aabc
000001c0: 345b 183d c0d6 c23c bc0d 43bd 5097 2ebc
000001d0: 007e 9d3c eaeb d2bd 4440 d33d 04e7 3ebd
000001e0: d695 92bd 609c 9b3d 80f5 a13c faa4 a63d
000001f0: e010 94bd e849 4c3d 185d aebc 321f cbbd
00000200: 201c fdbd 98a1 c63c 5af3 f1bd 40b6 9a3c
00000210: 9c9a 0bbd d8cc f6bd 4075 4a3d 78b1 e3bc
00000220: 7844 d93d 3083 223d 4029 fa3b 848e 99bd
00000230: fcd3 1d3d 5c70 35bd 1089 9cbd 54d1 663d
00000240: 7a39 903d c600 ebbd 48bf e2bc 32ce b83d
00000250: d0a8 2ebd 547d 1dbd a6eb 8a3d 3058 39bc
00000260: 90ed 313c 80c7 3abd f081 62bd d478 4a3d
00000270: a0bd 3b3c 027a bcbd 8805 d53d 404c 1fbc
00000280: 00ba a8bd a68d f2bd d6c7 c23d cc3d d9bd
00000290: 34a4 a33d 80ed fa3a 546c 32bd 08f0 94bc
000002a0: 3037 863d 84ac 25bd 485d c73d ac41 37bd
000002b0: 162f c53d 1837 eb3c d464 4f3d 2ce2 21bd
000002c0: cc4d 9a3d 6007 863b 98a1 8fbc 22a9 ccbd
000002d0: 5aa6 df3d 20aa 9fbb 0a5b ec3d 303f f33c
000002e0: 66b2 d2bd 70f9 1cbc c811 a8bc 98e4 063d
000002f0: 24a7 e0bd b8ee 693d 26c8 ae3d 783a 973d
00000300: e0e6 923d b873 193d d06c 64bd ec16 a4bd
00000310: 28cf 53bd e64e f73d 965b 873d 6828 c0bd
00000320: 1cfc fb3d 98ff f9bc 122f e23d 345d 3bbd
00000330: fa98 a1bd fe6c a8bd 10b6 17bc e0fb 943b
00000340: f4d0 80bd e6c4 bbbd 0e3b a2bd 9ecd 9b3d
00000350: f074 313c da12 b7bd 00a8 d2bd 6850 983c
00000360: a016 fcbc 04e5 bebd b8d0 83bc 4cf6 69bd
00000370: bec0 a43d 9cf1 883d f4fd 223d dead cf3d
00000380: c0d3 9b3d 885e 253d 5c91 d23d c02b 173d
00000390: d099 c8bc 3874 66bd 088d 283d 6ca6 463d
000003a0: 7efb e6bd 0224 a3bd cacb d63d 1e2c e73d
000003b0: 0cd8 1f3d 2a2b e7bd c097 d13c 4449 11bd
000003c0: 00ce 7abd 3478 3bbd f430 9dbd cee8 fbbd
000003d0: fc82 513d 00df e6ba 6848 aa3d 4429 f6bd
000003e0: 885c dd3c 0087 58bd 147f fc3d 70b4 003c
000003f0: d02d 23bc 0060 413a 80df c73a 8083 2f3c

bias_hh_l0 f4 [256]
-0.034974486 -0.09273152 0.00012844801 0.05715844 -0.00021770597 -0.10869971 -0.1006355 0.11790238
-0.032980323 -0.09355861 -0.037203148 0.0528225 0.11303347 0.09023076 -0.11068195 0.011662766
0.05527939 0.08121477 0.08913107 -0.09198335 -0.02926515 0.022107482 -0.0012922436 -0.089975074
0.051282853 -0.07482244 -0.044829518 -0.032645598 -0.006209001 -0.104677156 0.006274447 0.10127774
0.012399092 0.004830122 -0.035256222 -0.039673507 -0.037768558 0.02509676 0.023807436 0.089184806
-0.08942413 0.11154023 -0.09582776 0.035395652 0.025725007 -0.00267981 -0.04154797 -0.08580443
0.001767382 -0.071442395 -0.037209794 -0.05613397 0.06706408 -0.04918219 0.069791585 0.021257892
-0.029905125 -0.12385948 -0.0014207363 0.12196386 -0.06974149 0.032248378 -0.061530873 -0.10246067
0.025956795 0.03444025 0.046955004 -0.031819656 0.06120123 -0.060400903 -0.018309548 0.122166306
-0.100179404 0.002413854 0.11319378 -0.08267097 0.12245305 -0.07599242 0.0069533885 0.011480853
-0.06903851 -0.070618615 -0.015644297 -0.06606315 0.09508671 -0.09756583 0.0489769 -0.027577773
-0.033127308 0.007994667 -0.08626449 -0.116265565 -0.009472594 0.12083177 0.013002768 -0.10027149
-0.12305993 0.103490934 -0.044299558 -0.08539498 0.06256753 0.10635571 0.06343877 0.12348221
-0.05908087 -0.025355145 0.08697815 -0.05183594 0.07833406 -0.027276099 0.03714943 -0.047984526
0.010161117 -0.042995974 0.035813242 0.0282377 0.076166034 -0.11944647 -0.05990304 -0.077246815
0.038558945 0.03450802 -0.111720845 0.015677035 0.013389587 0.0805759 0.0061914027 0.09010558
-0.086781055 0.019857585 -0.10440019 -0.113390476 0.121388644 0.06433214 0.057459876 -0.09989989
-0.075828 -0.04139377 -0.082063824 -0.11456655 -0.09417571 0.033262163 -0.10470961 -0.062836215
0.012579411 -0.025565341 -0.054852903 0.04642214 -0.0627802 -0.09848972 0.00471662 0.03158249
-0.031242162 -0.05739084 -0.11023809 -0.10147257 -0.04789777 -0.09644626 -0.08702953 0.11178081
0.10343973 0.062406823 0.045105875 -0.08507596 0.052090168 -0.029406533 0.10349569 -0.04423383
0.013475537 -0.08672954 0.041723862 -0.01967661 0.11949289 -0.08329706 0.019909814 0.00819701
-0.055625334 -0.07079917 0.0437278 0.027144447 0.06104262 -0.10182236 0.12080671 -0.05272989
-0.09856005 0.019614846 -0.03707269 -0.004125327 0.06471278 0.11550592 -0.05684845 -0.10317147
0.009436071 0.101499885 -0.06243436 -0.05984156 -0.0044834614 0.054355577 -0.06947969 -0.0034318715
0.06621936 0.05037512 -0.093324065 -0.026590511 -0.08070783 0.014434263 -0.039929003 -0.111717165
0.06654075 -0.11675012 -0.09045558 0.011524275 0.043409437 0.045909032 0.04569103 -0.030336797
0.01577212 -0.075419545 -0.10690193 0.12043753 -0.013437435 -0.08867347 0.002707094 0.12075548
-0.018360034 0.019471198 -0.11195344 -0.123255104 -0.040529758 -0.08203031 -0.006687641 0.11691861
0.12486453 0.0015342087 -0.09370223 0.09696819 0.021617338 0.05344671 0.041759387 0.029672354
0.0077746212 -0.10056858 -0.06992924 -0.12141606 -0.0028743744 0.050615907 0.055440888 -0.09827502
0.095842466 0.06770171 -0.010332689 0.121258244 -0.021341905 0.0045402795 -0.05428289 0.06623615
00000000: 6841 0fbd 06ea bdbd 00b0 0639 f81e 6a3d
00000010: 0048 64b9 f49d debd fc19 cebd ce76 f13d
00000020: 6016 07bd a89b bfbd 5462 18bd 685c 583d
00000030: 187e e73d e8ca b83d 38ad e2bd 3015 3f3c
00000040: a46c 623d ee53 a63d 5a8a b63d c461 bcbd
00000050: 78bd efbc c01a b53c 8060 a9ba da44 b8bd
00000060: f80d 523d 823c 99bd 289f 37bd 64b7 05bd
00000070: e074 cbbb fa60 d6bd e099 cd3b b46a cf3d
00000080: 9025 4b3c 0046 9e3b d468 10bd b080 22bd
00000090: 34b3 1abd b897 cd3c d007 c33c 86a6 b63d
000000a0: 0024 b7bd 346f e43d 5841 c4bd 08fb 103d
000000b0: 40bd d23c c09f 2fbb 342e 2abd 3cba afbd
000000c0: 80a7 e73a 6450 92bd 4c69 18bd bcec 65bd
000000d0: e458 893d 4473 49bd e4ee 8e3d 0825 ae3c
000000e0: 98fb f4bc 0aaa fdbd 0038 baba 30c8 f93d
000000f0: a0d4 8ebd e016 043d cc07 7cbd e6d6 d1bd
00000100: 58a3 d43c 3811 0d3d e453 403d 5455 02bd
00000110: 24ae 7a3d f066 77bd e8fd 95bc 5432 fa3d
00000120: dc2a cdbd c031 1e3b 24d2 e73d 664f a9bd
00000130: aac8 fa3d eaa1 9bbd 40d9 e33b 301a 3c3c
00000140: 1064 8dbd 7ea0 90bd 7828 80bc 1e4c 87bd
00000150: d2bc c23d 98d0 c7bd 009c 483d c8ea e1bc
00000160: 80b0 07bd 10fc 023c 70ab b0bd a41c eebd
00000170: f032 1bbc a676 f73d 9009 553c 245b cdbd
00000180: d806 fcbd 0ef3 d33d 7473 35bd 90e3 aebd
00000190: 6823 803d 06d1 d93d 30ec 813d 3ee4 fc3d
000001a0: c8fe 71bd 98b5 cfbc 9a21 b23d ec51 54bd
000001b0: 9c6d a03d 2072 dfbc 002a 183d 6c8b 44bd
000001c0: d07a 263c 8c1c 30bd e8b0 123d c052 e73c
000001d0: f0fc 9b3d 5aa0 f4bd e45c 75bd 9433 9ebd
000001e0: fcef 1d3d 4858 0d3d e6cd e4bd 206d 803c
000001f0: 0060 5b3c fa04 a53d 40e1 ca3b 4689 b83d
00000200: 44ba b1bd 60ac a23c c4cf d5bd 4439 e8bd
00000210: 9c9a f83d 92c0 833d 0c5b 6b3d 5098 ccbd
00000220: b64b 9bbd 848c 29bd 1411 a8bd dea1 eabd
00000230: 32df c0bd e83d 083d fe71 d6bd 46b0 80bd
00000240: e019 4e3c 686e d1bc 70ad 60bd 2425 3e3d
00000250: e892 80bd fab4 c9bd e08d 9a3b a45c 013d
00000260: 90ef ffbc a812 6bbd 82c4 e1bd dad0 cfbd
00000270: 7430 44bd 9e85 c5bd 8a3c b2bd 56ed e43d
00000280: 36d8 d33d 4c9e 7f3d f0c0 383d 4e3c aebd
00000290: 805c 553d f8e5 f0bc 8cf5 d33d 882e 35bd
000002a0: 80c8 5c3c 429f b1bd a4e6 2a3d d830 a1bc
000002b0: b0b8 f43d a697 aabd e819 a33c c04c 063c
000002c0: 64d7 63bd 28ff 90bd ec1b 333d 085e de3c
000002d0: d407 7a3d 3e88 d0bd 8269 f73d 4cfb 57bd
000002e0: dad9 c9bd 50af a03c 88d9 17bd c02d 87bb
000002f0: 2288 843d 5e8e ec3d ecd9 68bd 904b d3bd
00000300: c099 1a3c 2cdf cf3d 2cbb 7fbd 6c1c 75bd
00000310: 00ea 92bb f4a3 5e3d 5e4b 8ebd 40e9 60bb
00000320: 049e 873d 2456 4e3d b020 bfbd 58d4 d9bc
00000330: 264a a5bd b07d 6c3c 988c 23bd f8cb e4bd
00000340: 8446 883d b01a efbd c640 b9bd 50d0 3c3c
00000350: 18ce 313d 1c0b 3c3d 8426 3b3d e084 f8bc
00000360: 8834 813c 9075 9abd 66ef dabd f4a7 f63d
00000370: b028 5cbc 709a b5bd 8069 313b a64e f73d
00000380: c867 96bc 1082 9f3c d847 e5bd 2c6d fcbd
00000390: 8802 26bd 82ff a7bd 0024 dbbb 0673 ef3d
000003a0: fab8 ff3d 8017 c93a f4e6 bfbd 4297 c63d
000003b0: d816 b13c f0ea 5a3d e40b 2b3d 7013 f33c
000003c0: 40c2 fe3b e6f6 cdbd 1037 8fbd fca8 f8bd
000003d0: 0060 3cbb a052 4f3d fc15 633d 6a44 c9bd
000003e0: 0e49 c43d 32a7 8a3d 704a 29bc 3e56 f83d
000003f0: 38d5 aebc a0c6 943b bc57 5ebd d2a6 873d

hidden f4 [1, 25, 64]
-0.15140197 0.12673016 -0.14939322 0.041454945 0.038917474 0.017185206 0.058072943 -0.023358516
-0.041029543 -0.08728642 -0.071041375 -0.057000984 -0.026001519 0.07982555 0.0014219871 -0.10471335
0.051085394 -0.014147362 -0.076713264 -0.071023375 -0.14035498 -0.041702196 0.07618828 -0.025753468
-0.0611506 -0.091111355 -0.04280064 0.003000186 -0.096249565 -0.12956657 -0.029369071 -0.10072068
-0.15362744 -0.031786595 0.022438237 0.01017469 -0.050603125 0.06096301 0.06936284 0.05343239
-0.004526181 -0.06381774 0.16654077 -0.14220802 0.029784594 -0.042931814 -0.032490868 -0.0573213
0.018108243 -0.014483917 -0.11623882 -0.0053870585 0.042831585 -0.052210644 0.060891937 -0.04104236
-0.035607606 0.081352256 -0.021032836 -0.05840789 -0.08858363 -0.0054521966 -0.0055536698 -0.11770225
-0.16859028 0.13037582 -0.14629477 0.040764883 0.045558285 -0.0056544268 0.072979756 -0.01255456
-0.025847651 -0.086216204 -0.053448666 -0.082223535 -0.026973028 0.08371463 0.025672624 -0.095452204
0.03633989 0.008667417 -0.07580824 -0.039716866 -0.16647927 -0.045299567 0.05097665 -0.023592385
-0.061279014 -0.06594236 -0.053876285 -0.0024920702 -0.118704595 -0.12941071 -0.03308407 -0.08757221
-0.1469615 -0.049894333 0.032570697 0.04337389 -0.043998078 0.08880944 0.08622868 0.046278007
0.014800936 -0.050665535 0.16173162 -0.1609502 0.055093557 -0.048808143 -0.00463366 -0.04920059
0.015057227 -0.015103318 -0.106365666 -0.021893444 0.0524476 -0.059727408 0.09206245 -0.05953144
-0.02831102 0.07837103 0.00024155674 -0.03888764 -0.07478574 0.010406647 0.01791348 -0.09239331
-0.17426163 0.13006832 -0.14528559 0.04111804 0.05126805 -0.02018544 0.077289015 -0.008240667
-0.018908156 -0.08144942 -0.044602446 -0.097149625 -0.028489796 0.08089466 0.032899793 -0.094512135
0.0271735 0.022919655 -0.075684756 -0.027815988 -0.17603569 -0.04220343 0.04259483 -0.02125331
-0.06395686 -0.04762046 -0.06289774 -0.0035050076 -0.12754706 -0.13098074 -0.032044105 -0.08137564
-0.14329822 -0.05688727 0.041007143 0.064817905 -0.04646302 0.10252054 0.0944611 0.05061569
0.020635087 -0.045605343 0.15382937 -0.16843651 0.07818675 -0.05513232 0.01482095 -0.044854857
0.009457037 -0.010735955 -0.10076155 -0.03343185 0.05933302 -0.062420767 0.11434306 -0.06845363
-0.021952912 0.084049284 0.008748414 -0.024263285 -0.07251631 0.021178765 0.024574611 -0.078663565
-0.17677428 0.12780067 -0.14337201 0.040489126 0.053927485 -0.026273841 0.07885796 -0.0059661656
-0.013205218 -0.078006215 -0.042297468 -0.10246028 -0.027791671 0.07986456 0.037491437 -0.09443821
0.01948521 0.028722059 -0.07456759 -0.023993459 -0.18200637 -0.042354807 0.039453685 -0.021335673
-0.06254973 -0.037093107 -0.06864233 -0.0034087214 -0.13302094 -0.13145472 -0.031605087 -0.080955215
-0.14108254 -0.058451936 0.04467961 0.074261576 -0.047798906 0.1094113 0.09667249 0.053767107
0.02469268 -0.041006114 0.14983656 -0.17325705 0.09244099 -0.061505478 0.027873881 -0.043032236
0.0074037346 -0.009260194 -0.096674375 -0.042854466 0.06289703 -0.06396157 0.12561026 -0.07284363
-0.020246094 0.08900017 0.014415054 -0.0146082025 -0.07369118 0.028332349 0.027902272 -0.07229042
00000000: 1e09 1bbe 8dc5 013e 89fa 18be a9cc 293d
00000010: ee67 1f3d fdc7 8c3c e5dd 6d3d 5c5a bfbc
00000020: 980e 28bd 39c3 b2bd 247e 91bd dd79 69bd
00000030: 2301 d5bc 947b a33d f861 ba3a f473 d6bd
00000040: eb3e 513d 56ca 67bc d81b 9dbd b474 91bd
00000050: 37b9 0fbe eccf 2abd 9a08 9c3d f0f8 d2bc
00000060: 0d79 7abd 9798 babd b94f 2fbd c59e 443b
00000070: 7e1e c5bd 19ad 04be 6897 f0bc a546 cebd
00000080: 8350 1dbe a932 02bd 65d0 b73c beb3 263c
00000090: 3945 4fbd 59b4 793d 1b0e 8e3d ecdb 5a3d
000000a0: 5c50 94bb e0b2 82bd aa89 2a3e fb9e 11be
000000b0: d2fe f33c 45d9 2fbd 2515 05bd bdc9 6abd
000000c0: bd57 943c f34d 6dbc 9e0e eebd ec85 b0bb
000000d0: 2c70 2f3d d4da 55bd d369 793d 091c 28bd
000000e0: 48d9 11bd 039c a63d 0e4d acbc 1d3d 6fbd
000000f0: 566b b5bd 57a8 b2bb 8ffb b5bb e10d f1bd
00000100: eea2 2cbe 3d81 053e 4cce 15be 14f9 263d
00000110: 539b 3a3d c548 b9bb 6976 953d a4b1 4dbc
00000120: 74be d3bc 1f92 b0bd fdec 5abd d064 a8bd
00000130: 8af6 dcbc 9372 ab3d 654f d23c 727c c3bd
00000140: 23d9 143d c801 0e3c 5a41 9bbd 27ae 22bd
00000150: 8b79 2abe 0a8c 39bd e4cc 503d d144 c1bc
00000160: b4ff 7abd ca0c 87bd 61ad 5cbd 0052 23bb
00000170: 651b f3bd 3e84 04be 2983 07bd 0f59 b3bd
00000180: 137d 16be 005e 4cbd da68 053d d2a8 313d
00000190: 5437 34bd b9e1 b53d aa98 b03d 028e 3d3d
000001a0: a07f 723c aa86 4fbd f99c 253e 21d0 24be
000001b0: c8a9 613d 0ceb 47bd f5d5 97bb 8f86 49bd
000001c0: 96b2 763c e873 77bc 3ed6 d9bd e159 b3bc
000001d0: 4bd3 563d baa4 74bd 3d8b bc3d 3dd7 73bd
000001e0: 83ec e7bc fe80 a03d 654a 7d39 a548 1fbd
000001f0: 4429 99bd a480 2a3c 4abf 923c b438 bdbd
00000200: a471 32be a130 053e bfc5 14be 646b 283d
00000210: 72fe 513d f05b a5bc b449 9e3d dd03 07bc
00000220: 47e5 9abc f4ce a6bd 0eb1 36bd 62f6 c6bd
00000230: 6f63 e9bc 19ac a53d efc1 063d 948f c1bd
00000240: f69a de3c 00c2 bb3c 9c00 9bbd 5bde e3bc
00000250: b342 34be 81dd 2cbd eb77 2e3d 6c1b aebc
00000260: d0fb 82bd ac0d 43bd 88d0 80bd 45b4 65bb
00000270: b29b 02be d11f 06be ae40 03bd 46a8 a6bd
00000280: c5bc 12be a002 69bd 1bf7 273d 40bf 843d
00000290: 0250 3ebd 4af6 d13d d274 c13d 6652 4f3d
000002a0: ea0a a93c abcc 3abd 7285 1d3e 9f7a 2cbe
000002b0: 6020 a03d 6dd2 61bd 92d3 723c bab9 37bd
000002c0: b0f1 1a3c dce5 2fbc 125c cebd d6ef 08bd
000002d0: 2e07 733d ebac 7fbd b22c ea3d 6b31 8cbd
000002e0: 98d6 b3bc 0822 ac3d 8255 0f3c ccc3 c6bc
000002f0: 6e83 94bd 177f ad3c b250 c93c 5d1a a1bd
00000300: 5104 35be 2ede 023e 1dd0 12be edd7 253d
00000310: 11e3 5c3d 3d3c d7bc 4880 a13d d37f c3bb
00000320: b35a 58bc b9c1 9fbd 1c40 2dbd b2d6 d1bd
00000330: 5cab e3bc 0890 a33d 9f90 193d d268 c1bd
00000340: 729f 9f3c 864a eb3c e5b6 98bd ee8d c4bc
00000350: e15f 3abe 3c7c 2dbd 309a 213d 26c8 aebc
00000360: 131a 80bd f1ee 17bd 5a94 8cbd db64 5fbb
00000370: a436 08be 119c 06be 5674 01bd d9cb a5bd
00000380: f177 10be 4c6b 6fbd f701 373d 7416 983d
00000390: c9c8 43bd 0813 e03d 3afc c53d e63a 5c3d
000003a0: 4e48 ca3c 07f6 27bd c16e 193e 4c6a 31be
000003b0: b451 bd3d 2bed 7bbd c457 e43c 9242 30bd
000003c0: 079b f23b 12b8 17bc 37fd c5bd 2a88 2fbd
000003d0: 28d0 803d 49fe 82bd fa9f 003e 0b2f 95bd
000003e0: 23db a5bc b945 b63d 1e2d 6c3c 3e57 6fbc
000003f0: 67eb 96bd 3e19 e83c 4e93 e43c 000d 94bd

hidden f4 [1, 25, 64]
-0.34901768 0.23971377 -0.35157228 0.09435545 0.075136244 0.031003628 0.116809934 -0.04910261
-0.09288126 -0.20097175 -0.14470951 -0.11323063 -0.051480867 0.15376097 0.0027243397 -0.24714535
0.1110366 -0.031019945 -0.18356192 -0.12611613 -0.34100002 -0.08141601 0.14578551 -0.045304302
-0.11013244 -0.19727816 -0.11166952 0.00577718 -0.1910674 -0.25953966 -0.06740129 -0.1845259
-0.31572634 -0.064822614 0.057026654 0.019562934 -0.11555079 0.12811653 0.14726001 0.09432052
-0.009411059 -0.1294908 0.3484897 -0.2725597 0.057799377 -0.07975514 -0.059314206 -0.114094146
0.033100422 -0.027768578 -0.25389606 -0.012339713 0.087711394 -0.102031976 0.09198694 -0.08482979
-0.06424074 0.15056273 -0.045317084 -0.111294106 -0.17880678 -0.011311682 -0.011737971 -0.25379932
-0.3795603 0.24992117 -0.34189975 0.09223686 0.08776063 -0.010302117 0.15560754 -0.027669556
-0.05728987 -0.19491507 -0.1035434 -0.16637014 -0.05480923 0.1623641 0.047439408 -0.23447785
0.080273874 0.018213606 -0.17802246 -0.07023837 -0.38710102 -0.0896969 0.09834178 -0.042384222
-0.1150137 -0.1466984 -0.13095854 -0.0047706463 -0.23577896 -0.26138753 -0.07466869 -0.16042222
-0.3043422 -0.10717875 0.080029115 0.08593186 -0.09584747 0.18300664 0.17776819 0.08156818
0.033085886 -0.108536795 0.32911706 -0.3107582 0.11217073 -0.09082708 -0.008534839 -0.102393895
0.027413517 -0.028007481 -0.24001373 -0.048195735 0.10523656 -0.12043965 0.14078991 -0.12340534
-0.05096399 0.15099025 0.00049355254 -0.07267818 -0.15695253 0.022940893 0.037537847 -0.19841528
-0.39139596 0.25186017 -0.3348146 0.093011916 0.09785335 -0.03699438 0.1645163 -0.018437713
-0.04207094 -0.18359113 -0.08643683 -0.19617137 -0.05805278 0.15935403 0.06090682 -0.23123652
0.060185708 0.049085386 -0.17652373 -0.04960221 -0.40952235 -0.08268292 0.08295567 -0.03790185
-0.11997722 -0.106327355 -0.1523702 -0.006701582 -0.2565124 -0.26404586 -0.07226956 -0.14876124
-0.29504573 -0.12183456 0.10201144 0.12888116 -0.10139997 0.21131645 0.19841516 0.08950211
0.0463126 -0.09777501 0.31348813 -0.32495743 0.16080093 -0.10187136 0.027042545 -0.09447794
0.017024435 -0.019888684 -0.2279756 -0.07337656 0.11922045 -0.12442091 0.17546056 -0.14141567
-0.039547533 0.16098413 0.01761838 -0.045206364 -0.15231434 0.046510965 0.051023588 -0.168308
-0.39682978 0.24722654 -0.3295017 0.09157713 0.10301625 -0.048225462 0.16644043 -0.013390107
-0.029247945 -0.17661229 -0.082337305 -0.20740157 -0.05689608 0.15782848 0.06963061 -0.23084599
0.04288773 0.061704263 -0.17536032 -0.04282514 -0.42357126 -0.083160505 0.07694962 -0.038160276
-0.117234536 -0.0824678 -0.16656558 -0.006503791 -0.2679715 -0.2655673 -0.070962854 -0.14785057
-0.2900663 -0.12547636 0.11138852 0.14750642 -0.10432078 0.2254928 0.20412391 0.094993144
0.055680655 -0.087410346 0.30558348 -0.33457768 0.19106007 -0.11378701 0.050828822 -0.09098533
0.013364369 -0.017145066 -0.21909687 -0.094035506 0.12699862 -0.12742454 0.19336353 -0.15141001
-0.036269464 0.17063281 0.028893234 -0.02708625 -0.15492308 0.061618656 0.057899408 -0.15426126
00000000: 72b2 b2be 8777 753e 4801 b4be 6e3d c13d
00000010: 08e1 993d 52fb fd3c 0c3a ef3d d21f 49bd
00000020: 8838 bebd 8acb 4dbe bb2e 14be 76e5 e7bd
00000030: 9add 52bd 8473 1d3e d68a 323b ac13 7dbe
00000040: 2867 e33d 8a1d febc a8f7 3bbe 9624 01be
00000050: 8e97 aebe 70bd a6bd cc48 153e 0191 39bd
00000060: 1e8d e1bd 4903 4abe fdb2 e4bd 804e bd3b
00000070: 2ca7 43be 62e2 84be b009 8abd 5cf4 3cbe
00000080: e2a6 a1be b8c1 84bd c894 693d 7242 a03c
00000090: e5a5 ecbd fb30 033e 54cb 163e 1e2b c13d
000000a0: d830 1abc 3c99 04be 3e6d b23e f28c 8bbe
000000b0: 0abf 6c3d aa56 a3bd 74f3 72bd 31aa e9bd
000000c0: 4f94 073d ee7a e3bc aafe 81be 822c 4abc
000000d0: 08a2 b33d 24f6 d0bd a663 bc3d 3ebb adbd
000000e0: a690 83bd 1e2d 1a3e 689e 39bd 2aee e3bd
000000f0: 2019 37be a254 39bc 9e50 40bc fcf1 81be
00000100: ba55 c2be 56eb 7f3e 7c0d afbe aee6 bc3d
00000110: d8bb b33d 36ca 28bc 9557 1f3e 44ab e2bc
00000120: c8a8 6abd d197 47be 900e d4bd ef5c 2abe
00000130: a57f 60bd c642 263e d34f 423d f61a 70be
00000140: a166 a43d b334 953c 854b 36be 22d9 8fbd
00000150: 1b32 c6be 02b3 b7bd 6a67 c93d 149b 2dbd
00000160: 4e8c ebbd 1b38 16be ff19 06be 1553 9cbb
00000170: 0a70 71be 96d4 85be e6eb 98bd b945 24be
00000180: bed2 9bbe 8880 dbbd 4ee6 a33d 0bfd af3d
00000190: ae4b c4bd 1866 3b3e dd08 363e 380d a73d
000001a0: 1185 073d 8a48 debd 0882 a83e b31b 9fbe
000001b0: c5b9 e53d 8c03 babd b6d5 0bbc e4b3 d1bd
000001c0: 5092 e03c f26f e5bc 29c6 75be e468 45bd
000001d0: 4486 d73d 10a9 f6bd 3b2b 103e f0bb fcbd
000001e0: 9ebf 50bd 309d 1a3e c061 013a 4cd8 94bd
000001f0: 2ab8 20be 8aee bb3c 49c1 193d 602d 4bbe
00000200: 0d65 c8be d1f3 803e d26c abbe 087d be3d
00000210: 5667 c83d 6b87 17bd f676 283e b00a 97bc
00000220: 9452 2cbd 50ff 3bbe cb05 b1bd 26e1 48be
00000230: c0c8 6dbd b42d 233e 6e79 793d 44c9 6cbe
00000240: 4a85 763d c20d 493d a3c2 34be b02b 4bbd
00000250: eaac d1be aa55 a9bd aae4 a93d f83e 1bbd
00000260: 9eb6 f5bd 28c2 d9bd ef06 1cbe f298 dbbb
00000270: 9855 83be 0531 87be 1002 94bd de54 18be
00000280: 3c10 97be 6684 f9bd 60eb d03d 6cf9 033e
00000290: caaa cfbd 5763 583e 582d 4b3e e24c b73d
000002a0: 48b2 3d3d 443e c8bd 8481 a03e d260 a6be
000002b0: 00a9 243e eea1 d0bd 5488 dd3c a67d c1bd
000002c0: d476 8b3c 98ed a2bc 7072 69be 7346 96bd
000002d0: da29 f43d 64d0 febd efab 333e 45cf 10be
000002e0: 98fc 21bd 06d9 243e 6c54 903c 4f2a 39bd
000002f0: 4af8 1bbe 4882 3e3d 1cfe 503d ef58 2cbe
00000300: 462d cbbe f428 7d3e 72b4 a8be ca8c bb3d
00000310: 2ffa d23d 1088 45bd 5c6f 2a3e 2e62 5bbc
00000320: 6399 efbc dad9 34be 76a0 a8bd 1461 54be
00000330: dd0b 69bd ca9d 213e 7e9a 8e3d e462 6cbe
00000340: 0bab 2f3d 9cbd 7c3d a891 33be 6a69 2fbd
00000350: 55de d8be 0e50 aabd c397 9d3d f34d 1cbd
00000360: a918 f0bd e1e4 a8bd 2b90 2abe c11d d5bb
00000370: 8f33 89be 70f8 87be f954 91bd 2466 17be
00000380: 9283 94be e07c 00be aa1f e43d ec0b 173e
00000390: 22a6 d5bd 96e7 663e dc05 513e c48b c23d
000003a0: 6611 643d 3204 b3bd 7075 9c3e c44d abbe
000003b0: 40a5 433e 2a09 e9bd e231 503d 8456 babd
000003c0: 3af6 5a3c cf73 8cbc ee5a 60be b095 c0bd
000003d0: ed0b 023e 947b 02be 1701 463e 3a0b 1bbe
000003e0: 4a8f 14bd 5eba 2e3e 81b1 ec3c fce3 ddbc
000003f0: 28a4 1ebe d863 7c3d ee27 6d3d aaf6 1dbe

weight_ih_l0 f4 [256, 10]
-0.10167728 -0.10532421 0.043414667 -0.0027081817 0.0070718825 0.052848652 0.046766207 0.047535762
0.09441434 0.072049275 -0.054648995 0.11281876 -0.10314746 -0.102778256 0.05509761 -0.08536883
-0.012296706 0.04458967 0.11831772 0.045159295 0.107527986 0.04185833 -0.10995425 0.12473124
-0.07929173 0.09152967 0.06024967 -0.043302134 0.1237288 -0.061061174 0.080217436 -0.07334961
0.10723317 0.046159565 -0.029561758 -0.063484356 -0.044057548 0.09670079 -0.09957175 0.08931549
0.11716807 0.014732987 0.034073964 0.05181119 -0.07653536 -0.054437146 -0.12303874 -0.015269026
0.06938617 -0.06047219 0.039913118 -0.063320294 -0.01084505 0.10027923 0.05638641 -0.108166724
0.061217353 -0.090792194 -0.030686572 -0.12018892 0.11999959 -0.078189224 0.11087102 0.006018147
-0.10754749 0.064657345 -0.06514175 0.043428913 -0.09429835 -0.011735275 0.12139855 -0.03129758
-0.08950694 -0.120660976 -0.083051875 -0.085948244 -0.09738363 0.07312685 0.054837182 0.028627709
-0.043271303 0.06358065 0.061044663 0.08392258 0.12445527 -0.07734352 -0.0873338 0.09710336
0.045611262 -0.09372337 0.0066523254 0.045493573 -0.059927 -0.031832516 0.05417043 -0.090826765
-0.062487498 0.099764735 -0.12242161 0.08878107 -0.12204549 0.1118218 0.0809385 0.003468141
0.10374321 -0.07476623 0.051259354 0.027030945 -0.025642782 0.09908742 -0.021295369 0.0056269616
-0.06758368 -0.0146167725 0.07411629 0.037117615 0.07130553 0.10796979 -0.09444031 -0.07736954
0.08791052 0.027888104 -0.05424027 0.10025598 0.03077279 -0.053745687 0.034484923 0.11570728
-0.016313776 0.11121458 -0.10238242 0.064652085 0.059715703 -0.038187876 -0.052897632 0.0047335327
0.05663106 -0.034309506 0.11439948 0.04300128 0.08030394 0.011049226 -0.095369264 0.0813652
-0.0814141 0.08984989 -0.078768626 0.08126812 -0.019031182 -0.053195313 -0.005554393 0.06389508
0.017358258 -0.058398053 0.12348454 -0.07953817 0.07105911 0.12243816 0.07982321 -0.023126125
0.111460194 0.08426522 -0.08582002 -0.0009613037 0.049527496 -0.087923616 -0.020747855 0.051649764
0.043941498 0.0614651 0.08705935 -0.05918862 0.10970725 0.035422295 0.069220945 -0.036861166
0.12377912 -0.08066565 -0.112920865 -0.08523761 0.10379881 -0.056017816 -0.07229802 0.07117258
-0.037477598 -0.084698215 -0.09954642 0.0008645505 0.10285671 -0.008283481 -0.031156927 0.12373251
-0.010675445 -0.063846186 -0.06816873 -0.09103003 0.04053463 0.09607491 0.04871148 -0.09448889
0.052887008 -0.110552415 0.06768778 -0.057697073 0.043069124 -0.006729692 -0.06550436 -0.034376398
-0.05609037 -0.015394017 -0.038399726 0.03509815 0.081216425 0.11634582 -0.066079006 0.04061331
-0.05779545 -0.024214506 -0.10034649 -0.0014541596 -0.09227398 0.09013572 0.10705662 -0.11522646
-0.116839886 0.009885922 0.0039346665 0.0752904 0.07466729 -0.037892863 0.008314848 0.046981737
-0.08874379 -0.024401516 0.067377195 0.11985406 0.08334644 0.048820198 0.09473416 0.0028171241
0.08031365 0.08628741 0.099307045 0.029819518 -0.10081701 0.06173621 0.03860466 -0.035792843
0.044438764 0.045853525 -0.1195831 -0.10717437 -0.024939343 -0.11675596 0.0927431 -0.019136772
00000000: 2e3c d0bd 38b4 d7bd 94d3 313d c07b 31bb
00000010: 40bb e73b d477 583d ec8d 3f3d dcb4 423d
00000020: 4e5c c13d 928e 933d a0d7 5fbd 860d e73d
00000030: fa3e d3bd 687d d2bd 08ae 613d dad5 aebd
00000040: 2078 49bc a8a3 363d 9050 f23d f4f8 383d
00000050: a237 dc3d a473 2b3d b22f e1bd 1873 ff3d
00000060: b463 a2bd e873 bb3d 5cc8 763d 945d 31bd
00000070: 8665 fd3d 481b 7abd 0a49 a43d 5238 96bd
00000080: 109d db3d d011 3d3d 802b f2bc 1604 82bd
00000090: b075 34bd 100b c63d 46ec cbbd 0aeb b63d
000000a0: d0f5 ef3d a062 713c 2491 0b3d f837 543d
000000b0: 92be 9cbd 7cf9 5ebd bcfb fbbd f02a 7abc
000000c0: 561a 8e3d b0b1 77bd f07b 233d 12ae 81bd
000000d0: 70af 31bc 325f cd3d 70f5 663d 8486 ddbd
000000e0: 0cbf 7a3d 42f1 b9bd 6862 fbbc 9c25 f6bd
000000f0: 58c2 f53d ac21 a0bd 5810 e33d e033 c53b
00000100: dc41 dcbd 126b 843d 0a69 85bd 84e2 313d
00000110: 7e1f c1bd 5045 40bc ce9f f83d e431 00bd
00000120: 6a4f b7bd 1a1d f7bd 1a17 aabd a205 b0bd
00000130: 1271 c7bd 88c3 953d f49c 603d a884 ea3c
00000140: 403d 31bd 9236 823d f809 7a3d 9adf ab3d
00000150: 68e2 fe3d 4866 9ebd 10dc b2bd 20de c63d
00000160: e0d2 3a3d 0af2 bfbd c0fb d93b 7857 3a3d
00000170: 0476 75bd d062 02bd d0e1 5d3d 6203 babd
00000180: e4f2 7fbd 7451 cc3d 2eb8 fabd dad2 b53d
00000190: fcf2 f9bd d402 e53d 16c3 a53d c049 633b
000001a0: 5277 d43d 0a1f 99bd 54f5 513d 0070 dd3c
000001b0: d010 d2bc 58ee ca3d a073 aebc 6062 b83b
000001c0: 5069 8abd 307b 6fbc 48ca 973d a408 183d
000001d0: a208 923d 441f dd3d ec69 c1bd ec73 9ebd
000001e0: 6e0a b43d 9875 e43c 0c2b 5ebd 0253 cd3d
000001f0: 3817 fc3c 7024 5cbd 1040 0d3d f0f7 ec3d
00000200: 78a4 85bc 78c4 e33d e0ad d1bd 5068 843d
00000210: 7498 743d e46a 1cbd 30ab 58bd c01b 9b3b
00000220: f8f5 673d 2088 0cbd 464a ea3d 1c22 303d
00000230: 6476 a43d d007 353c f650 c3bd cca2 a63d
00000240: 70bc a6bd 3803 b83d 7251 a1bd e66f a63d
00000250: 48e7 9bbc 54e3 59bd a001 b6bb 6cdb 823d
00000260: e832 8e3c cc32 6fbd 76e5 fc3d e8e4 a2bd
00000270: 7087 913d dcc0 fa3d 5a7a a33d 0073 bdbc
00000280: 3e45 e43d 3e93 ac3d 68c2 afbd 0000 7cba
00000290: 58dd 4a3d 4c11 b4bd 68f7 a9bc b48e 533d
000002a0: 00fc 333d d4c2 7b3d 2c4c b23d c46f 72bd
000002b0: 32ae e03d f816 113d b6c3 8d3d bcfb 16bd
000002c0: e87f fd3d 0834 a5bd 0e43 e7bd 0e91 aebd
000002d0: 7894 d43d f072 65bd fc10 94bd eec2 913d
000002e0: 1c82 19bd 4276 adbd fede cbbd 00a3 623a
000002f0: 8aa6 d23d 70b7 07bc d03c ffbc 7867 fd3d
00000300: 10e8 2ebc cac1 82bd 0c9c 8bbd f46d babd
00000310: a407 263d ecc2 c43d b085 473d 6483 c1bd
00000320: 0ca0 583d 4e69 e2bd e49f 8a3d c453 6cbd
00000330: 4069 303d c084 dcbb 2627 86bd 44ce 0cbd
00000340: 04bf 65bd 3037 7cbc 0849 1dbd 14c3 0f3d
00000350: cc54 a63d b846 ee3d 6e54 87bd 245a 263d
00000360: ecba 6cbd 805d c6bc 7682 cdbd 8099 beba
00000370: 24fa bcbd 1499 b83d 8040 db3d dafb ebbd
00000380: c049 efbd 90f8 213c 60ee 803b da31 9a3d
00000390: 2aeb 983d 8c35 1bbd 003b 083c ec6f 403d
000003a0: 4ebf b5bd b0e5 c7bc 0efd 893d 0c76 f53d
000003b0: 8ab1 aa3d b0f7 473d fc03 c23d 809f 383b
000003c0: 7c7b a43d 74b7 b03d 7e61 cb3d 1048 f43c
000003d0: 2679 cebd 1cdf 7c3d ec1f 1e3d 849b 12bd
000003e0: 6c05 363d e8d0 3b3d fce7 f4bd 3c7e dbbd
000003f0: 984d ccbc c01d efbd 18f0 bd3d b8c4 9cbc
