js_park/saved_models/best_AF_7.pt (torch, 455911 bytes, 5 tensors)

weight f4 [168, 336]
0	0xbd05e5c6	-0.032689832
1	0xbde7926b	-0.11307224
2	0xbdb1da36	-0.086841986
3	0xbd8a2a9a	-0.06746407
4	0xbddd0bed	-0.1079329
5	0xbda8d36f	-0.08243453
6	0xbd0d42e7	-0.03448763
7	0xba3a6fb3	-0.00071119814
8	0x3d628c76	0.055309735
9	0xbc7ce5a2	-0.015435608
10	0x3c9e27a8	0.019306019
11	0x3c76fd4d	0.01507504
12	0x3da9277f	0.082594864
13	0x3d897b8c	0.06713018
14	0x3d9d3dcb	0.07677802
15	0x3d480923	0.04883684
16	0x3d04f033	0.032455634
17	0xbbdbf562	-0.0067126015
18	0xbccad1f4	-0.024758317
19	0xbcf28a4b	-0.029606959
20	0xbc20a806	-0.009805685
21	0xb9e133ba	-0.00042953884
22	0xbd9f2d10	-0.07772267
23	0xbc50a02b	-0.0127334995
24	0xbbd7d106	-0.006586197
25	0xbddbbc02	-0.10729219
26	0xbd3d34cc	-0.04619293
27	0xbc792773	-0.015207159
28	0x3bf26200	0.0073969364
29	0xbd7d23dc	-0.061801776
30	0x3b2c2d74	0.002627221
31	0x3d071f51	0.03298885
32	0x3bfefb47	0.0077814194
33	0x3ceec32e	0.029145803
34	0x3da9a228	0.08282882
35	0x3d13abb6	0.03605243
36	0x3dae4784	0.08509734
37	0x3dc68dd0	0.09695017
38	0x3b680cb6	0.0035407967
39	0x3d4e0d7f	0.05030584
40	0x3c97440f	0.01846507
41	0xbb9df358	-0.0048202686
42	0xbcf7d191	-0.030251296
43	0xbd365ce3	-0.044522177
44	0xbda63804	-0.08116153
45	0xbcc75bff	-0.02433586
46	0xbce1f1c6	-0.027581107
47	0xbcaaf516	-0.02086882
48	0xbd9bed85	-0.07613663
49	0xbda6f549	-0.08152253
50	0xbcff5385	-0.031167755
51	0xbdcc3c44	-0.09972432
52	0xbd8a0eb3	-0.06741085
53	0xbd35bf95	-0.04437216
54	0xbd2c78e6	-0.042107485
55	0x3cb72782	0.022357706
56	0x3d9c4b27	0.07631522
57	0x3cc472db	0.023980549
58	0x3d4de8c0	0.050270796
59	0x3dc6ee68	0.09713441
60	0x3de3b22b	0.11117967
61	0x3d516129	0.05111805
62	0x3e0f9042	0.14019874
63	0x3d9eb117	0.07748621
64	0x3de93d0d	0.11388598
65	0x3d8e3c89	0.0694514
66	0x3d369e4b	0.044584554
67	0x3bd243ae	0.0064167595
68	0x3c2a3ad0	0.010389999
69	0xbd61104e	-0.05494719
70	0xbc0b9ce8	-0.008521296
71	0xbdad8dff	-0.08474349
72	0xbdac0085	-0.083985366
73	0xbc7347e3	-0.014848682
74	0x3c9a9946	0.018871915
75	0xbacf7b5b	-0.001582961
76	0xbd25f889	-0.040520225
77	0x3db283b8	0.087165296
78	0x3da0bbf0	0.07848346
79	0x3d8b7ff6	0.06811516
80	0x3d2cf486	0.042225383
81	0x3e113f90	0.14184403
82	0x3ddb0ab5	0.106954016
83	0x3ddc68c4	0.1076217
84	0x3df9f1c3	0.122043155
85	0x3d441aa6	0.047876976
86	0x3d27484f	0.040840443
87	0x3df6204c	0.12017879
88	0x3d91bf85	0.071166076
89	0x3db8af4f	0.090178125
90	0x3db0d2e2	0.08633973
91	0x3cf91947	0.030407561
92	0xbd1d3278	-0.03837821
93	0x3d7547d7	0.059882965
94	0x3d48c6e2	0.049017794
95	0x3a326154	0.0006804664
96	0xbd5b0cfc	-0.05347918
97	0x3be1bee8	0.006889213
98	0x3d84ec26	0.06490354
99	0xbc36ca61	-0.011156649
100	0x3d8f5b01	0.069997795
101	0x3c6cad20	0.014445573
102	0x3d37cc16	0.044872366
103	0x3d4eaa4e	0.050455384
104	0x3df035a7	0.11728983
105	0x3d91dd92	0.07122339
106	0x3da3beb6	0.079953596
107	0x3d7b2a6d	0.061319757
108	0x3d7913f5	0.060810048
109	0x3e17148e	0.14753935
110	0x3dd47fd9	0.103759475
111	0x3df69b60	0.12041354
112	0x3dc5a37b	0.09650322
113	0x3dca069f	0.09864544
114	0x3d15fc5f	0.036617633
115	0xbb0208f2	-0.0019841758
116	0x3ca2186e	0.01978704
117	0x3bffe65f	0.007809445
118	0x3cc99d31	0.024611088
119	0x3bcbca36	0.006219174
120	0x3d446dda	0.047956325
121	0x3d0e186a	0.03469125
122	0x3d2e8548	0.042607576
123	0x3d76c637	0.060247626
124	0x3cd5c2aa	0.0260938
125	0x3d59463b	0.053045493
126	0x3d319305	0.0433531
127	0x3e060061	0.13086082
128	0x3db7675f	0.08955263
129	0x3e0629c7	0.13101874
130	0x3dfffe68	0.12499696
131	0x3e25e043	0.1619883
132	0x3e1eaf64	0.15496594
133	0x3dd4b54c	0.10386142
134	0x3e14c102	0.14526752
135	0x3dd20374	0.10254565
136	0x3d094029	0.033508454
137	0x3d9d6a61	0.07686306
138	0x3d5cb9db	0.053888183
139	0x3caf4009	0.021392839
140	0x3da5319a	0.08066101
141	0x3d224db3	0.03962488
142	0xbc98f6ca	-0.018672366
143	0xbcb99026	-0.022651743
144	0x3d564f04	0.05232145
145	0x3d7c9db8	0.06167385
146	0x3dba7c78	0.09105772
147	0x3c8bfc8d	0.017088199
148	0x3db85327	0.09000235
149	0x3e05812e	0.1303756
150	0x3d9275ea	0.071513966
151	0x3dfe50e9	0.12417776
152	0x3d8d68f7	0.06904786
153	0x3d97fc58	0.074211776
154	0x3e25c9bb	0.16190235
155	0x3e14bd85	0.14525421
156	0x3da4d8b7	0.080491476
157	0x3e295a86	0.16538438
158	0x3db030dc	0.08603069
159	0x3dbd04cc	0.092294306
160	0x3d5674bc	0.05235742
161	0x3d898d66	0.06716423
162	0x3dc9af5c	0.098479
163	0x3da36f14	0.07980171
164	0x3dbfd7a9	0.09367306
165	0x3d083fa7	0.03326383
166	0xbb03e23c	-0.002012386
167	0x3d9b404b	0.07580622
168	0x3d47e9b1	0.04880685
169	0xbb8083b5	-0.0039219507
170	0x3dc3bf06	0.09557919
171	0x3dd72e0f	0.10506832
172	0x3e02ae69	0.12761845
173	0x3d2ce00d	0.04220586
174	0x3e0dcc1c	0.13847393
175	0x3d815c47	0.06316429
176	0x3e16ccb0	0.1472652
177	0x3df99fe9	0.121887036
178	0x3df286ab	0.11842092
179	0x3d9a6e5a	0.07540579
180	0x3d94ecf2	0.07271756
181	0x3dd0748a	0.10178478
182	0x3e10d475	0.14143546
183	0x3dc6bfce	0.097045526
184	0x3dc4a476	0.09601681
185	0x3d272fc4	0.040817037
186	0x3ceec0a5	0.029144594
187	0x3d818f77	0.06326192
188	0x3c0adc53	0.008475381
189	0xbcacc7c4	-0.02109135
190	0xbc9a20da	-0.018814493
191	0xbcb3a8b6	-0.021931034
192	0xbc81ae53	-0.015830195
193	0x3cf3d313	0.029763734
194	0xbc6e796b	-0.0145553155
195	0x3dba9564	0.09110525
196	0x3d967e83	0.07348349
197	0x3dee39a2	0.11632086
198	0x3dcf3824	0.1011813
199	0x3db91340	0.09036875
200	0x3e221424	0.15827996
201	0x3db437ee	0.0879973
202	0x3e19f717	0.15035664
203	0x3e0469dd	0.12931009
204	0x3d91c5a8	0.07117778
205	0x3d4e470d	0.050360728
206	0x3d9e6a28	0.077350914
207	0x3dd0ac5b	0.10189124
208	0x3dbb8be6	0.09157543
209	0x3dc059f3	0.093921565
210	0x3da952a3	0.08267715
211	0xbc8140fd	-0.01577806
212	0x3ccb392b	0.024807533
213	0xbd11461b	-0.03546725
214	0x3d0edd06	0.034878753
215	0xbbce42cd	-0.0062945844
216	0x3d5072ad	0.050890613
217	0x3d0a2e55	0.033735592
218	0x3d400dda	0.04688821
219	0x3caf513f	0.021401046
220	0x3d92c7a9	0.071669884
221	0x3dba0a96	0.0908405
222	0x3d9b6750	0.07588065
223	0x3dc85f8c	0.09783849
224	0x3e00f74d	0.12594338
225	0x3da5fa4c	0.08104381
226	0x3d91001c	0.07080099
227	0x3d9be0d9	0.07611246
228	0x3d8bf48b	0.06833752
229	0x3d3db066	0.046310805
230	0x3e053381	0.13007928
231	0x3d211c65	0.03933372
232	0x3d176e50	0.036970437
233	0x3dde2f06	0.10848813
234	0x3c941b19	0.018079327
235	0x3d654678	0.055975407
236	0x3cbdc0ba	0.023163188
237	0x3d242481	0.040073875
238	0x3c99d79b	0.018779567
239	0x3b788afb	0.0037924636
240	0xbc804706	-0.015658867
241	0x3c016678	0.007897966
242	0x3d3a1eb1	0.045439426
243	0x3ca808ab	0.020511946
244	0x3d4fcac8	0.050730497
245	0x3db56fa9	0.08859188
246	0x3db25818	0.08708209
247	0x3db163e5	0.086616315
248	0x3d96ed44	0.073694736
249	0x3d726bd0	0.05918485
250	0x3de0fb3b	0.109854184
251	0x3dfc9eb8	0.12334961
252	0x3dbad274	0.09122172
253	0x3e009143	0.12555413
254	0x3dd1fb42	0.10253002
255	0x3deb44c8	0.11487728

bias f4 [168]
0	0x3da4a798	0.080397785
1	0x3e15b022	0.1461797
2	0x3dfa6a64	0.12227324
3	0x3d90095c	0.07033035
4	0x3d5130a8	0.051071793
5	0x3dc8c961	0.09804035
6	0x3cf2da0d	0.02964499
7	0x3dc9e07a	0.09857269
8	0x3dabbedb	0.08386012
9	0x3df906b1	0.121594794
10	0x3df53647	0.11973243
11	0x3d8b1764	0.06791571
12	0x3de304b2	0.1108488
13	0x3d89af68	0.06722909
14	0x3d3d74e4	0.046254054
15	0xbc0dec23	-0.008662256
16	0x3d99f5b4	0.07517567
17	0x3cae5e68	0.02128525
18	0xbb6b70f0	-0.003592547
19	0x3e1475cf	0.14498065
20	0x3dc39b06	0.09551053
21	0x3d9f27fa	0.07771297
22	0x3e16d092	0.14728001
23	0x3de18c72	0.11013116
24	0x3da0d6cd	0.0785347
25	0x3d715d85	0.058927078
26	0x3d7a3628	0.061086804
27	0x3d80ab72	0.062827006
28	0x3db00cd6	0.08596198
29	0x3df8dbfc	0.12151334
30	0x3f10a17c	0.56496406
31	0x3e2b8b88	0.16752446
32	0x3c5aba23	0.0133500425
33	0x3d207018	0.0391694
34	0x3d8cb8f8	0.068712175
35	0x3e074ddb	0.13213293
36	0x3e33c4dd	0.17555566
37	0x3ca4e167	0.020127011
38	0x3dc954d8	0.09830636
39	0x3d4e4b05	0.050364513
40	0x3de13f57	0.10998409
41	0x3dc327d6	0.095290825
42	0x3e214d70	0.15752196
43	0x3df5fb51	0.120108254
44	0x3da1a0b4	0.0789198
45	0x3d2db526	0.042409085
46	0x3dfb5dfd	0.12273786
47	0x3e36c3db	0.1784815
48	0x3dfd5154	0.12369028
49	0x3d8986a5	0.067151345
50	0x3dc6d8d1	0.09709323
51	0x3dc0bd20	0.09411073
52	0x3f10b8f8	0.5653224
53	0x3dd91f55	0.10601679
54	0x3d20e359	0.039279316
55	0x3e02a774	0.12759191
56	0x3da25c12	0.07927717
57	0x3f089069	0.5334535
58	0x3e04c42a	0.12965456
59	0x3dcf84f3	0.1013278
60	0x3e45de3d	0.19323058
61	0x3d9ec0dc	0.07751629
62	0x3da8cf13	0.08242621
63	0x3dad3f23	0.08459308
64	0x3d297aa6	0.041376732
65	0x3e086132	0.13318327
66	0x3d250fdd	0.04029833
67	0x3e0ab988	0.13547337
68	0x3db5da2d	0.08879504
69	0x3da90308	0.08252531
70	0x3d6a3d77	0.057187524
71	0x3ddc8041	0.1076665
72	0x3dede597	0.116160564
73	0x3e07c5f3	0.13259105
74	0x3e0a41bd	0.1350164
75	0x3da04975	0.07826511
76	0x3dabb4a2	0.08384062
77	0x3e08cd7f	0.1335964
78	0x3dbdd33e	0.09268807
79	0x3df3cecf	0.1190468
80	0x3dd01524	0.10160282
81	0x3d52740a	0.051380195
82	0x3de9a4de	0.11408399
83	0x3dfc9533	0.12333145
84	0x3dcbd224	0.099521905
85	0x3e325be7	0.1741787
86	0x3da7438c	0.081671804
87	0x3d801981	0.062548645
88	0x3e470efe	0.19439313
89	0x3da187a5	0.078872
90	0x3d55bb59	0.05218062
91	0x3d961141	0.0732751
92	0x3cfa1bf7	0.030530913
93	0x3d51e938	0.051247805
94	0x3e08bf14	0.1335414
95	0x3de88547	0.11353546
96	0x3dd8d5d4	0.105876595
97	0x3d72daa8	0.059290558
98	0x3de7cbf9	0.113182016
99	0x3e3d46a0	0.18483973
100	0x3d92aee8	0.07162267
101	0x3e0f305e	0.13983294
102	0x3db60d76	0.08889286
103	0x3e149c74	0.14512807
104	0x3dbc4ca3	0.09194305
105	0x3db2ddba	0.08733697
106	0x3db65df8	0.08904642
107	0x3e21cbd4	0.1580041
108	0x3dd33130	0.10312116
109	0x3dc40229	0.095707245
110	0x3e1e4b8d	0.15458508
111	0x3e4db3b9	0.2008809
112	0x3e24dbfb	0.16099541
113	0x3d7f85ef	0.06238359
114	0x3e36aec6	0.17840108
115	0x3e242101	0.16028215
116	0x3d95d7e7	0.07316571
117	0x3cb95631	0.022624107
118	0x3e27255c	0.16322845
119	0x3dd2e09c	0.10296747
120	0x3e10d892	0.14145115
121	0x3d27e9b5	0.040994365
122	0x3dd70956	0.104998276
123	0x3d89dc44	0.067314655
124	0x3d427887	0.047478225
125	0x3dc12436	0.09430735
126	0x3e0f494f	0.13992809
127	0x3e71aa2a	0.23600069
128	0x3e0f3a29	0.1398703
129	0x3db7e0b9	0.08978409
130	0x3e18b178	0.14911449
131	0x3e19222b	0.1495444
132	0x3e018068	0.1264664
133	0x3e1c65cc	0.15273207
134	0x3d8fc4d4	0.07019964
135	0x3e16884e	0.14700434
136	0x3dc50919	0.09620876
137	0x3d7a8562	0.06116236
138	0x3d82072d	0.06349025
139	0x3c9ee98c	0.019398473
140	0x3dd61d54	0.10454813
141	0x3df16d1c	0.11788389
142	0x3d31d4df	0.0434159
143	0x3e445eff	0.19176863
144	0x3de547e7	0.11195355
145	0x3e1c401e	0.15258834
146	0x3e0ca539	0.13734902
147	0x3ef87d5f	0.4853315
148	0x3f00099c	0.5001466
149	0x3e2e52ca	0.17023769
150	0x3d88f44c	0.06687221
151	0x3e35c725	0.17751749
152	0x3e17dc99	0.14830245
153	0x3ee0b54c	0.4388832
154	0x3dc9ebb1	0.09859408
155	0x3cd23d4e	0.025663998
156	0x3e1cfeb8	0.15331542
157	0x3ecdad28	0.4017117
158	0x3e5bd698	0.2146858
159	0x3e306be8	0.17228663
160	0x3e2d5dd4	0.16930324
161	0x3dabb646	0.08384375
162	0x3e1af54b	0.15132634
163	0x3df0efca	0.11764486
164	0x3e1c435c	0.1526007
165	0x3da9b894	0.082871586
166	0x3df8d216	0.12149446
167	0x3e29e41b	0.16590922

weight f4 [168, 336]
0	0xbe265446	-0.16243085
1	0x3d31a320	0.04336846
2	0x3d458848	0.04822567
3	0x3e26e7ab	0.16299312
4	0x3e0fc961	0.14041664
5	0x3de76b9b	0.11299821
6	0x3da9591a	0.08268948
7	0x3d50e53c	0.050999865
8	0x3ca8784b	0.020565173
9	0x3d8e8978	0.06959814
10	0x3df0f697	0.11765783
11	0xbdfdecaf	-0.123986594
12	0xbe4f5428	-0.20246947
13	0xbe1ff8bc	-0.15622228
14	0xbe01a600	-0.1266098
15	0xbd1d058b	-0.038335364
16	0xbc1dba1f	-0.009626894
17	0x3d939f85	0.0720816
18	0xbcaf2817	-0.021381421
19	0xbcb94e74	-0.022620417
20	0xbce53686	-0.0279801
21	0xbd8892ed	-0.06668649
22	0xbd205b16	-0.039149366
23	0x3d6f37fd	0.058403004
24	0x3db4f996	0.08836667
25	0x3d016128	0.031586796
26	0x3d8a6d0c	0.0675908
27	0x3dd510ee	0.1040362
28	0x3dda1656	0.106487915
29	0x3d84ebca	0.06490286
30	0x3b5e2c94	0.0033901082
31	0x3d95f283	0.07321646
32	0x3df5ed3f	0.12008142
33	0x3d31f775	0.043448884
34	0x3cf838d5	0.030300537
35	0xbd6c78a0	-0.057732224
36	0xbda938a0	-0.082627535
37	0xbdc4a131	-0.09601057
38	0xbe2c2b3d	-0.16813369
39	0x3cc2dd7b	0.02378725
40	0x3cc3a21e	0.023881014
41	0x3db843fc	0.08997342
42	0x3d52b606	0.051443122
43	0x3da41382	0.08011533
44	0xbd5f751e	-0.05455505
45	0xbb2d8932	-0.002647948
46	0xbd8c8a21	-0.068622835
47	0xbcfe24a7	-0.031023337
48	0x3cfcb67d	0.030848736
49	0x3d59383c	0.053032145
50	0x3deddc91	0.11614335
51	0x3e072a26	0.13199672
52	0xbd099244	-0.033586755
53	0x3bf0d684	0.007349791
54	0x3d2b9909	0.041893993
55	0x3be914a0	0.0071130544
56	0xbca539a9	-0.020169096
57	0x3c94ac39	0.018148528
58	0xbd1237a1	-0.035697583
59	0xbe103402	-0.1408234
60	0xbe231f49	-0.15929903
61	0xbe0ae01b	-0.13562052
62	0xbd84e2fb	-0.064886056
63	0x39cd5034	0.00039160403
64	0x3d61f9d6	0.055169903
65	0x3e5c852c	0.21535176
66	0x3dd68497	0.10474508
67	0x3d89a2c4	0.06720498
68	0x3d3fb7d7	0.046806183
69	0x3c3757ec	0.011190396
70	0xbcd722f0	-0.026261777
71	0xbac6fde4	-0.0015181866
72	0x3dc62e53	0.096768044
73	0xbc8ba4f8	-0.017046437
74	0xbc3e788b	-0.011625419
75	0xbc93c7fa	-0.018039692
76	0x3a9cc2c4	0.00119599
77	0x3c2fe61a	0.010736013
78	0xbcd3e3c0	-0.025865436
79	0xbd45f3b6	-0.048328124
80	0xbd816efe	-0.06319998
81	0xbdca509a	-0.09878655
82	0xbc188b4f	-0.0093105575
83	0xbddcf19a	-0.10788269
84	0xbddf9bf2	-0.10918416
85	0xbde928d6	-0.11384742
86	0xbce802c2	-0.028321628
87	0x3b8def78	0.0043315254
88	0xbcda675e	-0.026660617
89	0x3e041c55	0.12901433
90	0x3e08b030	0.1334846
91	0x3db8859f	0.09009861
92	0x3d2a7833	0.041618537
93	0x3c399dfb	0.011329169
94	0x3da4ef4d	0.080534555
95	0x3dc3a68c	0.09553251
96	0x3daeca20	0.08534646
97	0xbd964da7	-0.0733903
98	0xbe00cda2	-0.12578443
99	0x3ba8016c	0.0051271226
100	0x3d199c36	0.03750249
101	0x3cd2777a	0.025691736
102	0xbc0fbcf0	-0.008773074
103	0xbc2267f4	-0.00991248
104	0xbe0f2b15	-0.13981278
105	0xbde64a98	-0.112446964
106	0xbe1d1dd1	-0.15343405
107	0xbdc3beff	-0.09557914
108	0xbdea5933	-0.11442795
109	0x3d0d8fdd	0.034561027
110	0x3d6c56da	0.057700016
111	0xbcea07b5	-0.028568128
112	0x3d1a082e	0.037605457
113	0xbd2c4404	-0.042057052
114	0x3da5614a	0.08075197
115	0x3db4552b	0.08805307
116	0x3c97eb37	0.018544776
117	0x3e01c883	0.12674145
118	0x3db4dc54	0.08831087
119	0x3cf1ae20	0.029501975
120	0xbd867c1e	-0.06566642
121	0xbcd9c063	-0.026580995
122	0xbd8c6d35	-0.06856767
123	0x3d5dd3f5	0.054157216
124	0x3c90d117	0.017677827
125	0x3d85187b	0.0649881
126	0x3c80d1a7	0.01572497
127	0xbcf20132	-0.029541586
128	0xbc98d671	-0.018656941
129	0xbccf28b3	-0.025287962
130	0x3c7722b4	0.015083957
131	0xbc19ca48	-0.0093866065
132	0xbdf6ecb9	-0.1205687
133	0xba86a8da	-0.001027371
134	0xbd146abd	-0.036234606
135	0x3c6a653b	0.014306362
136	0xbba374c7	-0.004988286
137	0xbd8224b5	-0.063546576
138	0x3d819a70	0.06328285
139	0xba998abd	-0.0011714321
140	0x3d89f02b	0.067352615
141	0x3d829ad3	0.063771866
142	0x3d78706e	0.060654096
143	0xbb89bc28	-0.004203338
144	0x3cc04fe6	0.023475599
145	0xbde87111	-0.11349691
146	0xbd923398	-0.07138747
147	0xbd7b3ee7	-0.061339285
148	0xbdba70f0	-0.09103572
149	0x3db890a5	0.09011964
150	0x3d347bdf	0.044063445
151	0x3dad5dc3	0.08465149
152	0x3d0f66fb	0.03501032
153	0x3dec3e43	0.11535313
154	0xbda3fac2	-0.08006813
155	0xba100f92	-0.0005495484
156	0xbd553609	-0.052053485
157	0xbe2543e1	-0.16139175
158	0xbe3413e6	-0.17585716
159	0xbdee751e	-0.11643432
160	0x3c9dcd40	0.01926291
161	0x3daae05a	0.08343573
162	0x3df71f94	0.1206657
163	0x3d6ac7d1	0.057319466
164	0x3bc6f401	0.006071568
165	0xbc6f3a7b	-0.014601345
166	0x3d87b907	0.06627088
167	0xbd226317	-0.03964528
168	0x3d7a05c4	0.061040655
169	0x3d415e7c	0.047209248
170	0x3bf027b1	0.0073289503
171	0xbcc02fc2	-0.023460273
172	0xbd4233a5	-0.047412533
173	0x3dc6eed9	0.09713525
174	0xbd4f104f	-0.050552662
175	0x3b954bf0	0.0045561716
176	0x3e04a8a8	0.12954962
177	0x3cae9907	0.021313203
178	0xbdac93d2	-0.08426632
179	0xbde42694	-0.11140171
180	0xbd77d7f2	-0.060508676
181	0xbdfb81cb	-0.122806154
182	0xbdd0388c	-0.101670355
183	0x3e10ea91	0.1415198
184	0x3e0b1269	0.13581242
185	0x3cf3814f	0.029724745
186	0xbbf7af16	-0.0075587137
187	0x3d3f9de2	0.04678143
188	0x3d5455dd	0.051839698
189	0x3ce0f2c7	0.027459515
190	0x3d96eebb	0.07369753
191	0xbb199de6	-0.0023440062
192	0x3d42ab2f	0.047526535
193	0x3c853d12	0.016264472
194	0x3d725221	0.059160355
195	0x3e08bd12	0.13353375
196	0x3b80d874	0.003932053
197	0xbc8cb1e0	-0.017174661
198	0xbca43df5	-0.020049075
199	0x3d34e6a8	0.044165283
200	0xbc7c2118	-0.01538875
201	0xbe00e8f8	-0.1258887
202	0xbdaa1479	-0.08304686
203	0xbe481a0e	-0.19541189
204	0xbde9e6fc	-0.1142101
205	0xbaba595d	-0.0014217306
206	0x3d39cab8	0.045359343
207	0x3cd9416a	0.02652045
208	0x3d3c82a8	0.04602304
209	0x3c719d01	0.014746905
210	0xbd322365	-0.043490786
211	0xbd3e3de7	-0.046445753
212	0xbd18e2e4	-0.037325755
213	0xbd59e30a	-0.053195037
214	0x3d5b99f4	0.053613618
215	0x3b573e17	0.0032843405
216	0xbd814014	-0.0631105
217	0xbcaa4434	-0.020784475
218	0x3d5709a7	0.05249944
219	0x3cfc06f8	0.030765042
220	0xbb841d2a	-0.004031797
221	0x3dfa0a56	0.12209003
222	0x3dc8ecba	0.09810777
223	0x3c18e667	0.009332276
224	0xbbcb732a	-0.006208797
225	0xbda0d8be	-0.0785384
226	0xbe22ba72	-0.15891436
227	0xbdc7b659	-0.09751577
228	0xbde8242d	-0.11335025
229	0xbdae5d1d	-0.08513854
230	0xbd96f586	-0.07371049
231	0xbe0f4afb	-0.13993447
232	0x3df347b1	0.118789084
233	0x3d4057a5	0.046958584
234	0xbc7de8ee	-0.015497429
235	0x3d9868f3	0.074418925
236	0xbc182b4d	-0.009287667
237	0xbd33df12	-0.04391391
238	0x3d6779cf	0.05651265
239	0x3df2d452	0.11856903
240	0xbd25f33a	-0.040515162
241	0x3b9a2ae5	0.0047048205
242	0x3bd48de3	0.006486641
243	0x3d602c37	0.054729667
244	0x3d1d5a2f	0.038416084
245	0x3dd28dc4	0.10280946
246	0x3d4540b8	0.048157424
247	0x3ccfa2e2	0.025346223
248	0x3d71cb42	0.059031732
249	0xbd96b351	-0.07358421
250	0xbdbef7c6	-0.09324603
251	0xbdcb077b	-0.09913536
252	0xbdd3dafc	-0.10344502
253	0xbdd8e2d0	-0.10590136
254	0xbe3e633f	-0.18592547
255	0xbd4953e2	-0.049152263

bias f4 [168]
0	0x3ceb3a4a	0.028714318
1	0x3bc7dd10	0.0060993508
2	0x3da19cbe	0.07891224
3	0x3c1302fc	0.0089728795
4	0x3cc27731	0.023738476
5	0xbc1775ff	-0.009244441
6	0x3d107aff	0.03527355
7	0x3c469b23	0.012121948
8	0x3d50e502	0.05099965
9	0x3cc1b70a	0.02364685
10	0x3d399445	0.045307416
11	0x3d4f8126	0.050660275
12	0x3d3f23a9	0.046664868
13	0x3db716a9	0.08939869
14	0x3d3d51d7	0.046220627
15	0x3d8d57f2	0.0690154
16	0x3de14925	0.11000279
17	0x3d4c9a64	0.049951926
18	0x3d1187b2	0.0355298
19	0x3da0d2ac	0.078526825
20	0x3d378844	0.044807687
21	0x3da0c836	0.07850687
22	0x3d95b68d	0.073102094
23	0x3d4b9953	0.04970677
24	0x3db26e91	0.08712495
25	0x3db8ec7c	0.09029481
26	0x3d0dc7e1	0.034614448
27	0x3d954f40	0.07290506
28	0x3d670013	0.056396555
29	0x3dcc502b	0.09976228
30	0x3f035e80	0.5131607
31	0x3d70d608	0.058797866
32	0x3da4379f	0.080184214
33	0x3d5dc871	0.054146234
34	0x3d7a3d9c	0.06109391
35	0x3e1ebd86	0.15501985
36	0x3d7f2c3a	0.062298037
37	0x3df74d69	0.12075312
38	0x3bc596e9	0.006029953
39	0x3dd3ec13	0.10347762
40	0x3d2278d7	0.039666023
41	0x3dc1d8f7	0.09465211
42	0x3d71b634	0.059011653
43	0x3dbb0a3c	0.091328114
44	0x3d9bfab4	0.07616177
45	0x3d453128	0.048142582
46	0x3d53ca8d	0.05170684
47	0x3d4cb3ce	0.049976163
48	0x3d8e2ff9	0.06942744
49	0x3d1d6a9c	0.03843175
50	0x3d4c3e86	0.049864314
51	0x3d7db575	0.06194063
52	0x3ef65407	0.48110983
53	0x3def80db	0.11694499
54	0x3d5268a6	0.05136933
55	0x3d96a8c7	0.073564105
56	0x3d6716bf	0.056418177
57	0x3ef8f3f4	0.4862362
58	0x3dd83be9	0.10558302
59	0x3dcb8fe6	0.09939556
60	0x3e13eda0	0.14446115
61	0x3dfb76a7	0.122784905
62	0x3dfb3b1c	0.122671336
63	0x3d9a4ba8	0.075339615
64	0x3e1148c6	0.14187917
65	0x3da7dac9	0.08196027
66	0x3dba2a53	0.09090104
67	0x3d5ec96e	0.054391317
68	0x3da5f13a	0.08102651
69	0x3d88b193	0.066744946
70	0x3d75e0ce	0.060028844
71	0x3da7c40d	0.081916906
72	0x3d8b01ad	0.06787429
73	0x3d456626	0.04819312
74	0x3d7e9938	0.06215784
75	0x3d9dfb6d	0.07713971
76	0x3d831440	0.06400347
77	0x3d7bbbf9	0.06145856
78	0x3deb4537	0.11487811
79	0x3db0f902	0.086412445
80	0x3e01d9d1	0.12680747
81	0x3dbe4de4	0.092922
82	0x3dc58bf7	0.09645837
83	0x3dc7d364	0.097571164
84	0x3df259f1	0.11833561
85	0x3dc53656	0.096295044
86	0x3e402aed	0.18766375
87	0x3e040ee0	0.128963
88	0x3e2ff1f1	0.17182137
89	0x3dbafb8e	0.091300115
90	0x3e00afaa	0.1256701
91	0x3e0257d3	0.12728815
92	0x3e12324d	0.14277
93	0x3dc9c9f1	0.098529704
94	0x3defaf71	0.11703385
95	0x3d39dd9a	0.04537735
96	0x3dab82ed	0.083745815
97	0x3d90387c	0.070420235
98	0x3d268877	0.040657487
99	0x3daf7871	0.08567894
100	0x3ce9953e	0.028513547
101	0x3da3d371	0.079993136
102	0x3dba854a	0.09107454
103	0x3e157532	0.14595488
104	0x3dbdae04	0.092617065
105	0x3df90142	0.12158443
106	0x3de4b387	0.111670546
107	0x3dfc8674	0.123303324
108	0x3e0d888e	0.13821623
109	0x3de81409	0.113319464
110	0x3e084c3e	0.13310334
111	0x3da49798	0.08036727
112	0x3e050566	0.1299034
113	0x3e1a885b	0.15091078
114	0x3e0e220f	0.1388018
115	0x3df54d9f	0.11977696
116	0x3d9a9fec	0.07550034
117	0x3df4cd85	0.11953262
118	0x3e11577d	0.1419353
119	0x3da8c63e	0.08240937
120	0x3dd90ef9	0.10598559
121	0x3da5d152	0.08096565
122	0x3d8e9a8f	0.069630735
123	0x3d96a2f4	0.073552996
124	0x3dc5d6a0	0.09660077
125	0x3dbfbde4	0.09362391
126	0x3da462a5	0.080266275
127	0x3df77ba0	0.120841265
128	0x3da069f0	0.07832706
129	0x3e421992	0.18955067
130	0x3db3da1f	0.08781838
131	0x3dfbff97	0.12304609
132	0x3d60ce04	0.05488397
133	0x3e3301b8	0.17481124
134	0x3e0747e4	0.13211018
135	0x3e4c407f	0.19946478
136	0x3df8e97a	0.12153907
137	0x3e011f93	0.12609701
138	0x3e05b63e	0.13057801
139	0x3dc29422	0.0950091
140	0x3dea13d1	0.11429561
141	0x3e186cb6	0.1488522
142	0x3dc22681	0.0948
143	0x3dcb454d	0.099253275
144	0x3df407e2	0.11915566
145	0x3db764f3	0.089548014
146	0x3d6f7b7e	0.05846738
147	0x3efbe92d	0.49201337
148	0x3f09eb83	0.5387499
149	0x3d80aa65	0.062825
150	0x3dcb5d7d	0.09929941
151	0x3e103cdb	0.14085715
152	0x3d6a3f26	0.05718913
153	0x3eef0ba2	0.46688563
154	0x3dffc08d	0.12487898
155	0x3dedb12b	0.11606058
156	0x3e046532	0.12929228
157	0x3ef14dfe	0.47129816
158	0x3e26a963	0.16275553
159	0x3e1d4082	0.15356639
160	0x3e23f143	0.16010003
161	0x3dc626f6	0.096754
162	0x3dd2c00f	0.102905385
163	0x3d84d12d	0.064852096
164	0x3e1abcf9	0.1511115
165	0x3e15936e	0.14607021
166	0x3e0977fb	0.13424675
167	0x3e06374c	0.13107032

weight f4 [1, 11]
0	0x3eba359a	0.3636902
1	0x3d17bc27	0.03704467
2	0xbe4f829e	-0.2026467
3	0x3e800f48	0.2501166
4	0x3d9ed8d6	0.07756202
5	0x3daf972e	0.08573757
6	0x3e17f865	0.14840849
7	0x3c3ee35f	0.011650889
8	0x3d09f20e	0.033678107
9	0xbdae9d9f	-0.085261576
10	0x3d0cf872	0.034416623
