js_park/saved_models/best_AF_5.pt (torch, 455911 bytes, 5 tensors)

weight f4 [168, 336]
000000 4e e9 35 3e 27 29 24 3e 92 61 f0 3d ac 2f a4 3d
       0.1776478 0.16031323 0.1173736 0.08016905
000010 ee 16 ab 3d a8 e1 03 3e 20 d8 b7 3d 1a 20 e2 3d
       0.08353983 0.1287905 0.089767694 0.11041279
000020 14 32 27 3e 0e 68 01 3e 71 58 cd 3d 2b f7 ee 3d
       0.16327697 0.1263735 0.100266345 0.11668237
000030 5e 72 c0 3d 50 79 9b 3d d3 0d e3 3d ca 36 5d 3d
       0.09396814 0.07591498 0.11086621 0.05400733
000040 6a 3a bb bc a5 22 a0 bd c5 20 22 be 2b 5b b9 bd
       -0.022855002 -0.07819108 -0.15832813 -0.09050592
000050 5f 9b fd bd 76 7d e4 bd 69 31 34 be fe 9e f4 bd
       -0.1238315 -0.11156742 -0.17596973 -0.11944388
000060 66 f0 2b 3d 05 55 1f 3d da 65 4b 3d fb cf a4 3d
       0.04197731 0.03889944 0.04965768 0.080474816
000070 11 2c b4 3d c0 84 8f 3d 85 f2 03 3e 50 0f a3 3d
       0.087974675 0.07007742 0.12885483 0.07961905
000080 4c b0 36 3e 65 7a 21 3e 5b 43 22 3e 53 ab 1e 3e
       0.1784069 0.15769346 0.15846007 0.15495043
000090 a4 a3 f6 3d de df bd 3d b8 90 b6 3d 20 73 14 b9
       0.12042931 0.09271215 0.08914322 -0.00014157267
0000a0 cb 39 9c bd 5f 66 e9 bd 80 9c 26 be 29 7e 9f bd
       -0.07628211 -0.11396479 -0.16270638 -0.07787735
0000b0 09 98 cf bd 0b 38 2d bd 0e 6d 83 bd 24 66 e1 3c
       -0.1013642 -0.042289775 -0.06417285 0.027514525
0000c0 c5 aa 0f 3e 64 58 14 3e d1 9d f1 3d ec 5e 0a 3e
       0.14029987 0.14486843 0.11797679 0.13512772
0000d0 d1 6d 1f 3e 77 f3 27 3e 16 7d 45 3e e4 41 47 3e
       0.15569235 0.16401468 0.19285998 0.19458729
0000e0 a8 7d 14 3e f8 28 02 3e 3f f2 2c 3e 08 6d c4 3d
       0.14501059 0.12710941 0.16889285 0.095911086
0000f0 fd d9 c9 3d bd 52 ea 3d aa d2 d2 3c d5 ee a0 3d
       0.09856031 0.11441562 0.025735218 0.078580536
000100 17 c0 06 bd 57 e9 82 bd 47 80 c8 bd 83 90 10 be
       -0.032898035 -0.06392162 -0.09790092 -0.14117627
000110 85 77 00 be 2a b4 b0 bc 52 94 5f bd c9 1d 3b 3d
       -0.12545593 -0.021570284 -0.05458481 0.045682702
000120 ea 51 be 3d 96 fb 2f 3d c9 2e da 3d 00 65 01 3e
       0.092929676 0.04296454 0.10653455 0.12636185
000130 0d 82 04 3e 97 cd 4c 3e 46 d2 fa 3d d3 65 19 3e
       0.12940235 0.20000301 0.12247138 0.14980249
000140 a4 de d3 3d 32 fb 15 3e ca 89 07 3e 71 91 f3 3d
       0.103452 0.14646605 0.13236156 0.11892975
000150 c3 72 c6 3d 28 04 56 3d d9 25 92 3d 83 9d 09 bd
       0.09689858 0.052250057 0.07136125 -0.03359748
000160 70 84 06 be 29 a9 20 be d5 95 e4 bd 28 ea b6 bd
       -0.13136458 -0.1568953 -0.11161391 -0.089313805
000170 ad dd ad bd 84 98 ae bd 7f 93 08 be 11 ca d0 bd
       -0.08489547 -0.08525184 -0.13337515 -0.10194791
000180 c5 72 14 3d f9 cc 82 3d 16 15 02 3e c6 8b c2 3d
       0.036242265 0.06386752 0.12703356 0.09499316
000190 1a 9e f5 3d dc b5 0e 3e 97 f9 eb 3d b7 35 f4 3d
       0.11993046 0.13936561 0.11522215 0.11924308
0001a0 f6 b9 e7 3d b5 bf ef 3d 8d 33 ed 3d 5d 99 20 3e
       0.11314766 0.11706487 0.11582098 0.15683503
0001b0 70 cd 9c 3d 64 f4 02 3e 74 0a 64 3b 49 d0 9c bd
       0.076563716 0.1278854 0.003479627 -0.07656915
0001c0 67 7a 41 be 0e 3b e3 bd 98 d8 12 be 76 84 41 be
       -0.18894349 -0.11095248 -0.14340436 -0.18898186
0001d0 c6 5e 19 be 93 3d 54 be c3 03 38 be d4 29 b7 bd
       -0.1497756 -0.20726614 -0.17970185 -0.08943525
0001e0 43 33 30 bd a2 d1 bd bb 95 49 90 3d 05 6c ab 3d
       -0.043017637 -0.0057928124 0.07045285 0.083702125
0001f0 3b 1c 06 3e 5d ba cf 3d e9 93 cc 3d 82 82 c6 3d
       0.13096707 0.10142968 0.09989149 0.09692861
000200 1c 7e 23 3e d6 ee c1 3d d0 75 da 3d 6a 93 22 3e
       0.15966076 0.094693825 0.10667002 0.15876547
000210 55 18 c7 3d ca 08 3c 3e 82 20 0c 3d 2a 2f 21 3d
       0.09721438 0.18362728 0.03421069 0.03935162
000220 9f c0 d7 bd f6 4f e6 bd de 53 9e bd 27 9d 0f bd
       -0.105347864 -0.1124572 -0.0773084 -0.03506198
000230 19 74 24 bd 89 ac 82 bd 60 27 1b be a9 37 0f be
       -0.04014978 -0.06380565 -0.15151739 -0.13986076
000240 d4 58 a4 bd 95 d3 cf bd e3 13 cd bc 1a e6 95 3b
       -0.08024755 -0.10147778 -0.025033897 0.0045745494
000250 00 1b f4 3c 31 d9 88 3c 7a 08 a9 3d 04 37 bc 3c
       0.02979803 0.016705127 0.0825357 0.022975452
000260 a7 3c c3 3c 96 c1 d4 3c 44 c7 51 3d 80 40 6a 3d
       0.023832632 0.025971215 0.051215425 0.05719042
000270 8e 27 41 3c 5a 94 56 3d 97 23 fb 3b 78 6b 13 bd
       0.011789216 0.052387573 0.0076641547 -0.035991162
000280 8d 0f 60 be 75 13 97 be 24 4d 83 be 40 bf 4f be
       -0.21880932 -0.29507032 -0.2564479 -0.202878
000290 2b a3 58 be 17 36 31 be 9d ad 19 be eb d2 ab bb
       -0.21155994 -0.1730579 -0.15007634 -0.0052436492
0002a0 5d be 84 3d 94 8b 4e 3d 16 b4 ae 3d 16 fc ae 3d
       0.064816214 0.05042608 0.085304424 0.08544175
0002b0 a8 6f 5e 3d 4c 8b f4 3d c3 47 0e 3e 70 36 2d 3e
       0.054305702 0.11940631 0.13894562 0.16915298
0002c0 1d 35 22 3e 13 8b 05 3e 78 bf 22 3e fd 5e 26 3e
       0.15840574 0.13041334 0.15893352 0.16247173
0002d0 70 0f 6b 3e af 22 40 3e 4e 63 6b 3e 4f 33 1f 3e
       0.22955108 0.1876323 0.229871 0.15546916
0002e0 87 f8 3a 3e b3 c8 9a 3d 10 49 b3 3d 39 27 01 3e
       0.18258868 0.075578116 0.0875417 0.12612619
0002f0 a6 af 08 3e 34 d7 b5 3d 9b be 4f 3e aa 2f 79 3e
       0.13348255 0.08878937 0.20287554 0.24334589
000300 f5 a3 9a 3e c3 2a 96 3e 18 86 89 3e f7 dd 9e 3e
       0.30203214 0.293295 0.26860118 0.3102872
000310 a7 8b 87 3e e2 88 5d 3e cc 20 a1 3e db 63 99 3e
       0.26473734 0.21634248 0.31470335 0.29958996
000320 ea f1 85 3e fd d0 95 3e 7a 5f 82 3e f7 04 97 3e
       0.26161128 0.29261008 0.25463468 0.29495975
000330 54 c4 87 3e 3a 72 a3 3e b4 2c ce 3e 3e 17 b2 3e
       0.26516974 0.31923085 0.4026848 0.34783357
000340 3f c8 9c 3e c9 f4 99 3e dd ac 89 3e 6a 0d 62 3e
       0.30621526 0.3006957 0.26889697 0.2207543
000350 8f 23 3d 3e 4e 1c 74 3e a0 15 93 3e 7d 12 c3 3e
       0.18470596 0.23838922 0.28727436 0.38100043
000360 bb 99 a5 3e c5 15 a8 3e 06 e8 c7 3e f3 bd bc 3e
       0.3234385 0.3282911 0.39044207 0.3686367
000370 69 ae 8b 3e 7d d1 84 3e e9 98 80 3e 26 6f 95 3e
       0.27281502 0.25941077 0.2511666 0.29186362
000380 37 81 8e 3e bd 64 80 3e 4a a1 7a 3e 68 2d 89 3e
       0.27832958 0.25076857 0.2447559 0.26792455
000390 d2 aa b9 3e 24 99 ad 3e 76 9e 97 3e 4d 4f 9f 3e
       0.36263138 0.339059 0.29613084 0.3111519
0003a0 23 95 ae 3e 90 89 97 3e 5b 68 52 3e db d5 3b 3e
       0.34098157 0.2959714 0.20547621 0.18343298
0003b0 1e 46 79 3e b1 b2 7c 3e 7a cc 71 3e 81 24 8f 3e
       0.24343154 0.2467754 0.23613158 0.27957538
0003c0 17 b0 ba 3e 6f 9f 82 3e d7 4b 7e 3e 87 4a 9c 3e
       0.3646247 0.25512263 0.24833618 0.3052561
0003d0 7f ea a3 3e ef 95 6f 3e 17 85 89 3e 25 67 5a 3e
       0.32014844 0.23397039 0.26859352 0.21328409
0003e0 d0 1c 69 3e 0b fe 36 3e 7d 11 81 3e 18 81 6a 3e
       0.22764897 0.17870347 0.25208655 0.22900808
0003f0 9e c4 41 3e 82 a7 55 3e 3d 0c 14 3e 27 28 8a 3d
       0.1892266 0.2086468 0.14457794 0.0674594

bias f4 [168]
000000 c3 f5 19 3d fc 13 b5 3e 9b 6b bb 3d 3f 1c d3 3d
       0.037587892 0.3536681 0.091513835 0.10308122
000010 eb 43 dd be 34 00 d8 bd 74 34 8f be 17 e3 df be
       -0.4321588 -0.10546914 -0.27969706 -0.43727943
000020 38 b1 86 3e a4 e3 69 bd 92 47 53 be a6 e6 2d be
       0.26307082 -0.05710186 -0.2063277 -0.16982517
000030 a7 2f 0d bf 40 07 18 be 51 d9 ed 3d be 73 df bd
       -0.55150837 -0.14846516 0.116137154 -0.10910748
000040 19 71 92 3e de f3 6d 3e a8 84 f9 3e 0d f2 8a 3e
       0.28601912 0.23237559 0.4873402 0.27137795
000050 99 bd a1 be 6e 1a f4 bb 7a ab 14 be b0 3b 88 be
       -0.31589964 -0.0074494397 -0.14518538 -0.26608038
000060 f1 58 99 3d b9 01 94 3e d4 6e ee bd 70 0a 81 3e
       0.07487667 0.28907564 -0.116422325 0.25203276
000070 5e ab 03 be 4f f7 fa 3e e3 c2 90 be 37 97 f1 be
       -0.1285834 0.49016806 -0.28273687 -0.4718568
000080 8e 31 06 3f 30 8d e6 bd d2 40 88 bd 7f 64 66 3e
       0.52419364 -0.11257398 -0.066529885 0.22499274
000090 f4 3b d8 3e 0d 39 11 bf df 72 69 3c 2e 6b 88 bd
       0.4223324 -0.5672768 0.014248579 -0.06661068
0000a0 72 e5 81 be 16 3e 12 3e 90 33 d9 3e b2 33 e5 3e
       -0.25370365 0.14281496 0.42422152 0.44766003
0000b0 8c 00 17 3e 0b a2 6e be af 41 00 be 03 28 b5 be
       0.14746302 -0.23304002 -0.12525056 -0.3538209
0000c0 cb 99 0e 3e 01 fa 49 bd 2d bd 93 bd 82 df 1d be
       0.13925855 -0.049310688 -0.07213817 -0.15417293
0000d0 1b dc c7 3e f1 60 79 3e 67 30 83 3e 66 65 73 3e
       0.39035115 0.24353386 0.25622866 0.23769149
0000e0 3f 45 03 3e 52 5a d7 bd f6 8b 1e bf a7 bf f2 3e
       0.12819384 -0.10515274 -0.61932313 0.47411844
0000f0 c3 69 fe be 17 53 e3 3e 84 05 86 3e 1e cd d8 3e
       -0.49690065 0.4439933 0.26176083 0.42343992
000100 52 cb fa 3d 8b 22 7d 3e db ef 50 3e 44 fe a7 bc
       0.122458115 0.24720208 0.20403998 -0.020506985
000110 ed 49 14 3f 3f 6d ee 3e 1f b1 62 3e 70 35 30 3e
       0.579253 0.46567723 0.22137879 0.17207885
000120 25 17 27 3e 17 6e c5 3e ac cd 53 3c 4d 89 4e 3e
       0.16317423 0.38560554 0.012927454 0.20169564
000130 e0 9e 8c 3e ee c7 62 3c b7 09 ed 3e 4c 01 13 3d
       0.27464962 0.013841612 0.46296474 0.03588991
000140 f2 31 61 3d d6 3e 4c 3e 2e 50 ae 3e 7a ba 36 3d
       0.054979272 0.19945845 0.34045547 0.04461143
000150 b9 e4 d1 3d 95 cc 0d 3e ad fe 88 be 0e a3 6e 3d
       0.102487035 0.13847573 -0.26756802 0.05826097
000160 21 36 3d bd c2 d4 83 3e 3b 2c 1b 3e bd 68 59 3d
       -0.0461942 0.2574826 0.15153591 0.0530784
000170 f7 d2 39 be a1 98 65 3d 7b 12 3d 3e 3b 0b cb 3e
       -0.18146883 0.05605376 0.18464081 0.39657006
000180 92 0e e4 bd 30 81 99 3e 91 51 99 3c 18 cc 11 3e
       -0.111355916 0.29981375 0.018715652 0.14238012
000190 7a 94 83 3e 42 81 18 be 7e 80 4b be ae 13 24 3e
       0.25699216 -0.14893058 -0.19873235 0.16023132
0001a0 6b 12 85 bd 0e 46 d6 3e 64 b3 b2 bd 98 40 f6 bd
       -0.064976536 0.41850322 -0.08725622 -0.12024039
0001b0 39 ab 89 3c 14 0b d2 3e 9c c2 a4 3e 2c 1b ec be
       0.016805278 0.41024077 0.32179725 -0.4611448
0001c0 18 cd 00 be 15 a8 b4 3e 78 2c 6e 3c 6c c2 89 3e
       -0.12578237 0.35284486 0.014536969 0.26906145
0001d0 03 2d ad 3d 8b 15 e9 3d aa 17 e6 bd 6b 28 01 3e
       0.08455851 0.11381062 -0.11234982 0.12613074
0001e0 56 0a eb 3e 4e 1a 44 3e 82 4b 11 3e a2 71 19 be
       0.45906323 0.1915066 0.1418896 -0.14984754
0001f0 79 44 b4 3e 35 0f 83 3d db 05 5b bd 32 a3 bc 3e
       0.3520849 0.06399385 -0.05347238 0.36843258
000200 8c e2 66 3e 15 c7 f8 bc 65 5c 94 be e6 9f 20 3f
       0.22547358 -0.030368367 -0.2897674 0.62743986
000210 6c 0c 22 be 6e 2a a9 3e 61 5f 23 be 08 22 8e 3e
       -0.15825051 0.33040184 -0.15954353 0.2776034
000220 47 2b 9f 3d 3a bb 03 be ad c5 8c be 34 c4 23 bd
       0.077719264 -0.1286439 -0.27494565 -0.039982036
000230 e6 05 fa bc 69 69 94 be ec 1c f6 3e 78 38 30 be
       -0.03052039 -0.28986672 0.4806894 -0.17209041
000240 29 78 2e be 38 65 07 3e a1 00 39 3e 19 07 a3 3e
       -0.17038025 0.13222206 0.18066646 0.31841353
000250 93 83 8a bd bb 4c 3e 3e f6 95 69 be e4 81 12 3f
       -0.06763377 0.18583958 -0.22811112 0.5722945
000260 a9 45 0c 3f bf bf ea bd 1f fe bc 3e a9 27 e5 bd
       0.5479379 -0.11462354 0.3691263 -0.11189205
000270 03 1a a5 bd 5d b7 76 bd 63 5c a3 3d ba 5f 7f be
       -0.08061602 -0.060233463 0.07976606 -0.2493886
000280 71 29 4d bd 91 a6 20 3c 17 c4 fd 3d 0f 76 a7 bd
       -0.05008835 0.0098053375 0.12390917 -0.08176815
000290 ff ca fe 3d b6 8f 19 be 82 c8 bc 3e c5 18 94 3e
       0.12441062 -0.14996228 0.36871725 0.28925148

weight f4 [168, 336]
000000 03 ff 29 be bd 70 88 bd 6c fa 85 bd f1 4c 87 be
       -0.16601186 -0.06662128 -0.06541905 -0.2642589
000010 6f 93 8c bd c8 45 bf 3d ff 4e 44 be 4b b5 4b 3e
       -0.06864058 0.093394816 -0.1917076 0.19893377
000020 a0 10 16 3e 02 0f 9d 3e ee c7 37 3d c1 e6 cd 3d
       0.1465478 0.30675513 0.044868402 0.100537784
000030 92 81 7f 3e fc 4c 1d 3e ef b9 0c 3e de dc d4 bc
       0.24951771 0.15361398 0.13742803 -0.025984224
000040 18 74 e1 be a8 4b 07 3d cc cf ea 3e c7 7c a8 3e
       -0.44033885 0.033031136 0.4586166 0.32907698
000050 74 a8 07 3e 64 ff 58 3e 76 f2 9f be 07 8a dc bd
       0.13247854 0.21191174 -0.3123967 -0.10768514
000060 15 e5 39 bf fb be 6a be a3 fc 32 bf 73 f7 f9 be
       -0.72615176 -0.22924416 -0.69916743 -0.488216
000070 db 6b 75 be c3 a6 86 be 59 7b 21 3e ce c5 20 be
       -0.23966925 -0.26299104 0.1576971 -0.15700457
000080 36 09 9a bc 61 13 bb 3e b1 20 f4 3e f1 27 b1 3e
       -0.01880322 0.36538222 0.47681192 0.34600785
000090 97 38 bc 3e 00 63 9b 3c 9f 39 ea 3e 0d 77 3e be
       0.36761925 0.018968105 0.45747086 -0.18600102
0000a0 28 f3 39 be 21 cb c6 bc 8d f4 61 3e 33 4d 22 bc
       -0.18159163 -0.024266781 0.22065945 -0.009906101
0000b0 c8 99 5f 3c 0f 91 d5 3d 18 53 fd 3e f6 46 9d 3d
       0.013647504 0.10428058 0.49477458 0.0767955
0000c0 e9 0a 1a bc 16 9d a1 3c ae a5 3a bf 5d 7e d8 be
       -0.009402015 0.019728225 -0.7290906 -0.42283908
0000d0 25 f7 e2 be fa 61 91 be 3b fa 6f bd 77 ef b9 bd
       -0.4432918 -0.28395063 -0.058588248 -0.090788774
0000e0 a9 18 46 bc 47 df 8b bd f0 30 ab 3e 2d d8 e3 3b
       -0.01209084 -0.06829696 0.33435774 0.0069532604
0000f0 ca 91 b3 3d 93 39 78 3e ca eb ea 3d 97 29 36 be
       0.087680414 0.24240713 0.114707544 -0.17789303
000100 b7 1d 97 bd 6d 18 80 3e a8 95 08 3e 70 9f 54 3a
       -0.073787145 0.25018635 0.1333834 0.0008110916
000110 67 15 18 bd 1b e9 24 be be b1 ed 3b 7f b7 18 bd
       -0.037129786 -0.16104548 0.0072538545 -0.03728437
000120 56 d5 46 bd 64 dd 17 be 17 17 a0 be fd f9 8a be
       -0.048543297 -0.14830548 -0.31267616 -0.2714385
000130 b6 ac a7 3c d6 17 c3 bd f7 47 92 3d 1b 23 e8 be
       0.020468097 -0.09526031 0.071426325 -0.45339283
000140 30 b6 48 3e 41 f1 d1 3e d7 dd ee 3e 3a 23 a3 3e
       0.19600749 0.41004375 0.46653625 0.31862813
000150 27 51 fe 3b 9b 1f 83 3e 28 3e 83 be 06 1b 52 3c
       0.007761139 0.2561005 -0.2563336 0.012823826
000160 51 40 ff bd 65 7d 15 be a7 0d bd bd 7f 08 9c bc
       -0.12463439 -0.14598615 -0.092311196 -0.01904702
000170 0e 45 84 be c5 58 be bc 98 d3 67 3b db 8e 3e be
       -0.25833935 -0.023235688 0.0035373922 -0.18609183
000180 1f 5f 24 be 82 33 f1 be 04 09 1b bf f6 80 42 be
       -0.16051911 -0.4710961 -0.6056063 -0.18994507
000190 1d 3b e7 bd 86 e9 e8 3d 74 ea 17 3e 4d 59 cc bd
       -0.11290572 0.11372666 0.1483553 -0.0997797
0001a0 15 3e b5 3e 2d f5 d5 3e 8e 9c bb 3e fc 80 84 3e
       0.35398927 0.41788617 0.3664288 0.25879657
0001b0 68 7e b3 3e ea 67 36 3f 8d ba 7e 3d 1c 5e 1e 3e
       0.35057378 0.7125231 0.062189627 0.15465587
0001c0 16 81 34 be 57 d5 5c be a9 65 84 be b0 86 ac bd
       -0.17627367 -0.21565758 -0.2585881 -0.08424127
0001d0 32 a6 80 be de c4 c1 bd 12 c9 61 3c 26 bb b5 bd
       -0.25126797 -0.094613776 0.013780849 -0.08873586
0001e0 82 b7 d4 be 54 f6 da be aa e5 d6 be fe 6a c1 be
       -0.41546255 -0.42766058 -0.41972095 -0.3777694
0001f0 2d cd 58 be ca e2 4d 3d e1 1d 10 bd af 7e e5 bc
       -0.21172018 0.05026511 -0.035184745 -0.028014509
000200 ed d0 67 3d 5b 25 44 3d 35 f1 f4 3e 92 12 40 3e
       0.05659573 0.047887187 0.47840276 0.18757084
000210 48 02 47 3e b2 6c fb 3e ef dc 1a 3d 8e 13 89 3e
       0.19434464 0.49106365 0.037808355 0.26772732
000220 79 e6 cf 3d 04 c3 9c be 7b 1d a4 bd 3d 48 b6 bd
       0.10151381 -0.30617535 -0.080134355 -0.08900497
000230 19 4d 1c 3e 88 88 d6 3d 5c f6 8c 3e e7 cf 02 be
       0.15263785 0.1047526 0.27531707 -0.12774621
000240 dc b7 28 be f6 c7 0c bf 32 6d 06 bf 69 d9 b0 be
       -0.16476387 -0.54992616 -0.5251037 -0.3454087
000250 68 17 61 be b3 df 2d be b7 75 06 bd 22 b2 04 3d
       -0.21981585 -0.16979866 -0.032827105 0.032396443
000260 a6 11 27 3e c5 d1 c3 3e 58 5d 3e 3f 05 50 f7 3d
       0.16315326 0.3824598 0.7436118 0.120758094
000270 05 4e 6a 3d 6c 36 44 3e b4 e0 c5 3d cd 18 9b bd
       0.05720331 0.19161385 0.09661999 -0.0757309
000280 fb c7 0f be 5e e6 a0 be eb 45 ec bd 74 01 24 be
       -0.1404113 -0.31425756 -0.11536773 -0.1601618
000290 00 78 91 be 71 aa ba be 99 4f d1 3d 21 5c e5 3d
       -0.28411865 -0.3645816 0.1022026 0.11199213
0002a0 b4 7b 2f be 4e 8a d6 bd 69 72 91 be 46 98 9c be
       -0.17137033 -0.10475598 -0.284076 -0.30584925
0002b0 bc d4 b5 be 96 be 20 be 30 7b 8f bb 05 27 ef 3c
       -0.35513866 -0.15697703 -0.0043786988 0.02919341
0002c0 1c ab e7 3d b6 c7 8b 3d 77 2d 00 3f 8b 49 d4 3e
       0.113119334 0.06825201 0.50069374 0.4146236
0002d0 43 19 8b 3d cd 13 18 3e 0a 27 c6 3e 25 d4 00 3e
       0.06791928 0.14851303 0.3870166 0.12580927
0002e0 da 84 80 bb c2 4a 5f be 26 75 89 3c e7 4e 58 bd
       -0.003922087 -0.21805862 0.016779494 -0.052809622
0002f0 97 ff d6 be 72 b3 99 be 4c 4c b5 be 7d 6e 9f be
       -0.41991875 -0.30019718 -0.35409772 -0.31138983
000300 26 49 05 bf c3 ce a5 be 10 a6 5b be b3 16 dc bd
       -0.5206474 -0.3238431 -0.21450067 -0.10746517
000310 b1 26 87 be 52 1a 03 3e 75 bf 6c bd 04 95 a8 3c
       -0.26396707 0.12803009 -0.057799775 0.020578869
000320 29 90 86 3e d8 d7 df 3e 98 32 93 3e 2a c6 d2 3e
       0.2628186 0.43719363 0.28749537 0.41166812
000330 b6 52 2b 3f cc 47 0f 3f 5c a7 23 3f b3 d2 8f bd
       0.6692308 0.5596893 0.63927245 -0.070226096
000340 46 f1 50 be e4 1c 21 be c0 6d fa bc d7 d1 30 bd
       -0.20404539 -0.15733677 -0.030569911 -0.04316887
000350 e2 9a b2 3d b5 3e 15 3d 94 65 db 3d 9d 20 58 3d
       0.08720948 0.036436755 0.10712734 0.052765477
000360 55 ea 93 3b 11 e1 9c be 39 e2 3d be 7f df 48 be
       0.0045140185 -0.30640462 -0.18543328 -0.19616507
000370 48 7a 5b be e0 39 4c be 10 74 63 be 3a 94 43 be
       -0.21433365 -0.19943953 -0.22212243 -0.19099513
000380 f8 32 df bd 9a 0d 9e 3d f4 00 46 3e 70 25 c1 3e
       -0.108983934 0.07717438 0.19336301 0.37723875
000390 b4 28 3a 3e 2c 25 3d 3f 80 ec d4 3d ae 0a 02 be
       0.1817959 0.73884845 0.10396671 -0.12699386
0003a0 c7 ff 5a 3d de 52 d5 be fe 09 6f be bd 1c 53 bc
       0.053466585 -0.41664785 -0.23343655 -0.01288527
0003b0 1b ab 9e bd f3 07 77 3d c7 1d 9e 3e 4b b1 2f 3f
       -0.077474795 0.060310315 0.30882093 0.686299
0003c0 d2 ee b9 3e 90 89 57 be fe 3b 8f be 18 16 27 be
       0.36315018 -0.2104857 -0.27975458 -0.16317022
0003d0 69 24 32 be 67 7c 75 be 4f de 34 be 8e e3 81 be
       -0.17396702 -0.23973237 -0.17662929 -0.25368923
0003e0 ca 95 87 be e3 d2 df bd ad 94 ba 3d 0a 05 16 3e
       -0.26481467 -0.10928895 0.09110389 0.1465036
0003f0 38 93 fd 3e a3 c5 7c 3f fa 6e e7 bd 5d df 06 be
       0.49526381 0.9873907 -0.11300464 -0.13171144

bias f4 [168]
000000 2f ce 12 bf e3 21 c5 be e0 d0 9f be 1c d9 01 bf
       -0.5734586 -0.38502416 -0.31214046 -0.5072191
000010 0d 3e 99 be 73 c0 da be f0 7b fc be 4b 8d ae be
       -0.29930153 -0.42724952 -0.49313307 -0.34092173
000020 e9 34 dd be c5 b1 36 be 1a 20 ea be 57 a1 83 bd
       -0.4320443 -0.17841251 -0.45727617 -0.064272575
000030 16 6e 3f be 8a 73 c0 be 56 f6 8b be 43 a2 98 bd
       -0.18694338 -0.3758815 -0.27336377 -0.07452824
000040 01 be a8 be 9d 0a 93 be ba fe bb be 3d 6b 45 be
       -0.3295746 -0.28719035 -0.36717778 -0.1927919
000050 f5 da 4d bd b8 67 b9 be b8 5a db be d8 67 3b be
       -0.05025764 -0.36211944 -0.4284265 -0.18301332
000060 d1 04 76 be e6 f9 a9 be ea 90 c1 be 88 a1 a4 be
       -0.24025275 -0.3319847 -0.37805873 -0.3215449
000070 09 ca d9 be f2 2d a2 be 8d f0 0c be f8 00 dc be
       -0.42536953 -0.31675678 -0.13763638 -0.4296949
000080 9d 97 9b be 0e e4 74 be ba c9 d8 be ac be 0a bf
       -0.3038911 -0.23915121 -0.42341405 -0.5419719
000090 d4 81 89 be 3c 10 0c be 71 0e ef be fa 6c 08 bf
       -0.26856863 -0.13678068 -0.46690705 -0.53291285
0000a0 79 f6 ec bd 10 07 7b be fe c6 d6 be 15 c3 81 be
       -0.115704484 -0.24514413 -0.41948694 -0.25344148
0000b0 46 f0 61 be bc 4a 0d bf 83 81 df be 12 40 90 be
       -0.22064313 -0.5519216 -0.43653497 -0.28173882
0000c0 4f 1b 34 be 17 7a 33 bd 96 5c ce be c2 b3 41 be
       -0.17588542 -0.043817606 -0.40305012 -0.18916228
0000d0 71 f3 2c be d3 4c 5a be fa 9f a3 be 75 c3 8d be
       -0.1688974 -0.21318369 -0.3195799 -0.27688184
0000e0 29 1a 6a be bd 5f d6 be 70 3a 39 be 5b d8 6d be
       -0.22861542 -0.41869918 -0.18088698 -0.23227064
0000f0 ff a7 c5 bd 2a 65 37 be de 8d de be 2f 91 d7 be
       -0.09651183 -0.17909685 -0.4346761 -0.42102954
000100 c8 5d 44 be 39 7f 90 be 6f a2 73 be 1b 2a ee be
       -0.191764 -0.28222063 -0.23792432 -0.465165
000110 7b 37 f7 be 7b 1e d8 be 3a 8c 57 be 37 e7 05 bf
       -0.48284516 -0.42210755 -0.21049586 -0.5230593
000120 05 9f 74 be 02 6f 3c be cc ba fd be aa da a3 be
       -0.23888786 -0.18401721 -0.49556577 -0.32002765
000130 82 da 81 be ad 10 d1 be 38 51 ba be 74 be d7 be
       -0.2536202 -0.40833035 -0.3639009 -0.42137492
000140 72 17 ab be bc 27 f5 be 48 1b d6 be 60 6e 0a bf
       -0.33416325 -0.47881877 -0.4181769 -0.5407467
000150 73 d4 be be aa ea 05 bf c0 d1 a2 be e4 09 e5 be
       -0.3727146 -0.52311194 -0.31800652 -0.44734108
000160 a4 32 d1 be 4e 17 ae be 07 5e 8e be 38 a9 d0 be
       -0.40858948 -0.34002155 -0.27806112 -0.40754104
000170 f2 9b 1e be 64 5c 81 be 0a 97 71 be 33 b8 48 be
       -0.15489176 -0.252658 -0.23592773 -0.19601516
000180 fd 19 c6 be 1e f3 f4 be 6b ed e5 be a9 e3 83 be
       -0.38691702 -0.47841734 -0.44907698 -0.25759628
000190 0b 8c 78 be 4f 2d 43 bd 23 31 10 bf 35 ae bb be
       -0.24272172 -0.04765063 -0.56324977 -0.36656347
0001a0 ae da 04 bf 89 7e 0c be d2 cd 6e be 99 43 ce be
       -0.5189618 -0.13720144 -0.23320702 -0.40285948
0001b0 35 3e 33 be 94 91 9d be 33 2a c1 be 28 e8 1f be
       -0.17504199 -0.3077513 -0.37727508 -0.15615904
0001c0 a6 60 e0 be b3 a2 c6 be 1f be cf be ab e6 61 be
       -0.43823737 -0.38796005 -0.40574738 -0.22060649
0001d0 1c 93 31 be a1 b7 c8 be 4a 63 cd be ce b7 90 be
       -0.17341274 -0.39202598 -0.40114814 -0.28265232
0001e0 f8 16 81 be 6c e7 6f be 46 2e 50 be ff 41 e4 be
       -0.25212836 -0.23428124 -0.20330152 -0.445816
0001f0 b4 82 a2 be cd 13 57 be 76 bd 3c be 95 89 ea be
       -0.31740344 -0.21003647 -0.18431649 -0.45808092
000200 cc a0 70 be 36 6c 98 bd 5d 60 d7 bd 44 af 60 be
       -0.23498839 -0.074425146 -0.10516427 -0.21941859
000210 49 94 dd be b9 d1 56 be ae 3b 1a be 1e d2 5d be
       -0.43277195 -0.2097844 -0.15061828 -0.21662185
000220 3c 83 76 bb 67 54 33 be 59 6d ff be 0b 4f 43 bd
       -0.0037614843 -0.17512666 -0.49888113 -0.047682803
000230 4b c9 90 bd 5c 8c 72 bb 80 1a 40 be 6c 58 d9 be
       -0.070696436 -0.003700993 -0.18760109 -0.42450273
000240 63 22 e2 be 37 6b 5d be 58 27 bd be 0d cd 3b be
       -0.4416686 -0.2162293 -0.3694408 -0.1833994
000250 c7 ad df be eb 65 6f be d3 36 b2 bc 47 24 91 be
       -0.4368727 -0.23378722 -0.021754658 -0.2834799
000260 9a 3f 60 be 0d 43 b9 be 45 3a 72 be 37 bf c7 be
       -0.21899262 -0.36183968 -0.2365504 -0.39013073
000270 24 40 07 bd 60 0c 69 be de 1a de be 57 d0 e9 be
       -0.033020154 -0.22758627 -0.43379873 -0.45666763
000280 ea 11 e0 be ea 60 59 be ff b5 a0 bc 42 2e bf be
       -0.43763667 -0.21228376 -0.019618033 -0.3733998
000290 17 32 61 be e2 b7 b4 be e4 44 44 be 15 74 5d be
       -0.21991764 -0.3529654 -0.19166905 -0.21626313

weight f4 [1, 11]
000000 fd 1a 6a be 3d 9a 25 3e fb a1 5b 3e 60 1f 19 3e
       -0.22861858 0.16172118 0.2144851 0.14953375
000010 30 b6 1a be f7 5e 57 be 0f 44 c6 3e 39 d2 6c 3e
       -0.15108562 -0.2103232 0.387238 0.23127069
000020 3b e7 5a 3e d7 56 90 3e 60 1a 0e 3e
       0.2137727 0.28191254 0.13877249
