js_park/saved_models/best_AF_4.pt (torch, 455911 bytes, 5 tensors)

weight f4 [168, 336]
0	0xbe1acc74	-0.15117055
1	0xbdbaed08	-0.091272414
2	0xbdf204a9	-0.11817295
3	0xbdb83280	-0.08994007
4	0xbdaa189f	-0.08305477
5	0xbe1fff4b	-0.1562473
6	0xbe0649e0	-0.13114119
7	0xbd696951	-0.056985203
8	0xbde50330	-0.111822486
9	0xbd8f1065	-0.06985549
10	0xbd23be9c	-0.0399767
11	0xbdd07258	-0.10178059
12	0xbcabadfa	-0.020956982
13	0xbdf72bbc	-0.120688885
14	0xbd32ce6b	-0.043653887
15	0xbd9ae7a6	-0.07563715
16	0xbd98efab	-0.07467588
17	0xbd7cb367	-0.06169453
18	0xbd900ee6	-0.07034092
19	0xbe0e14ad	-0.13875075
20	0xbe11f70d	-0.14254399
21	0xbe161746	-0.14657316
22	0xbe070fbe	-0.13189599
23	0xbdb6dcd7	-0.089288406
24	0xbd5a8965	-0.053353686
25	0xbdae1356	-0.08499782
26	0xbdaaa1da	-0.08331652
27	0xbdb6816f	-0.08911406
28	0xbdacb9c5	-0.0843387
29	0xbce2f872	-0.027706359
30	0x3cf7b8ab	0.030239424
31	0x3c957df1	0.01824853
32	0x3d85923d	0.06522033
33	0xbcb8cfbb	-0.022559991
34	0x3d91fc64	0.07128218
35	0x3c25381a	0.010084176
36	0x3cb102e9	0.021607833
37	0xbc2f221a	-0.010689283
38	0xbd0c132c	-0.03419797
39	0x3c8cfba1	0.01720983
40	0xbd94b200	-0.07260513
41	0xbcd505c4	-0.026003726
42	0xbdaad7f5	-0.08341972
43	0xbdebe97c	-0.11519143
44	0xbd560bf9	-0.05225751
45	0xbdaeb05c	-0.08529732
46	0xbd21fe58	-0.0395492
47	0xbdb6e823	-0.08930995
48	0xbd2026f2	-0.03909964
49	0xbc5e0b80	-0.0135525465
50	0xbc7e50e0	-0.015522212
51	0x3d63f71e	0.05565559
52	0xbc6c0b09	-0.014406928
53	0x3ccc3a6e	0.024930205
54	0x3d6dabe6	0.058025263
55	0x3cf7e18e	0.03025892
56	0x3d71fa5f	0.059076663
57	0x3d550d95	0.052014906
58	0x3d78d65a	0.060751297
59	0xba9b321c	-0.0011840495
60	0x3d68cd48	0.056836396
61	0x3c491811	0.012273804
62	0xbd8464af	-0.06464516
63	0xbd877066	-0.06613235
64	0xbd16d358	-0.036822647
65	0xbe07852d	-0.13234396
66	0xbde0b084	-0.10971168
67	0xbd93acd6	-0.072107
68	0xbda78bec	-0.08180985
69	0xbd213c49	-0.039364133
70	0xbdef4a2d	-0.1168407
71	0xbd1dd0b6	-0.03852912
72	0xbcd12993	-0.02553252
73	0xbcbb58f5	-0.022869566
74	0xbc958ff9	-0.018257128
75	0xbbcd2f11	-0.0062617143
76	0xbc92fdc5	-0.017943272
77	0xbb98891a	-0.0046550157
78	0x3d7ee13c	0.06222652
79	0x3cd72491	0.026262553
80	0x3d21c098	0.039490312
81	0x3d9374bc	0.072
82	0x3dd13aed	0.10216317
83	0x3d926531	0.07148207
84	0x3d9071ae	0.07052933
85	0xbb80dffa	-0.00393295
86	0x3d33c644	0.043890253
87	0xbd0c4d82	-0.034253605
88	0xbd37c7dc	-0.044868335
89	0x3c47144e	0.012150837
90	0x3cc33d85	0.023833046
91	0x3cad4ba1	0.021154227
92	0xbd0418c5	-0.032250185
93	0xbd098c28	-0.03358093
94	0x3cba7897	0.02276258
95	0xbc78f1a6	-0.015194332
96	0x3d7bd82f	0.061485466
97	0x3bfe4a9b	0.0077603585
98	0x3daee256	0.08539264
99	0x3dca13a7	0.0986703
100	0x3d4e786c	0.050407812
101	0x3dfc7f9d	0.12329028
102	0x3db3029c	0.08740732
103	0x3d9836e4	0.074323446
104	0x3db009a9	0.085955925
105	0x3d9c1ea0	0.07623029
106	0x3da493c0	0.080359936
107	0x3d0c52c0	0.034258604
108	0x3d4b8100	0.04968357
109	0x3c38100d	0.011234296
110	0x3ce7cbe8	0.028295472
111	0xbd148ab4	-0.03626509
112	0xbd67868e	-0.056524806
113	0xbc0ee617	-0.00872185
114	0xbdc4dd04	-0.09612468
115	0xbd3034db	-0.043019157
116	0xbdb6794a	-0.08909853
117	0xbd81601f	-0.06317162
118	0xbcd3ac03	-0.025838858
119	0xbc6f60dc	-0.014610495
120	0x3cf5d915	0.03001074
121	0x3d7e21e2	0.062044032
122	0xbcdb5f23	-0.026778763
123	0x3cf23042	0.029564027
124	0x3ce19114	0.027534999
125	0x3d8ebd2d	0.06969676
126	0x3d1d49a6	0.038400315
127	0x3de14553	0.10999551
128	0x3d29bf1e	0.04144203
129	0x3dca49f0	0.09877384
130	0x3db78b34	0.08962098
131	0x3ccb3367	0.024804784
132	0x3dc1f92b	0.09471353
133	0x3c93a7e8	0.0180244
134	0x3d602589	0.054723296
135	0x3d15fe0c	0.03661923
136	0xbd6599d8	-0.05605492
137	0xbd106211	-0.035249773
138	0xbc540045	-0.012939517
139	0xbbf4496e	-0.0074550426
140	0xbdcc9e68	-0.09991151
141	0xbcc6eed3	-0.024283802
142	0xbdef0003	-0.11669924
143	0xbc1cb0af	-0.009563609
144	0xbd292e11	-0.041303698
145	0xbdbbfb08	-0.0917874
146	0x3c169324	0.0091903545
147	0xbd78d340	-0.06074834
148	0xbc9b5496	-0.018961232
149	0xbd2b59e8	-0.04183379
150	0xbb98c56c	-0.0046622064
151	0x3d8ccc58	0.06874913
152	0x3d1b9da9	0.037992153
153	0x3d55662e	0.0520994
154	0x3c9a619d	0.018845374
155	0x3c10e5ae	0.008843822
156	0xbbcabfab	-0.0061873994
157	0xbb75314c	-0.0037413416
158	0xbd480175	-0.048829515
159	0xbd468c31	-0.04847354
160	0xbd6c2072	-0.05764813
161	0xbca9b4d1	-0.020716103
162	0xbd87b112	-0.0662557
163	0xbd9e2108	-0.07721144
164	0xbd784379	-0.060611222
165	0xbe20bada	-0.15696278
166	0xbe0ddce9	-0.13853802
167	0xbe158b8d	-0.14604016
168	0xbe0e0020	-0.13867235
169	0xbdc9043c	-0.09815261
170	0xbdbac941	-0.091204174
171	0xbd94a4ff	-0.07258033
172	0xbd594e07	-0.05305293
173	0xbdb04c74	-0.08608332
174	0xbc8dcac2	-0.017308597
175	0xbd001cbb	-0.0312774
176	0xbb899090	-0.0041981414
177	0x3c72afcd	0.014812422
178	0xbbadcb9e	-0.005303814
179	0xbcabdcae	-0.020979252
180	0x3d2be3da	0.041965343
181	0x3d85336b	0.06503948
182	0x3d8f5e23	0.07000377
183	0x3d398540	0.045293093
184	0x3aec0524	0.0018006903
185	0xbd345c9b	-0.044033628
186	0xbc43a318	-0.01194074
187	0xbd3c158a	-0.04591898
188	0xbda2d9f7	-0.0795173
189	0xbd9358e8	-0.07194692
190	0xbdaf90f6	-0.08572571
191	0xbd7d20f3	-0.061799
192	0xbdeee10d	-0.11664019
193	0xbdfb4fe2	-0.12271096
194	0xbe0c0f76	-0.13677773
195	0xbda6b9d7	-0.08140915
196	0xbd878473	-0.066170596
197	0xbcd6e46a	-0.026231963
198	0xbc3c6f34	-0.011501122
199	0x3cd5c0e1	0.026092948
200	0x3d3f2c77	0.046673264
201	0xbd0d0b04	-0.034434333
202	0xbc1920ef	-0.009346231
203	0xbceda978	-0.029011473
204	0xbd1c7f5a	-0.03820739
205	0x3c5453da	0.012959445
206	0x3be06dd4	0.00684903
207	0x3cbbfe9c	0.022948556
208	0xb98552c0	-0.0002542939
209	0xbd9d26e0	-0.076734304
210	0xbcb9d7d0	-0.022685915
211	0xbd56c3e4	-0.05243291
212	0xbc9fc520	-0.019503176
213	0xbd3a7c9a	-0.045528986
214	0xbd2c249b	-0.042027097
215	0x3b299a08	0.0025879163
216	0xbd0056e0	-0.03133285
217	0x3d13fa78	0.036127537
218	0x3dc997fc	0.09843442
219	0x3db512ae	0.088414535
220	0x3dc72bbb	0.09725138
221	0x3dc9f758	0.0986163
222	0x3d1d090c	0.038338706
223	0x3e20fad7	0.15720688
224	0x3e062dfb	0.13103478
225	0x3e014965	0.12625654
226	0x3e2bc426	0.16774043
227	0x3e4ba266	0.19886169
228	0x3dec2544	0.11530545
229	0x3e1f1354	0.15534717
230	0x3dcf392f	0.10118329
231	0x3d7a4d7e	0.06110906
232	0x3d396f63	0.045272242
233	0x3dfec2fb	0.12439533
234	0x3dc93d26	0.09826116
235	0x3d2c820a	0.042116202
236	0x3d57ff2c	0.052733585
237	0x3d76d03e	0.06025719
238	0x3d8ba6d4	0.06818929
239	0x3dbc1593	0.091838025
240	0x3db37cc9	0.08764035
241	0x3d63030f	0.05542284
242	0x3db9bf23	0.090696596
243	0x3dae934a	0.08524187
244	0x3dca73da	0.09885378
245	0x3e2af360	0.16694403
246	0x3e168eaa	0.1470286
247	0x3e1730ba	0.14764681
248	0x3df5d6c2	0.120038524
249	0x3dec8eb0	0.11550653
250	0x3e43a1f8	0.19104755
251	0x3e3fce02	0.1873093
252	0x3e1d09d8	0.15335786
253	0x3e38c09d	0.18042226
254	0x3e086629	0.13320221
255	0x3e0d6af6	0.13810334

bias f4 [168]
0	0x3dfbdf8e	0.12298499
1	0x3e42dff0	0.19030738
2	0xbc1956c8	-0.009359069
3	0x3c35ec88	0.011103757
4	0xbe41041f	-0.18849228
5	0xbd9b2c88	-0.07576853
6	0x3d2962d8	0.04135403
7	0xbe68113c	-0.22662824
8	0xbdb2061a	-0.0869257
9	0x3e08af08	0.13348019
10	0x3dde648d	0.10859022
11	0xbd3915b9	-0.045186732
12	0xbe2ec325	-0.17066629
13	0x3e8c37fa	0.27386457
14	0xbdb383b6	-0.08765356
15	0x3e0f2fe4	0.13983113
16	0xbd68051c	-0.056645498
17	0xbc533614	-0.012891311
18	0xbe2d256f	-0.16908811
19	0x3e8a5394	0.2701689
20	0xbc2da232	-0.010597752
21	0xbe0714f6	-0.1319159
22	0x3d962fdd	0.07333348
23	0x3e0e7f73	0.13915806
24	0x3d4788e9	0.048714552
25	0x3d4e7599	0.05040512
26	0x3e4d6a9b	0.20060198
27	0xbd6b3f7e	-0.057433598
28	0xbb80d51c	-0.0039316546
29	0xbdf4720f	-0.119358175
30	0xbd9d18f8	-0.07670778
31	0xbe8ab131	-0.2708831
32	0x3ced8156	0.028992336
33	0x3ebbd8cd	0.36688843
34	0x3e0ef8d6	0.13962111
35	0x3e39ba6a	0.18137518
36	0xbd1e1a2b	-0.038599174
37	0xbd8518be	-0.0649886
38	0x3ecc75a8	0.39933515
39	0xbe719510	-0.23592019
40	0xbd405cf8	-0.046963662
41	0xbc20c726	-0.009813106
42	0xbdb40212	-0.087894574
43	0x3c9c9d2b	0.019117912
44	0x3e85c1ad	0.26124325
45	0xbd907abf	-0.07054662
46	0xbdaf838d	-0.08570013
47	0x3ea76a77	0.32698414
48	0x3d151afc	0.036402687
49	0x3d45d937	0.048302855
50	0xbd9627eb	-0.073318325
51	0x3da7b2eb	0.08188423
52	0xbe126fc1	-0.14300443
53	0x3ea4ba51	0.32173398
54	0x3e83892a	0.25690585
55	0x3df4a2ad	0.119450904
56	0x3c597e8e	0.013274802
57	0x3cb07979	0.021542298
58	0x3ccd774c	0.0250813
59	0xbc540a55	-0.0129419165
60	0x3db130d0	0.08651888
61	0xbd3f1a11	-0.04665572
62	0xbc987e74	-0.018614985
63	0x3dbc9bd4	0.09209409
64	0xbdb06a6b	-0.086140476
65	0x3e4ed16a	0.20197073
66	0xbdb379df	-0.087634794
67	0x3e3f3af3	0.18674831
68	0x3d1a8779	0.037726853
69	0x3e27c62f	0.16384195
70	0xbd09db27	-0.033656266
71	0x3d973e6a	0.073849514
72	0xbdac099e	-0.08400272
73	0x3c4c3dd0	0.012465909
74	0x3e484e5b	0.1956114
75	0x3e0950ba	0.13409701
76	0xbd8a708c	-0.06759748
77	0x3d0cea91	0.034403387
78	0x3e63dcea	0.22252241
79	0xbd82d8c8	-0.06389004
80	0x3e344f2c	0.17608327
81	0x3e784aaf	0.2424724
82	0xbd9118dc	-0.0708482
83	0x3e0c2855	0.1368726
84	0x3e0475b8	0.12935531
85	0x3be83fc2	0.0070876786
86	0x3e854fb5	0.26037374
87	0xbd7cfaac	-0.061762497
88	0x3dadc9f8	0.08485788
89	0xbd97fe66	-0.074215695
90	0xbd1de724	-0.03855051
91	0x3a4d468f	0.00078306434
92	0x3c6df4f9	0.014523738
93	0x3ef1d5de	0.4723348
94	0x3d36b43b	0.044605475
95	0xbccaaa59	-0.024739431
96	0xbe4a31a2	-0.19745496
97	0x3e032253	0.12806062
98	0x3e38c5a4	0.18044144
99	0xbdb1e615	-0.08686463
100	0xbe0ffc85	-0.14061172
101	0x3e40d9d5	0.18833096
102	0x3e0a1a06	0.1348649
103	0xbaf40b62	-0.0018619115
104	0xbdba8810	-0.09107983
105	0xbc4588d8	-0.012056552
106	0x3d573482	0.05254031
107	0xbdfbbb1f	-0.1229155
108	0x3e122af4	0.14274198
109	0x3ce2606e	0.027633872
110	0x3d12545a	0.035724975
111	0x3d9a2fa5	0.07528619
112	0x3dae7676	0.085186884
113	0xbdd367e3	-0.10322549
114	0xbd8d8d0c	-0.06911668
115	0xbcb68f13	-0.02228502
116	0x3d8e878a	0.06959446
117	0x3c162bee	0.009165747
118	0x3b61495d	0.0034376003
119	0x3d0c9752	0.034323998
120	0x3d52a193	0.05142362
121	0x3ea14451	0.31497434
122	0x3de19454	0.110146195
123	0xbd802354	-0.06256738
124	0x39cd73da	0.00039186963
125	0x3cfffdca	0.031248946
126	0xbdb35036	-0.087555334
127	0xbdb2c5e7	-0.08729153
128	0xbd2e9f26	-0.042632245
129	0xbd6fe60b	-0.058568995
130	0x3e2930e2	0.16522554
131	0xbb85045f	-0.004059359
132	0x3df91a9e	0.1216328
133	0x3d3f084b	0.04663877
134	0x3e72733c	0.23676771
135	0xbc1badc4	-0.009501878
136	0x3e3bf1e3	0.18353991
137	0x3de47564	0.11155203
138	0xbc8a4f3d	-0.016883487
139	0x3e132381	0.14369012
140	0xbd83c361	-0.0643375
141	0xbdcc8b66	-0.09987526
142	0xbe079542	-0.13240531
143	0x3c4d9adb	0.012549127
144	0x3cabec94	0.020986833
145	0x3d490f88	0.049087077
146	0x3ce5a59d	0.028033072
147	0x3dbe5055	0.09292666
148	0x3dcd7a7a	0.10033126
149	0x3e60c5a0	0.21950388
150	0x3e1e6c10	0.1547091
151	0x3df8b33b	0.121435605
152	0x3e3f4c6b	0.18681495
153	0x3e433244	0.19062144
154	0xbdc8507f	-0.097809784
155	0xbce315ed	-0.027720416
156	0x3e18b423	0.14912467
157	0x3d840845	0.0644689
158	0xbe430c0a	-0.19047561
159	0xbdabeefd	-0.08395193
160	0x3e3f69d2	0.18692711
161	0x3de3c58b	0.11121663
162	0x3a3abeb9	0.0007123757
163	0xbd495b42	-0.049159296
164	0xbd26b9bf	-0.040704485
165	0x3d6bf515	0.057606775
166	0x3d6c7c74	0.057735875
167	0x3e1cdc6d	0.15318461

weight f4 [168, 336]
0	0xbf0593f1	-0.52178866
1	0xbda6b0d4	-0.08139196
2	0x3d8ae0ca	0.06781156
3	0x3a000a0a	0.00048843084
4	0x3dc4d659	0.09611196
5	0x3e2496c6	0.1607314
6	0x3e1b56ce	0.15169832
7	0x3e4e56e4	0.20150334
8	0x3d43ee39	0.04783461
9	0xbe3374ac	-0.17524976
10	0xbdc44b17	-0.09584635
11	0xbe12277e	-0.14272878
12	0x3d5cc95a	0.05390296
13	0x3e677bce	0.22605821
14	0x3ea00789	0.3125575
15	0x3e04597a	0.12924758
16	0x3d80b0cc	0.06283721
17	0x3d0bd2fc	0.034136757
18	0xbd8cf8b1	-0.068833716
19	0xbddcdcb4	-0.10784283
20	0xbd9c9ae7	-0.07646733
21	0xbe87849c	-0.2646836
22	0xbe657467	-0.22407685
23	0xbe011247	-0.12604629
24	0xbd8eb3d0	-0.0696789
25	0xbd912bbf	-0.07088422
26	0xbe2c4e86	-0.1682683
27	0xbd810145	-0.0629907
28	0xbaa1181a	-0.0012290508
29	0xba853606	-0.0010163195
30	0xbda2cce8	-0.07949239
31	0x3d8d3810	0.06895459
32	0xbc8fbace	-0.01754513
33	0x3eb688e6	0.3565132
34	0x3de4e287	0.11176019
35	0xbcc6d4a2	-0.024271313
36	0xbea3d033	-0.3199478
37	0xbdda3fa0	-0.10656667
38	0x3e25e4bf	0.16200541
39	0x3e8ea00d	0.27856484
40	0x3e889b63	0.2668105
41	0x3e3a8e0a	0.18218246
42	0x3e10df3a	0.14147654
43	0x3d629f5e	0.055327766
44	0x3cb6edfe	0.02233028
45	0xbe68746e	-0.22700664
46	0xbde7ac7e	-0.11312197
47	0x3d40480f	0.04694372
48	0xbd557526	-0.052113675
49	0xbe65b938	-0.22433937
50	0xbe6da9db	-0.23209326
51	0xbd3b3ea3	-0.045714032
52	0x3c6ba0ec	0.0143816285
53	0x3df350dd	0.11880658
54	0x3b9b8d7e	0.004747092
55	0x3d6e78f9	0.058220837
56	0x3e788de9	0.24272884
57	0x3f0c20b2	0.5473739
58	0x3d83f3f0	0.06443012
59	0xbdbfe09c	-0.09369013
60	0xbeb185b2	-0.34672314
61	0xbe5021fe	-0.20325467
62	0x3b0317da	0.002000323
63	0x3dbb048d	0.09131727
64	0x3e3110f6	0.17291626
65	0x3e2041cb	0.15650098
66	0x3e2a7673	0.16646747
67	0x3debaab5	0.11507169
68	0xbdbe6937	-0.09297412
69	0xbea16a82	-0.31526572
70	0xbe16e021	-0.14733936
71	0xbd568595	-0.052373488
72	0xbbbe9e6c	-0.005817225
73	0xbe1d6231	-0.15369488
74	0xbcff228e	-0.031144407
75	0x3e1de4af	0.15419267
76	0xbd6a6e10	-0.05723387
77	0x3df854b9	0.121255346
78	0x3e20cb34	0.15702516
79	0xbc4bc54c	-0.012437176
80	0x3e18880e	0.1489565
81	0x3d8fb453	0.07016816
82	0x3db61661	0.08890987
83	0xbd9be955	-0.07612864
84	0xbe29e98a	-0.16592994
85	0xbd991d7b	-0.07476326
86	0x3d94d350	0.07266867
87	0x3d7cf78e	0.061759524
88	0x3ded6bf7	0.11592858
89	0x3d28ec33	0.041240882
90	0x3d6e404e	0.058166794
91	0xbe02cba7	-0.12773
92	0xbdb1ca3b	-0.086811505
93	0xbe1f7bf6	-0.15574631
94	0xbe3a5d87	-0.1819974
95	0x3cb24bed	0.02176472
96	0x3cd45afc	0.025922291
97	0xbdf0132e	-0.11722408
98	0xbda38208	-0.07983786
99	0xbd9665bf	-0.07343625
100	0xbd0268e8	-0.031838328
101	0x3e36e065	0.17859037
102	0x3e4992f2	0.19684961
103	0x3c9bf370	0.019036978
104	0x3e0920e6	0.13391456
105	0xbddda325	-0.10822133
106	0xbdd6c000	-0.1048584
107	0xbd04b79a	-0.03240166
108	0x3e1afdd2	0.15135887
109	0x3dbcf6de	0.09226774
110	0x3da79f36	0.08184664
111	0x3da1167f	0.07865619
112	0x3c03d29e	0.0080458205
113	0xbdeec86c	-0.11659321
114	0xbeb1ed2b	-0.34751257
115	0xbda74ae3	-0.081685804
116	0xbd296185	-0.041352767
117	0xbd08a3ad	-0.03335922
118	0xbdc7579e	-0.097335085
119	0xbd40ef8c	-0.04710345
120	0xbe17cfbb	-0.14825337
121	0xbc7a0b69	-0.015261509
122	0x3d5243ab	0.051334064
123	0xbd22db9c	-0.039760217
124	0xbb12f123	-0.002242156
125	0x3dc07709	0.09397704
126	0x3e3a96e6	0.18221626
127	0x3de85b41	0.1134553
128	0x3d1cafaa	0.038253464
129	0x3d9d790b	0.07689103
130	0xbd33185a	-0.043724395
131	0x3c8408b9	0.01611744
132	0x3d4c3247	0.049852636
133	0x3d9ad668	0.07560426
134	0x3e4e0d54	0.20122272
135	0x3d86f5cd	0.065898515
136	0xbe3b35d0	-0.18282247
137	0xbe276727	-0.16347943
138	0xbeb60253	-0.35548648
139	0xbe3a6c16	-0.18205294
140	0x3cbd3bff	0.023099897
141	0x3e267109	0.16254057
142	0x3cdc6626	0.026904177
143	0xbe79a841	-0.2438059
144	0xbead62d9	-0.33864477
145	0xbdf6f0fa	-0.120576814
146	0xbdb40d33	-0.0879158
147	0xbe4de67e	-0.20107457
148	0xbe4b8c98	-0.19877851
149	0x3dff9f72	0.12481584
150	0x3e3d2953	0.18472795
151	0x3e668892	0.22513035
152	0x3e7654ff	0.24055861
153	0xbd5cce57	-0.05390772
154	0x3c926961	0.017872514
155	0x3d7654b5	0.060139377
156	0x3e1f6be4	0.15568501
157	0x3e210fb4	0.15728647
158	0x3dfd0696	0.12354772
159	0xbdd913c8	-0.10599476
160	0xbd9fd4c9	-0.078042574
161	0xbd28b9f8	-0.04119298
162	0xbe627c95	-0.22117837
163	0xbea26f58	-0.31725574
164	0xbe73857c	-0.23781389
165	0xbe179641	-0.14803411
166	0xbdfdb998	-0.12388915
167	0xbe128185	-0.1430722
168	0xbe76cda4	-0.24101883
169	0xbe36da86	-0.17856798
170	0xbd9fd804	-0.078048736
171	0xbe4a16dd	-0.19735284
172	0xbdf41a48	-0.11919075
173	0xbd56f4d5	-0.052479584
174	0x3e0ccbe2	0.1374965
175	0x3dc7e9f3	0.09761419
176	0x3e2dcffa	0.16973868
177	0x3e094bec	0.13407868
178	0x3d652191	0.055940215
179	0x3d19803c	0.03747581
180	0x3d9ca26f	0.07648169
181	0x3df5a19e	0.11993717
182	0x3e3516e2	0.1768451
183	0x3e0301af	0.12793611
184	0x3e16d3dd	0.14729257
185	0x3dddc8fa	0.10829349
186	0x3e1783a8	0.14796317
187	0xbdf1b2c5	-0.11801676
188	0xbe610870	-0.21975875
189	0xbd7098a2	-0.058739312
190	0xbd8aaa91	-0.06770814
191	0x3e127277	0.14301477
192	0xbe3a2d12	-0.18181255
193	0xbe160954	-0.14651996
194	0xbe531e7d	-0.20617099
195	0xbe33ce64	-0.175592
196	0xbdb68196	-0.08911435
197	0x3d3fb50e	0.046803527
198	0x3cab77ea	0.020931203
199	0x3e2ab045	0.16668804
200	0x3e61020a	0.21973434
201	0x3e6755b6	0.2259129
202	0x3e3bda87	0.1834508
203	0x3d43f6cc	0.047842786
204	0xbe41cfcd	-0.18926926
205	0xbe24e82f	-0.16104196
206	0x3e0013ff	0.12507628
207	0x3e758af5	0.23978789
208	0x3e0a322b	0.134957
209	0x3ce3e31e	0.027818259
210	0x3e0a3d36	0.13499913
211	0xbd97c59c	-0.07410738
212	0xbe71b52e	-0.23604271
213	0xbe681cfd	-0.22667308
214	0xbe3e842b	-0.18605106
215	0x3d95bb57	0.07311123
216	0xbcbad12b	-0.022804817
217	0xbe07c341	-0.13258077
218	0xbda0e5f2	-0.078563586
219	0xbe1dc1e6	-0.15405998
220	0x3a8d457a	0.0010778152
221	0x3d1a31ae	0.037645034
222	0xbd1e3c38	-0.038631648
223	0xbd2675e4	-0.040639773
224	0x3d7980c8	0.06091383
225	0x3e9d3c51	0.3071008
226	0xbd9c1a2e	-0.07622181
227	0xbdd1b470	-0.10239494
228	0xbeaa6e16	-0.33287114
229	0xbc543dbf	-0.012954175
230	0x3e3d167b	0.18465607
231	0x3e414812	0.18875149
232	0x3e0eb69d	0.13936849
233	0x3e8aae9e	0.27086347
234	0x3de69c69	0.112603016
235	0x3d410bfb	0.047130566
236	0xbdd838aa	-0.10557683
237	0xbe733b4c	-0.23753089
238	0xbdf96e8d	-0.12179289
239	0x3c832618	0.016009375
240	0x3d813143	0.06308224
241	0xbde9a76a	-0.11408885
242	0xbe0bae78	-0.13640773
243	0x3c4d8df3	0.01254605
244	0x3e8d729d	0.27626505
245	0x3bf14cbe	0.0073638847
246	0x3e4b5203	0.19855504
247	0x3e1033fb	0.14082329
248	0x3e1d32bb	0.15351383
249	0x3e08accf	0.13347171
250	0xbe0a71f2	-0.13520029
251	0xbe1dc4ac	-0.15407056
252	0xbe2e1991	-0.1700194
253	0xbd7fec3c	-0.06248115
254	0xbc14adae	-0.009074612
255	0x3dc91296	0.09817998

bias f4 [168]
0	0xbdec64ce	-0.115426645
1	0xbe466e40	-0.19377995
2	0xbe42c71b	-0.19021265
3	0xbefa801e	-0.4892587
4	0xbe0126b3	-0.12612419
5	0xbe631d9e	-0.22179267
6	0xbe45e753	-0.19326524
7	0xbf022344	-0.5083506
8	0xbee4c61f	-0.44682404
9	0xbe30da2e	-0.17270729
10	0xbe8201fa	-0.25392133
11	0xbef8a4fb	-0.4856337
12	0xbe548525	-0.20753916
13	0xbe49b190	-0.19696641
14	0xbef89224	-0.48548996
15	0xbe1070d9	-0.14105548
16	0xbefbce3b	-0.4918078
17	0xbef612f7	-0.48061344
18	0xbe245b99	-0.16050567
19	0xbe4b834f	-0.19874309
20	0xbedb1c83	-0.4279519
21	0xbee32f22	-0.44371897
22	0xbe2f9150	-0.17145276
23	0xbe219e57	-0.15783058
24	0xbe2d78cc	-0.16940612
25	0xbee9b947	-0.45649168
26	0xbe6dc050	-0.23217893
27	0xbf00c8b4	-0.5030625
28	0xbee812f5	-0.45326963
29	0xbe82e53f	-0.25565526
30	0xbf00c325	-0.50297767
31	0xbefa32f8	-0.4886701
32	0xbe2c783b	-0.1684274
33	0xbe258d2b	-0.16167133
34	0xbe4a7041	-0.19769384
35	0xbe235191	-0.15949084
36	0xbe149c73	-0.14512806
37	0xbdb8cb49	-0.090231486
38	0xbe2d5ffe	-0.1693115
39	0xbee50156	-0.44727582
40	0xbe2c5a03	-0.16831212
41	0xbefb3efb	-0.49071488
42	0xbe031e6b	-0.12804572
43	0xbe5cd766	-0.21566543
44	0xbddf4e2a	-0.109035805
45	0xbe4f8b85	-0.20268066
46	0xbebbf779	-0.36712244
47	0xbe125a0e	-0.14292166
48	0xbe15f36e	-0.14643642
49	0xbe00988d	-0.12558194
50	0xbe28d8dc	-0.16488975
51	0xbed6e35d	-0.4197034
52	0xbeb99b9e	-0.3625154
53	0xbda65086	-0.081208274
54	0xbdf6a4a6	-0.12043123
55	0xbe5c351f	-0.21504639
56	0xbe0275b9	-0.1274022
57	0xbef451f0	-0.47718763
58	0xbecaf038	-0.39636397
59	0xbde17c4c	-0.11010036
60	0xbe08025b	-0.13282149
61	0xbdf506e9	-0.11964209
62	0xbda23975	-0.07921115
63	0xbe874201	-0.26417544
64	0xbee7bc06	-0.45260638
65	0xbdc24698	-0.09486121
66	0xbef591b3	-0.47962722
67	0xbda6b0db	-0.08139201
68	0xbed7f815	-0.4218146
69	0xbe0f17be	-0.139739
70	0xbeedef79	-0.46471766
71	0xbdcfb8dd	-0.10142682
72	0xbe309f98	-0.1724838
73	0xbefdd5d4	-0.495772
74	0xbdbf73f5	-0.09348289
75	0xbdcac5c1	-0.09901
76	0xbede5675	-0.43425336
77	0xbed67242	-0.41884047
78	0xbe08f087	-0.13373004
79	0xbe209265	-0.15680845
80	0xbe095686	-0.13411912
81	0xbdfd29e0	-0.12361503
82	0xbdedc41c	-0.116096705
83	0xbe2131ab	-0.15741603
84	0xbe1562a9	-0.14588417
85	0xbe06c26f	-0.13160108
86	0xbe0709cf	-0.13187335
87	0xbecaaa8d	-0.39583245
88	0xbef3aacd	-0.47591248
89	0xbeb92cd7	-0.36167023
90	0xbe2565f3	-0.16152172
91	0xbee25ecb	-0.44212946
92	0xbdcbd507	-0.09952741
93	0xbdbfeafc	-0.093709916
94	0xbec10988	-0.37702584
95	0xbdc9311d	-0.09823821
96	0xbe1cc83f	-0.15310763
97	0xbde65b73	-0.11247911
98	0xbdfe991d	-0.12431548
99	0xbe270557	-0.1631063
100	0xbecc6888	-0.399235
101	0xbdb47a89	-0.08812434
102	0xbdcc8b9b	-0.09987565
103	0xbed11d48	-0.40842652
104	0xbdcf2a62	-0.10115506
105	0xbe0ae8e7	-0.13565408
106	0xbec6a5b2	-0.3879829
107	0xbba3f0b3	-0.005003059
108	0xbe047375	-0.12934668
109	0xbe03822f	-0.1284263
110	0xbe126c0e	-0.14299032
111	0xbe08b054	-0.13348514
112	0xbe004964	-0.12527996
113	0xbdeccc1a	-0.11562367
114	0xbedf4e78	-0.43614554
115	0xbdcf89bd	-0.10133693
116	0xbed40de7	-0.41416857
117	0xbdaa7f00	-0.083250046
118	0xbeb216c1	-0.34782985
119	0xbec99fbc	-0.3937968
120	0xbe245c17	-0.16050754
121	0xbdb72701	-0.08942986
122	0xbe490b01	-0.19633104
123	0xbeef5ba4	-0.46749604
124	0xbdb3ca14	-0.08778778
125	0xbed72141	-0.42017558
126	0xbec6222e	-0.38697952
127	0xbed3af88	-0.41344857
128	0xbdf5536c	-0.11978802
129	0xbed5df76	-0.4177205
130	0xbdb64254	-0.0889937
131	0xbeb734d4	-0.35782492
132	0xbdcdb823	-0.10044887
133	0xbecd3821	-0.40081885
134	0xbdce511b	-0.100740634
135	0xbe07accf	-0.13249515
136	0xbe0943d5	-0.13404782
137	0xbe0f9067	-0.14019929
138	0xbeb0368c	-0.34416616
139	0xbdf22382	-0.11823179
140	0xbeb889ae	-0.3604254
141	0xbde50965	-0.111834325
142	0xbe01c63c	-0.12673277
143	0xbda90b32	-0.082540885
144	0xbe279daa	-0.16368738
145	0xbeb38023	-0.35058698
146	0xbe1f47ab	-0.15554683
147	0xbdc5c5b2	-0.09656848
148	0xbddb7242	-0.10715152
149	0xbdff6932	-0.12471236
150	0xbe1eb114	-0.15497237
151	0xbd8b0f99	-0.067900844
152	0xbdd48c96	-0.10378377
153	0xbdabd35c	-0.08389923
154	0xbe512f46	-0.2042819
155	0xbea778ba	-0.32709295
156	0xbdc7f8d7	-0.09764259
157	0xbda7d4d2	-0.08194889
158	0xbee7f613	-0.45304927
159	0xbeae4ead	-0.340444
160	0xbdef8a1c	-0.11696264
161	0xbd8f9629	-0.07011063
162	0xbec25bbb	-0.3796061
163	0xbed8109d	-0.42200175
164	0xbeb81a22	-0.35957438
165	0xbece5002	-0.40295416
166	0xbe006955	-0.12540181
167	0xbdc1d1e6	-0.09463863

weight f4 [1, 11]
0	0xbe9830b3	-0.29724655
1	0xbd9a46ae	-0.07533012
2	0x3e4b5fda	0.19860783
3	0xbdbe34be	-0.092874035
4	0x3dfe83a0	0.12427449
5	0xbebe6eac	-0.3719381
6	0x3e801ebe	0.25023454
7	0x3e61ca54	0.22049838
8	0x3e2a454f	0.16628002
9	0x3e23f927	0.16013013
10	0xbd85d5d9	-0.06534929
